<?xml version="1.0"?>
<net name="main_graph" version="11">
	<layers>
		<layer id="1" name="image_embeddings" type="Parameter" version="opset1">
			<data shape="1,256,64,64" element_type="f32" />
			<output>
				<port id="0" precision="FP32" names="image_embeddings">
					<dim>1</dim>
					<dim>256</dim>
					<dim>64</dim>
					<dim>64</dim>
				</port>
			</output>
		</layer>
		<layer id="0" name="boxes" type="Parameter" version="opset1">
			<data shape="1,4" element_type="f32" />
			<output>
				<port id="0" precision="FP32" names="boxes">
					<dim>1</dim>
					<dim>4</dim>
				</port>
			</output>
		</layer>
		<layer id="2" name="Constant_4837" type="Const" version="opset1">
			<data element_type="f32" shape="1, 1, 256" offset="0" size="1024" />
			<output>
				<port id="0" precision="FP32">
					<dim>1</dim>
					<dim>1</dim>
					<dim>256</dim>
				</port>
			</output>
		</layer>
		<layer id="3" name="Constant_4833" type="Const" version="opset1">
			<data element_type="f32" shape="1, 1, 256" offset="1024" size="1024" />
			<output>
				<port id="0" precision="FP32">
					<dim>1</dim>
					<dim>1</dim>
					<dim>256</dim>
				</port>
			</output>
		</layer>
		<layer id="4" name="/mask_decoder/Expand_output_0" type="Const" version="opset1">
			<data element_type="f32" shape="1, 5, 256" offset="2048" size="5120" />
			<output>
				<port id="0" precision="FP32" names="/mask_decoder/Expand_output_0">
					<dim>1</dim>
					<dim>5</dim>
					<dim>256</dim>
				</port>
			</output>
		</layer>
		<layer id="5" name="Constant_4827" type="Const" version="opset1">
			<data element_type="f32" shape="1, 1" offset="7168" size="4" />
			<output>
				<port id="0" precision="FP32">
					<dim>1</dim>
					<dim>1</dim>
				</port>
			</output>
		</layer>
		<layer id="6" name="/prompt_encoder/Add" type="Add" version="opset1">
			<data auto_broadcast="numpy" />
			<input>
				<port id="0" precision="FP32">
					<dim>1</dim>
					<dim>4</dim>
				</port>
				<port id="1" precision="FP32">
					<dim>1</dim>
					<dim>1</dim>
				</port>
			</input>
			<output>
				<port id="2" precision="FP32" names="/prompt_encoder/Add_output_0">
					<dim>1</dim>
					<dim>4</dim>
				</port>
			</output>
		</layer>
		<layer id="7" name="/prompt_encoder/Constant_3_output_0" type="Const" version="opset1">
			<data element_type="i64" shape="3" offset="7172" size="24" />
			<output>
				<port id="0" precision="I64" names="/prompt_encoder/Constant_3_output_0">
					<dim>3</dim>
				</port>
			</output>
		</layer>
		<layer id="8" name="/prompt_encoder/Reshape" type="Reshape" version="opset1">
			<data special_zero="true" />
			<input>
				<port id="0" precision="FP32">
					<dim>1</dim>
					<dim>4</dim>
				</port>
				<port id="1" precision="I64">
					<dim>3</dim>
				</port>
			</input>
			<output>
				<port id="2" precision="FP32" names="/prompt_encoder/Reshape_output_0">
					<dim>1</dim>
					<dim>2</dim>
					<dim>2</dim>
				</port>
			</output>
		</layer>
		<layer id="9" name="/prompt_encoder/Concat_output_0" type="Const" version="opset1">
			<data element_type="i64" shape="1, 2, 1, 3" offset="7196" size="48" />
			<output>
				<port id="0" precision="I64" names="/prompt_encoder/Concat_output_0">
					<dim>1</dim>
					<dim>2</dim>
					<dim>1</dim>
					<dim>3</dim>
				</port>
			</output>
		</layer>
		<layer id="10" name="/prompt_encoder/Constant_output_0" type="Const" version="opset1">
			<data element_type="i64" shape="" offset="7244" size="8" />
			<output>
				<port id="0" precision="I64" names="/prompt_encoder/Constant_output_0" />
			</output>
		</layer>
		<layer id="11" name="Constant_156" type="Const" version="opset1">
			<data element_type="i64" shape="" offset="7252" size="8" />
			<output>
				<port id="0" precision="I64" />
			</output>
		</layer>
		<layer id="12" name="/prompt_encoder/Gather" type="Gather" version="opset8">
			<data batch_dims="0" />
			<input>
				<port id="0" precision="FP32">
					<dim>1</dim>
					<dim>2</dim>
					<dim>2</dim>
				</port>
				<port id="1" precision="I64" />
				<port id="2" precision="I64" />
			</input>
			<output>
				<port id="3" precision="FP32" names="/prompt_encoder/Gather_output_0">
					<dim>1</dim>
					<dim>2</dim>
				</port>
			</output>
		</layer>
		<layer id="13" name="Constant_4828" type="Const" version="opset1">
			<data element_type="f32" shape="1, 1" offset="7260" size="4" />
			<output>
				<port id="0" precision="FP32">
					<dim>1</dim>
					<dim>1</dim>
				</port>
			</output>
		</layer>
		<layer id="14" name="/prompt_encoder/Div" type="Multiply" version="opset1">
			<data auto_broadcast="numpy" />
			<input>
				<port id="0" precision="FP32">
					<dim>1</dim>
					<dim>2</dim>
				</port>
				<port id="1" precision="FP32">
					<dim>1</dim>
					<dim>1</dim>
				</port>
			</input>
			<output>
				<port id="2" precision="FP32" names="/prompt_encoder/Div_output_0">
					<dim>1</dim>
					<dim>2</dim>
				</port>
			</output>
		</layer>
		<layer id="15" name="/prompt_encoder/Constant_6_output_0" type="Const" version="opset1">
			<data element_type="i64" shape="3" offset="7264" size="24" />
			<output>
				<port id="0" precision="I64" names="/prompt_encoder/Constant_6_output_0">
					<dim>3</dim>
				</port>
			</output>
		</layer>
		<layer id="16" name="/prompt_encoder/Reshape_1" type="Reshape" version="opset1">
			<data special_zero="true" />
			<input>
				<port id="0" precision="FP32">
					<dim>1</dim>
					<dim>2</dim>
				</port>
				<port id="1" precision="I64">
					<dim>3</dim>
				</port>
			</input>
			<output>
				<port id="2" precision="FP32" names="/prompt_encoder/Reshape_1_output_0">
					<dim>1</dim>
					<dim>2</dim>
					<dim>1</dim>
				</port>
			</output>
		</layer>
		<layer id="17" name="/prompt_encoder/ScatterND" type="ScatterNDUpdate" version="opset4">
			<input>
				<port id="0" precision="FP32">
					<dim>1</dim>
					<dim>2</dim>
					<dim>2</dim>
				</port>
				<port id="1" precision="I64">
					<dim>1</dim>
					<dim>2</dim>
					<dim>1</dim>
					<dim>3</dim>
				</port>
				<port id="2" precision="FP32">
					<dim>1</dim>
					<dim>2</dim>
					<dim>1</dim>
				</port>
			</input>
			<output>
				<port id="3" precision="FP32" names="/prompt_encoder/ScatterND_output_0">
					<dim>1</dim>
					<dim>2</dim>
					<dim>2</dim>
				</port>
			</output>
		</layer>
		<layer id="18" name="/prompt_encoder/Concat_2_output_0" type="Const" version="opset1">
			<data element_type="i64" shape="1, 2, 1, 3" offset="7288" size="48" />
			<output>
				<port id="0" precision="I64" names="/prompt_encoder/Concat_2_output_0">
					<dim>1</dim>
					<dim>2</dim>
					<dim>1</dim>
					<dim>3</dim>
				</port>
			</output>
		</layer>
		<layer id="19" name="/prompt_encoder/Constant_1_output_0" type="Const" version="opset1">
			<data element_type="i64" shape="" offset="7336" size="8" />
			<output>
				<port id="0" precision="I64" names="/prompt_encoder/Constant_1_output_0" />
			</output>
		</layer>
		<layer id="20" name="Constant_161" type="Const" version="opset1">
			<data element_type="i64" shape="" offset="7252" size="8" />
			<output>
				<port id="0" precision="I64" />
			</output>
		</layer>
		<layer id="21" name="/prompt_encoder/Gather_2" type="Gather" version="opset8">
			<data batch_dims="0" />
			<input>
				<port id="0" precision="FP32">
					<dim>1</dim>
					<dim>2</dim>
					<dim>2</dim>
				</port>
				<port id="1" precision="I64" />
				<port id="2" precision="I64" />
			</input>
			<output>
				<port id="3" precision="FP32" names="/prompt_encoder/Gather_2_output_0">
					<dim>1</dim>
					<dim>2</dim>
				</port>
			</output>
		</layer>
		<layer id="22" name="Constant_4829" type="Const" version="opset1">
			<data element_type="f32" shape="1, 1" offset="7260" size="4" />
			<output>
				<port id="0" precision="FP32">
					<dim>1</dim>
					<dim>1</dim>
				</port>
			</output>
		</layer>
		<layer id="23" name="/prompt_encoder/Div_1" type="Multiply" version="opset1">
			<data auto_broadcast="numpy" />
			<input>
				<port id="0" precision="FP32">
					<dim>1</dim>
					<dim>2</dim>
				</port>
				<port id="1" precision="FP32">
					<dim>1</dim>
					<dim>1</dim>
				</port>
			</input>
			<output>
				<port id="2" precision="FP32" names="/prompt_encoder/Div_1_output_0">
					<dim>1</dim>
					<dim>2</dim>
				</port>
			</output>
		</layer>
		<layer id="24" name="/prompt_encoder/Reshape_2" type="Reshape" version="opset1">
			<data special_zero="true" />
			<input>
				<port id="0" precision="FP32">
					<dim>1</dim>
					<dim>2</dim>
				</port>
				<port id="1" precision="I64">
					<dim>3</dim>
				</port>
			</input>
			<output>
				<port id="2" precision="FP32" names="/prompt_encoder/Reshape_2_output_0">
					<dim>1</dim>
					<dim>2</dim>
					<dim>1</dim>
				</port>
			</output>
		</layer>
		<layer id="25" name="/prompt_encoder/ScatterND_1" type="ScatterNDUpdate" version="opset4">
			<input>
				<port id="0" precision="FP32">
					<dim>1</dim>
					<dim>2</dim>
					<dim>2</dim>
				</port>
				<port id="1" precision="I64">
					<dim>1</dim>
					<dim>2</dim>
					<dim>1</dim>
					<dim>3</dim>
				</port>
				<port id="2" precision="FP32">
					<dim>1</dim>
					<dim>2</dim>
					<dim>1</dim>
				</port>
			</input>
			<output>
				<port id="3" precision="FP32" names="/prompt_encoder/ScatterND_1_output_0">
					<dim>1</dim>
					<dim>2</dim>
					<dim>2</dim>
				</port>
			</output>
		</layer>
		<layer id="26" name="Constant_4830" type="Const" version="opset1">
			<data element_type="f32" shape="1, 1, 1" offset="7344" size="4" />
			<output>
				<port id="0" precision="FP32">
					<dim>1</dim>
					<dim>1</dim>
					<dim>1</dim>
				</port>
			</output>
		</layer>
		<layer id="27" name="/prompt_encoder/Mul_6" type="Multiply" version="opset1">
			<data auto_broadcast="numpy" />
			<input>
				<port id="0" precision="FP32">
					<dim>1</dim>
					<dim>2</dim>
					<dim>2</dim>
				</port>
				<port id="1" precision="FP32">
					<dim>1</dim>
					<dim>1</dim>
					<dim>1</dim>
				</port>
			</input>
			<output>
				<port id="2" precision="FP32" names="/prompt_encoder/Mul_6_output_0">
					<dim>1</dim>
					<dim>2</dim>
					<dim>2</dim>
				</port>
			</output>
		</layer>
		<layer id="28" name="Constant_4831" type="Const" version="opset1">
			<data element_type="f32" shape="1, 1, 1" offset="7348" size="4" />
			<output>
				<port id="0" precision="FP32">
					<dim>1</dim>
					<dim>1</dim>
					<dim>1</dim>
				</port>
			</output>
		</layer>
		<layer id="29" name="/prompt_encoder/Sub" type="Add" version="opset1">
			<data auto_broadcast="numpy" />
			<input>
				<port id="0" precision="FP32">
					<dim>1</dim>
					<dim>2</dim>
					<dim>2</dim>
				</port>
				<port id="1" precision="FP32">
					<dim>1</dim>
					<dim>1</dim>
					<dim>1</dim>
				</port>
			</input>
			<output>
				<port id="2" precision="FP32" names="/prompt_encoder/Sub_output_0">
					<dim>1</dim>
					<dim>2</dim>
					<dim>2</dim>
				</port>
			</output>
		</layer>
		<layer id="30" name="Transpose_3238" type="Const" version="opset1">
			<data element_type="f32" shape="128, 2" offset="7352" size="1024" />
			<output>
				<port id="0" precision="FP32">
					<dim>128</dim>
					<dim>2</dim>
				</port>
			</output>
		</layer>
		<layer id="31" name="/prompt_encoder/MatMul" type="MatMul" version="opset1">
			<data transpose_a="false" transpose_b="true" />
			<input>
				<port id="0" precision="FP32">
					<dim>1</dim>
					<dim>2</dim>
					<dim>2</dim>
				</port>
				<port id="1" precision="FP32">
					<dim>128</dim>
					<dim>2</dim>
				</port>
			</input>
			<output>
				<port id="2" precision="FP32" names="/prompt_encoder/MatMul_output_0">
					<dim>1</dim>
					<dim>2</dim>
					<dim>128</dim>
				</port>
			</output>
		</layer>
		<layer id="32" name="Constant_4832" type="Const" version="opset1">
			<data element_type="f32" shape="1, 1, 1" offset="8376" size="4" />
			<output>
				<port id="0" precision="FP32">
					<dim>1</dim>
					<dim>1</dim>
					<dim>1</dim>
				</port>
			</output>
		</layer>
		<layer id="33" name="/prompt_encoder/Mul_7" type="Multiply" version="opset1">
			<data auto_broadcast="numpy" />
			<input>
				<port id="0" precision="FP32">
					<dim>1</dim>
					<dim>2</dim>
					<dim>128</dim>
				</port>
				<port id="1" precision="FP32">
					<dim>1</dim>
					<dim>1</dim>
					<dim>1</dim>
				</port>
			</input>
			<output>
				<port id="2" precision="FP32" names="/prompt_encoder/Mul_7_output_0">
					<dim>1</dim>
					<dim>2</dim>
					<dim>128</dim>
				</port>
			</output>
		</layer>
		<layer id="34" name="/prompt_encoder/Sin" type="Sin" version="opset1">
			<input>
				<port id="0" precision="FP32">
					<dim>1</dim>
					<dim>2</dim>
					<dim>128</dim>
				</port>
			</input>
			<output>
				<port id="1" precision="FP32" names="/prompt_encoder/Sin_output_0">
					<dim>1</dim>
					<dim>2</dim>
					<dim>128</dim>
				</port>
			</output>
		</layer>
		<layer id="35" name="/prompt_encoder/Cos" type="Cos" version="opset1">
			<input>
				<port id="0" precision="FP32">
					<dim>1</dim>
					<dim>2</dim>
					<dim>128</dim>
				</port>
			</input>
			<output>
				<port id="1" precision="FP32" names="/prompt_encoder/Cos_output_0">
					<dim>1</dim>
					<dim>2</dim>
					<dim>128</dim>
				</port>
			</output>
		</layer>
		<layer id="36" name="/prompt_encoder/Concat_4" type="Concat" version="opset1">
			<data axis="-1" />
			<input>
				<port id="0" precision="FP32">
					<dim>1</dim>
					<dim>2</dim>
					<dim>128</dim>
				</port>
				<port id="1" precision="FP32">
					<dim>1</dim>
					<dim>2</dim>
					<dim>128</dim>
				</port>
			</input>
			<output>
				<port id="2" precision="FP32" names="/prompt_encoder/Concat_4_output_0">
					<dim>1</dim>
					<dim>2</dim>
					<dim>256</dim>
				</port>
			</output>
		</layer>
		<layer id="37" name="/prompt_encoder/Concat_5_output_0" type="Const" version="opset1">
			<data element_type="i64" shape="1, 1, 256, 3" offset="8380" size="6144" />
			<output>
				<port id="0" precision="I64" names="/prompt_encoder/Concat_5_output_0">
					<dim>1</dim>
					<dim>1</dim>
					<dim>256</dim>
					<dim>3</dim>
				</port>
			</output>
		</layer>
		<layer id="38" name="Constant_173" type="Const" version="opset1">
			<data element_type="i64" shape="" offset="7336" size="8" />
			<output>
				<port id="0" precision="I64" />
			</output>
		</layer>
		<layer id="39" name="/prompt_encoder/Gather_4" type="Gather" version="opset8">
			<data batch_dims="0" />
			<input>
				<port id="0" precision="FP32">
					<dim>1</dim>
					<dim>2</dim>
					<dim>256</dim>
				</port>
				<port id="1" precision="I64" />
				<port id="2" precision="I64" />
			</input>
			<output>
				<port id="3" precision="FP32" names="/prompt_encoder/Gather_4_output_0">
					<dim>1</dim>
					<dim>256</dim>
				</port>
			</output>
		</layer>
		<layer id="40" name="prompt_encoder.point_embeddings.2.weight" type="Const" version="opset1">
			<data element_type="f32" shape="1, 256" offset="14524" size="1024" />
			<output>
				<port id="0" precision="FP32" names="prompt_encoder.point_embeddings.2.weight">
					<dim>1</dim>
					<dim>256</dim>
				</port>
			</output>
		</layer>
		<layer id="41" name="/prompt_encoder/Add_1" type="Add" version="opset1">
			<data auto_broadcast="numpy" />
			<input>
				<port id="0" precision="FP32">
					<dim>1</dim>
					<dim>256</dim>
				</port>
				<port id="1" precision="FP32">
					<dim>1</dim>
					<dim>256</dim>
				</port>
			</input>
			<output>
				<port id="2" precision="FP32" names="/prompt_encoder/Add_1_output_0">
					<dim>1</dim>
					<dim>256</dim>
				</port>
			</output>
		</layer>
		<layer id="42" name="/prompt_encoder/Constant_36_output_0" type="Const" version="opset1">
			<data element_type="i64" shape="3" offset="15548" size="24" />
			<output>
				<port id="0" precision="I64" names="/prompt_encoder/Constant_36_output_0">
					<dim>3</dim>
				</port>
			</output>
		</layer>
		<layer id="43" name="/prompt_encoder/Reshape_3" type="Reshape" version="opset1">
			<data special_zero="true" />
			<input>
				<port id="0" precision="FP32">
					<dim>1</dim>
					<dim>256</dim>
				</port>
				<port id="1" precision="I64">
					<dim>3</dim>
				</port>
			</input>
			<output>
				<port id="2" precision="FP32" names="/prompt_encoder/Reshape_3_output_0">
					<dim>1</dim>
					<dim>1</dim>
					<dim>256</dim>
				</port>
			</output>
		</layer>
		<layer id="44" name="/prompt_encoder/ScatterND_2" type="ScatterNDUpdate" version="opset4">
			<input>
				<port id="0" precision="FP32">
					<dim>1</dim>
					<dim>2</dim>
					<dim>256</dim>
				</port>
				<port id="1" precision="I64">
					<dim>1</dim>
					<dim>1</dim>
					<dim>256</dim>
					<dim>3</dim>
				</port>
				<port id="2" precision="FP32">
					<dim>1</dim>
					<dim>1</dim>
					<dim>256</dim>
				</port>
			</input>
			<output>
				<port id="3" precision="FP32" names="/prompt_encoder/ScatterND_2_output_0">
					<dim>1</dim>
					<dim>2</dim>
					<dim>256</dim>
				</port>
			</output>
		</layer>
		<layer id="45" name="/prompt_encoder/ScatterND_3" type="ScatterNDUpdate" version="opset4">
			<input>
				<port id="0" precision="FP32">
					<dim>1</dim>
					<dim>2</dim>
					<dim>256</dim>
				</port>
				<port id="1" precision="I64">
					<dim>1</dim>
					<dim>1</dim>
					<dim>256</dim>
					<dim>3</dim>
				</port>
				<port id="2" precision="FP32">
					<dim>1</dim>
					<dim>1</dim>
					<dim>256</dim>
				</port>
			</input>
			<output>
				<port id="3" precision="FP32" names="/prompt_encoder/ScatterND_3_output_0">
					<dim>1</dim>
					<dim>2</dim>
					<dim>256</dim>
				</port>
			</output>
		</layer>
		<layer id="46" name="/prompt_encoder/Concat_9_output_0" type="Const" version="opset1">
			<data element_type="i64" shape="1, 1, 256, 3" offset="15572" size="6144" />
			<output>
				<port id="0" precision="I64" names="/prompt_encoder/Concat_9_output_0">
					<dim>1</dim>
					<dim>1</dim>
					<dim>256</dim>
					<dim>3</dim>
				</port>
			</output>
		</layer>
		<layer id="47" name="Constant_179" type="Const" version="opset1">
			<data element_type="i64" shape="" offset="7336" size="8" />
			<output>
				<port id="0" precision="I64" />
			</output>
		</layer>
		<layer id="48" name="/prompt_encoder/Gather_6" type="Gather" version="opset8">
			<data batch_dims="0" />
			<input>
				<port id="0" precision="FP32">
					<dim>1</dim>
					<dim>2</dim>
					<dim>256</dim>
				</port>
				<port id="1" precision="I64" />
				<port id="2" precision="I64" />
			</input>
			<output>
				<port id="3" precision="FP32" names="/prompt_encoder/Gather_6_output_0">
					<dim>1</dim>
					<dim>256</dim>
				</port>
			</output>
		</layer>
		<layer id="49" name="prompt_encoder.point_embeddings.3.weight" type="Const" version="opset1">
			<data element_type="f32" shape="1, 256" offset="21716" size="1024" />
			<output>
				<port id="0" precision="FP32" names="prompt_encoder.point_embeddings.3.weight">
					<dim>1</dim>
					<dim>256</dim>
				</port>
			</output>
		</layer>
		<layer id="50" name="/prompt_encoder/Add_2" type="Add" version="opset1">
			<data auto_broadcast="numpy" />
			<input>
				<port id="0" precision="FP32">
					<dim>1</dim>
					<dim>256</dim>
				</port>
				<port id="1" precision="FP32">
					<dim>1</dim>
					<dim>256</dim>
				</port>
			</input>
			<output>
				<port id="2" precision="FP32" names="/prompt_encoder/Add_2_output_0">
					<dim>1</dim>
					<dim>256</dim>
				</port>
			</output>
		</layer>
		<layer id="51" name="/prompt_encoder/Reshape_5" type="Reshape" version="opset1">
			<data special_zero="true" />
			<input>
				<port id="0" precision="FP32">
					<dim>1</dim>
					<dim>256</dim>
				</port>
				<port id="1" precision="I64">
					<dim>3</dim>
				</port>
			</input>
			<output>
				<port id="2" precision="FP32" names="/prompt_encoder/Reshape_5_output_0">
					<dim>1</dim>
					<dim>1</dim>
					<dim>256</dim>
				</port>
			</output>
		</layer>
		<layer id="52" name="/prompt_encoder/ScatterND_4" type="ScatterNDUpdate" version="opset4">
			<input>
				<port id="0" precision="FP32">
					<dim>1</dim>
					<dim>2</dim>
					<dim>256</dim>
				</port>
				<port id="1" precision="I64">
					<dim>1</dim>
					<dim>1</dim>
					<dim>256</dim>
					<dim>3</dim>
				</port>
				<port id="2" precision="FP32">
					<dim>1</dim>
					<dim>1</dim>
					<dim>256</dim>
				</port>
			</input>
			<output>
				<port id="3" precision="FP32" names="/prompt_encoder/ScatterND_4_output_0">
					<dim>1</dim>
					<dim>2</dim>
					<dim>256</dim>
				</port>
			</output>
		</layer>
		<layer id="53" name="/prompt_encoder/ScatterND_5" type="ScatterNDUpdate" version="opset4">
			<input>
				<port id="0" precision="FP32">
					<dim>1</dim>
					<dim>2</dim>
					<dim>256</dim>
				</port>
				<port id="1" precision="I64">
					<dim>1</dim>
					<dim>1</dim>
					<dim>256</dim>
					<dim>3</dim>
				</port>
				<port id="2" precision="FP32">
					<dim>1</dim>
					<dim>1</dim>
					<dim>256</dim>
				</port>
			</input>
			<output>
				<port id="3" precision="FP32" names="/prompt_encoder/ScatterND_5_output_0">
					<dim>1</dim>
					<dim>2</dim>
					<dim>256</dim>
				</port>
			</output>
		</layer>
		<layer id="54" name="/mask_decoder/Concat" type="Concat" version="opset1">
			<data axis="1" />
			<input>
				<port id="0" precision="FP32">
					<dim>1</dim>
					<dim>5</dim>
					<dim>256</dim>
				</port>
				<port id="1" precision="FP32">
					<dim>1</dim>
					<dim>2</dim>
					<dim>256</dim>
				</port>
			</input>
			<output>
				<port id="2" precision="FP32" names="/mask_decoder/Concat_output_0">
					<dim>1</dim>
					<dim>7</dim>
					<dim>256</dim>
				</port>
			</output>
		</layer>
		<layer id="55" name="Transpose_3299" type="Const" version="opset1">
			<data element_type="f32" shape="256, 256" offset="22740" size="262144" />
			<output>
				<port id="0" precision="FP32">
					<dim>256</dim>
					<dim>256</dim>
				</port>
			</output>
		</layer>
		<layer id="56" name="/mask_decoder/transformer/layers.0/self_attn/q_proj/MatMul" type="MatMul" version="opset1">
			<data transpose_a="false" transpose_b="true" />
			<input>
				<port id="0" precision="FP32">
					<dim>1</dim>
					<dim>7</dim>
					<dim>256</dim>
				</port>
				<port id="1" precision="FP32">
					<dim>256</dim>
					<dim>256</dim>
				</port>
			</input>
			<output>
				<port id="2" precision="FP32" names="/mask_decoder/transformer/layers.0/self_attn/q_proj/MatMul_output_0">
					<dim>1</dim>
					<dim>7</dim>
					<dim>256</dim>
				</port>
			</output>
		</layer>
		<layer id="57" name="/mask_decoder/transformer/layers.0/self_attn/q_proj/Add" type="Add" version="opset1">
			<data auto_broadcast="numpy" />
			<input>
				<port id="0" precision="FP32">
					<dim>1</dim>
					<dim>1</dim>
					<dim>256</dim>
				</port>
				<port id="1" precision="FP32">
					<dim>1</dim>
					<dim>7</dim>
					<dim>256</dim>
				</port>
			</input>
			<output>
				<port id="2" precision="FP32" names="/mask_decoder/transformer/layers.0/self_attn/q_proj/Add_output_0">
					<dim>1</dim>
					<dim>7</dim>
					<dim>256</dim>
				</port>
			</output>
		</layer>
		<layer id="58" name="/mask_decoder/transformer/layers.0/self_attn/Constant_output_0" type="Const" version="opset1">
			<data element_type="i64" shape="4" offset="284884" size="32" />
			<output>
				<port id="0" precision="I64" names="/mask_decoder/transformer/layers.0/self_attn/Constant_output_0">
					<dim>4</dim>
				</port>
			</output>
		</layer>
		<layer id="59" name="/mask_decoder/transformer/layers.0/self_attn/Reshape" type="Reshape" version="opset1">
			<data special_zero="true" />
			<input>
				<port id="0" precision="FP32">
					<dim>1</dim>
					<dim>7</dim>
					<dim>256</dim>
				</port>
				<port id="1" precision="I64">
					<dim>4</dim>
				</port>
			</input>
			<output>
				<port id="2" precision="FP32" names="/mask_decoder/transformer/layers.0/self_attn/Reshape_output_0">
					<dim>1</dim>
					<dim>7</dim>
					<dim>8</dim>
					<dim>32</dim>
				</port>
			</output>
		</layer>
		<layer id="60" name="Constant_197" type="Const" version="opset1">
			<data element_type="i64" shape="4" offset="284916" size="32" />
			<output>
				<port id="0" precision="I64">
					<dim>4</dim>
				</port>
			</output>
		</layer>
		<layer id="61" name="/mask_decoder/transformer/layers.0/self_attn/Transpose" type="Transpose" version="opset1">
			<input>
				<port id="0" precision="FP32">
					<dim>1</dim>
					<dim>7</dim>
					<dim>8</dim>
					<dim>32</dim>
				</port>
				<port id="1" precision="I64">
					<dim>4</dim>
				</port>
			</input>
			<output>
				<port id="2" precision="FP32" names="/mask_decoder/transformer/layers.0/self_attn/Transpose_output_0">
					<dim>1</dim>
					<dim>8</dim>
					<dim>7</dim>
					<dim>32</dim>
				</port>
			</output>
		</layer>
		<layer id="62" name="Constant_4834" type="Const" version="opset1">
			<data element_type="f32" shape="1, 1, 256" offset="284948" size="1024" />
			<output>
				<port id="0" precision="FP32">
					<dim>1</dim>
					<dim>1</dim>
					<dim>256</dim>
				</port>
			</output>
		</layer>
		<layer id="63" name="Transpose_3324" type="Const" version="opset1">
			<data element_type="f32" shape="256, 256" offset="285972" size="262144" />
			<output>
				<port id="0" precision="FP32">
					<dim>256</dim>
					<dim>256</dim>
				</port>
			</output>
		</layer>
		<layer id="64" name="/mask_decoder/transformer/layers.0/self_attn/k_proj/MatMul" type="MatMul" version="opset1">
			<data transpose_a="false" transpose_b="true" />
			<input>
				<port id="0" precision="FP32">
					<dim>1</dim>
					<dim>7</dim>
					<dim>256</dim>
				</port>
				<port id="1" precision="FP32">
					<dim>256</dim>
					<dim>256</dim>
				</port>
			</input>
			<output>
				<port id="2" precision="FP32" names="/mask_decoder/transformer/layers.0/self_attn/k_proj/MatMul_output_0">
					<dim>1</dim>
					<dim>7</dim>
					<dim>256</dim>
				</port>
			</output>
		</layer>
		<layer id="65" name="/mask_decoder/transformer/layers.0/self_attn/k_proj/Add" type="Add" version="opset1">
			<data auto_broadcast="numpy" />
			<input>
				<port id="0" precision="FP32">
					<dim>1</dim>
					<dim>1</dim>
					<dim>256</dim>
				</port>
				<port id="1" precision="FP32">
					<dim>1</dim>
					<dim>7</dim>
					<dim>256</dim>
				</port>
			</input>
			<output>
				<port id="2" precision="FP32" names="/mask_decoder/transformer/layers.0/self_attn/k_proj/Add_output_0">
					<dim>1</dim>
					<dim>7</dim>
					<dim>256</dim>
				</port>
			</output>
		</layer>
		<layer id="66" name="/mask_decoder/transformer/layers.0/self_attn/Reshape_1" type="Reshape" version="opset1">
			<data special_zero="true" />
			<input>
				<port id="0" precision="FP32">
					<dim>1</dim>
					<dim>7</dim>
					<dim>256</dim>
				</port>
				<port id="1" precision="I64">
					<dim>4</dim>
				</port>
			</input>
			<output>
				<port id="2" precision="FP32" names="/mask_decoder/transformer/layers.0/self_attn/Reshape_1_output_0">
					<dim>1</dim>
					<dim>7</dim>
					<dim>8</dim>
					<dim>32</dim>
				</port>
			</output>
		</layer>
		<layer id="67" name="Constant_203" type="Const" version="opset1">
			<data element_type="i64" shape="4" offset="548116" size="32" />
			<output>
				<port id="0" precision="I64">
					<dim>4</dim>
				</port>
			</output>
		</layer>
		<layer id="68" name="/mask_decoder/transformer/layers.0/self_attn/Transpose_2" type="Transpose" version="opset1">
			<input>
				<port id="0" precision="FP32">
					<dim>1</dim>
					<dim>7</dim>
					<dim>8</dim>
					<dim>32</dim>
				</port>
				<port id="1" precision="I64">
					<dim>4</dim>
				</port>
			</input>
			<output>
				<port id="2" precision="FP32" names="/mask_decoder/transformer/layers.0/self_attn/Transpose_2_output_0">
					<dim>1</dim>
					<dim>8</dim>
					<dim>32</dim>
					<dim>7</dim>
				</port>
			</output>
		</layer>
		<layer id="69" name="/mask_decoder/transformer/layers.0/self_attn/MatMul" type="MatMul" version="opset1">
			<data transpose_a="false" transpose_b="false" />
			<input>
				<port id="0" precision="FP32">
					<dim>1</dim>
					<dim>8</dim>
					<dim>7</dim>
					<dim>32</dim>
				</port>
				<port id="1" precision="FP32">
					<dim>1</dim>
					<dim>8</dim>
					<dim>32</dim>
					<dim>7</dim>
				</port>
			</input>
			<output>
				<port id="2" precision="FP32" names="/mask_decoder/transformer/layers.0/self_attn/MatMul_output_0">
					<dim>1</dim>
					<dim>8</dim>
					<dim>7</dim>
					<dim>7</dim>
				</port>
			</output>
		</layer>
		<layer id="70" name="Constant_4835" type="Const" version="opset1">
			<data element_type="f32" shape="1, 1, 1, 1" offset="548148" size="4" />
			<output>
				<port id="0" precision="FP32">
					<dim>1</dim>
					<dim>1</dim>
					<dim>1</dim>
					<dim>1</dim>
				</port>
			</output>
		</layer>
		<layer id="71" name="/mask_decoder/transformer/layers.0/self_attn/Div" type="Multiply" version="opset1">
			<data auto_broadcast="numpy" />
			<input>
				<port id="0" precision="FP32">
					<dim>1</dim>
					<dim>8</dim>
					<dim>7</dim>
					<dim>7</dim>
				</port>
				<port id="1" precision="FP32">
					<dim>1</dim>
					<dim>1</dim>
					<dim>1</dim>
					<dim>1</dim>
				</port>
			</input>
			<output>
				<port id="2" precision="FP32" names="/mask_decoder/transformer/layers.0/self_attn/Div_output_0">
					<dim>1</dim>
					<dim>8</dim>
					<dim>7</dim>
					<dim>7</dim>
				</port>
			</output>
		</layer>
		<layer id="72" name="/mask_decoder/transformer/layers.0/self_attn/Softmax" type="SoftMax" version="opset8">
			<data axis="-1" />
			<input>
				<port id="0" precision="FP32">
					<dim>1</dim>
					<dim>8</dim>
					<dim>7</dim>
					<dim>7</dim>
				</port>
			</input>
			<output>
				<port id="1" precision="FP32" names="/mask_decoder/transformer/layers.0/self_attn/Softmax_output_0">
					<dim>1</dim>
					<dim>8</dim>
					<dim>7</dim>
					<dim>7</dim>
				</port>
			</output>
		</layer>
		<layer id="73" name="Constant_4836" type="Const" version="opset1">
			<data element_type="f32" shape="1, 1, 256" offset="548152" size="1024" />
			<output>
				<port id="0" precision="FP32">
					<dim>1</dim>
					<dim>1</dim>
					<dim>256</dim>
				</port>
			</output>
		</layer>
		<layer id="74" name="Transpose_3359" type="Const" version="opset1">
			<data element_type="f32" shape="256, 256" offset="549176" size="262144" />
			<output>
				<port id="0" precision="FP32">
					<dim>256</dim>
					<dim>256</dim>
				</port>
			</output>
		</layer>
		<layer id="75" name="/mask_decoder/transformer/layers.0/self_attn/v_proj/MatMul" type="MatMul" version="opset1">
			<data transpose_a="false" transpose_b="true" />
			<input>
				<port id="0" precision="FP32">
					<dim>1</dim>
					<dim>7</dim>
					<dim>256</dim>
				</port>
				<port id="1" precision="FP32">
					<dim>256</dim>
					<dim>256</dim>
				</port>
			</input>
			<output>
				<port id="2" precision="FP32" names="/mask_decoder/transformer/layers.0/self_attn/v_proj/MatMul_output_0">
					<dim>1</dim>
					<dim>7</dim>
					<dim>256</dim>
				</port>
			</output>
		</layer>
		<layer id="76" name="/mask_decoder/transformer/layers.0/self_attn/v_proj/Add" type="Add" version="opset1">
			<data auto_broadcast="numpy" />
			<input>
				<port id="0" precision="FP32">
					<dim>1</dim>
					<dim>1</dim>
					<dim>256</dim>
				</port>
				<port id="1" precision="FP32">
					<dim>1</dim>
					<dim>7</dim>
					<dim>256</dim>
				</port>
			</input>
			<output>
				<port id="2" precision="FP32" names="/mask_decoder/transformer/layers.0/self_attn/v_proj/Add_output_0">
					<dim>1</dim>
					<dim>7</dim>
					<dim>256</dim>
				</port>
			</output>
		</layer>
		<layer id="77" name="/mask_decoder/transformer/layers.0/self_attn/Reshape_2" type="Reshape" version="opset1">
			<data special_zero="true" />
			<input>
				<port id="0" precision="FP32">
					<dim>1</dim>
					<dim>7</dim>
					<dim>256</dim>
				</port>
				<port id="1" precision="I64">
					<dim>4</dim>
				</port>
			</input>
			<output>
				<port id="2" precision="FP32" names="/mask_decoder/transformer/layers.0/self_attn/Reshape_2_output_0">
					<dim>1</dim>
					<dim>7</dim>
					<dim>8</dim>
					<dim>32</dim>
				</port>
			</output>
		</layer>
		<layer id="78" name="Constant_201" type="Const" version="opset1">
			<data element_type="i64" shape="4" offset="284916" size="32" />
			<output>
				<port id="0" precision="I64">
					<dim>4</dim>
				</port>
			</output>
		</layer>
		<layer id="79" name="/mask_decoder/transformer/layers.0/self_attn/Transpose_1" type="Transpose" version="opset1">
			<input>
				<port id="0" precision="FP32">
					<dim>1</dim>
					<dim>7</dim>
					<dim>8</dim>
					<dim>32</dim>
				</port>
				<port id="1" precision="I64">
					<dim>4</dim>
				</port>
			</input>
			<output>
				<port id="2" precision="FP32" names="/mask_decoder/transformer/layers.0/self_attn/Transpose_1_output_0">
					<dim>1</dim>
					<dim>8</dim>
					<dim>7</dim>
					<dim>32</dim>
				</port>
			</output>
		</layer>
		<layer id="80" name="/mask_decoder/transformer/layers.0/self_attn/MatMul_1" type="MatMul" version="opset1">
			<data transpose_a="false" transpose_b="false" />
			<input>
				<port id="0" precision="FP32">
					<dim>1</dim>
					<dim>8</dim>
					<dim>7</dim>
					<dim>7</dim>
				</port>
				<port id="1" precision="FP32">
					<dim>1</dim>
					<dim>8</dim>
					<dim>7</dim>
					<dim>32</dim>
				</port>
			</input>
			<output>
				<port id="2" precision="FP32" names="/mask_decoder/transformer/layers.0/self_attn/MatMul_1_output_0">
					<dim>1</dim>
					<dim>8</dim>
					<dim>7</dim>
					<dim>32</dim>
				</port>
			</output>
		</layer>
		<layer id="81" name="Constant_209" type="Const" version="opset1">
			<data element_type="i64" shape="4" offset="284916" size="32" />
			<output>
				<port id="0" precision="I64">
					<dim>4</dim>
				</port>
			</output>
		</layer>
		<layer id="82" name="/mask_decoder/transformer/layers.0/self_attn/Transpose_3" type="Transpose" version="opset1">
			<input>
				<port id="0" precision="FP32">
					<dim>1</dim>
					<dim>8</dim>
					<dim>7</dim>
					<dim>32</dim>
				</port>
				<port id="1" precision="I64">
					<dim>4</dim>
				</port>
			</input>
			<output>
				<port id="2" precision="FP32" names="/mask_decoder/transformer/layers.0/self_attn/Transpose_3_output_0">
					<dim>1</dim>
					<dim>7</dim>
					<dim>8</dim>
					<dim>32</dim>
				</port>
			</output>
		</layer>
		<layer id="83" name="/mask_decoder/transformer/layers.0/self_attn/Constant_4_output_0" type="Const" version="opset1">
			<data element_type="i64" shape="3" offset="811320" size="24" />
			<output>
				<port id="0" precision="I64" names="/mask_decoder/transformer/layers.0/self_attn/Constant_4_output_0">
					<dim>3</dim>
				</port>
			</output>
		</layer>
		<layer id="84" name="/mask_decoder/transformer/layers.0/self_attn/Reshape_3" type="Reshape" version="opset1">
			<data special_zero="true" />
			<input>
				<port id="0" precision="FP32">
					<dim>1</dim>
					<dim>7</dim>
					<dim>8</dim>
					<dim>32</dim>
				</port>
				<port id="1" precision="I64">
					<dim>3</dim>
				</port>
			</input>
			<output>
				<port id="2" precision="FP32" names="/mask_decoder/transformer/layers.0/self_attn/Reshape_3_output_0">
					<dim>1</dim>
					<dim>7</dim>
					<dim>256</dim>
				</port>
			</output>
		</layer>
		<layer id="85" name="Transpose_3410" type="Const" version="opset1">
			<data element_type="f32" shape="256, 256" offset="811344" size="262144" />
			<output>
				<port id="0" precision="FP32">
					<dim>256</dim>
					<dim>256</dim>
				</port>
			</output>
		</layer>
		<layer id="86" name="/mask_decoder/transformer/layers.0/self_attn/out_proj/MatMul" type="MatMul" version="opset1">
			<data transpose_a="false" transpose_b="true" />
			<input>
				<port id="0" precision="FP32">
					<dim>1</dim>
					<dim>7</dim>
					<dim>256</dim>
				</port>
				<port id="1" precision="FP32">
					<dim>256</dim>
					<dim>256</dim>
				</port>
			</input>
			<output>
				<port id="2" precision="FP32" names="/mask_decoder/transformer/layers.0/self_attn/out_proj/MatMul_output_0">
					<dim>1</dim>
					<dim>7</dim>
					<dim>256</dim>
				</port>
			</output>
		</layer>
		<layer id="87" name="/mask_decoder/transformer/layers.0/self_attn/out_proj/Add" type="Add" version="opset1">
			<data auto_broadcast="numpy" />
			<input>
				<port id="0" precision="FP32">
					<dim>1</dim>
					<dim>1</dim>
					<dim>256</dim>
				</port>
				<port id="1" precision="FP32">
					<dim>1</dim>
					<dim>7</dim>
					<dim>256</dim>
				</port>
			</input>
			<output>
				<port id="2" precision="FP32" names="/mask_decoder/transformer/layers.0/self_attn/out_proj/Add_output_0">
					<dim>1</dim>
					<dim>7</dim>
					<dim>256</dim>
				</port>
			</output>
		</layer>
		<layer id="88" name="Range_217" type="Const" version="opset1">
			<data element_type="i64" shape="1" offset="1073488" size="8" />
			<output>
				<port id="0" precision="I64">
					<dim>1</dim>
				</port>
			</output>
		</layer>
		<layer id="89" name="MVN_218" type="MVN" version="opset6">
			<data eps="9.9999997473787516e-06" normalize_variance="true" eps_mode="INSIDE_SQRT" />
			<input>
				<port id="0" precision="FP32">
					<dim>1</dim>
					<dim>7</dim>
					<dim>256</dim>
				</port>
				<port id="1" precision="I64">
					<dim>1</dim>
				</port>
			</input>
			<output>
				<port id="2" precision="FP32">
					<dim>1</dim>
					<dim>7</dim>
					<dim>256</dim>
				</port>
			</output>
		</layer>
		<layer id="90" name="Constant_4838" type="Const" version="opset1">
			<data element_type="f32" shape="1, 1, 256" offset="1073496" size="1024" />
			<output>
				<port id="0" precision="FP32">
					<dim>1</dim>
					<dim>1</dim>
					<dim>256</dim>
				</port>
			</output>
		</layer>
		<layer id="91" name="Multiply_219" type="Multiply" version="opset1">
			<data auto_broadcast="numpy" />
			<input>
				<port id="0" precision="FP32">
					<dim>1</dim>
					<dim>7</dim>
					<dim>256</dim>
				</port>
				<port id="1" precision="FP32">
					<dim>1</dim>
					<dim>1</dim>
					<dim>256</dim>
				</port>
			</input>
			<output>
				<port id="2" precision="FP32">
					<dim>1</dim>
					<dim>7</dim>
					<dim>256</dim>
				</port>
			</output>
		</layer>
		<layer id="92" name="Constant_4839" type="Const" version="opset1">
			<data element_type="f32" shape="1, 1, 256" offset="1074520" size="1024" />
			<output>
				<port id="0" precision="FP32">
					<dim>1</dim>
					<dim>1</dim>
					<dim>256</dim>
				</port>
			</output>
		</layer>
		<layer id="93" name="/mask_decoder/transformer/layers.0/norm1/LayerNormalization" type="Add" version="opset1">
			<data auto_broadcast="numpy" />
			<input>
				<port id="0" precision="FP32">
					<dim>1</dim>
					<dim>7</dim>
					<dim>256</dim>
				</port>
				<port id="1" precision="FP32">
					<dim>1</dim>
					<dim>1</dim>
					<dim>256</dim>
				</port>
			</input>
			<output>
				<port id="2" precision="FP32" names="/mask_decoder/transformer/layers.0/norm1/LayerNormalization_output_0">
					<dim>1</dim>
					<dim>7</dim>
					<dim>256</dim>
				</port>
			</output>
		</layer>
		<layer id="94" name="Constant_4844" type="Const" version="opset1">
			<data element_type="f32" shape="1, 1, 256" offset="1075544" size="1024" />
			<output>
				<port id="0" precision="FP32">
					<dim>1</dim>
					<dim>1</dim>
					<dim>256</dim>
				</port>
			</output>
		</layer>
		<layer id="95" name="Constant_4840" type="Const" version="opset1">
			<data element_type="f32" shape="1, 1, 128" offset="1076568" size="512" />
			<output>
				<port id="0" precision="FP32">
					<dim>1</dim>
					<dim>1</dim>
					<dim>128</dim>
				</port>
			</output>
		</layer>
		<layer id="96" name="/mask_decoder/transformer/layers.0/Add" type="Add" version="opset1">
			<data auto_broadcast="numpy" />
			<input>
				<port id="0" precision="FP32">
					<dim>1</dim>
					<dim>7</dim>
					<dim>256</dim>
				</port>
				<port id="1" precision="FP32">
					<dim>1</dim>
					<dim>7</dim>
					<dim>256</dim>
				</port>
			</input>
			<output>
				<port id="2" precision="FP32" names="/mask_decoder/transformer/layers.0/Add_output_0">
					<dim>1</dim>
					<dim>7</dim>
					<dim>256</dim>
				</port>
			</output>
		</layer>
		<layer id="97" name="Transpose_3449" type="Const" version="opset1">
			<data element_type="f32" shape="128, 256" offset="1077080" size="131072" />
			<output>
				<port id="0" precision="FP32">
					<dim>128</dim>
					<dim>256</dim>
				</port>
			</output>
		</layer>
		<layer id="98" name="/mask_decoder/transformer/layers.0/cross_attn_token_to_image/q_proj/MatMul" type="MatMul" version="opset1">
			<data transpose_a="false" transpose_b="true" />
			<input>
				<port id="0" precision="FP32">
					<dim>1</dim>
					<dim>7</dim>
					<dim>256</dim>
				</port>
				<port id="1" precision="FP32">
					<dim>128</dim>
					<dim>256</dim>
				</port>
			</input>
			<output>
				<port id="2" precision="FP32" names="/mask_decoder/transformer/layers.0/cross_attn_token_to_image/q_proj/MatMul_output_0">
					<dim>1</dim>
					<dim>7</dim>
					<dim>128</dim>
				</port>
			</output>
		</layer>
		<layer id="99" name="/mask_decoder/transformer/layers.0/cross_attn_token_to_image/q_proj/Add" type="Add" version="opset1">
			<data auto_broadcast="numpy" />
			<input>
				<port id="0" precision="FP32">
					<dim>1</dim>
					<dim>1</dim>
					<dim>128</dim>
				</port>
				<port id="1" precision="FP32">
					<dim>1</dim>
					<dim>7</dim>
					<dim>128</dim>
				</port>
			</input>
			<output>
				<port id="2" precision="FP32" names="/mask_decoder/transformer/layers.0/cross_attn_token_to_image/q_proj/Add_output_0">
					<dim>1</dim>
					<dim>7</dim>
					<dim>128</dim>
				</port>
			</output>
		</layer>
		<layer id="100" name="/mask_decoder/transformer/layers.0/cross_attn_token_to_image/Constant_output_0" type="Const" version="opset1">
			<data element_type="i64" shape="4" offset="1208152" size="32" />
			<output>
				<port id="0" precision="I64" names="/mask_decoder/transformer/layers.0/cross_attn_token_to_image/Constant_output_0">
					<dim>4</dim>
				</port>
			</output>
		</layer>
		<layer id="101" name="/mask_decoder/transformer/layers.0/cross_attn_token_to_image/Reshape" type="Reshape" version="opset1">
			<data special_zero="true" />
			<input>
				<port id="0" precision="FP32">
					<dim>1</dim>
					<dim>7</dim>
					<dim>128</dim>
				</port>
				<port id="1" precision="I64">
					<dim>4</dim>
				</port>
			</input>
			<output>
				<port id="2" precision="FP32" names="/mask_decoder/transformer/layers.0/cross_attn_token_to_image/Reshape_output_0">
					<dim>1</dim>
					<dim>7</dim>
					<dim>8</dim>
					<dim>16</dim>
				</port>
			</output>
		</layer>
		<layer id="102" name="Constant_230" type="Const" version="opset1">
			<data element_type="i64" shape="4" offset="284916" size="32" />
			<output>
				<port id="0" precision="I64">
					<dim>4</dim>
				</port>
			</output>
		</layer>
		<layer id="103" name="/mask_decoder/transformer/layers.0/cross_attn_token_to_image/Transpose" type="Transpose" version="opset1">
			<input>
				<port id="0" precision="FP32">
					<dim>1</dim>
					<dim>7</dim>
					<dim>8</dim>
					<dim>16</dim>
				</port>
				<port id="1" precision="I64">
					<dim>4</dim>
				</port>
			</input>
			<output>
				<port id="2" precision="FP32" names="/mask_decoder/transformer/layers.0/cross_attn_token_to_image/Transpose_output_0">
					<dim>1</dim>
					<dim>8</dim>
					<dim>7</dim>
					<dim>16</dim>
				</port>
			</output>
		</layer>
		<layer id="104" name="Constant_4841" type="Const" version="opset1">
			<data element_type="f32" shape="1, 1, 128" offset="1208184" size="512" />
			<output>
				<port id="0" precision="FP32">
					<dim>1</dim>
					<dim>1</dim>
					<dim>128</dim>
				</port>
			</output>
		</layer>
		<layer id="105" name="/prompt_encoder/Expand_24_output_0" type="Const" version="opset1">
			<data element_type="f32" shape="1, 256, 64, 64" offset="1208696" size="4194304" />
			<output>
				<port id="0" precision="FP32" names="/prompt_encoder/Expand_24_output_0">
					<dim>1</dim>
					<dim>256</dim>
					<dim>64</dim>
					<dim>64</dim>
				</port>
			</output>
		</layer>
		<layer id="106" name="/mask_decoder/Add" type="Add" version="opset1">
			<data auto_broadcast="numpy" />
			<input>
				<port id="0" precision="FP32">
					<dim>1</dim>
					<dim>256</dim>
					<dim>64</dim>
					<dim>64</dim>
				</port>
				<port id="1" precision="FP32">
					<dim>1</dim>
					<dim>256</dim>
					<dim>64</dim>
					<dim>64</dim>
				</port>
			</input>
			<output>
				<port id="2" precision="FP32" names="/mask_decoder/Add_output_0">
					<dim>1</dim>
					<dim>256</dim>
					<dim>64</dim>
					<dim>64</dim>
				</port>
			</output>
		</layer>
		<layer id="107" name="_v_423" type="Const" version="opset1">
			<data element_type="i64" shape="3" offset="5403000" size="24" />
			<output>
				<port id="0" precision="I64" names="_v_423">
					<dim>3</dim>
				</port>
			</output>
		</layer>
		<layer id="108" name="/mask_decoder/transformer/Reshape" type="Reshape" version="opset1">
			<data special_zero="true" />
			<input>
				<port id="0" precision="FP32">
					<dim>1</dim>
					<dim>256</dim>
					<dim>64</dim>
					<dim>64</dim>
				</port>
				<port id="1" precision="I64">
					<dim>3</dim>
				</port>
			</input>
			<output>
				<port id="2" precision="FP32" names="/mask_decoder/transformer/Reshape_output_0">
					<dim>1</dim>
					<dim>256</dim>
					<dim>4096</dim>
				</port>
			</output>
		</layer>
		<layer id="109" name="Constant_188" type="Const" version="opset1">
			<data element_type="i64" shape="3" offset="5403024" size="24" />
			<output>
				<port id="0" precision="I64">
					<dim>3</dim>
				</port>
			</output>
		</layer>
		<layer id="110" name="/mask_decoder/transformer/Transpose" type="Transpose" version="opset1">
			<input>
				<port id="0" precision="FP32">
					<dim>1</dim>
					<dim>256</dim>
					<dim>4096</dim>
				</port>
				<port id="1" precision="I64">
					<dim>3</dim>
				</port>
			</input>
			<output>
				<port id="2" precision="FP32" names="/mask_decoder/transformer/Transpose_output_0">
					<dim>1</dim>
					<dim>4096</dim>
					<dim>256</dim>
				</port>
			</output>
		</layer>
		<layer id="111" name="/mask_decoder/transformer/Transpose_1_output_0" type="Const" version="opset1">
			<data element_type="f32" shape="1, 4096, 256" offset="5403048" size="4194304" />
			<output>
				<port id="0" precision="FP32" names="/mask_decoder/transformer/Transpose_1_output_0">
					<dim>1</dim>
					<dim>4096</dim>
					<dim>256</dim>
				</port>
			</output>
		</layer>
		<layer id="112" name="/mask_decoder/transformer/layers.0/Add_1" type="Add" version="opset1">
			<data auto_broadcast="numpy" />
			<input>
				<port id="0" precision="FP32">
					<dim>1</dim>
					<dim>4096</dim>
					<dim>256</dim>
				</port>
				<port id="1" precision="FP32">
					<dim>1</dim>
					<dim>4096</dim>
					<dim>256</dim>
				</port>
			</input>
			<output>
				<port id="2" precision="FP32" names="/mask_decoder/transformer/layers.0/Add_1_output_0">
					<dim>1</dim>
					<dim>4096</dim>
					<dim>256</dim>
				</port>
			</output>
		</layer>
		<layer id="113" name="Transpose_3494" type="Const" version="opset1">
			<data element_type="f32" shape="128, 256" offset="9597352" size="131072" />
			<output>
				<port id="0" precision="FP32">
					<dim>128</dim>
					<dim>256</dim>
				</port>
			</output>
		</layer>
		<layer id="114" name="/mask_decoder/transformer/layers.0/cross_attn_token_to_image/k_proj/MatMul" type="MatMul" version="opset1">
			<data transpose_a="false" transpose_b="true" />
			<input>
				<port id="0" precision="FP32">
					<dim>1</dim>
					<dim>4096</dim>
					<dim>256</dim>
				</port>
				<port id="1" precision="FP32">
					<dim>128</dim>
					<dim>256</dim>
				</port>
			</input>
			<output>
				<port id="2" precision="FP32" names="/mask_decoder/transformer/layers.0/cross_attn_token_to_image/k_proj/MatMul_output_0">
					<dim>1</dim>
					<dim>4096</dim>
					<dim>128</dim>
				</port>
			</output>
		</layer>
		<layer id="115" name="/mask_decoder/transformer/layers.0/cross_attn_token_to_image/k_proj/Add" type="Add" version="opset1">
			<data auto_broadcast="numpy" />
			<input>
				<port id="0" precision="FP32">
					<dim>1</dim>
					<dim>1</dim>
					<dim>128</dim>
				</port>
				<port id="1" precision="FP32">
					<dim>1</dim>
					<dim>4096</dim>
					<dim>128</dim>
				</port>
			</input>
			<output>
				<port id="2" precision="FP32" names="/mask_decoder/transformer/layers.0/cross_attn_token_to_image/k_proj/Add_output_0">
					<dim>1</dim>
					<dim>4096</dim>
					<dim>128</dim>
				</port>
			</output>
		</layer>
		<layer id="116" name="/mask_decoder/transformer/layers.0/cross_attn_token_to_image/Constant_1_output_0" type="Const" version="opset1">
			<data element_type="i64" shape="4" offset="9728424" size="32" />
			<output>
				<port id="0" precision="I64" names="/mask_decoder/transformer/layers.0/cross_attn_token_to_image/Constant_1_output_0">
					<dim>4</dim>
				</port>
			</output>
		</layer>
		<layer id="117" name="/mask_decoder/transformer/layers.0/cross_attn_token_to_image/Reshape_1" type="Reshape" version="opset1">
			<data special_zero="true" />
			<input>
				<port id="0" precision="FP32">
					<dim>1</dim>
					<dim>4096</dim>
					<dim>128</dim>
				</port>
				<port id="1" precision="I64">
					<dim>4</dim>
				</port>
			</input>
			<output>
				<port id="2" precision="FP32" names="/mask_decoder/transformer/layers.0/cross_attn_token_to_image/Reshape_1_output_0">
					<dim>1</dim>
					<dim>4096</dim>
					<dim>8</dim>
					<dim>16</dim>
				</port>
			</output>
		</layer>
		<layer id="118" name="Constant_236" type="Const" version="opset1">
			<data element_type="i64" shape="4" offset="548116" size="32" />
			<output>
				<port id="0" precision="I64">
					<dim>4</dim>
				</port>
			</output>
		</layer>
		<layer id="119" name="/mask_decoder/transformer/layers.0/cross_attn_token_to_image/Transpose_2" type="Transpose" version="opset1">
			<input>
				<port id="0" precision="FP32">
					<dim>1</dim>
					<dim>4096</dim>
					<dim>8</dim>
					<dim>16</dim>
				</port>
				<port id="1" precision="I64">
					<dim>4</dim>
				</port>
			</input>
			<output>
				<port id="2" precision="FP32" names="/mask_decoder/transformer/layers.0/cross_attn_token_to_image/Transpose_2_output_0">
					<dim>1</dim>
					<dim>8</dim>
					<dim>16</dim>
					<dim>4096</dim>
				</port>
			</output>
		</layer>
		<layer id="120" name="/mask_decoder/transformer/layers.0/cross_attn_token_to_image/MatMul" type="MatMul" version="opset1">
			<data transpose_a="false" transpose_b="false" />
			<input>
				<port id="0" precision="FP32">
					<dim>1</dim>
					<dim>8</dim>
					<dim>7</dim>
					<dim>16</dim>
				</port>
				<port id="1" precision="FP32">
					<dim>1</dim>
					<dim>8</dim>
					<dim>16</dim>
					<dim>4096</dim>
				</port>
			</input>
			<output>
				<port id="2" precision="FP32" names="/mask_decoder/transformer/layers.0/cross_attn_token_to_image/MatMul_output_0">
					<dim>1</dim>
					<dim>8</dim>
					<dim>7</dim>
					<dim>4096</dim>
				</port>
			</output>
		</layer>
		<layer id="121" name="Constant_4842" type="Const" version="opset1">
			<data element_type="f32" shape="1, 1, 1, 1" offset="9728456" size="4" />
			<output>
				<port id="0" precision="FP32">
					<dim>1</dim>
					<dim>1</dim>
					<dim>1</dim>
					<dim>1</dim>
				</port>
			</output>
		</layer>
		<layer id="122" name="/mask_decoder/transformer/layers.0/cross_attn_token_to_image/Div" type="Multiply" version="opset1">
			<data auto_broadcast="numpy" />
			<input>
				<port id="0" precision="FP32">
					<dim>1</dim>
					<dim>8</dim>
					<dim>7</dim>
					<dim>4096</dim>
				</port>
				<port id="1" precision="FP32">
					<dim>1</dim>
					<dim>1</dim>
					<dim>1</dim>
					<dim>1</dim>
				</port>
			</input>
			<output>
				<port id="2" precision="FP32" names="/mask_decoder/transformer/layers.0/cross_attn_token_to_image/Div_output_0">
					<dim>1</dim>
					<dim>8</dim>
					<dim>7</dim>
					<dim>4096</dim>
				</port>
			</output>
		</layer>
		<layer id="123" name="/mask_decoder/transformer/layers.0/cross_attn_token_to_image/Softmax" type="SoftMax" version="opset8">
			<data axis="-1" />
			<input>
				<port id="0" precision="FP32">
					<dim>1</dim>
					<dim>8</dim>
					<dim>7</dim>
					<dim>4096</dim>
				</port>
			</input>
			<output>
				<port id="1" precision="FP32" names="/mask_decoder/transformer/layers.0/cross_attn_token_to_image/Softmax_output_0">
					<dim>1</dim>
					<dim>8</dim>
					<dim>7</dim>
					<dim>4096</dim>
				</port>
			</output>
		</layer>
		<layer id="124" name="Constant_4843" type="Const" version="opset1">
			<data element_type="f32" shape="1, 1, 128" offset="9728460" size="512" />
			<output>
				<port id="0" precision="FP32">
					<dim>1</dim>
					<dim>1</dim>
					<dim>128</dim>
				</port>
			</output>
		</layer>
		<layer id="125" name="Transpose_3529" type="Const" version="opset1">
			<data element_type="f32" shape="128, 256" offset="9728972" size="131072" />
			<output>
				<port id="0" precision="FP32">
					<dim>128</dim>
					<dim>256</dim>
				</port>
			</output>
		</layer>
		<layer id="126" name="/mask_decoder/transformer/layers.0/cross_attn_token_to_image/v_proj/MatMul" type="MatMul" version="opset1">
			<data transpose_a="true" transpose_b="true" />
			<input>
				<port id="0" precision="FP32">
					<dim>1</dim>
					<dim>256</dim>
					<dim>4096</dim>
				</port>
				<port id="1" precision="FP32">
					<dim>128</dim>
					<dim>256</dim>
				</port>
			</input>
			<output>
				<port id="2" precision="FP32" names="/mask_decoder/transformer/layers.0/cross_attn_token_to_image/v_proj/MatMul_output_0">
					<dim>1</dim>
					<dim>4096</dim>
					<dim>128</dim>
				</port>
			</output>
		</layer>
		<layer id="127" name="/mask_decoder/transformer/layers.0/cross_attn_token_to_image/v_proj/Add" type="Add" version="opset1">
			<data auto_broadcast="numpy" />
			<input>
				<port id="0" precision="FP32">
					<dim>1</dim>
					<dim>1</dim>
					<dim>128</dim>
				</port>
				<port id="1" precision="FP32">
					<dim>1</dim>
					<dim>4096</dim>
					<dim>128</dim>
				</port>
			</input>
			<output>
				<port id="2" precision="FP32" names="/mask_decoder/transformer/layers.0/cross_attn_token_to_image/v_proj/Add_output_0">
					<dim>1</dim>
					<dim>4096</dim>
					<dim>128</dim>
				</port>
			</output>
		</layer>
		<layer id="128" name="/mask_decoder/transformer/layers.0/cross_attn_token_to_image/Reshape_2" type="Reshape" version="opset1">
			<data special_zero="true" />
			<input>
				<port id="0" precision="FP32">
					<dim>1</dim>
					<dim>4096</dim>
					<dim>128</dim>
				</port>
				<port id="1" precision="I64">
					<dim>4</dim>
				</port>
			</input>
			<output>
				<port id="2" precision="FP32" names="/mask_decoder/transformer/layers.0/cross_attn_token_to_image/Reshape_2_output_0">
					<dim>1</dim>
					<dim>4096</dim>
					<dim>8</dim>
					<dim>16</dim>
				</port>
			</output>
		</layer>
		<layer id="129" name="Constant_234" type="Const" version="opset1">
			<data element_type="i64" shape="4" offset="284916" size="32" />
			<output>
				<port id="0" precision="I64">
					<dim>4</dim>
				</port>
			</output>
		</layer>
		<layer id="130" name="/mask_decoder/transformer/layers.0/cross_attn_token_to_image/Transpose_1" type="Transpose" version="opset1">
			<input>
				<port id="0" precision="FP32">
					<dim>1</dim>
					<dim>4096</dim>
					<dim>8</dim>
					<dim>16</dim>
				</port>
				<port id="1" precision="I64">
					<dim>4</dim>
				</port>
			</input>
			<output>
				<port id="2" precision="FP32" names="/mask_decoder/transformer/layers.0/cross_attn_token_to_image/Transpose_1_output_0">
					<dim>1</dim>
					<dim>8</dim>
					<dim>4096</dim>
					<dim>16</dim>
				</port>
			</output>
		</layer>
		<layer id="131" name="/mask_decoder/transformer/layers.0/cross_attn_token_to_image/MatMul_1" type="MatMul" version="opset1">
			<data transpose_a="false" transpose_b="false" />
			<input>
				<port id="0" precision="FP32">
					<dim>1</dim>
					<dim>8</dim>
					<dim>7</dim>
					<dim>4096</dim>
				</port>
				<port id="1" precision="FP32">
					<dim>1</dim>
					<dim>8</dim>
					<dim>4096</dim>
					<dim>16</dim>
				</port>
			</input>
			<output>
				<port id="2" precision="FP32" names="/mask_decoder/transformer/layers.0/cross_attn_token_to_image/MatMul_1_output_0">
					<dim>1</dim>
					<dim>8</dim>
					<dim>7</dim>
					<dim>16</dim>
				</port>
			</output>
		</layer>
		<layer id="132" name="Constant_242" type="Const" version="opset1">
			<data element_type="i64" shape="4" offset="284916" size="32" />
			<output>
				<port id="0" precision="I64">
					<dim>4</dim>
				</port>
			</output>
		</layer>
		<layer id="133" name="/mask_decoder/transformer/layers.0/cross_attn_token_to_image/Transpose_3" type="Transpose" version="opset1">
			<input>
				<port id="0" precision="FP32">
					<dim>1</dim>
					<dim>8</dim>
					<dim>7</dim>
					<dim>16</dim>
				</port>
				<port id="1" precision="I64">
					<dim>4</dim>
				</port>
			</input>
			<output>
				<port id="2" precision="FP32" names="/mask_decoder/transformer/layers.0/cross_attn_token_to_image/Transpose_3_output_0">
					<dim>1</dim>
					<dim>7</dim>
					<dim>8</dim>
					<dim>16</dim>
				</port>
			</output>
		</layer>
		<layer id="134" name="/mask_decoder/transformer/layers.0/cross_attn_token_to_image/Constant_4_output_0" type="Const" version="opset1">
			<data element_type="i64" shape="3" offset="9860044" size="24" />
			<output>
				<port id="0" precision="I64" names="/mask_decoder/transformer/layers.0/cross_attn_token_to_image/Constant_4_output_0">
					<dim>3</dim>
				</port>
			</output>
		</layer>
		<layer id="135" name="/mask_decoder/transformer/layers.0/cross_attn_token_to_image/Reshape_3" type="Reshape" version="opset1">
			<data special_zero="true" />
			<input>
				<port id="0" precision="FP32">
					<dim>1</dim>
					<dim>7</dim>
					<dim>8</dim>
					<dim>16</dim>
				</port>
				<port id="1" precision="I64">
					<dim>3</dim>
				</port>
			</input>
			<output>
				<port id="2" precision="FP32" names="/mask_decoder/transformer/layers.0/cross_attn_token_to_image/Reshape_3_output_0">
					<dim>1</dim>
					<dim>7</dim>
					<dim>128</dim>
				</port>
			</output>
		</layer>
		<layer id="136" name="Transpose_3580" type="Const" version="opset1">
			<data element_type="f32" shape="256, 128" offset="9860068" size="131072" />
			<output>
				<port id="0" precision="FP32">
					<dim>256</dim>
					<dim>128</dim>
				</port>
			</output>
		</layer>
		<layer id="137" name="/mask_decoder/transformer/layers.0/cross_attn_token_to_image/out_proj/MatMul" type="MatMul" version="opset1">
			<data transpose_a="false" transpose_b="true" />
			<input>
				<port id="0" precision="FP32">
					<dim>1</dim>
					<dim>7</dim>
					<dim>128</dim>
				</port>
				<port id="1" precision="FP32">
					<dim>256</dim>
					<dim>128</dim>
				</port>
			</input>
			<output>
				<port id="2" precision="FP32" names="/mask_decoder/transformer/layers.0/cross_attn_token_to_image/out_proj/MatMul_output_0">
					<dim>1</dim>
					<dim>7</dim>
					<dim>256</dim>
				</port>
			</output>
		</layer>
		<layer id="138" name="/mask_decoder/transformer/layers.0/cross_attn_token_to_image/out_proj/Add" type="Add" version="opset1">
			<data auto_broadcast="numpy" />
			<input>
				<port id="0" precision="FP32">
					<dim>1</dim>
					<dim>1</dim>
					<dim>256</dim>
				</port>
				<port id="1" precision="FP32">
					<dim>1</dim>
					<dim>7</dim>
					<dim>256</dim>
				</port>
			</input>
			<output>
				<port id="2" precision="FP32" names="/mask_decoder/transformer/layers.0/cross_attn_token_to_image/out_proj/Add_output_0">
					<dim>1</dim>
					<dim>7</dim>
					<dim>256</dim>
				</port>
			</output>
		</layer>
		<layer id="139" name="/mask_decoder/transformer/layers.0/Add_2" type="Add" version="opset1">
			<data auto_broadcast="numpy" />
			<input>
				<port id="0" precision="FP32">
					<dim>1</dim>
					<dim>7</dim>
					<dim>256</dim>
				</port>
				<port id="1" precision="FP32">
					<dim>1</dim>
					<dim>7</dim>
					<dim>256</dim>
				</port>
			</input>
			<output>
				<port id="2" precision="FP32" names="/mask_decoder/transformer/layers.0/Add_2_output_0">
					<dim>1</dim>
					<dim>7</dim>
					<dim>256</dim>
				</port>
			</output>
		</layer>
		<layer id="140" name="Range_251" type="Const" version="opset1">
			<data element_type="i64" shape="1" offset="1073488" size="8" />
			<output>
				<port id="0" precision="I64">
					<dim>1</dim>
				</port>
			</output>
		</layer>
		<layer id="141" name="MVN_252" type="MVN" version="opset6">
			<data eps="9.9999997473787516e-06" normalize_variance="true" eps_mode="INSIDE_SQRT" />
			<input>
				<port id="0" precision="FP32">
					<dim>1</dim>
					<dim>7</dim>
					<dim>256</dim>
				</port>
				<port id="1" precision="I64">
					<dim>1</dim>
				</port>
			</input>
			<output>
				<port id="2" precision="FP32">
					<dim>1</dim>
					<dim>7</dim>
					<dim>256</dim>
				</port>
			</output>
		</layer>
		<layer id="142" name="Constant_4845" type="Const" version="opset1">
			<data element_type="f32" shape="1, 1, 256" offset="9991140" size="1024" />
			<output>
				<port id="0" precision="FP32">
					<dim>1</dim>
					<dim>1</dim>
					<dim>256</dim>
				</port>
			</output>
		</layer>
		<layer id="143" name="Multiply_253" type="Multiply" version="opset1">
			<data auto_broadcast="numpy" />
			<input>
				<port id="0" precision="FP32">
					<dim>1</dim>
					<dim>7</dim>
					<dim>256</dim>
				</port>
				<port id="1" precision="FP32">
					<dim>1</dim>
					<dim>1</dim>
					<dim>256</dim>
				</port>
			</input>
			<output>
				<port id="2" precision="FP32">
					<dim>1</dim>
					<dim>7</dim>
					<dim>256</dim>
				</port>
			</output>
		</layer>
		<layer id="144" name="Constant_4846" type="Const" version="opset1">
			<data element_type="f32" shape="1, 1, 256" offset="9992164" size="1024" />
			<output>
				<port id="0" precision="FP32">
					<dim>1</dim>
					<dim>1</dim>
					<dim>256</dim>
				</port>
			</output>
		</layer>
		<layer id="145" name="/mask_decoder/transformer/layers.0/norm2/LayerNormalization" type="Add" version="opset1">
			<data auto_broadcast="numpy" />
			<input>
				<port id="0" precision="FP32">
					<dim>1</dim>
					<dim>7</dim>
					<dim>256</dim>
				</port>
				<port id="1" precision="FP32">
					<dim>1</dim>
					<dim>1</dim>
					<dim>256</dim>
				</port>
			</input>
			<output>
				<port id="2" precision="FP32" names="/mask_decoder/transformer/layers.0/norm2/LayerNormalization_output_0">
					<dim>1</dim>
					<dim>7</dim>
					<dim>256</dim>
				</port>
			</output>
		</layer>
		<layer id="146" name="Constant_4848" type="Const" version="opset1">
			<data element_type="f32" shape="1, 1, 256" offset="9993188" size="1024" />
			<output>
				<port id="0" precision="FP32">
					<dim>1</dim>
					<dim>1</dim>
					<dim>256</dim>
				</port>
			</output>
		</layer>
		<layer id="147" name="Constant_4847" type="Const" version="opset1">
			<data element_type="f32" shape="1, 1, 2048" offset="9994212" size="8192" />
			<output>
				<port id="0" precision="FP32">
					<dim>1</dim>
					<dim>1</dim>
					<dim>2048</dim>
				</port>
			</output>
		</layer>
		<layer id="148" name="Transpose_3619" type="Const" version="opset1">
			<data element_type="f32" shape="2048, 256" offset="10002404" size="2097152" />
			<output>
				<port id="0" precision="FP32">
					<dim>2048</dim>
					<dim>256</dim>
				</port>
			</output>
		</layer>
		<layer id="149" name="/mask_decoder/transformer/layers.0/mlp/lin1/MatMul" type="MatMul" version="opset1">
			<data transpose_a="false" transpose_b="true" />
			<input>
				<port id="0" precision="FP32">
					<dim>1</dim>
					<dim>7</dim>
					<dim>256</dim>
				</port>
				<port id="1" precision="FP32">
					<dim>2048</dim>
					<dim>256</dim>
				</port>
			</input>
			<output>
				<port id="2" precision="FP32" names="/mask_decoder/transformer/layers.0/mlp/lin1/MatMul_output_0">
					<dim>1</dim>
					<dim>7</dim>
					<dim>2048</dim>
				</port>
			</output>
		</layer>
		<layer id="150" name="/mask_decoder/transformer/layers.0/mlp/lin1/Add" type="Add" version="opset1">
			<data auto_broadcast="numpy" />
			<input>
				<port id="0" precision="FP32">
					<dim>1</dim>
					<dim>1</dim>
					<dim>2048</dim>
				</port>
				<port id="1" precision="FP32">
					<dim>1</dim>
					<dim>7</dim>
					<dim>2048</dim>
				</port>
			</input>
			<output>
				<port id="2" precision="FP32" names="/mask_decoder/transformer/layers.0/mlp/lin1/Add_output_0">
					<dim>1</dim>
					<dim>7</dim>
					<dim>2048</dim>
				</port>
			</output>
		</layer>
		<layer id="151" name="/mask_decoder/transformer/layers.0/mlp/act/Relu" type="ReLU" version="opset1">
			<input>
				<port id="0" precision="FP32">
					<dim>1</dim>
					<dim>7</dim>
					<dim>2048</dim>
				</port>
			</input>
			<output>
				<port id="1" precision="FP32" names="/mask_decoder/transformer/layers.0/mlp/act/Relu_output_0">
					<dim>1</dim>
					<dim>7</dim>
					<dim>2048</dim>
				</port>
			</output>
		</layer>
		<layer id="152" name="Transpose_3636" type="Const" version="opset1">
			<data element_type="f32" shape="256, 2048" offset="12099556" size="2097152" />
			<output>
				<port id="0" precision="FP32">
					<dim>256</dim>
					<dim>2048</dim>
				</port>
			</output>
		</layer>
		<layer id="153" name="/mask_decoder/transformer/layers.0/mlp/lin2/MatMul" type="MatMul" version="opset1">
			<data transpose_a="false" transpose_b="true" />
			<input>
				<port id="0" precision="FP32">
					<dim>1</dim>
					<dim>7</dim>
					<dim>2048</dim>
				</port>
				<port id="1" precision="FP32">
					<dim>256</dim>
					<dim>2048</dim>
				</port>
			</input>
			<output>
				<port id="2" precision="FP32" names="/mask_decoder/transformer/layers.0/mlp/lin2/MatMul_output_0">
					<dim>1</dim>
					<dim>7</dim>
					<dim>256</dim>
				</port>
			</output>
		</layer>
		<layer id="154" name="/mask_decoder/transformer/layers.0/mlp/lin2/Add" type="Add" version="opset1">
			<data auto_broadcast="numpy" />
			<input>
				<port id="0" precision="FP32">
					<dim>1</dim>
					<dim>1</dim>
					<dim>256</dim>
				</port>
				<port id="1" precision="FP32">
					<dim>1</dim>
					<dim>7</dim>
					<dim>256</dim>
				</port>
			</input>
			<output>
				<port id="2" precision="FP32" names="/mask_decoder/transformer/layers.0/mlp/lin2/Add_output_0">
					<dim>1</dim>
					<dim>7</dim>
					<dim>256</dim>
				</port>
			</output>
		</layer>
		<layer id="155" name="/mask_decoder/transformer/layers.0/Add_3" type="Add" version="opset1">
			<data auto_broadcast="numpy" />
			<input>
				<port id="0" precision="FP32">
					<dim>1</dim>
					<dim>7</dim>
					<dim>256</dim>
				</port>
				<port id="1" precision="FP32">
					<dim>1</dim>
					<dim>7</dim>
					<dim>256</dim>
				</port>
			</input>
			<output>
				<port id="2" precision="FP32" names="/mask_decoder/transformer/layers.0/Add_3_output_0">
					<dim>1</dim>
					<dim>7</dim>
					<dim>256</dim>
				</port>
			</output>
		</layer>
		<layer id="156" name="Range_264" type="Const" version="opset1">
			<data element_type="i64" shape="1" offset="1073488" size="8" />
			<output>
				<port id="0" precision="I64">
					<dim>1</dim>
				</port>
			</output>
		</layer>
		<layer id="157" name="MVN_265" type="MVN" version="opset6">
			<data eps="9.9999997473787516e-06" normalize_variance="true" eps_mode="INSIDE_SQRT" />
			<input>
				<port id="0" precision="FP32">
					<dim>1</dim>
					<dim>7</dim>
					<dim>256</dim>
				</port>
				<port id="1" precision="I64">
					<dim>1</dim>
				</port>
			</input>
			<output>
				<port id="2" precision="FP32">
					<dim>1</dim>
					<dim>7</dim>
					<dim>256</dim>
				</port>
			</output>
		</layer>
		<layer id="158" name="Constant_4849" type="Const" version="opset1">
			<data element_type="f32" shape="1, 1, 256" offset="14196708" size="1024" />
			<output>
				<port id="0" precision="FP32">
					<dim>1</dim>
					<dim>1</dim>
					<dim>256</dim>
				</port>
			</output>
		</layer>
		<layer id="159" name="Multiply_266" type="Multiply" version="opset1">
			<data auto_broadcast="numpy" />
			<input>
				<port id="0" precision="FP32">
					<dim>1</dim>
					<dim>7</dim>
					<dim>256</dim>
				</port>
				<port id="1" precision="FP32">
					<dim>1</dim>
					<dim>1</dim>
					<dim>256</dim>
				</port>
			</input>
			<output>
				<port id="2" precision="FP32">
					<dim>1</dim>
					<dim>7</dim>
					<dim>256</dim>
				</port>
			</output>
		</layer>
		<layer id="160" name="Constant_4850" type="Const" version="opset1">
			<data element_type="f32" shape="1, 1, 256" offset="14197732" size="1024" />
			<output>
				<port id="0" precision="FP32">
					<dim>1</dim>
					<dim>1</dim>
					<dim>256</dim>
				</port>
			</output>
		</layer>
		<layer id="161" name="/mask_decoder/transformer/layers.0/norm3/LayerNormalization" type="Add" version="opset1">
			<data auto_broadcast="numpy" />
			<input>
				<port id="0" precision="FP32">
					<dim>1</dim>
					<dim>7</dim>
					<dim>256</dim>
				</port>
				<port id="1" precision="FP32">
					<dim>1</dim>
					<dim>1</dim>
					<dim>256</dim>
				</port>
			</input>
			<output>
				<port id="2" precision="FP32" names="/mask_decoder/transformer/layers.0/norm3/LayerNormalization_output_0">
					<dim>1</dim>
					<dim>7</dim>
					<dim>256</dim>
				</port>
			</output>
		</layer>
		<layer id="162" name="Constant_4855" type="Const" version="opset1">
			<data element_type="f32" shape="1, 1, 256" offset="14198756" size="1024" />
			<output>
				<port id="0" precision="FP32">
					<dim>1</dim>
					<dim>1</dim>
					<dim>256</dim>
				</port>
			</output>
		</layer>
		<layer id="163" name="Constant_4851" type="Const" version="opset1">
			<data element_type="f32" shape="1, 1, 256" offset="14199780" size="1024" />
			<output>
				<port id="0" precision="FP32">
					<dim>1</dim>
					<dim>1</dim>
					<dim>256</dim>
				</port>
			</output>
		</layer>
		<layer id="164" name="/mask_decoder/transformer/layers.0/Add_4" type="Add" version="opset1">
			<data auto_broadcast="numpy" />
			<input>
				<port id="0" precision="FP32">
					<dim>1</dim>
					<dim>7</dim>
					<dim>256</dim>
				</port>
				<port id="1" precision="FP32">
					<dim>1</dim>
					<dim>7</dim>
					<dim>256</dim>
				</port>
			</input>
			<output>
				<port id="2" precision="FP32" names="/mask_decoder/transformer/layers.0/Add_4_output_0">
					<dim>1</dim>
					<dim>7</dim>
					<dim>256</dim>
				</port>
			</output>
		</layer>
		<layer id="165" name="Transpose_3679" type="Const" version="opset1">
			<data element_type="f32" shape="256, 256" offset="14200804" size="262144" />
			<output>
				<port id="0" precision="FP32">
					<dim>256</dim>
					<dim>256</dim>
				</port>
			</output>
		</layer>
		<layer id="166" name="/mask_decoder/transformer/layers.1/self_attn/q_proj/MatMul" type="MatMul" version="opset1">
			<data transpose_a="false" transpose_b="true" />
			<input>
				<port id="0" precision="FP32">
					<dim>1</dim>
					<dim>7</dim>
					<dim>256</dim>
				</port>
				<port id="1" precision="FP32">
					<dim>256</dim>
					<dim>256</dim>
				</port>
			</input>
			<output>
				<port id="2" precision="FP32" names="/mask_decoder/transformer/layers.1/self_attn/q_proj/MatMul_output_0">
					<dim>1</dim>
					<dim>7</dim>
					<dim>256</dim>
				</port>
			</output>
		</layer>
		<layer id="167" name="/mask_decoder/transformer/layers.1/self_attn/q_proj/Add" type="Add" version="opset1">
			<data auto_broadcast="numpy" />
			<input>
				<port id="0" precision="FP32">
					<dim>1</dim>
					<dim>1</dim>
					<dim>256</dim>
				</port>
				<port id="1" precision="FP32">
					<dim>1</dim>
					<dim>7</dim>
					<dim>256</dim>
				</port>
			</input>
			<output>
				<port id="2" precision="FP32" names="/mask_decoder/transformer/layers.1/self_attn/q_proj/Add_output_0">
					<dim>1</dim>
					<dim>7</dim>
					<dim>256</dim>
				</port>
			</output>
		</layer>
		<layer id="168" name="/mask_decoder/transformer/layers.1/self_attn/Reshape" type="Reshape" version="opset1">
			<data special_zero="true" />
			<input>
				<port id="0" precision="FP32">
					<dim>1</dim>
					<dim>7</dim>
					<dim>256</dim>
				</port>
				<port id="1" precision="I64">
					<dim>4</dim>
				</port>
			</input>
			<output>
				<port id="2" precision="FP32" names="/mask_decoder/transformer/layers.1/self_attn/Reshape_output_0">
					<dim>1</dim>
					<dim>7</dim>
					<dim>8</dim>
					<dim>32</dim>
				</port>
			</output>
		</layer>
		<layer id="169" name="Constant_308" type="Const" version="opset1">
			<data element_type="i64" shape="4" offset="284916" size="32" />
			<output>
				<port id="0" precision="I64">
					<dim>4</dim>
				</port>
			</output>
		</layer>
		<layer id="170" name="/mask_decoder/transformer/layers.1/self_attn/Transpose" type="Transpose" version="opset1">
			<input>
				<port id="0" precision="FP32">
					<dim>1</dim>
					<dim>7</dim>
					<dim>8</dim>
					<dim>32</dim>
				</port>
				<port id="1" precision="I64">
					<dim>4</dim>
				</port>
			</input>
			<output>
				<port id="2" precision="FP32" names="/mask_decoder/transformer/layers.1/self_attn/Transpose_output_0">
					<dim>1</dim>
					<dim>8</dim>
					<dim>7</dim>
					<dim>32</dim>
				</port>
			</output>
		</layer>
		<layer id="171" name="Constant_4852" type="Const" version="opset1">
			<data element_type="f32" shape="1, 1, 256" offset="14462948" size="1024" />
			<output>
				<port id="0" precision="FP32">
					<dim>1</dim>
					<dim>1</dim>
					<dim>256</dim>
				</port>
			</output>
		</layer>
		<layer id="172" name="Transpose_3702" type="Const" version="opset1">
			<data element_type="f32" shape="256, 256" offset="14463972" size="262144" />
			<output>
				<port id="0" precision="FP32">
					<dim>256</dim>
					<dim>256</dim>
				</port>
			</output>
		</layer>
		<layer id="173" name="/mask_decoder/transformer/layers.1/self_attn/k_proj/MatMul" type="MatMul" version="opset1">
			<data transpose_a="false" transpose_b="true" />
			<input>
				<port id="0" precision="FP32">
					<dim>1</dim>
					<dim>7</dim>
					<dim>256</dim>
				</port>
				<port id="1" precision="FP32">
					<dim>256</dim>
					<dim>256</dim>
				</port>
			</input>
			<output>
				<port id="2" precision="FP32" names="/mask_decoder/transformer/layers.1/self_attn/k_proj/MatMul_output_0">
					<dim>1</dim>
					<dim>7</dim>
					<dim>256</dim>
				</port>
			</output>
		</layer>
		<layer id="174" name="/mask_decoder/transformer/layers.1/self_attn/k_proj/Add" type="Add" version="opset1">
			<data auto_broadcast="numpy" />
			<input>
				<port id="0" precision="FP32">
					<dim>1</dim>
					<dim>1</dim>
					<dim>256</dim>
				</port>
				<port id="1" precision="FP32">
					<dim>1</dim>
					<dim>7</dim>
					<dim>256</dim>
				</port>
			</input>
			<output>
				<port id="2" precision="FP32" names="/mask_decoder/transformer/layers.1/self_attn/k_proj/Add_output_0">
					<dim>1</dim>
					<dim>7</dim>
					<dim>256</dim>
				</port>
			</output>
		</layer>
		<layer id="175" name="/mask_decoder/transformer/layers.1/self_attn/Reshape_1" type="Reshape" version="opset1">
			<data special_zero="true" />
			<input>
				<port id="0" precision="FP32">
					<dim>1</dim>
					<dim>7</dim>
					<dim>256</dim>
				</port>
				<port id="1" precision="I64">
					<dim>4</dim>
				</port>
			</input>
			<output>
				<port id="2" precision="FP32" names="/mask_decoder/transformer/layers.1/self_attn/Reshape_1_output_0">
					<dim>1</dim>
					<dim>7</dim>
					<dim>8</dim>
					<dim>32</dim>
				</port>
			</output>
		</layer>
		<layer id="176" name="Constant_314" type="Const" version="opset1">
			<data element_type="i64" shape="4" offset="548116" size="32" />
			<output>
				<port id="0" precision="I64">
					<dim>4</dim>
				</port>
			</output>
		</layer>
		<layer id="177" name="/mask_decoder/transformer/layers.1/self_attn/Transpose_2" type="Transpose" version="opset1">
			<input>
				<port id="0" precision="FP32">
					<dim>1</dim>
					<dim>7</dim>
					<dim>8</dim>
					<dim>32</dim>
				</port>
				<port id="1" precision="I64">
					<dim>4</dim>
				</port>
			</input>
			<output>
				<port id="2" precision="FP32" names="/mask_decoder/transformer/layers.1/self_attn/Transpose_2_output_0">
					<dim>1</dim>
					<dim>8</dim>
					<dim>32</dim>
					<dim>7</dim>
				</port>
			</output>
		</layer>
		<layer id="178" name="/mask_decoder/transformer/layers.1/self_attn/MatMul" type="MatMul" version="opset1">
			<data transpose_a="false" transpose_b="false" />
			<input>
				<port id="0" precision="FP32">
					<dim>1</dim>
					<dim>8</dim>
					<dim>7</dim>
					<dim>32</dim>
				</port>
				<port id="1" precision="FP32">
					<dim>1</dim>
					<dim>8</dim>
					<dim>32</dim>
					<dim>7</dim>
				</port>
			</input>
			<output>
				<port id="2" precision="FP32" names="/mask_decoder/transformer/layers.1/self_attn/MatMul_output_0">
					<dim>1</dim>
					<dim>8</dim>
					<dim>7</dim>
					<dim>7</dim>
				</port>
			</output>
		</layer>
		<layer id="179" name="Constant_4853" type="Const" version="opset1">
			<data element_type="f32" shape="1, 1, 1, 1" offset="548148" size="4" />
			<output>
				<port id="0" precision="FP32">
					<dim>1</dim>
					<dim>1</dim>
					<dim>1</dim>
					<dim>1</dim>
				</port>
			</output>
		</layer>
		<layer id="180" name="/mask_decoder/transformer/layers.1/self_attn/Div" type="Multiply" version="opset1">
			<data auto_broadcast="numpy" />
			<input>
				<port id="0" precision="FP32">
					<dim>1</dim>
					<dim>8</dim>
					<dim>7</dim>
					<dim>7</dim>
				</port>
				<port id="1" precision="FP32">
					<dim>1</dim>
					<dim>1</dim>
					<dim>1</dim>
					<dim>1</dim>
				</port>
			</input>
			<output>
				<port id="2" precision="FP32" names="/mask_decoder/transformer/layers.1/self_attn/Div_output_0">
					<dim>1</dim>
					<dim>8</dim>
					<dim>7</dim>
					<dim>7</dim>
				</port>
			</output>
		</layer>
		<layer id="181" name="/mask_decoder/transformer/layers.1/self_attn/Softmax" type="SoftMax" version="opset8">
			<data axis="-1" />
			<input>
				<port id="0" precision="FP32">
					<dim>1</dim>
					<dim>8</dim>
					<dim>7</dim>
					<dim>7</dim>
				</port>
			</input>
			<output>
				<port id="1" precision="FP32" names="/mask_decoder/transformer/layers.1/self_attn/Softmax_output_0">
					<dim>1</dim>
					<dim>8</dim>
					<dim>7</dim>
					<dim>7</dim>
				</port>
			</output>
		</layer>
		<layer id="182" name="Constant_4854" type="Const" version="opset1">
			<data element_type="f32" shape="1, 1, 256" offset="14726116" size="1024" />
			<output>
				<port id="0" precision="FP32">
					<dim>1</dim>
					<dim>1</dim>
					<dim>256</dim>
				</port>
			</output>
		</layer>
		<layer id="183" name="Transpose_3737" type="Const" version="opset1">
			<data element_type="f32" shape="256, 256" offset="14727140" size="262144" />
			<output>
				<port id="0" precision="FP32">
					<dim>256</dim>
					<dim>256</dim>
				</port>
			</output>
		</layer>
		<layer id="184" name="/mask_decoder/transformer/layers.1/self_attn/v_proj/MatMul" type="MatMul" version="opset1">
			<data transpose_a="false" transpose_b="true" />
			<input>
				<port id="0" precision="FP32">
					<dim>1</dim>
					<dim>7</dim>
					<dim>256</dim>
				</port>
				<port id="1" precision="FP32">
					<dim>256</dim>
					<dim>256</dim>
				</port>
			</input>
			<output>
				<port id="2" precision="FP32" names="/mask_decoder/transformer/layers.1/self_attn/v_proj/MatMul_output_0">
					<dim>1</dim>
					<dim>7</dim>
					<dim>256</dim>
				</port>
			</output>
		</layer>
		<layer id="185" name="/mask_decoder/transformer/layers.1/self_attn/v_proj/Add" type="Add" version="opset1">
			<data auto_broadcast="numpy" />
			<input>
				<port id="0" precision="FP32">
					<dim>1</dim>
					<dim>1</dim>
					<dim>256</dim>
				</port>
				<port id="1" precision="FP32">
					<dim>1</dim>
					<dim>7</dim>
					<dim>256</dim>
				</port>
			</input>
			<output>
				<port id="2" precision="FP32" names="/mask_decoder/transformer/layers.1/self_attn/v_proj/Add_output_0">
					<dim>1</dim>
					<dim>7</dim>
					<dim>256</dim>
				</port>
			</output>
		</layer>
		<layer id="186" name="/mask_decoder/transformer/layers.1/self_attn/Reshape_2" type="Reshape" version="opset1">
			<data special_zero="true" />
			<input>
				<port id="0" precision="FP32">
					<dim>1</dim>
					<dim>7</dim>
					<dim>256</dim>
				</port>
				<port id="1" precision="I64">
					<dim>4</dim>
				</port>
			</input>
			<output>
				<port id="2" precision="FP32" names="/mask_decoder/transformer/layers.1/self_attn/Reshape_2_output_0">
					<dim>1</dim>
					<dim>7</dim>
					<dim>8</dim>
					<dim>32</dim>
				</port>
			</output>
		</layer>
		<layer id="187" name="Constant_312" type="Const" version="opset1">
			<data element_type="i64" shape="4" offset="284916" size="32" />
			<output>
				<port id="0" precision="I64">
					<dim>4</dim>
				</port>
			</output>
		</layer>
		<layer id="188" name="/mask_decoder/transformer/layers.1/self_attn/Transpose_1" type="Transpose" version="opset1">
			<input>
				<port id="0" precision="FP32">
					<dim>1</dim>
					<dim>7</dim>
					<dim>8</dim>
					<dim>32</dim>
				</port>
				<port id="1" precision="I64">
					<dim>4</dim>
				</port>
			</input>
			<output>
				<port id="2" precision="FP32" names="/mask_decoder/transformer/layers.1/self_attn/Transpose_1_output_0">
					<dim>1</dim>
					<dim>8</dim>
					<dim>7</dim>
					<dim>32</dim>
				</port>
			</output>
		</layer>
		<layer id="189" name="/mask_decoder/transformer/layers.1/self_attn/MatMul_1" type="MatMul" version="opset1">
			<data transpose_a="false" transpose_b="false" />
			<input>
				<port id="0" precision="FP32">
					<dim>1</dim>
					<dim>8</dim>
					<dim>7</dim>
					<dim>7</dim>
				</port>
				<port id="1" precision="FP32">
					<dim>1</dim>
					<dim>8</dim>
					<dim>7</dim>
					<dim>32</dim>
				</port>
			</input>
			<output>
				<port id="2" precision="FP32" names="/mask_decoder/transformer/layers.1/self_attn/MatMul_1_output_0">
					<dim>1</dim>
					<dim>8</dim>
					<dim>7</dim>
					<dim>32</dim>
				</port>
			</output>
		</layer>
		<layer id="190" name="Constant_320" type="Const" version="opset1">
			<data element_type="i64" shape="4" offset="284916" size="32" />
			<output>
				<port id="0" precision="I64">
					<dim>4</dim>
				</port>
			</output>
		</layer>
		<layer id="191" name="/mask_decoder/transformer/layers.1/self_attn/Transpose_3" type="Transpose" version="opset1">
			<input>
				<port id="0" precision="FP32">
					<dim>1</dim>
					<dim>8</dim>
					<dim>7</dim>
					<dim>32</dim>
				</port>
				<port id="1" precision="I64">
					<dim>4</dim>
				</port>
			</input>
			<output>
				<port id="2" precision="FP32" names="/mask_decoder/transformer/layers.1/self_attn/Transpose_3_output_0">
					<dim>1</dim>
					<dim>7</dim>
					<dim>8</dim>
					<dim>32</dim>
				</port>
			</output>
		</layer>
		<layer id="192" name="/mask_decoder/transformer/layers.1/self_attn/Reshape_3" type="Reshape" version="opset1">
			<data special_zero="true" />
			<input>
				<port id="0" precision="FP32">
					<dim>1</dim>
					<dim>7</dim>
					<dim>8</dim>
					<dim>32</dim>
				</port>
				<port id="1" precision="I64">
					<dim>3</dim>
				</port>
			</input>
			<output>
				<port id="2" precision="FP32" names="/mask_decoder/transformer/layers.1/self_attn/Reshape_3_output_0">
					<dim>1</dim>
					<dim>7</dim>
					<dim>256</dim>
				</port>
			</output>
		</layer>
		<layer id="193" name="Transpose_3786" type="Const" version="opset1">
			<data element_type="f32" shape="256, 256" offset="14989284" size="262144" />
			<output>
				<port id="0" precision="FP32">
					<dim>256</dim>
					<dim>256</dim>
				</port>
			</output>
		</layer>
		<layer id="194" name="/mask_decoder/transformer/layers.1/self_attn/out_proj/MatMul" type="MatMul" version="opset1">
			<data transpose_a="false" transpose_b="true" />
			<input>
				<port id="0" precision="FP32">
					<dim>1</dim>
					<dim>7</dim>
					<dim>256</dim>
				</port>
				<port id="1" precision="FP32">
					<dim>256</dim>
					<dim>256</dim>
				</port>
			</input>
			<output>
				<port id="2" precision="FP32" names="/mask_decoder/transformer/layers.1/self_attn/out_proj/MatMul_output_0">
					<dim>1</dim>
					<dim>7</dim>
					<dim>256</dim>
				</port>
			</output>
		</layer>
		<layer id="195" name="/mask_decoder/transformer/layers.1/self_attn/out_proj/Add" type="Add" version="opset1">
			<data auto_broadcast="numpy" />
			<input>
				<port id="0" precision="FP32">
					<dim>1</dim>
					<dim>1</dim>
					<dim>256</dim>
				</port>
				<port id="1" precision="FP32">
					<dim>1</dim>
					<dim>7</dim>
					<dim>256</dim>
				</port>
			</input>
			<output>
				<port id="2" precision="FP32" names="/mask_decoder/transformer/layers.1/self_attn/out_proj/Add_output_0">
					<dim>1</dim>
					<dim>7</dim>
					<dim>256</dim>
				</port>
			</output>
		</layer>
		<layer id="196" name="/mask_decoder/transformer/layers.1/Add" type="Add" version="opset1">
			<data auto_broadcast="numpy" />
			<input>
				<port id="0" precision="FP32">
					<dim>1</dim>
					<dim>7</dim>
					<dim>256</dim>
				</port>
				<port id="1" precision="FP32">
					<dim>1</dim>
					<dim>7</dim>
					<dim>256</dim>
				</port>
			</input>
			<output>
				<port id="2" precision="FP32" names="/mask_decoder/transformer/layers.1/Add_output_0">
					<dim>1</dim>
					<dim>7</dim>
					<dim>256</dim>
				</port>
			</output>
		</layer>
		<layer id="197" name="Range_329" type="Const" version="opset1">
			<data element_type="i64" shape="1" offset="1073488" size="8" />
			<output>
				<port id="0" precision="I64">
					<dim>1</dim>
				</port>
			</output>
		</layer>
		<layer id="198" name="MVN_330" type="MVN" version="opset6">
			<data eps="9.9999997473787516e-06" normalize_variance="true" eps_mode="INSIDE_SQRT" />
			<input>
				<port id="0" precision="FP32">
					<dim>1</dim>
					<dim>7</dim>
					<dim>256</dim>
				</port>
				<port id="1" precision="I64">
					<dim>1</dim>
				</port>
			</input>
			<output>
				<port id="2" precision="FP32">
					<dim>1</dim>
					<dim>7</dim>
					<dim>256</dim>
				</port>
			</output>
		</layer>
		<layer id="199" name="Constant_4856" type="Const" version="opset1">
			<data element_type="f32" shape="1, 1, 256" offset="15251428" size="1024" />
			<output>
				<port id="0" precision="FP32">
					<dim>1</dim>
					<dim>1</dim>
					<dim>256</dim>
				</port>
			</output>
		</layer>
		<layer id="200" name="Multiply_331" type="Multiply" version="opset1">
			<data auto_broadcast="numpy" />
			<input>
				<port id="0" precision="FP32">
					<dim>1</dim>
					<dim>7</dim>
					<dim>256</dim>
				</port>
				<port id="1" precision="FP32">
					<dim>1</dim>
					<dim>1</dim>
					<dim>256</dim>
				</port>
			</input>
			<output>
				<port id="2" precision="FP32">
					<dim>1</dim>
					<dim>7</dim>
					<dim>256</dim>
				</port>
			</output>
		</layer>
		<layer id="201" name="Constant_4857" type="Const" version="opset1">
			<data element_type="f32" shape="1, 1, 256" offset="15252452" size="1024" />
			<output>
				<port id="0" precision="FP32">
					<dim>1</dim>
					<dim>1</dim>
					<dim>256</dim>
				</port>
			</output>
		</layer>
		<layer id="202" name="/mask_decoder/transformer/layers.1/norm1/LayerNormalization" type="Add" version="opset1">
			<data auto_broadcast="numpy" />
			<input>
				<port id="0" precision="FP32">
					<dim>1</dim>
					<dim>7</dim>
					<dim>256</dim>
				</port>
				<port id="1" precision="FP32">
					<dim>1</dim>
					<dim>1</dim>
					<dim>256</dim>
				</port>
			</input>
			<output>
				<port id="2" precision="FP32" names="/mask_decoder/transformer/layers.1/norm1/LayerNormalization_output_0">
					<dim>1</dim>
					<dim>7</dim>
					<dim>256</dim>
				</port>
			</output>
		</layer>
		<layer id="203" name="Constant_4869" type="Const" version="opset1">
			<data element_type="f32" shape="1, 1, 256" offset="15253476" size="1024" />
			<output>
				<port id="0" precision="FP32">
					<dim>1</dim>
					<dim>1</dim>
					<dim>256</dim>
				</port>
			</output>
		</layer>
		<layer id="204" name="Constant_4858" type="Const" version="opset1">
			<data element_type="f32" shape="1, 1, 128" offset="15254500" size="512" />
			<output>
				<port id="0" precision="FP32">
					<dim>1</dim>
					<dim>1</dim>
					<dim>128</dim>
				</port>
			</output>
		</layer>
		<layer id="205" name="/mask_decoder/transformer/layers.1/Add_1" type="Add" version="opset1">
			<data auto_broadcast="numpy" />
			<input>
				<port id="0" precision="FP32">
					<dim>1</dim>
					<dim>7</dim>
					<dim>256</dim>
				</port>
				<port id="1" precision="FP32">
					<dim>1</dim>
					<dim>7</dim>
					<dim>256</dim>
				</port>
			</input>
			<output>
				<port id="2" precision="FP32" names="/mask_decoder/transformer/layers.1/Add_1_output_0">
					<dim>1</dim>
					<dim>7</dim>
					<dim>256</dim>
				</port>
			</output>
		</layer>
		<layer id="206" name="Transpose_3829" type="Const" version="opset1">
			<data element_type="f32" shape="128, 256" offset="15255012" size="131072" />
			<output>
				<port id="0" precision="FP32">
					<dim>128</dim>
					<dim>256</dim>
				</port>
			</output>
		</layer>
		<layer id="207" name="/mask_decoder/transformer/layers.1/cross_attn_token_to_image/q_proj/MatMul" type="MatMul" version="opset1">
			<data transpose_a="false" transpose_b="true" />
			<input>
				<port id="0" precision="FP32">
					<dim>1</dim>
					<dim>7</dim>
					<dim>256</dim>
				</port>
				<port id="1" precision="FP32">
					<dim>128</dim>
					<dim>256</dim>
				</port>
			</input>
			<output>
				<port id="2" precision="FP32" names="/mask_decoder/transformer/layers.1/cross_attn_token_to_image/q_proj/MatMul_output_0">
					<dim>1</dim>
					<dim>7</dim>
					<dim>128</dim>
				</port>
			</output>
		</layer>
		<layer id="208" name="/mask_decoder/transformer/layers.1/cross_attn_token_to_image/q_proj/Add" type="Add" version="opset1">
			<data auto_broadcast="numpy" />
			<input>
				<port id="0" precision="FP32">
					<dim>1</dim>
					<dim>1</dim>
					<dim>128</dim>
				</port>
				<port id="1" precision="FP32">
					<dim>1</dim>
					<dim>7</dim>
					<dim>128</dim>
				</port>
			</input>
			<output>
				<port id="2" precision="FP32" names="/mask_decoder/transformer/layers.1/cross_attn_token_to_image/q_proj/Add_output_0">
					<dim>1</dim>
					<dim>7</dim>
					<dim>128</dim>
				</port>
			</output>
		</layer>
		<layer id="209" name="/mask_decoder/transformer/layers.1/cross_attn_token_to_image/Reshape" type="Reshape" version="opset1">
			<data special_zero="true" />
			<input>
				<port id="0" precision="FP32">
					<dim>1</dim>
					<dim>7</dim>
					<dim>128</dim>
				</port>
				<port id="1" precision="I64">
					<dim>4</dim>
				</port>
			</input>
			<output>
				<port id="2" precision="FP32" names="/mask_decoder/transformer/layers.1/cross_attn_token_to_image/Reshape_output_0">
					<dim>1</dim>
					<dim>7</dim>
					<dim>8</dim>
					<dim>16</dim>
				</port>
			</output>
		</layer>
		<layer id="210" name="Constant_342" type="Const" version="opset1">
			<data element_type="i64" shape="4" offset="284916" size="32" />
			<output>
				<port id="0" precision="I64">
					<dim>4</dim>
				</port>
			</output>
		</layer>
		<layer id="211" name="/mask_decoder/transformer/layers.1/cross_attn_token_to_image/Transpose" type="Transpose" version="opset1">
			<input>
				<port id="0" precision="FP32">
					<dim>1</dim>
					<dim>7</dim>
					<dim>8</dim>
					<dim>16</dim>
				</port>
				<port id="1" precision="I64">
					<dim>4</dim>
				</port>
			</input>
			<output>
				<port id="2" precision="FP32" names="/mask_decoder/transformer/layers.1/cross_attn_token_to_image/Transpose_output_0">
					<dim>1</dim>
					<dim>8</dim>
					<dim>7</dim>
					<dim>16</dim>
				</port>
			</output>
		</layer>
		<layer id="212" name="Constant_4866" type="Const" version="opset1">
			<data element_type="f32" shape="1, 1, 128" offset="15386084" size="512" />
			<output>
				<port id="0" precision="FP32">
					<dim>1</dim>
					<dim>1</dim>
					<dim>128</dim>
				</port>
			</output>
		</layer>
		<layer id="213" name="Constant_4863" type="Const" version="opset1">
			<data element_type="f32" shape="1, 1, 256" offset="15386596" size="1024" />
			<output>
				<port id="0" precision="FP32">
					<dim>1</dim>
					<dim>1</dim>
					<dim>256</dim>
				</port>
			</output>
		</layer>
		<layer id="214" name="Constant_4859" type="Const" version="opset1">
			<data element_type="f32" shape="1, 1, 128" offset="15387620" size="512" />
			<output>
				<port id="0" precision="FP32">
					<dim>1</dim>
					<dim>1</dim>
					<dim>128</dim>
				</port>
			</output>
		</layer>
		<layer id="215" name="Transpose_3856" type="Const" version="opset1">
			<data element_type="f32" shape="128, 256" offset="15388132" size="131072" />
			<output>
				<port id="0" precision="FP32">
					<dim>128</dim>
					<dim>256</dim>
				</port>
			</output>
		</layer>
		<layer id="216" name="/mask_decoder/transformer/layers.0/cross_attn_image_to_token/q_proj/MatMul" type="MatMul" version="opset1">
			<data transpose_a="false" transpose_b="true" />
			<input>
				<port id="0" precision="FP32">
					<dim>1</dim>
					<dim>4096</dim>
					<dim>256</dim>
				</port>
				<port id="1" precision="FP32">
					<dim>128</dim>
					<dim>256</dim>
				</port>
			</input>
			<output>
				<port id="2" precision="FP32" names="/mask_decoder/transformer/layers.0/cross_attn_image_to_token/q_proj/MatMul_output_0">
					<dim>1</dim>
					<dim>4096</dim>
					<dim>128</dim>
				</port>
			</output>
		</layer>
		<layer id="217" name="/mask_decoder/transformer/layers.0/cross_attn_image_to_token/q_proj/Add" type="Add" version="opset1">
			<data auto_broadcast="numpy" />
			<input>
				<port id="0" precision="FP32">
					<dim>1</dim>
					<dim>1</dim>
					<dim>128</dim>
				</port>
				<port id="1" precision="FP32">
					<dim>1</dim>
					<dim>4096</dim>
					<dim>128</dim>
				</port>
			</input>
			<output>
				<port id="2" precision="FP32" names="/mask_decoder/transformer/layers.0/cross_attn_image_to_token/q_proj/Add_output_0">
					<dim>1</dim>
					<dim>4096</dim>
					<dim>128</dim>
				</port>
			</output>
		</layer>
		<layer id="218" name="/mask_decoder/transformer/layers.0/cross_attn_image_to_token/Reshape" type="Reshape" version="opset1">
			<data special_zero="true" />
			<input>
				<port id="0" precision="FP32">
					<dim>1</dim>
					<dim>4096</dim>
					<dim>128</dim>
				</port>
				<port id="1" precision="I64">
					<dim>4</dim>
				</port>
			</input>
			<output>
				<port id="2" precision="FP32" names="/mask_decoder/transformer/layers.0/cross_attn_image_to_token/Reshape_output_0">
					<dim>1</dim>
					<dim>4096</dim>
					<dim>8</dim>
					<dim>16</dim>
				</port>
			</output>
		</layer>
		<layer id="219" name="Constant_276" type="Const" version="opset1">
			<data element_type="i64" shape="4" offset="284916" size="32" />
			<output>
				<port id="0" precision="I64">
					<dim>4</dim>
				</port>
			</output>
		</layer>
		<layer id="220" name="/mask_decoder/transformer/layers.0/cross_attn_image_to_token/Transpose" type="Transpose" version="opset1">
			<input>
				<port id="0" precision="FP32">
					<dim>1</dim>
					<dim>4096</dim>
					<dim>8</dim>
					<dim>16</dim>
				</port>
				<port id="1" precision="I64">
					<dim>4</dim>
				</port>
			</input>
			<output>
				<port id="2" precision="FP32" names="/mask_decoder/transformer/layers.0/cross_attn_image_to_token/Transpose_output_0">
					<dim>1</dim>
					<dim>8</dim>
					<dim>4096</dim>
					<dim>16</dim>
				</port>
			</output>
		</layer>
		<layer id="221" name="Constant_4860" type="Const" version="opset1">
			<data element_type="f32" shape="1, 1, 128" offset="15519204" size="512" />
			<output>
				<port id="0" precision="FP32">
					<dim>1</dim>
					<dim>1</dim>
					<dim>128</dim>
				</port>
			</output>
		</layer>
		<layer id="222" name="Transpose_3879" type="Const" version="opset1">
			<data element_type="f32" shape="128, 256" offset="15519716" size="131072" />
			<output>
				<port id="0" precision="FP32">
					<dim>128</dim>
					<dim>256</dim>
				</port>
			</output>
		</layer>
		<layer id="223" name="/mask_decoder/transformer/layers.0/cross_attn_image_to_token/k_proj/MatMul" type="MatMul" version="opset1">
			<data transpose_a="false" transpose_b="true" />
			<input>
				<port id="0" precision="FP32">
					<dim>1</dim>
					<dim>7</dim>
					<dim>256</dim>
				</port>
				<port id="1" precision="FP32">
					<dim>128</dim>
					<dim>256</dim>
				</port>
			</input>
			<output>
				<port id="2" precision="FP32" names="/mask_decoder/transformer/layers.0/cross_attn_image_to_token/k_proj/MatMul_output_0">
					<dim>1</dim>
					<dim>7</dim>
					<dim>128</dim>
				</port>
			</output>
		</layer>
		<layer id="224" name="/mask_decoder/transformer/layers.0/cross_attn_image_to_token/k_proj/Add" type="Add" version="opset1">
			<data auto_broadcast="numpy" />
			<input>
				<port id="0" precision="FP32">
					<dim>1</dim>
					<dim>1</dim>
					<dim>128</dim>
				</port>
				<port id="1" precision="FP32">
					<dim>1</dim>
					<dim>7</dim>
					<dim>128</dim>
				</port>
			</input>
			<output>
				<port id="2" precision="FP32" names="/mask_decoder/transformer/layers.0/cross_attn_image_to_token/k_proj/Add_output_0">
					<dim>1</dim>
					<dim>7</dim>
					<dim>128</dim>
				</port>
			</output>
		</layer>
		<layer id="225" name="/mask_decoder/transformer/layers.0/cross_attn_image_to_token/Reshape_1" type="Reshape" version="opset1">
			<data special_zero="true" />
			<input>
				<port id="0" precision="FP32">
					<dim>1</dim>
					<dim>7</dim>
					<dim>128</dim>
				</port>
				<port id="1" precision="I64">
					<dim>4</dim>
				</port>
			</input>
			<output>
				<port id="2" precision="FP32" names="/mask_decoder/transformer/layers.0/cross_attn_image_to_token/Reshape_1_output_0">
					<dim>1</dim>
					<dim>7</dim>
					<dim>8</dim>
					<dim>16</dim>
				</port>
			</output>
		</layer>
		<layer id="226" name="Constant_282" type="Const" version="opset1">
			<data element_type="i64" shape="4" offset="548116" size="32" />
			<output>
				<port id="0" precision="I64">
					<dim>4</dim>
				</port>
			</output>
		</layer>
		<layer id="227" name="/mask_decoder/transformer/layers.0/cross_attn_image_to_token/Transpose_2" type="Transpose" version="opset1">
			<input>
				<port id="0" precision="FP32">
					<dim>1</dim>
					<dim>7</dim>
					<dim>8</dim>
					<dim>16</dim>
				</port>
				<port id="1" precision="I64">
					<dim>4</dim>
				</port>
			</input>
			<output>
				<port id="2" precision="FP32" names="/mask_decoder/transformer/layers.0/cross_attn_image_to_token/Transpose_2_output_0">
					<dim>1</dim>
					<dim>8</dim>
					<dim>16</dim>
					<dim>7</dim>
				</port>
			</output>
		</layer>
		<layer id="228" name="/mask_decoder/transformer/layers.0/cross_attn_image_to_token/MatMul" type="MatMul" version="opset1">
			<data transpose_a="false" transpose_b="false" />
			<input>
				<port id="0" precision="FP32">
					<dim>1</dim>
					<dim>8</dim>
					<dim>4096</dim>
					<dim>16</dim>
				</port>
				<port id="1" precision="FP32">
					<dim>1</dim>
					<dim>8</dim>
					<dim>16</dim>
					<dim>7</dim>
				</port>
			</input>
			<output>
				<port id="2" precision="FP32" names="/mask_decoder/transformer/layers.0/cross_attn_image_to_token/MatMul_output_0">
					<dim>1</dim>
					<dim>8</dim>
					<dim>4096</dim>
					<dim>7</dim>
				</port>
			</output>
		</layer>
		<layer id="229" name="Constant_4861" type="Const" version="opset1">
			<data element_type="f32" shape="1, 1, 1, 1" offset="9728456" size="4" />
			<output>
				<port id="0" precision="FP32">
					<dim>1</dim>
					<dim>1</dim>
					<dim>1</dim>
					<dim>1</dim>
				</port>
			</output>
		</layer>
		<layer id="230" name="/mask_decoder/transformer/layers.0/cross_attn_image_to_token/Div" type="Multiply" version="opset1">
			<data auto_broadcast="numpy" />
			<input>
				<port id="0" precision="FP32">
					<dim>1</dim>
					<dim>8</dim>
					<dim>4096</dim>
					<dim>7</dim>
				</port>
				<port id="1" precision="FP32">
					<dim>1</dim>
					<dim>1</dim>
					<dim>1</dim>
					<dim>1</dim>
				</port>
			</input>
			<output>
				<port id="2" precision="FP32" names="/mask_decoder/transformer/layers.0/cross_attn_image_to_token/Div_output_0">
					<dim>1</dim>
					<dim>8</dim>
					<dim>4096</dim>
					<dim>7</dim>
				</port>
			</output>
		</layer>
		<layer id="231" name="/mask_decoder/transformer/layers.0/cross_attn_image_to_token/Softmax" type="SoftMax" version="opset8">
			<data axis="-1" />
			<input>
				<port id="0" precision="FP32">
					<dim>1</dim>
					<dim>8</dim>
					<dim>4096</dim>
					<dim>7</dim>
				</port>
			</input>
			<output>
				<port id="1" precision="FP32" names="/mask_decoder/transformer/layers.0/cross_attn_image_to_token/Softmax_output_0">
					<dim>1</dim>
					<dim>8</dim>
					<dim>4096</dim>
					<dim>7</dim>
				</port>
			</output>
		</layer>
		<layer id="232" name="Constant_4862" type="Const" version="opset1">
			<data element_type="f32" shape="1, 1, 128" offset="15650788" size="512" />
			<output>
				<port id="0" precision="FP32">
					<dim>1</dim>
					<dim>1</dim>
					<dim>128</dim>
				</port>
			</output>
		</layer>
		<layer id="233" name="Transpose_3914" type="Const" version="opset1">
			<data element_type="f32" shape="128, 256" offset="15651300" size="131072" />
			<output>
				<port id="0" precision="FP32">
					<dim>128</dim>
					<dim>256</dim>
				</port>
			</output>
		</layer>
		<layer id="234" name="/mask_decoder/transformer/layers.0/cross_attn_image_to_token/v_proj/MatMul" type="MatMul" version="opset1">
			<data transpose_a="false" transpose_b="true" />
			<input>
				<port id="0" precision="FP32">
					<dim>1</dim>
					<dim>7</dim>
					<dim>256</dim>
				</port>
				<port id="1" precision="FP32">
					<dim>128</dim>
					<dim>256</dim>
				</port>
			</input>
			<output>
				<port id="2" precision="FP32" names="/mask_decoder/transformer/layers.0/cross_attn_image_to_token/v_proj/MatMul_output_0">
					<dim>1</dim>
					<dim>7</dim>
					<dim>128</dim>
				</port>
			</output>
		</layer>
		<layer id="235" name="/mask_decoder/transformer/layers.0/cross_attn_image_to_token/v_proj/Add" type="Add" version="opset1">
			<data auto_broadcast="numpy" />
			<input>
				<port id="0" precision="FP32">
					<dim>1</dim>
					<dim>1</dim>
					<dim>128</dim>
				</port>
				<port id="1" precision="FP32">
					<dim>1</dim>
					<dim>7</dim>
					<dim>128</dim>
				</port>
			</input>
			<output>
				<port id="2" precision="FP32" names="/mask_decoder/transformer/layers.0/cross_attn_image_to_token/v_proj/Add_output_0">
					<dim>1</dim>
					<dim>7</dim>
					<dim>128</dim>
				</port>
			</output>
		</layer>
		<layer id="236" name="/mask_decoder/transformer/layers.0/cross_attn_image_to_token/Reshape_2" type="Reshape" version="opset1">
			<data special_zero="true" />
			<input>
				<port id="0" precision="FP32">
					<dim>1</dim>
					<dim>7</dim>
					<dim>128</dim>
				</port>
				<port id="1" precision="I64">
					<dim>4</dim>
				</port>
			</input>
			<output>
				<port id="2" precision="FP32" names="/mask_decoder/transformer/layers.0/cross_attn_image_to_token/Reshape_2_output_0">
					<dim>1</dim>
					<dim>7</dim>
					<dim>8</dim>
					<dim>16</dim>
				</port>
			</output>
		</layer>
		<layer id="237" name="Constant_280" type="Const" version="opset1">
			<data element_type="i64" shape="4" offset="284916" size="32" />
			<output>
				<port id="0" precision="I64">
					<dim>4</dim>
				</port>
			</output>
		</layer>
		<layer id="238" name="/mask_decoder/transformer/layers.0/cross_attn_image_to_token/Transpose_1" type="Transpose" version="opset1">
			<input>
				<port id="0" precision="FP32">
					<dim>1</dim>
					<dim>7</dim>
					<dim>8</dim>
					<dim>16</dim>
				</port>
				<port id="1" precision="I64">
					<dim>4</dim>
				</port>
			</input>
			<output>
				<port id="2" precision="FP32" names="/mask_decoder/transformer/layers.0/cross_attn_image_to_token/Transpose_1_output_0">
					<dim>1</dim>
					<dim>8</dim>
					<dim>7</dim>
					<dim>16</dim>
				</port>
			</output>
		</layer>
		<layer id="239" name="/mask_decoder/transformer/layers.0/cross_attn_image_to_token/MatMul_1" type="MatMul" version="opset1">
			<data transpose_a="false" transpose_b="false" />
			<input>
				<port id="0" precision="FP32">
					<dim>1</dim>
					<dim>8</dim>
					<dim>4096</dim>
					<dim>7</dim>
				</port>
				<port id="1" precision="FP32">
					<dim>1</dim>
					<dim>8</dim>
					<dim>7</dim>
					<dim>16</dim>
				</port>
			</input>
			<output>
				<port id="2" precision="FP32" names="/mask_decoder/transformer/layers.0/cross_attn_image_to_token/MatMul_1_output_0">
					<dim>1</dim>
					<dim>8</dim>
					<dim>4096</dim>
					<dim>16</dim>
				</port>
			</output>
		</layer>
		<layer id="240" name="Constant_288" type="Const" version="opset1">
			<data element_type="i64" shape="4" offset="284916" size="32" />
			<output>
				<port id="0" precision="I64">
					<dim>4</dim>
				</port>
			</output>
		</layer>
		<layer id="241" name="/mask_decoder/transformer/layers.0/cross_attn_image_to_token/Transpose_3" type="Transpose" version="opset1">
			<input>
				<port id="0" precision="FP32">
					<dim>1</dim>
					<dim>8</dim>
					<dim>4096</dim>
					<dim>16</dim>
				</port>
				<port id="1" precision="I64">
					<dim>4</dim>
				</port>
			</input>
			<output>
				<port id="2" precision="FP32" names="/mask_decoder/transformer/layers.0/cross_attn_image_to_token/Transpose_3_output_0">
					<dim>1</dim>
					<dim>4096</dim>
					<dim>8</dim>
					<dim>16</dim>
				</port>
			</output>
		</layer>
		<layer id="242" name="/mask_decoder/transformer/layers.0/cross_attn_image_to_token/Constant_4_output_0" type="Const" version="opset1">
			<data element_type="i64" shape="3" offset="15782372" size="24" />
			<output>
				<port id="0" precision="I64" names="/mask_decoder/transformer/layers.0/cross_attn_image_to_token/Constant_4_output_0">
					<dim>3</dim>
				</port>
			</output>
		</layer>
		<layer id="243" name="/mask_decoder/transformer/layers.0/cross_attn_image_to_token/Reshape_3" type="Reshape" version="opset1">
			<data special_zero="true" />
			<input>
				<port id="0" precision="FP32">
					<dim>1</dim>
					<dim>4096</dim>
					<dim>8</dim>
					<dim>16</dim>
				</port>
				<port id="1" precision="I64">
					<dim>3</dim>
				</port>
			</input>
			<output>
				<port id="2" precision="FP32" names="/mask_decoder/transformer/layers.0/cross_attn_image_to_token/Reshape_3_output_0">
					<dim>1</dim>
					<dim>4096</dim>
					<dim>128</dim>
				</port>
			</output>
		</layer>
		<layer id="244" name="Transpose_3965" type="Const" version="opset1">
			<data element_type="f32" shape="256, 128" offset="15782396" size="131072" />
			<output>
				<port id="0" precision="FP32">
					<dim>256</dim>
					<dim>128</dim>
				</port>
			</output>
		</layer>
		<layer id="245" name="/mask_decoder/transformer/layers.0/cross_attn_image_to_token/out_proj/MatMul" type="MatMul" version="opset1">
			<data transpose_a="false" transpose_b="true" />
			<input>
				<port id="0" precision="FP32">
					<dim>1</dim>
					<dim>4096</dim>
					<dim>128</dim>
				</port>
				<port id="1" precision="FP32">
					<dim>256</dim>
					<dim>128</dim>
				</port>
			</input>
			<output>
				<port id="2" precision="FP32" names="/mask_decoder/transformer/layers.0/cross_attn_image_to_token/out_proj/MatMul_output_0">
					<dim>1</dim>
					<dim>4096</dim>
					<dim>256</dim>
				</port>
			</output>
		</layer>
		<layer id="246" name="/mask_decoder/transformer/layers.0/cross_attn_image_to_token/out_proj/Add" type="Add" version="opset1">
			<data auto_broadcast="numpy" />
			<input>
				<port id="0" precision="FP32">
					<dim>1</dim>
					<dim>1</dim>
					<dim>256</dim>
				</port>
				<port id="1" precision="FP32">
					<dim>1</dim>
					<dim>4096</dim>
					<dim>256</dim>
				</port>
			</input>
			<output>
				<port id="2" precision="FP32" names="/mask_decoder/transformer/layers.0/cross_attn_image_to_token/out_proj/Add_output_0">
					<dim>1</dim>
					<dim>4096</dim>
					<dim>256</dim>
				</port>
			</output>
		</layer>
		<layer id="247" name="/mask_decoder/transformer/layers.0/Add_5" type="Add" version="opset1">
			<data auto_broadcast="numpy" />
			<input>
				<port id="0" precision="FP32">
					<dim>1</dim>
					<dim>4096</dim>
					<dim>256</dim>
				</port>
				<port id="1" precision="FP32">
					<dim>1</dim>
					<dim>4096</dim>
					<dim>256</dim>
				</port>
			</input>
			<output>
				<port id="2" precision="FP32" names="/mask_decoder/transformer/layers.0/Add_5_output_0">
					<dim>1</dim>
					<dim>4096</dim>
					<dim>256</dim>
				</port>
			</output>
		</layer>
		<layer id="248" name="Range_297" type="Const" version="opset1">
			<data element_type="i64" shape="1" offset="1073488" size="8" />
			<output>
				<port id="0" precision="I64">
					<dim>1</dim>
				</port>
			</output>
		</layer>
		<layer id="249" name="MVN_298" type="MVN" version="opset6">
			<data eps="9.9999997473787516e-06" normalize_variance="true" eps_mode="INSIDE_SQRT" />
			<input>
				<port id="0" precision="FP32">
					<dim>1</dim>
					<dim>4096</dim>
					<dim>256</dim>
				</port>
				<port id="1" precision="I64">
					<dim>1</dim>
				</port>
			</input>
			<output>
				<port id="2" precision="FP32">
					<dim>1</dim>
					<dim>4096</dim>
					<dim>256</dim>
				</port>
			</output>
		</layer>
		<layer id="250" name="Constant_4864" type="Const" version="opset1">
			<data element_type="f32" shape="1, 1, 256" offset="15913468" size="1024" />
			<output>
				<port id="0" precision="FP32">
					<dim>1</dim>
					<dim>1</dim>
					<dim>256</dim>
				</port>
			</output>
		</layer>
		<layer id="251" name="Multiply_299" type="Multiply" version="opset1">
			<data auto_broadcast="numpy" />
			<input>
				<port id="0" precision="FP32">
					<dim>1</dim>
					<dim>4096</dim>
					<dim>256</dim>
				</port>
				<port id="1" precision="FP32">
					<dim>1</dim>
					<dim>1</dim>
					<dim>256</dim>
				</port>
			</input>
			<output>
				<port id="2" precision="FP32">
					<dim>1</dim>
					<dim>4096</dim>
					<dim>256</dim>
				</port>
			</output>
		</layer>
		<layer id="252" name="Constant_4865" type="Const" version="opset1">
			<data element_type="f32" shape="1, 1, 256" offset="15914492" size="1024" />
			<output>
				<port id="0" precision="FP32">
					<dim>1</dim>
					<dim>1</dim>
					<dim>256</dim>
				</port>
			</output>
		</layer>
		<layer id="253" name="/mask_decoder/transformer/layers.0/norm4/LayerNormalization" type="Add" version="opset1">
			<data auto_broadcast="numpy" />
			<input>
				<port id="0" precision="FP32">
					<dim>1</dim>
					<dim>4096</dim>
					<dim>256</dim>
				</port>
				<port id="1" precision="FP32">
					<dim>1</dim>
					<dim>1</dim>
					<dim>256</dim>
				</port>
			</input>
			<output>
				<port id="2" precision="FP32" names="/mask_decoder/transformer/layers.0/norm4/LayerNormalization_output_0">
					<dim>1</dim>
					<dim>4096</dim>
					<dim>256</dim>
				</port>
			</output>
		</layer>
		<layer id="254" name="/mask_decoder/transformer/layers.1/Add_2" type="Add" version="opset1">
			<data auto_broadcast="numpy" />
			<input>
				<port id="0" precision="FP32">
					<dim>1</dim>
					<dim>4096</dim>
					<dim>256</dim>
				</port>
				<port id="1" precision="FP32">
					<dim>1</dim>
					<dim>4096</dim>
					<dim>256</dim>
				</port>
			</input>
			<output>
				<port id="2" precision="FP32" names="/mask_decoder/transformer/layers.1/Add_2_output_0">
					<dim>1</dim>
					<dim>4096</dim>
					<dim>256</dim>
				</port>
			</output>
		</layer>
		<layer id="255" name="Transpose_4004" type="Const" version="opset1">
			<data element_type="f32" shape="128, 256" offset="15915516" size="131072" />
			<output>
				<port id="0" precision="FP32">
					<dim>128</dim>
					<dim>256</dim>
				</port>
			</output>
		</layer>
		<layer id="256" name="/mask_decoder/transformer/layers.1/cross_attn_token_to_image/k_proj/MatMul" type="MatMul" version="opset1">
			<data transpose_a="false" transpose_b="true" />
			<input>
				<port id="0" precision="FP32">
					<dim>1</dim>
					<dim>4096</dim>
					<dim>256</dim>
				</port>
				<port id="1" precision="FP32">
					<dim>128</dim>
					<dim>256</dim>
				</port>
			</input>
			<output>
				<port id="2" precision="FP32" names="/mask_decoder/transformer/layers.1/cross_attn_token_to_image/k_proj/MatMul_output_0">
					<dim>1</dim>
					<dim>4096</dim>
					<dim>128</dim>
				</port>
			</output>
		</layer>
		<layer id="257" name="/mask_decoder/transformer/layers.1/cross_attn_token_to_image/k_proj/Add" type="Add" version="opset1">
			<data auto_broadcast="numpy" />
			<input>
				<port id="0" precision="FP32">
					<dim>1</dim>
					<dim>1</dim>
					<dim>128</dim>
				</port>
				<port id="1" precision="FP32">
					<dim>1</dim>
					<dim>4096</dim>
					<dim>128</dim>
				</port>
			</input>
			<output>
				<port id="2" precision="FP32" names="/mask_decoder/transformer/layers.1/cross_attn_token_to_image/k_proj/Add_output_0">
					<dim>1</dim>
					<dim>4096</dim>
					<dim>128</dim>
				</port>
			</output>
		</layer>
		<layer id="258" name="/mask_decoder/transformer/layers.1/cross_attn_token_to_image/Reshape_1" type="Reshape" version="opset1">
			<data special_zero="true" />
			<input>
				<port id="0" precision="FP32">
					<dim>1</dim>
					<dim>4096</dim>
					<dim>128</dim>
				</port>
				<port id="1" precision="I64">
					<dim>4</dim>
				</port>
			</input>
			<output>
				<port id="2" precision="FP32" names="/mask_decoder/transformer/layers.1/cross_attn_token_to_image/Reshape_1_output_0">
					<dim>1</dim>
					<dim>4096</dim>
					<dim>8</dim>
					<dim>16</dim>
				</port>
			</output>
		</layer>
		<layer id="259" name="Constant_348" type="Const" version="opset1">
			<data element_type="i64" shape="4" offset="548116" size="32" />
			<output>
				<port id="0" precision="I64">
					<dim>4</dim>
				</port>
			</output>
		</layer>
		<layer id="260" name="/mask_decoder/transformer/layers.1/cross_attn_token_to_image/Transpose_2" type="Transpose" version="opset1">
			<input>
				<port id="0" precision="FP32">
					<dim>1</dim>
					<dim>4096</dim>
					<dim>8</dim>
					<dim>16</dim>
				</port>
				<port id="1" precision="I64">
					<dim>4</dim>
				</port>
			</input>
			<output>
				<port id="2" precision="FP32" names="/mask_decoder/transformer/layers.1/cross_attn_token_to_image/Transpose_2_output_0">
					<dim>1</dim>
					<dim>8</dim>
					<dim>16</dim>
					<dim>4096</dim>
				</port>
			</output>
		</layer>
		<layer id="261" name="/mask_decoder/transformer/layers.1/cross_attn_token_to_image/MatMul" type="MatMul" version="opset1">
			<data transpose_a="false" transpose_b="false" />
			<input>
				<port id="0" precision="FP32">
					<dim>1</dim>
					<dim>8</dim>
					<dim>7</dim>
					<dim>16</dim>
				</port>
				<port id="1" precision="FP32">
					<dim>1</dim>
					<dim>8</dim>
					<dim>16</dim>
					<dim>4096</dim>
				</port>
			</input>
			<output>
				<port id="2" precision="FP32" names="/mask_decoder/transformer/layers.1/cross_attn_token_to_image/MatMul_output_0">
					<dim>1</dim>
					<dim>8</dim>
					<dim>7</dim>
					<dim>4096</dim>
				</port>
			</output>
		</layer>
		<layer id="262" name="Constant_4867" type="Const" version="opset1">
			<data element_type="f32" shape="1, 1, 1, 1" offset="9728456" size="4" />
			<output>
				<port id="0" precision="FP32">
					<dim>1</dim>
					<dim>1</dim>
					<dim>1</dim>
					<dim>1</dim>
				</port>
			</output>
		</layer>
		<layer id="263" name="/mask_decoder/transformer/layers.1/cross_attn_token_to_image/Div" type="Multiply" version="opset1">
			<data auto_broadcast="numpy" />
			<input>
				<port id="0" precision="FP32">
					<dim>1</dim>
					<dim>8</dim>
					<dim>7</dim>
					<dim>4096</dim>
				</port>
				<port id="1" precision="FP32">
					<dim>1</dim>
					<dim>1</dim>
					<dim>1</dim>
					<dim>1</dim>
				</port>
			</input>
			<output>
				<port id="2" precision="FP32" names="/mask_decoder/transformer/layers.1/cross_attn_token_to_image/Div_output_0">
					<dim>1</dim>
					<dim>8</dim>
					<dim>7</dim>
					<dim>4096</dim>
				</port>
			</output>
		</layer>
		<layer id="264" name="/mask_decoder/transformer/layers.1/cross_attn_token_to_image/Softmax" type="SoftMax" version="opset8">
			<data axis="-1" />
			<input>
				<port id="0" precision="FP32">
					<dim>1</dim>
					<dim>8</dim>
					<dim>7</dim>
					<dim>4096</dim>
				</port>
			</input>
			<output>
				<port id="1" precision="FP32" names="/mask_decoder/transformer/layers.1/cross_attn_token_to_image/Softmax_output_0">
					<dim>1</dim>
					<dim>8</dim>
					<dim>7</dim>
					<dim>4096</dim>
				</port>
			</output>
		</layer>
		<layer id="265" name="Constant_4868" type="Const" version="opset1">
			<data element_type="f32" shape="1, 1, 128" offset="16046588" size="512" />
			<output>
				<port id="0" precision="FP32">
					<dim>1</dim>
					<dim>1</dim>
					<dim>128</dim>
				</port>
			</output>
		</layer>
		<layer id="266" name="Transpose_4039" type="Const" version="opset1">
			<data element_type="f32" shape="128, 256" offset="16047100" size="131072" />
			<output>
				<port id="0" precision="FP32">
					<dim>128</dim>
					<dim>256</dim>
				</port>
			</output>
		</layer>
		<layer id="267" name="/mask_decoder/transformer/layers.1/cross_attn_token_to_image/v_proj/MatMul" type="MatMul" version="opset1">
			<data transpose_a="false" transpose_b="true" />
			<input>
				<port id="0" precision="FP32">
					<dim>1</dim>
					<dim>4096</dim>
					<dim>256</dim>
				</port>
				<port id="1" precision="FP32">
					<dim>128</dim>
					<dim>256</dim>
				</port>
			</input>
			<output>
				<port id="2" precision="FP32" names="/mask_decoder/transformer/layers.1/cross_attn_token_to_image/v_proj/MatMul_output_0">
					<dim>1</dim>
					<dim>4096</dim>
					<dim>128</dim>
				</port>
			</output>
		</layer>
		<layer id="268" name="/mask_decoder/transformer/layers.1/cross_attn_token_to_image/v_proj/Add" type="Add" version="opset1">
			<data auto_broadcast="numpy" />
			<input>
				<port id="0" precision="FP32">
					<dim>1</dim>
					<dim>1</dim>
					<dim>128</dim>
				</port>
				<port id="1" precision="FP32">
					<dim>1</dim>
					<dim>4096</dim>
					<dim>128</dim>
				</port>
			</input>
			<output>
				<port id="2" precision="FP32" names="/mask_decoder/transformer/layers.1/cross_attn_token_to_image/v_proj/Add_output_0">
					<dim>1</dim>
					<dim>4096</dim>
					<dim>128</dim>
				</port>
			</output>
		</layer>
		<layer id="269" name="/mask_decoder/transformer/layers.1/cross_attn_token_to_image/Reshape_2" type="Reshape" version="opset1">
			<data special_zero="true" />
			<input>
				<port id="0" precision="FP32">
					<dim>1</dim>
					<dim>4096</dim>
					<dim>128</dim>
				</port>
				<port id="1" precision="I64">
					<dim>4</dim>
				</port>
			</input>
			<output>
				<port id="2" precision="FP32" names="/mask_decoder/transformer/layers.1/cross_attn_token_to_image/Reshape_2_output_0">
					<dim>1</dim>
					<dim>4096</dim>
					<dim>8</dim>
					<dim>16</dim>
				</port>
			</output>
		</layer>
		<layer id="270" name="Constant_346" type="Const" version="opset1">
			<data element_type="i64" shape="4" offset="284916" size="32" />
			<output>
				<port id="0" precision="I64">
					<dim>4</dim>
				</port>
			</output>
		</layer>
		<layer id="271" name="/mask_decoder/transformer/layers.1/cross_attn_token_to_image/Transpose_1" type="Transpose" version="opset1">
			<input>
				<port id="0" precision="FP32">
					<dim>1</dim>
					<dim>4096</dim>
					<dim>8</dim>
					<dim>16</dim>
				</port>
				<port id="1" precision="I64">
					<dim>4</dim>
				</port>
			</input>
			<output>
				<port id="2" precision="FP32" names="/mask_decoder/transformer/layers.1/cross_attn_token_to_image/Transpose_1_output_0">
					<dim>1</dim>
					<dim>8</dim>
					<dim>4096</dim>
					<dim>16</dim>
				</port>
			</output>
		</layer>
		<layer id="272" name="/mask_decoder/transformer/layers.1/cross_attn_token_to_image/MatMul_1" type="MatMul" version="opset1">
			<data transpose_a="false" transpose_b="false" />
			<input>
				<port id="0" precision="FP32">
					<dim>1</dim>
					<dim>8</dim>
					<dim>7</dim>
					<dim>4096</dim>
				</port>
				<port id="1" precision="FP32">
					<dim>1</dim>
					<dim>8</dim>
					<dim>4096</dim>
					<dim>16</dim>
				</port>
			</input>
			<output>
				<port id="2" precision="FP32" names="/mask_decoder/transformer/layers.1/cross_attn_token_to_image/MatMul_1_output_0">
					<dim>1</dim>
					<dim>8</dim>
					<dim>7</dim>
					<dim>16</dim>
				</port>
			</output>
		</layer>
		<layer id="273" name="Constant_354" type="Const" version="opset1">
			<data element_type="i64" shape="4" offset="284916" size="32" />
			<output>
				<port id="0" precision="I64">
					<dim>4</dim>
				</port>
			</output>
		</layer>
		<layer id="274" name="/mask_decoder/transformer/layers.1/cross_attn_token_to_image/Transpose_3" type="Transpose" version="opset1">
			<input>
				<port id="0" precision="FP32">
					<dim>1</dim>
					<dim>8</dim>
					<dim>7</dim>
					<dim>16</dim>
				</port>
				<port id="1" precision="I64">
					<dim>4</dim>
				</port>
			</input>
			<output>
				<port id="2" precision="FP32" names="/mask_decoder/transformer/layers.1/cross_attn_token_to_image/Transpose_3_output_0">
					<dim>1</dim>
					<dim>7</dim>
					<dim>8</dim>
					<dim>16</dim>
				</port>
			</output>
		</layer>
		<layer id="275" name="/mask_decoder/transformer/layers.1/cross_attn_token_to_image/Reshape_3" type="Reshape" version="opset1">
			<data special_zero="true" />
			<input>
				<port id="0" precision="FP32">
					<dim>1</dim>
					<dim>7</dim>
					<dim>8</dim>
					<dim>16</dim>
				</port>
				<port id="1" precision="I64">
					<dim>3</dim>
				</port>
			</input>
			<output>
				<port id="2" precision="FP32" names="/mask_decoder/transformer/layers.1/cross_attn_token_to_image/Reshape_3_output_0">
					<dim>1</dim>
					<dim>7</dim>
					<dim>128</dim>
				</port>
			</output>
		</layer>
		<layer id="276" name="Transpose_4088" type="Const" version="opset1">
			<data element_type="f32" shape="256, 128" offset="16178172" size="131072" />
			<output>
				<port id="0" precision="FP32">
					<dim>256</dim>
					<dim>128</dim>
				</port>
			</output>
		</layer>
		<layer id="277" name="/mask_decoder/transformer/layers.1/cross_attn_token_to_image/out_proj/MatMul" type="MatMul" version="opset1">
			<data transpose_a="false" transpose_b="true" />
			<input>
				<port id="0" precision="FP32">
					<dim>1</dim>
					<dim>7</dim>
					<dim>128</dim>
				</port>
				<port id="1" precision="FP32">
					<dim>256</dim>
					<dim>128</dim>
				</port>
			</input>
			<output>
				<port id="2" precision="FP32" names="/mask_decoder/transformer/layers.1/cross_attn_token_to_image/out_proj/MatMul_output_0">
					<dim>1</dim>
					<dim>7</dim>
					<dim>256</dim>
				</port>
			</output>
		</layer>
		<layer id="278" name="/mask_decoder/transformer/layers.1/cross_attn_token_to_image/out_proj/Add" type="Add" version="opset1">
			<data auto_broadcast="numpy" />
			<input>
				<port id="0" precision="FP32">
					<dim>1</dim>
					<dim>1</dim>
					<dim>256</dim>
				</port>
				<port id="1" precision="FP32">
					<dim>1</dim>
					<dim>7</dim>
					<dim>256</dim>
				</port>
			</input>
			<output>
				<port id="2" precision="FP32" names="/mask_decoder/transformer/layers.1/cross_attn_token_to_image/out_proj/Add_output_0">
					<dim>1</dim>
					<dim>7</dim>
					<dim>256</dim>
				</port>
			</output>
		</layer>
		<layer id="279" name="/mask_decoder/transformer/layers.1/Add_3" type="Add" version="opset1">
			<data auto_broadcast="numpy" />
			<input>
				<port id="0" precision="FP32">
					<dim>1</dim>
					<dim>7</dim>
					<dim>256</dim>
				</port>
				<port id="1" precision="FP32">
					<dim>1</dim>
					<dim>7</dim>
					<dim>256</dim>
				</port>
			</input>
			<output>
				<port id="2" precision="FP32" names="/mask_decoder/transformer/layers.1/Add_3_output_0">
					<dim>1</dim>
					<dim>7</dim>
					<dim>256</dim>
				</port>
			</output>
		</layer>
		<layer id="280" name="Range_363" type="Const" version="opset1">
			<data element_type="i64" shape="1" offset="1073488" size="8" />
			<output>
				<port id="0" precision="I64">
					<dim>1</dim>
				</port>
			</output>
		</layer>
		<layer id="281" name="MVN_364" type="MVN" version="opset6">
			<data eps="9.9999997473787516e-06" normalize_variance="true" eps_mode="INSIDE_SQRT" />
			<input>
				<port id="0" precision="FP32">
					<dim>1</dim>
					<dim>7</dim>
					<dim>256</dim>
				</port>
				<port id="1" precision="I64">
					<dim>1</dim>
				</port>
			</input>
			<output>
				<port id="2" precision="FP32">
					<dim>1</dim>
					<dim>7</dim>
					<dim>256</dim>
				</port>
			</output>
		</layer>
		<layer id="282" name="Constant_4870" type="Const" version="opset1">
			<data element_type="f32" shape="1, 1, 256" offset="16309244" size="1024" />
			<output>
				<port id="0" precision="FP32">
					<dim>1</dim>
					<dim>1</dim>
					<dim>256</dim>
				</port>
			</output>
		</layer>
		<layer id="283" name="Multiply_365" type="Multiply" version="opset1">
			<data auto_broadcast="numpy" />
			<input>
				<port id="0" precision="FP32">
					<dim>1</dim>
					<dim>7</dim>
					<dim>256</dim>
				</port>
				<port id="1" precision="FP32">
					<dim>1</dim>
					<dim>1</dim>
					<dim>256</dim>
				</port>
			</input>
			<output>
				<port id="2" precision="FP32">
					<dim>1</dim>
					<dim>7</dim>
					<dim>256</dim>
				</port>
			</output>
		</layer>
		<layer id="284" name="Constant_4871" type="Const" version="opset1">
			<data element_type="f32" shape="1, 1, 256" offset="16310268" size="1024" />
			<output>
				<port id="0" precision="FP32">
					<dim>1</dim>
					<dim>1</dim>
					<dim>256</dim>
				</port>
			</output>
		</layer>
		<layer id="285" name="/mask_decoder/transformer/layers.1/norm2/LayerNormalization" type="Add" version="opset1">
			<data auto_broadcast="numpy" />
			<input>
				<port id="0" precision="FP32">
					<dim>1</dim>
					<dim>7</dim>
					<dim>256</dim>
				</port>
				<port id="1" precision="FP32">
					<dim>1</dim>
					<dim>1</dim>
					<dim>256</dim>
				</port>
			</input>
			<output>
				<port id="2" precision="FP32" names="/mask_decoder/transformer/layers.1/norm2/LayerNormalization_output_0">
					<dim>1</dim>
					<dim>7</dim>
					<dim>256</dim>
				</port>
			</output>
		</layer>
		<layer id="286" name="Constant_4873" type="Const" version="opset1">
			<data element_type="f32" shape="1, 1, 256" offset="16311292" size="1024" />
			<output>
				<port id="0" precision="FP32">
					<dim>1</dim>
					<dim>1</dim>
					<dim>256</dim>
				</port>
			</output>
		</layer>
		<layer id="287" name="Constant_4872" type="Const" version="opset1">
			<data element_type="f32" shape="1, 1, 2048" offset="16312316" size="8192" />
			<output>
				<port id="0" precision="FP32">
					<dim>1</dim>
					<dim>1</dim>
					<dim>2048</dim>
				</port>
			</output>
		</layer>
		<layer id="288" name="Transpose_4127" type="Const" version="opset1">
			<data element_type="f32" shape="2048, 256" offset="16320508" size="2097152" />
			<output>
				<port id="0" precision="FP32">
					<dim>2048</dim>
					<dim>256</dim>
				</port>
			</output>
		</layer>
		<layer id="289" name="/mask_decoder/transformer/layers.1/mlp/lin1/MatMul" type="MatMul" version="opset1">
			<data transpose_a="false" transpose_b="true" />
			<input>
				<port id="0" precision="FP32">
					<dim>1</dim>
					<dim>7</dim>
					<dim>256</dim>
				</port>
				<port id="1" precision="FP32">
					<dim>2048</dim>
					<dim>256</dim>
				</port>
			</input>
			<output>
				<port id="2" precision="FP32" names="/mask_decoder/transformer/layers.1/mlp/lin1/MatMul_output_0">
					<dim>1</dim>
					<dim>7</dim>
					<dim>2048</dim>
				</port>
			</output>
		</layer>
		<layer id="290" name="/mask_decoder/transformer/layers.1/mlp/lin1/Add" type="Add" version="opset1">
			<data auto_broadcast="numpy" />
			<input>
				<port id="0" precision="FP32">
					<dim>1</dim>
					<dim>1</dim>
					<dim>2048</dim>
				</port>
				<port id="1" precision="FP32">
					<dim>1</dim>
					<dim>7</dim>
					<dim>2048</dim>
				</port>
			</input>
			<output>
				<port id="2" precision="FP32" names="/mask_decoder/transformer/layers.1/mlp/lin1/Add_output_0">
					<dim>1</dim>
					<dim>7</dim>
					<dim>2048</dim>
				</port>
			</output>
		</layer>
		<layer id="291" name="/mask_decoder/transformer/layers.1/mlp/act/Relu" type="ReLU" version="opset1">
			<input>
				<port id="0" precision="FP32">
					<dim>1</dim>
					<dim>7</dim>
					<dim>2048</dim>
				</port>
			</input>
			<output>
				<port id="1" precision="FP32" names="/mask_decoder/transformer/layers.1/mlp/act/Relu_output_0">
					<dim>1</dim>
					<dim>7</dim>
					<dim>2048</dim>
				</port>
			</output>
		</layer>
		<layer id="292" name="Transpose_4144" type="Const" version="opset1">
			<data element_type="f32" shape="256, 2048" offset="18417660" size="2097152" />
			<output>
				<port id="0" precision="FP32">
					<dim>256</dim>
					<dim>2048</dim>
				</port>
			</output>
		</layer>
		<layer id="293" name="/mask_decoder/transformer/layers.1/mlp/lin2/MatMul" type="MatMul" version="opset1">
			<data transpose_a="false" transpose_b="true" />
			<input>
				<port id="0" precision="FP32">
					<dim>1</dim>
					<dim>7</dim>
					<dim>2048</dim>
				</port>
				<port id="1" precision="FP32">
					<dim>256</dim>
					<dim>2048</dim>
				</port>
			</input>
			<output>
				<port id="2" precision="FP32" names="/mask_decoder/transformer/layers.1/mlp/lin2/MatMul_output_0">
					<dim>1</dim>
					<dim>7</dim>
					<dim>256</dim>
				</port>
			</output>
		</layer>
		<layer id="294" name="/mask_decoder/transformer/layers.1/mlp/lin2/Add" type="Add" version="opset1">
			<data auto_broadcast="numpy" />
			<input>
				<port id="0" precision="FP32">
					<dim>1</dim>
					<dim>1</dim>
					<dim>256</dim>
				</port>
				<port id="1" precision="FP32">
					<dim>1</dim>
					<dim>7</dim>
					<dim>256</dim>
				</port>
			</input>
			<output>
				<port id="2" precision="FP32" names="/mask_decoder/transformer/layers.1/mlp/lin2/Add_output_0">
					<dim>1</dim>
					<dim>7</dim>
					<dim>256</dim>
				</port>
			</output>
		</layer>
		<layer id="295" name="/mask_decoder/transformer/layers.1/Add_4" type="Add" version="opset1">
			<data auto_broadcast="numpy" />
			<input>
				<port id="0" precision="FP32">
					<dim>1</dim>
					<dim>7</dim>
					<dim>256</dim>
				</port>
				<port id="1" precision="FP32">
					<dim>1</dim>
					<dim>7</dim>
					<dim>256</dim>
				</port>
			</input>
			<output>
				<port id="2" precision="FP32" names="/mask_decoder/transformer/layers.1/Add_4_output_0">
					<dim>1</dim>
					<dim>7</dim>
					<dim>256</dim>
				</port>
			</output>
		</layer>
		<layer id="296" name="Range_376" type="Const" version="opset1">
			<data element_type="i64" shape="1" offset="1073488" size="8" />
			<output>
				<port id="0" precision="I64">
					<dim>1</dim>
				</port>
			</output>
		</layer>
		<layer id="297" name="MVN_377" type="MVN" version="opset6">
			<data eps="9.9999997473787516e-06" normalize_variance="true" eps_mode="INSIDE_SQRT" />
			<input>
				<port id="0" precision="FP32">
					<dim>1</dim>
					<dim>7</dim>
					<dim>256</dim>
				</port>
				<port id="1" precision="I64">
					<dim>1</dim>
				</port>
			</input>
			<output>
				<port id="2" precision="FP32">
					<dim>1</dim>
					<dim>7</dim>
					<dim>256</dim>
				</port>
			</output>
		</layer>
		<layer id="298" name="Constant_4874" type="Const" version="opset1">
			<data element_type="f32" shape="1, 1, 256" offset="20514812" size="1024" />
			<output>
				<port id="0" precision="FP32">
					<dim>1</dim>
					<dim>1</dim>
					<dim>256</dim>
				</port>
			</output>
		</layer>
		<layer id="299" name="Multiply_378" type="Multiply" version="opset1">
			<data auto_broadcast="numpy" />
			<input>
				<port id="0" precision="FP32">
					<dim>1</dim>
					<dim>7</dim>
					<dim>256</dim>
				</port>
				<port id="1" precision="FP32">
					<dim>1</dim>
					<dim>1</dim>
					<dim>256</dim>
				</port>
			</input>
			<output>
				<port id="2" precision="FP32">
					<dim>1</dim>
					<dim>7</dim>
					<dim>256</dim>
				</port>
			</output>
		</layer>
		<layer id="300" name="Constant_4875" type="Const" version="opset1">
			<data element_type="f32" shape="1, 1, 256" offset="20515836" size="1024" />
			<output>
				<port id="0" precision="FP32">
					<dim>1</dim>
					<dim>1</dim>
					<dim>256</dim>
				</port>
			</output>
		</layer>
		<layer id="301" name="/mask_decoder/transformer/layers.1/norm3/LayerNormalization" type="Add" version="opset1">
			<data auto_broadcast="numpy" />
			<input>
				<port id="0" precision="FP32">
					<dim>1</dim>
					<dim>7</dim>
					<dim>256</dim>
				</port>
				<port id="1" precision="FP32">
					<dim>1</dim>
					<dim>1</dim>
					<dim>256</dim>
				</port>
			</input>
			<output>
				<port id="2" precision="FP32" names="/mask_decoder/transformer/layers.1/norm3/LayerNormalization_output_0">
					<dim>1</dim>
					<dim>7</dim>
					<dim>256</dim>
				</port>
			</output>
		</layer>
		<layer id="302" name="Constant_4887" type="Const" version="opset1">
			<data element_type="f32" shape="1, 1, 256" offset="20516860" size="1024" />
			<output>
				<port id="0" precision="FP32">
					<dim>1</dim>
					<dim>1</dim>
					<dim>256</dim>
				</port>
			</output>
		</layer>
		<layer id="303" name="Constant_4876" type="Const" version="opset1">
			<data element_type="f32" shape="1, 1, 128" offset="20517884" size="512" />
			<output>
				<port id="0" precision="FP32">
					<dim>1</dim>
					<dim>1</dim>
					<dim>128</dim>
				</port>
			</output>
		</layer>
		<layer id="304" name="/mask_decoder/transformer/layers.1/Add_5" type="Add" version="opset1">
			<data auto_broadcast="numpy" />
			<input>
				<port id="0" precision="FP32">
					<dim>1</dim>
					<dim>7</dim>
					<dim>256</dim>
				</port>
				<port id="1" precision="FP32">
					<dim>1</dim>
					<dim>7</dim>
					<dim>256</dim>
				</port>
			</input>
			<output>
				<port id="2" precision="FP32" names="/mask_decoder/transformer/layers.1/Add_5_output_0">
					<dim>1</dim>
					<dim>7</dim>
					<dim>256</dim>
				</port>
			</output>
		</layer>
		<layer id="305" name="Transpose_4187" type="Const" version="opset1">
			<data element_type="f32" shape="128, 256" offset="20518396" size="131072" />
			<output>
				<port id="0" precision="FP32">
					<dim>128</dim>
					<dim>256</dim>
				</port>
			</output>
		</layer>
		<layer id="306" name="/mask_decoder/transformer/final_attn_token_to_image/q_proj/MatMul" type="MatMul" version="opset1">
			<data transpose_a="false" transpose_b="true" />
			<input>
				<port id="0" precision="FP32">
					<dim>1</dim>
					<dim>7</dim>
					<dim>256</dim>
				</port>
				<port id="1" precision="FP32">
					<dim>128</dim>
					<dim>256</dim>
				</port>
			</input>
			<output>
				<port id="2" precision="FP32" names="/mask_decoder/transformer/final_attn_token_to_image/q_proj/MatMul_output_0">
					<dim>1</dim>
					<dim>7</dim>
					<dim>128</dim>
				</port>
			</output>
		</layer>
		<layer id="307" name="/mask_decoder/transformer/final_attn_token_to_image/q_proj/Add" type="Add" version="opset1">
			<data auto_broadcast="numpy" />
			<input>
				<port id="0" precision="FP32">
					<dim>1</dim>
					<dim>1</dim>
					<dim>128</dim>
				</port>
				<port id="1" precision="FP32">
					<dim>1</dim>
					<dim>7</dim>
					<dim>128</dim>
				</port>
			</input>
			<output>
				<port id="2" precision="FP32" names="/mask_decoder/transformer/final_attn_token_to_image/q_proj/Add_output_0">
					<dim>1</dim>
					<dim>7</dim>
					<dim>128</dim>
				</port>
			</output>
		</layer>
		<layer id="308" name="/mask_decoder/transformer/final_attn_token_to_image/Reshape" type="Reshape" version="opset1">
			<data special_zero="true" />
			<input>
				<port id="0" precision="FP32">
					<dim>1</dim>
					<dim>7</dim>
					<dim>128</dim>
				</port>
				<port id="1" precision="I64">
					<dim>4</dim>
				</port>
			</input>
			<output>
				<port id="2" precision="FP32" names="/mask_decoder/transformer/final_attn_token_to_image/Reshape_output_0">
					<dim>1</dim>
					<dim>7</dim>
					<dim>8</dim>
					<dim>16</dim>
				</port>
			</output>
		</layer>
		<layer id="309" name="Constant_421" type="Const" version="opset1">
			<data element_type="i64" shape="4" offset="284916" size="32" />
			<output>
				<port id="0" precision="I64">
					<dim>4</dim>
				</port>
			</output>
		</layer>
		<layer id="310" name="/mask_decoder/transformer/final_attn_token_to_image/Transpose" type="Transpose" version="opset1">
			<input>
				<port id="0" precision="FP32">
					<dim>1</dim>
					<dim>7</dim>
					<dim>8</dim>
					<dim>16</dim>
				</port>
				<port id="1" precision="I64">
					<dim>4</dim>
				</port>
			</input>
			<output>
				<port id="2" precision="FP32" names="/mask_decoder/transformer/final_attn_token_to_image/Transpose_output_0">
					<dim>1</dim>
					<dim>8</dim>
					<dim>7</dim>
					<dim>16</dim>
				</port>
			</output>
		</layer>
		<layer id="311" name="Constant_4884" type="Const" version="opset1">
			<data element_type="f32" shape="1, 1, 128" offset="20649468" size="512" />
			<output>
				<port id="0" precision="FP32">
					<dim>1</dim>
					<dim>1</dim>
					<dim>128</dim>
				</port>
			</output>
		</layer>
		<layer id="312" name="Constant_4881" type="Const" version="opset1">
			<data element_type="f32" shape="1, 1, 256" offset="20649980" size="1024" />
			<output>
				<port id="0" precision="FP32">
					<dim>1</dim>
					<dim>1</dim>
					<dim>256</dim>
				</port>
			</output>
		</layer>
		<layer id="313" name="Constant_4877" type="Const" version="opset1">
			<data element_type="f32" shape="1, 1, 128" offset="20651004" size="512" />
			<output>
				<port id="0" precision="FP32">
					<dim>1</dim>
					<dim>1</dim>
					<dim>128</dim>
				</port>
			</output>
		</layer>
		<layer id="314" name="Transpose_4214" type="Const" version="opset1">
			<data element_type="f32" shape="128, 256" offset="20651516" size="131072" />
			<output>
				<port id="0" precision="FP32">
					<dim>128</dim>
					<dim>256</dim>
				</port>
			</output>
		</layer>
		<layer id="315" name="/mask_decoder/transformer/layers.1/cross_attn_image_to_token/q_proj/MatMul" type="MatMul" version="opset1">
			<data transpose_a="false" transpose_b="true" />
			<input>
				<port id="0" precision="FP32">
					<dim>1</dim>
					<dim>4096</dim>
					<dim>256</dim>
				</port>
				<port id="1" precision="FP32">
					<dim>128</dim>
					<dim>256</dim>
				</port>
			</input>
			<output>
				<port id="2" precision="FP32" names="/mask_decoder/transformer/layers.1/cross_attn_image_to_token/q_proj/MatMul_output_0">
					<dim>1</dim>
					<dim>4096</dim>
					<dim>128</dim>
				</port>
			</output>
		</layer>
		<layer id="316" name="/mask_decoder/transformer/layers.1/cross_attn_image_to_token/q_proj/Add" type="Add" version="opset1">
			<data auto_broadcast="numpy" />
			<input>
				<port id="0" precision="FP32">
					<dim>1</dim>
					<dim>1</dim>
					<dim>128</dim>
				</port>
				<port id="1" precision="FP32">
					<dim>1</dim>
					<dim>4096</dim>
					<dim>128</dim>
				</port>
			</input>
			<output>
				<port id="2" precision="FP32" names="/mask_decoder/transformer/layers.1/cross_attn_image_to_token/q_proj/Add_output_0">
					<dim>1</dim>
					<dim>4096</dim>
					<dim>128</dim>
				</port>
			</output>
		</layer>
		<layer id="317" name="/mask_decoder/transformer/layers.1/cross_attn_image_to_token/Reshape" type="Reshape" version="opset1">
			<data special_zero="true" />
			<input>
				<port id="0" precision="FP32">
					<dim>1</dim>
					<dim>4096</dim>
					<dim>128</dim>
				</port>
				<port id="1" precision="I64">
					<dim>4</dim>
				</port>
			</input>
			<output>
				<port id="2" precision="FP32" names="/mask_decoder/transformer/layers.1/cross_attn_image_to_token/Reshape_output_0">
					<dim>1</dim>
					<dim>4096</dim>
					<dim>8</dim>
					<dim>16</dim>
				</port>
			</output>
		</layer>
		<layer id="318" name="Constant_388" type="Const" version="opset1">
			<data element_type="i64" shape="4" offset="284916" size="32" />
			<output>
				<port id="0" precision="I64">
					<dim>4</dim>
				</port>
			</output>
		</layer>
		<layer id="319" name="/mask_decoder/transformer/layers.1/cross_attn_image_to_token/Transpose" type="Transpose" version="opset1">
			<input>
				<port id="0" precision="FP32">
					<dim>1</dim>
					<dim>4096</dim>
					<dim>8</dim>
					<dim>16</dim>
				</port>
				<port id="1" precision="I64">
					<dim>4</dim>
				</port>
			</input>
			<output>
				<port id="2" precision="FP32" names="/mask_decoder/transformer/layers.1/cross_attn_image_to_token/Transpose_output_0">
					<dim>1</dim>
					<dim>8</dim>
					<dim>4096</dim>
					<dim>16</dim>
				</port>
			</output>
		</layer>
		<layer id="320" name="Constant_4878" type="Const" version="opset1">
			<data element_type="f32" shape="1, 1, 128" offset="20782588" size="512" />
			<output>
				<port id="0" precision="FP32">
					<dim>1</dim>
					<dim>1</dim>
					<dim>128</dim>
				</port>
			</output>
		</layer>
		<layer id="321" name="Transpose_4237" type="Const" version="opset1">
			<data element_type="f32" shape="128, 256" offset="20783100" size="131072" />
			<output>
				<port id="0" precision="FP32">
					<dim>128</dim>
					<dim>256</dim>
				</port>
			</output>
		</layer>
		<layer id="322" name="/mask_decoder/transformer/layers.1/cross_attn_image_to_token/k_proj/MatMul" type="MatMul" version="opset1">
			<data transpose_a="false" transpose_b="true" />
			<input>
				<port id="0" precision="FP32">
					<dim>1</dim>
					<dim>7</dim>
					<dim>256</dim>
				</port>
				<port id="1" precision="FP32">
					<dim>128</dim>
					<dim>256</dim>
				</port>
			</input>
			<output>
				<port id="2" precision="FP32" names="/mask_decoder/transformer/layers.1/cross_attn_image_to_token/k_proj/MatMul_output_0">
					<dim>1</dim>
					<dim>7</dim>
					<dim>128</dim>
				</port>
			</output>
		</layer>
		<layer id="323" name="/mask_decoder/transformer/layers.1/cross_attn_image_to_token/k_proj/Add" type="Add" version="opset1">
			<data auto_broadcast="numpy" />
			<input>
				<port id="0" precision="FP32">
					<dim>1</dim>
					<dim>1</dim>
					<dim>128</dim>
				</port>
				<port id="1" precision="FP32">
					<dim>1</dim>
					<dim>7</dim>
					<dim>128</dim>
				</port>
			</input>
			<output>
				<port id="2" precision="FP32" names="/mask_decoder/transformer/layers.1/cross_attn_image_to_token/k_proj/Add_output_0">
					<dim>1</dim>
					<dim>7</dim>
					<dim>128</dim>
				</port>
			</output>
		</layer>
		<layer id="324" name="/mask_decoder/transformer/layers.1/cross_attn_image_to_token/Reshape_1" type="Reshape" version="opset1">
			<data special_zero="true" />
			<input>
				<port id="0" precision="FP32">
					<dim>1</dim>
					<dim>7</dim>
					<dim>128</dim>
				</port>
				<port id="1" precision="I64">
					<dim>4</dim>
				</port>
			</input>
			<output>
				<port id="2" precision="FP32" names="/mask_decoder/transformer/layers.1/cross_attn_image_to_token/Reshape_1_output_0">
					<dim>1</dim>
					<dim>7</dim>
					<dim>8</dim>
					<dim>16</dim>
				</port>
			</output>
		</layer>
		<layer id="325" name="Constant_394" type="Const" version="opset1">
			<data element_type="i64" shape="4" offset="548116" size="32" />
			<output>
				<port id="0" precision="I64">
					<dim>4</dim>
				</port>
			</output>
		</layer>
		<layer id="326" name="/mask_decoder/transformer/layers.1/cross_attn_image_to_token/Transpose_2" type="Transpose" version="opset1">
			<input>
				<port id="0" precision="FP32">
					<dim>1</dim>
					<dim>7</dim>
					<dim>8</dim>
					<dim>16</dim>
				</port>
				<port id="1" precision="I64">
					<dim>4</dim>
				</port>
			</input>
			<output>
				<port id="2" precision="FP32" names="/mask_decoder/transformer/layers.1/cross_attn_image_to_token/Transpose_2_output_0">
					<dim>1</dim>
					<dim>8</dim>
					<dim>16</dim>
					<dim>7</dim>
				</port>
			</output>
		</layer>
		<layer id="327" name="/mask_decoder/transformer/layers.1/cross_attn_image_to_token/MatMul" type="MatMul" version="opset1">
			<data transpose_a="false" transpose_b="false" />
			<input>
				<port id="0" precision="FP32">
					<dim>1</dim>
					<dim>8</dim>
					<dim>4096</dim>
					<dim>16</dim>
				</port>
				<port id="1" precision="FP32">
					<dim>1</dim>
					<dim>8</dim>
					<dim>16</dim>
					<dim>7</dim>
				</port>
			</input>
			<output>
				<port id="2" precision="FP32" names="/mask_decoder/transformer/layers.1/cross_attn_image_to_token/MatMul_output_0">
					<dim>1</dim>
					<dim>8</dim>
					<dim>4096</dim>
					<dim>7</dim>
				</port>
			</output>
		</layer>
		<layer id="328" name="Constant_4879" type="Const" version="opset1">
			<data element_type="f32" shape="1, 1, 1, 1" offset="9728456" size="4" />
			<output>
				<port id="0" precision="FP32">
					<dim>1</dim>
					<dim>1</dim>
					<dim>1</dim>
					<dim>1</dim>
				</port>
			</output>
		</layer>
		<layer id="329" name="/mask_decoder/transformer/layers.1/cross_attn_image_to_token/Div" type="Multiply" version="opset1">
			<data auto_broadcast="numpy" />
			<input>
				<port id="0" precision="FP32">
					<dim>1</dim>
					<dim>8</dim>
					<dim>4096</dim>
					<dim>7</dim>
				</port>
				<port id="1" precision="FP32">
					<dim>1</dim>
					<dim>1</dim>
					<dim>1</dim>
					<dim>1</dim>
				</port>
			</input>
			<output>
				<port id="2" precision="FP32" names="/mask_decoder/transformer/layers.1/cross_attn_image_to_token/Div_output_0">
					<dim>1</dim>
					<dim>8</dim>
					<dim>4096</dim>
					<dim>7</dim>
				</port>
			</output>
		</layer>
		<layer id="330" name="/mask_decoder/transformer/layers.1/cross_attn_image_to_token/Softmax" type="SoftMax" version="opset8">
			<data axis="-1" />
			<input>
				<port id="0" precision="FP32">
					<dim>1</dim>
					<dim>8</dim>
					<dim>4096</dim>
					<dim>7</dim>
				</port>
			</input>
			<output>
				<port id="1" precision="FP32" names="/mask_decoder/transformer/layers.1/cross_attn_image_to_token/Softmax_output_0">
					<dim>1</dim>
					<dim>8</dim>
					<dim>4096</dim>
					<dim>7</dim>
				</port>
			</output>
		</layer>
		<layer id="331" name="Constant_4880" type="Const" version="opset1">
			<data element_type="f32" shape="1, 1, 128" offset="20914172" size="512" />
			<output>
				<port id="0" precision="FP32">
					<dim>1</dim>
					<dim>1</dim>
					<dim>128</dim>
				</port>
			</output>
		</layer>
		<layer id="332" name="Transpose_4272" type="Const" version="opset1">
			<data element_type="f32" shape="128, 256" offset="20914684" size="131072" />
			<output>
				<port id="0" precision="FP32">
					<dim>128</dim>
					<dim>256</dim>
				</port>
			</output>
		</layer>
		<layer id="333" name="/mask_decoder/transformer/layers.1/cross_attn_image_to_token/v_proj/MatMul" type="MatMul" version="opset1">
			<data transpose_a="false" transpose_b="true" />
			<input>
				<port id="0" precision="FP32">
					<dim>1</dim>
					<dim>7</dim>
					<dim>256</dim>
				</port>
				<port id="1" precision="FP32">
					<dim>128</dim>
					<dim>256</dim>
				</port>
			</input>
			<output>
				<port id="2" precision="FP32" names="/mask_decoder/transformer/layers.1/cross_attn_image_to_token/v_proj/MatMul_output_0">
					<dim>1</dim>
					<dim>7</dim>
					<dim>128</dim>
				</port>
			</output>
		</layer>
		<layer id="334" name="/mask_decoder/transformer/layers.1/cross_attn_image_to_token/v_proj/Add" type="Add" version="opset1">
			<data auto_broadcast="numpy" />
			<input>
				<port id="0" precision="FP32">
					<dim>1</dim>
					<dim>1</dim>
					<dim>128</dim>
				</port>
				<port id="1" precision="FP32">
					<dim>1</dim>
					<dim>7</dim>
					<dim>128</dim>
				</port>
			</input>
			<output>
				<port id="2" precision="FP32" names="/mask_decoder/transformer/layers.1/cross_attn_image_to_token/v_proj/Add_output_0">
					<dim>1</dim>
					<dim>7</dim>
					<dim>128</dim>
				</port>
			</output>
		</layer>
		<layer id="335" name="/mask_decoder/transformer/layers.1/cross_attn_image_to_token/Reshape_2" type="Reshape" version="opset1">
			<data special_zero="true" />
			<input>
				<port id="0" precision="FP32">
					<dim>1</dim>
					<dim>7</dim>
					<dim>128</dim>
				</port>
				<port id="1" precision="I64">
					<dim>4</dim>
				</port>
			</input>
			<output>
				<port id="2" precision="FP32" names="/mask_decoder/transformer/layers.1/cross_attn_image_to_token/Reshape_2_output_0">
					<dim>1</dim>
					<dim>7</dim>
					<dim>8</dim>
					<dim>16</dim>
				</port>
			</output>
		</layer>
…
			<data special_zero="true" />
			<input>
				<port id="0" precision="FP32">
					<dim>1</dim>
					<dim>256</dim>
					<dim>4096</dim>
				</port>
				<port id="1" precision="I64">
					<dim>4</dim>
				</port>
			</input>
			<output>
				<port id="2" precision="FP32" names="/mask_decoder/Reshape_1_output_0">
					<dim>1</dim>
					<dim>256</dim>
					<dim>64</dim>
					<dim>64</dim>
				</port>
			</output>
		</layer>
		<layer id="463" name="mask_decoder.output_upscaling.0.weight" type="Const" version="opset1">
			<data element_type="f32" shape="256, 64, 2, 2" offset="23811884" size="262144" />
			<output>
				<port id="0" precision="FP32" names="mask_decoder.output_upscaling.0.weight">
					<dim>256</dim>
					<dim>64</dim>
					<dim>2</dim>
					<dim>2</dim>
				</port>
			</output>
		</layer>
		<layer id="464" name="ConvolutionBackpropData_450" type="ConvolutionBackpropData" version="opset1">
			<data strides="2, 2" dilations="1, 1" pads_begin="0, 0" pads_end="0, 0" auto_pad="explicit" output_padding="0, 0" />
			<input>
				<port id="0" precision="FP32">
					<dim>1</dim>
					<dim>256</dim>
					<dim>64</dim>
					<dim>64</dim>
				</port>
				<port id="1" precision="FP32">
					<dim>256</dim>
					<dim>64</dim>
					<dim>2</dim>
					<dim>2</dim>
				</port>
			</input>
			<output>
				<port id="2" precision="FP32">
					<dim>1</dim>
					<dim>64</dim>
					<dim>128</dim>
					<dim>128</dim>
				</port>
			</output>
		</layer>
		<layer id="465" name="Reshape_452" type="Const" version="opset1">
			<data element_type="f32" shape="1, 64, 1, 1" offset="24074028" size="256" />
			<output>
				<port id="0" precision="FP32">
					<dim>1</dim>
					<dim>64</dim>
					<dim>1</dim>
					<dim>1</dim>
				</port>
			</output>
		</layer>
		<layer id="466" name="/mask_decoder/output_upscaling/output_upscaling.0/ConvTranspose" type="Add" version="opset1">
			<data auto_broadcast="numpy" />
			<input>
				<port id="0" precision="FP32">
					<dim>1</dim>
					<dim>64</dim>
					<dim>128</dim>
					<dim>128</dim>
				</port>
				<port id="1" precision="FP32">
					<dim>1</dim>
					<dim>64</dim>
					<dim>1</dim>
					<dim>1</dim>
				</port>
			</input>
			<output>
				<port id="2" precision="FP32" names="/mask_decoder/output_upscaling/output_upscaling.0/ConvTranspose_output_0">
					<dim>1</dim>
					<dim>64</dim>
					<dim>128</dim>
					<dim>128</dim>
				</port>
			</output>
		</layer>
		<layer id="467" name="Constant_454" type="Const" version="opset1">
			<data element_type="i64" shape="1" offset="7336" size="8" />
			<output>
				<port id="0" precision="I64">
					<dim>1</dim>
				</port>
			</output>
		</layer>
		<layer id="468" name="/mask_decoder/output_upscaling/output_upscaling.1/Div" type="MVN" version="opset6">
			<data eps="9.9999999747524271e-07" normalize_variance="true" eps_mode="INSIDE_SQRT" />
			<input>
				<port id="0" precision="FP32">
					<dim>1</dim>
					<dim>64</dim>
					<dim>128</dim>
					<dim>128</dim>
				</port>
				<port id="1" precision="I64">
					<dim>1</dim>
				</port>
			</input>
			<output>
				<port id="2" precision="FP32" names="/mask_decoder/output_upscaling/output_upscaling.1/Div_output_0">
					<dim>1</dim>
					<dim>64</dim>
					<dim>128</dim>
					<dim>128</dim>
				</port>
			</output>
		</layer>
		<layer id="469" name="/mask_decoder/output_upscaling/output_upscaling.1/Mul" type="Multiply" version="opset1">
			<data auto_broadcast="numpy" />
			<input>
				<port id="0" precision="FP32">
					<dim>1</dim>
					<dim>64</dim>
					<dim>1</dim>
					<dim>1</dim>
				</port>
				<port id="1" precision="FP32">
					<dim>1</dim>
					<dim>64</dim>
					<dim>128</dim>
					<dim>128</dim>
				</port>
			</input>
			<output>
				<port id="2" precision="FP32" names="/mask_decoder/output_upscaling/output_upscaling.1/Mul_output_0">
					<dim>1</dim>
					<dim>64</dim>
					<dim>128</dim>
					<dim>128</dim>
				</port>
			</output>
		</layer>
		<layer id="470" name="Constant_4903" type="Const" version="opset1">
			<data element_type="f32" shape="1, 64, 1, 1" offset="24074284" size="256" />
			<output>
				<port id="0" precision="FP32">
					<dim>1</dim>
					<dim>64</dim>
					<dim>1</dim>
					<dim>1</dim>
				</port>
			</output>
		</layer>
		<layer id="471" name="/mask_decoder/output_upscaling/output_upscaling.1/Add_1" type="Add" version="opset1">
			<data auto_broadcast="numpy" />
			<input>
				<port id="0" precision="FP32">
					<dim>1</dim>
					<dim>64</dim>
					<dim>128</dim>
					<dim>128</dim>
				</port>
				<port id="1" precision="FP32">
					<dim>1</dim>
					<dim>64</dim>
					<dim>1</dim>
					<dim>1</dim>
				</port>
			</input>
			<output>
				<port id="2" precision="FP32" names="/mask_decoder/output_upscaling/output_upscaling.1/Add_1_output_0">
					<dim>1</dim>
					<dim>64</dim>
					<dim>128</dim>
					<dim>128</dim>
				</port>
			</output>
		</layer>
		<layer id="472" name="/mask_decoder/output_upscaling/output_upscaling.2/Mul_1" type="Gelu" version="opset7">
			<data approximation_mode="ERF" />
			<input>
				<port id="0" precision="FP32">
					<dim>1</dim>
					<dim>64</dim>
					<dim>128</dim>
					<dim>128</dim>
				</port>
			</input>
			<output>
				<port id="1" precision="FP32" names="/mask_decoder/output_upscaling/output_upscaling.2/Mul_1_output_0">
					<dim>1</dim>
					<dim>64</dim>
					<dim>128</dim>
					<dim>128</dim>
				</port>
			</output>
		</layer>
		<layer id="473" name="mask_decoder.output_upscaling.3.weight" type="Const" version="opset1">
			<data element_type="f32" shape="64, 32, 2, 2" offset="24074540" size="32768" />
			<output>
				<port id="0" precision="FP32" names="mask_decoder.output_upscaling.3.weight">
					<dim>64</dim>
					<dim>32</dim>
					<dim>2</dim>
					<dim>2</dim>
				</port>
			</output>
		</layer>
		<layer id="474" name="ConvolutionBackpropData_470" type="ConvolutionBackpropData" version="opset1">
			<data strides="2, 2" dilations="1, 1" pads_begin="0, 0" pads_end="0, 0" auto_pad="explicit" output_padding="0, 0" />
			<input>
				<port id="0" precision="FP32">
					<dim>1</dim>
					<dim>64</dim>
					<dim>128</dim>
					<dim>128</dim>
				</port>
				<port id="1" precision="FP32">
					<dim>64</dim>
					<dim>32</dim>
					<dim>2</dim>
					<dim>2</dim>
				</port>
			</input>
			<output>
				<port id="2" precision="FP32">
					<dim>1</dim>
					<dim>32</dim>
					<dim>256</dim>
					<dim>256</dim>
				</port>
			</output>
		</layer>
		<layer id="475" name="Reshape_472" type="Const" version="opset1">
			<data element_type="f32" shape="1, 32, 1, 1" offset="24107308" size="128" />
			<output>
				<port id="0" precision="FP32">
					<dim>1</dim>
					<dim>32</dim>
					<dim>1</dim>
					<dim>1</dim>
				</port>
			</output>
		</layer>
		<layer id="476" name="/mask_decoder/output_upscaling/output_upscaling.3/ConvTranspose" type="Add" version="opset1">
			<data auto_broadcast="numpy" />
			<input>
				<port id="0" precision="FP32">
					<dim>1</dim>
					<dim>32</dim>
					<dim>256</dim>
					<dim>256</dim>
				</port>
				<port id="1" precision="FP32">
					<dim>1</dim>
					<dim>32</dim>
					<dim>1</dim>
					<dim>1</dim>
				</port>
			</input>
			<output>
				<port id="2" precision="FP32" names="/mask_decoder/output_upscaling/output_upscaling.3/ConvTranspose_output_0">
					<dim>1</dim>
					<dim>32</dim>
					<dim>256</dim>
					<dim>256</dim>
				</port>
			</output>
		</layer>
		<layer id="477" name="/mask_decoder/output_upscaling/output_upscaling.4/Mul_1" type="Gelu" version="opset7">
			<data approximation_mode="ERF" />
			<input>
				<port id="0" precision="FP32">
					<dim>1</dim>
					<dim>32</dim>
					<dim>256</dim>
					<dim>256</dim>
				</port>
			</input>
			<output>
				<port id="1" precision="FP32" names="/mask_decoder/output_upscaling/output_upscaling.4/Mul_1_output_0">
					<dim>1</dim>
					<dim>32</dim>
					<dim>256</dim>
					<dim>256</dim>
				</port>
			</output>
		</layer>
		<layer id="478" name="/mask_decoder/Constant_22_output_0" type="Const" version="opset1">
			<data element_type="i64" shape="3" offset="24107436" size="24" />
			<output>
				<port id="0" precision="I64" names="/mask_decoder/Constant_22_output_0">
					<dim>3</dim>
				</port>
			</output>
		</layer>
		<layer id="479" name="/mask_decoder/Reshape_2" type="Reshape" version="opset1">
			<data special_zero="true" />
			<input>
				<port id="0" precision="FP32">
					<dim>1</dim>
					<dim>32</dim>
					<dim>256</dim>
					<dim>256</dim>
				</port>
				<port id="1" precision="I64">
					<dim>3</dim>
				</port>
			</input>
			<output>
				<port id="2" precision="FP32" names="/mask_decoder/Reshape_2_output_0">
					<dim>1</dim>
					<dim>32</dim>
					<dim>65536</dim>
				</port>
			</output>
		</layer>
		<layer id="480" name="/mask_decoder/MatMul" type="MatMul" version="opset1">
			<data transpose_a="false" transpose_b="false" />
			<input>
				<port id="0" precision="FP32">
					<dim>1</dim>
					<dim>4</dim>
					<dim>32</dim>
				</port>
				<port id="1" precision="FP32">
					<dim>1</dim>
					<dim>32</dim>
					<dim>65536</dim>
				</port>
			</input>
			<output>
				<port id="2" precision="FP32" names="/mask_decoder/MatMul_output_0">
					<dim>1</dim>
					<dim>4</dim>
					<dim>65536</dim>
				</port>
			</output>
		</layer>
		<layer id="481" name="/mask_decoder/Constant_23_output_0" type="Const" version="opset1">
			<data element_type="i64" shape="4" offset="24107460" size="32" />
			<output>
				<port id="0" precision="I64" names="/mask_decoder/Constant_23_output_0">
					<dim>4</dim>
				</port>
			</output>
		</layer>
		<layer id="482" name="/mask_decoder/Reshape_3" type="Reshape" version="opset1">
			<data special_zero="true" />
			<input>
				<port id="0" precision="FP32">
					<dim>1</dim>
					<dim>4</dim>
					<dim>65536</dim>
				</port>
				<port id="1" precision="I64">
					<dim>4</dim>
				</port>
			</input>
			<output>
				<port id="2" precision="FP32" names="/mask_decoder/Reshape_3_output_0">
					<dim>1</dim>
					<dim>4</dim>
					<dim>256</dim>
					<dim>256</dim>
				</port>
			</output>
		</layer>
		<layer id="483" name="onnx::Expand_153" type="Const" version="opset1">
			<data element_type="i64" shape="1" offset="7244" size="8" />
			<output>
				<port id="0" precision="I64" names="onnx::Expand_153">
					<dim>1</dim>
				</port>
			</output>
		</layer>
		<layer id="484" name="masks" type="Slice" version="opset8">
			<input>
				<port id="0" precision="FP32">
					<dim>1</dim>
					<dim>4</dim>
					<dim>256</dim>
					<dim>256</dim>
				</port>
				<port id="1" precision="I64">
					<dim>1</dim>
				</port>
				<port id="2" precision="I64">
					<dim>1</dim>
				</port>
				<port id="3" precision="I64">
					<dim>1</dim>
				</port>
				<port id="4" precision="I64">
					<dim>1</dim>
				</port>
			</input>
			<output>
				<port id="5" precision="FP32" names="masks">
					<dim>1</dim>
					<dim>1</dim>
					<dim>256</dim>
					<dim>256</dim>
				</port>
			</output>
		</layer>
		<layer id="485" name="masks/sink_port_0" type="Result" version="opset1" output_names="masks">
			<input>
				<port id="0" precision="FP32">
					<dim>1</dim>
					<dim>1</dim>
					<dim>256</dim>
					<dim>256</dim>
				</port>
			</input>
		</layer>
	</layers>
	<edges>
		<edge from-layer="0" from-port="0" to-layer="6" to-port="0" />
		<edge from-layer="1" from-port="0" to-layer="106" to-port="0" />
		<edge from-layer="2" from-port="0" to-layer="87" to-port="0" />
		<edge from-layer="3" from-port="0" to-layer="57" to-port="0" />
		<edge from-layer="4" from-port="0" to-layer="54" to-port="0" />
		<edge from-layer="5" from-port="0" to-layer="6" to-port="1" />
		<edge from-layer="6" from-port="2" to-layer="8" to-port="0" />
		<edge from-layer="7" from-port="0" to-layer="8" to-port="1" />
		<edge from-layer="8" from-port="2" to-layer="12" to-port="0" />
		<edge from-layer="8" from-port="2" to-layer="17" to-port="0" />
		<edge from-layer="9" from-port="0" to-layer="17" to-port="1" />
		<edge from-layer="10" from-port="0" to-layer="12" to-port="1" />
		<edge from-layer="10" from-port="0" to-layer="39" to-port="1" />
		<edge from-layer="10" from-port="0" to-layer="388" to-port="1" />
		<edge from-layer="11" from-port="0" to-layer="12" to-port="2" />
		<edge from-layer="12" from-port="3" to-layer="14" to-port="0" />
		<edge from-layer="13" from-port="0" to-layer="14" to-port="1" />
		<edge from-layer="14" from-port="2" to-layer="16" to-port="0" />
		<edge from-layer="15" from-port="0" to-layer="16" to-port="1" />
		<edge from-layer="15" from-port="0" to-layer="24" to-port="1" />
		<edge from-layer="16" from-port="2" to-layer="17" to-port="2" />
		<edge from-layer="17" from-port="3" to-layer="21" to-port="0" />
		<edge from-layer="17" from-port="3" to-layer="25" to-port="0" />
		<edge from-layer="18" from-port="0" to-layer="25" to-port="1" />
		<edge from-layer="19" from-port="0" to-layer="21" to-port="1" />
		<edge from-layer="19" from-port="0" to-layer="48" to-port="1" />
		<edge from-layer="19" from-port="0" to-layer="405" to-port="1" />
		<edge from-layer="20" from-port="0" to-layer="21" to-port="2" />
		<edge from-layer="21" from-port="3" to-layer="23" to-port="0" />
		<edge from-layer="22" from-port="0" to-layer="23" to-port="1" />
		<edge from-layer="23" from-port="2" to-layer="24" to-port="0" />
		<edge from-layer="24" from-port="2" to-layer="25" to-port="2" />
		<edge from-layer="25" from-port="3" to-layer="27" to-port="0" />
		<edge from-layer="26" from-port="0" to-layer="27" to-port="1" />
		<edge from-layer="27" from-port="2" to-layer="29" to-port="0" />
		<edge from-layer="28" from-port="0" to-layer="29" to-port="1" />
		<edge from-layer="29" from-port="2" to-layer="31" to-port="0" />
		<edge from-layer="30" from-port="0" to-layer="31" to-port="1" />
		<edge from-layer="31" from-port="2" to-layer="33" to-port="0" />
		<edge from-layer="32" from-port="0" to-layer="33" to-port="1" />
		<edge from-layer="33" from-port="2" to-layer="34" to-port="0" />
		<edge from-layer="33" from-port="2" to-layer="35" to-port="0" />
		<edge from-layer="34" from-port="1" to-layer="36" to-port="0" />
		<edge from-layer="35" from-port="1" to-layer="36" to-port="1" />
		<edge from-layer="36" from-port="2" to-layer="44" to-port="0" />
		<edge from-layer="36" from-port="2" to-layer="39" to-port="0" />
		<edge from-layer="37" from-port="0" to-layer="44" to-port="1" />
		<edge from-layer="37" from-port="0" to-layer="45" to-port="1" />
		<edge from-layer="38" from-port="0" to-layer="39" to-port="2" />
		<edge from-layer="39" from-port="3" to-layer="41" to-port="0" />
		<edge from-layer="40" from-port="0" to-layer="41" to-port="1" />
		<edge from-layer="41" from-port="2" to-layer="43" to-port="0" />
		<edge from-layer="42" from-port="0" to-layer="51" to-port="1" />
		<edge from-layer="42" from-port="0" to-layer="43" to-port="1" />
		<edge from-layer="43" from-port="2" to-layer="44" to-port="2" />
		<edge from-layer="43" from-port="2" to-layer="45" to-port="2" />
		<edge from-layer="44" from-port="3" to-layer="45" to-port="0" />
		<edge from-layer="45" from-port="3" to-layer="48" to-port="0" />
		<edge from-layer="45" from-port="3" to-layer="52" to-port="0" />
		<edge from-layer="46" from-port="0" to-layer="52" to-port="1" />
		<edge from-layer="46" from-port="0" to-layer="53" to-port="1" />
		<edge from-layer="47" from-port="0" to-layer="48" to-port="2" />
		<edge from-layer="48" from-port="3" to-layer="50" to-port="0" />
		<edge from-layer="49" from-port="0" to-layer="50" to-port="1" />
		<edge from-layer="50" from-port="2" to-layer="51" to-port="0" />
		<edge from-layer="51" from-port="2" to-layer="52" to-port="2" />
		<edge from-layer="51" from-port="2" to-layer="53" to-port="2" />
		<edge from-layer="52" from-port="3" to-layer="53" to-port="0" />
		<edge from-layer="53" from-port="3" to-layer="54" to-port="1" />
		<edge from-layer="54" from-port="2" to-layer="56" to-port="0" />
		<edge from-layer="54" from-port="2" to-layer="205" to-port="1" />
		<edge from-layer="54" from-port="2" to-layer="304" to-port="1" />
		<edge from-layer="54" from-port="2" to-layer="64" to-port="0" />
		<edge from-layer="54" from-port="2" to-layer="75" to-port="0" />
		<edge from-layer="54" from-port="2" to-layer="96" to-port="1" />
		<edge from-layer="54" from-port="2" to-layer="164" to-port="1" />
		<edge from-layer="55" from-port="0" to-layer="56" to-port="1" />
		<edge from-layer="56" from-port="2" to-layer="57" to-port="1" />
		<edge from-layer="57" from-port="2" to-layer="59" to-port="0" />
		<edge from-layer="58" from-port="0" to-layer="59" to-port="1" />
		<edge from-layer="58" from-port="0" to-layer="168" to-port="1" />
		<edge from-layer="58" from-port="0" to-layer="77" to-port="1" />
		<edge from-layer="58" from-port="0" to-layer="66" to-port="1" />
		<edge from-layer="58" from-port="0" to-layer="186" to-port="1" />
		<edge from-layer="58" from-port="0" to-layer="175" to-port="1" />
		<edge from-layer="59" from-port="2" to-layer="61" to-port="0" />
		<edge from-layer="60" from-port="0" to-layer="61" to-port="1" />
		<edge from-layer="61" from-port="2" to-layer="69" to-port="0" />
		<edge from-layer="62" from-port="0" to-layer="65" to-port="0" />
		<edge from-layer="63" from-port="0" to-layer="64" to-port="1" />
		<edge from-layer="64" from-port="2" to-layer="65" to-port="1" />
		<edge from-layer="65" from-port="2" to-layer="66" to-port="0" />
		<edge from-layer="66" from-port="2" to-layer="68" to-port="0" />
		<edge from-layer="67" from-port="0" to-layer="68" to-port="1" />
		<edge from-layer="68" from-port="2" to-layer="69" to-port="1" />
		<edge from-layer="69" from-port="2" to-layer="71" to-port="0" />
		<edge from-layer="70" from-port="0" to-layer="71" to-port="1" />
		<edge from-layer="71" from-port="2" to-layer="72" to-port="0" />
		<edge from-layer="72" from-port="1" to-layer="80" to-port="0" />
		<edge from-layer="73" from-port="0" to-layer="76" to-port="0" />
		<edge from-layer="74" from-port="0" to-layer="75" to-port="1" />
		<edge from-layer="75" from-port="2" to-layer="76" to-port="1" />
		<edge from-layer="76" from-port="2" to-layer="77" to-port="0" />
		<edge from-layer="77" from-port="2" to-layer="79" to-port="0" />
		<edge from-layer="78" from-port="0" to-layer="79" to-port="1" />
		<edge from-layer="79" from-port="2" to-layer="80" to-port="1" />
		<edge from-layer="80" from-port="2" to-layer="82" to-port="0" />
		<edge from-layer="81" from-port="0" to-layer="82" to-port="1" />
		<edge from-layer="82" from-port="2" to-layer="84" to-port="0" />
		<edge from-layer="83" from-port="0" to-layer="84" to-port="1" />
		<edge from-layer="83" from-port="0" to-layer="192" to-port="1" />
		<edge from-layer="84" from-port="2" to-layer="86" to-port="0" />
		<edge from-layer="85" from-port="0" to-layer="86" to-port="1" />
		<edge from-layer="86" from-port="2" to-layer="87" to-port="1" />
		<edge from-layer="87" from-port="2" to-layer="89" to-port="0" />
		<edge from-layer="88" from-port="0" to-layer="89" to-port="1" />
		<edge from-layer="89" from-port="2" to-layer="91" to-port="0" />
		<edge from-layer="90" from-port="0" to-layer="91" to-port="1" />
		<edge from-layer="91" from-port="2" to-layer="93" to-port="0" />
		<edge from-layer="92" from-port="0" to-layer="93" to-port="1" />
		<edge from-layer="93" from-port="2" to-layer="96" to-port="0" />
		<edge from-layer="93" from-port="2" to-layer="139" to-port="0" />
		<edge from-layer="94" from-port="0" to-layer="138" to-port="0" />
		<edge from-layer="95" from-port="0" to-layer="99" to-port="0" />
		<edge from-layer="96" from-port="2" to-layer="98" to-port="0" />
		<edge from-layer="97" from-port="0" to-layer="98" to-port="1" />
		<edge from-layer="98" from-port="2" to-layer="99" to-port="1" />
		<edge from-layer="99" from-port="2" to-layer="101" to-port="0" />
		<edge from-layer="100" from-port="0" to-layer="225" to-port="1" />
		<edge from-layer="100" from-port="0" to-layer="335" to-port="1" />
		<edge from-layer="100" from-port="0" to-layer="324" to-port="1" />
		<edge from-layer="100" from-port="0" to-layer="308" to-port="1" />
		<edge from-layer="100" from-port="0" to-layer="101" to-port="1" />
		<edge from-layer="100" from-port="0" to-layer="236" to-port="1" />
		<edge from-layer="100" from-port="0" to-layer="209" to-port="1" />
		<edge from-layer="101" from-port="2" to-layer="103" to-port="0" />
		<edge from-layer="102" from-port="0" to-layer="103" to-port="1" />
		<edge from-layer="103" from-port="2" to-layer="120" to-port="0" />
		<edge from-layer="104" from-port="0" to-layer="115" to-port="0" />
		<edge from-layer="105" from-port="0" to-layer="106" to-port="1" />
		<edge from-layer="106" from-port="2" to-layer="108" to-port="0" />
		<edge from-layer="107" from-port="0" to-layer="108" to-port="1" />
		<edge from-layer="108" from-port="2" to-layer="110" to-port="0" />
		<edge from-layer="108" from-port="2" to-layer="126" to-port="0" />
		<edge from-layer="109" from-port="0" to-layer="110" to-port="1" />
		<edge from-layer="110" from-port="2" to-layer="112" to-port="0" />
		<edge from-layer="110" from-port="2" to-layer="247" to-port="0" />
		<edge from-layer="111" from-port="0" to-layer="112" to-port="1" />
		<edge from-layer="111" from-port="0" to-layer="352" to-port="1" />
		<edge from-layer="111" from-port="0" to-layer="254" to-port="1" />
		<edge from-layer="112" from-port="2" to-layer="114" to-port="0" />
		<edge from-layer="112" from-port="2" to-layer="216" to-port="0" />
		<edge from-layer="113" from-port="0" to-layer="114" to-port="1" />
		<edge from-layer="114" from-port="2" to-layer="115" to-port="1" />
		<edge from-layer="115" from-port="2" to-layer="117" to-port="0" />
		<edge from-layer="116" from-port="0" to-layer="117" to-port="1" />
		<edge from-layer="116" from-port="0" to-layer="317" to-port="1" />
		<edge from-layer="116" from-port="0" to-layer="258" to-port="1" />
		<edge from-layer="116" from-port="0" to-layer="128" to-port="1" />
		<edge from-layer="116" from-port="0" to-layer="218" to-port="1" />
		<edge from-layer="116" from-port="0" to-layer="269" to-port="1" />
		<edge from-layer="116" from-port="0" to-layer="356" to-port="1" />
		<edge from-layer="116" from-port="0" to-layer="367" to-port="1" />
		<edge from-layer="117" from-port="2" to-layer="119" to-port="0" />
		<edge from-layer="118" from-port="0" to-layer="119" to-port="1" />
		<edge from-layer="119" from-port="2" to-layer="120" to-port="1" />
		<edge from-layer="120" from-port="2" to-layer="122" to-port="0" />
		<edge from-layer="121" from-port="0" to-layer="122" to-port="1" />
		<edge from-layer="122" from-port="2" to-layer="123" to-port="0" />
		<edge from-layer="123" from-port="1" to-layer="131" to-port="0" />
		<edge from-layer="124" from-port="0" to-layer="127" to-port="0" />
		<edge from-layer="125" from-port="0" to-layer="126" to-port="1" />
		<edge from-layer="126" from-port="2" to-layer="127" to-port="1" />
		<edge from-layer="127" from-port="2" to-layer="128" to-port="0" />
		<edge from-layer="128" from-port="2" to-layer="130" to-port="0" />
		<edge from-layer="129" from-port="0" to-layer="130" to-port="1" />
		<edge from-layer="130" from-port="2" to-layer="131" to-port="1" />
		<edge from-layer="131" from-port="2" to-layer="133" to-port="0" />
		<edge from-layer="132" from-port="0" to-layer="133" to-port="1" />
		<edge from-layer="133" from-port="2" to-layer="135" to-port="0" />
		<edge from-layer="134" from-port="0" to-layer="373" to-port="1" />
		<edge from-layer="134" from-port="0" to-layer="135" to-port="1" />
		<edge from-layer="134" from-port="0" to-layer="275" to-port="1" />
		<edge from-layer="135" from-port="2" to-layer="137" to-port="0" />
		<edge from-layer="136" from-port="0" to-layer="137" to-port="1" />
		<edge from-layer="137" from-port="2" to-layer="138" to-port="1" />
		<edge from-layer="138" from-port="2" to-layer="139" to-port="1" />
		<edge from-layer="139" from-port="2" to-layer="141" to-port="0" />
		<edge from-layer="140" from-port="0" to-layer="141" to-port="1" />
		<edge from-layer="141" from-port="2" to-layer="143" to-port="0" />
		<edge from-layer="142" from-port="0" to-layer="143" to-port="1" />
		<edge from-layer="143" from-port="2" to-layer="145" to-port="0" />
		<edge from-layer="144" from-port="0" to-layer="145" to-port="1" />
		<edge from-layer="145" from-port="2" to-layer="149" to-port="0" />
		<edge from-layer="145" from-port="2" to-layer="155" to-port="0" />
		<edge from-layer="146" from-port="0" to-layer="154" to-port="0" />
		<edge from-layer="147" from-port="0" to-layer="150" to-port="0" />
		<edge from-layer="148" from-port="0" to-layer="149" to-port="1" />
		<edge from-layer="149" from-port="2" to-layer="150" to-port="1" />
		<edge from-layer="150" from-port="2" to-layer="151" to-port="0" />
		<edge from-layer="151" from-port="1" to-layer="153" to-port="0" />
		<edge from-layer="152" from-port="0" to-layer="153" to-port="1" />
		<edge from-layer="153" from-port="2" to-layer="154" to-port="1" />
		<edge from-layer="154" from-port="2" to-layer="155" to-port="1" />
		<edge from-layer="155" from-port="2" to-layer="157" to-port="0" />
		<edge from-layer="156" from-port="0" to-layer="157" to-port="1" />
		<edge from-layer="157" from-port="2" to-layer="159" to-port="0" />
		<edge from-layer="158" from-port="0" to-layer="159" to-port="1" />
		<edge from-layer="159" from-port="2" to-layer="161" to-port="0" />
		<edge from-layer="160" from-port="0" to-layer="161" to-port="1" />
		<edge from-layer="161" from-port="2" to-layer="184" to-port="0" />
		<edge from-layer="161" from-port="2" to-layer="196" to-port="0" />
		<edge from-layer="161" from-port="2" to-layer="164" to-port="0" />
		<edge from-layer="161" from-port="2" to-layer="234" to-port="0" />
		<edge from-layer="162" from-port="0" to-layer="195" to-port="0" />
		<edge from-layer="163" from-port="0" to-layer="167" to-port="0" />
		<edge from-layer="164" from-port="2" to-layer="166" to-port="0" />
		<edge from-layer="164" from-port="2" to-layer="173" to-port="0" />
		<edge from-layer="164" from-port="2" to-layer="223" to-port="0" />
		<edge from-layer="165" from-port="0" to-layer="166" to-port="1" />
		<edge from-layer="166" from-port="2" to-layer="167" to-port="1" />
		<edge from-layer="167" from-port="2" to-layer="168" to-port="0" />
		<edge from-layer="168" from-port="2" to-layer="170" to-port="0" />
		<edge from-layer="169" from-port="0" to-layer="170" to-port="1" />
		<edge from-layer="170" from-port="2" to-layer="178" to-port="0" />
		<edge from-layer="171" from-port="0" to-layer="174" to-port="0" />
		<edge from-layer="172" from-port="0" to-layer="173" to-port="1" />
		<edge from-layer="173" from-port="2" to-layer="174" to-port="1" />
		<edge from-layer="174" from-port="2" to-layer="175" to-port="0" />
		<edge from-layer="175" from-port="2" to-layer="177" to-port="0" />
		<edge from-layer="176" from-port="0" to-layer="177" to-port="1" />
		<edge from-layer="177" from-port="2" to-layer="178" to-port="1" />
		<edge from-layer="178" from-port="2" to-layer="180" to-port="0" />
		<edge from-layer="179" from-port="0" to-layer="180" to-port="1" />
		<edge from-layer="180" from-port="2" to-layer="181" to-port="0" />
		<edge from-layer="181" from-port="1" to-layer="189" to-port="0" />
		<edge from-layer="182" from-port="0" to-layer="185" to-port="0" />
		<edge from-layer="183" from-port="0" to-layer="184" to-port="1" />
		<edge from-layer="184" from-port="2" to-layer="185" to-port="1" />
		<edge from-layer="185" from-port="2" to-layer="186" to-port="0" />
		<edge from-layer="186" from-port="2" to-layer="188" to-port="0" />
		<edge from-layer="187" from-port="0" to-layer="188" to-port="1" />
		<edge from-layer="188" from-port="2" to-layer="189" to-port="1" />
		<edge from-layer="189" from-port="2" to-layer="191" to-port="0" />
		<edge from-layer="190" from-port="0" to-layer="191" to-port="1" />
		<edge from-layer="191" from-port="2" to-layer="192" to-port="0" />
		<edge from-layer="192" from-port="2" to-layer="194" to-port="0" />
		<edge from-layer="193" from-port="0" to-layer="194" to-port="1" />
		<edge from-layer="194" from-port="2" to-layer="195" to-port="1" />
		<edge from-layer="195" from-port="2" to-layer="196" to-port="1" />
		<edge from-layer="196" from-port="2" to-layer="198" to-port="0" />
		<edge from-layer="197" from-port="0" to-layer="198" to-port="1" />
		<edge from-layer="198" from-port="2" to-layer="200" to-port="0" />
		<edge from-layer="199" from-port="0" to-layer="200" to-port="1" />
		<edge from-layer="200" from-port="2" to-layer="202" to-port="0" />
		<edge from-layer="201" from-port="0" to-layer="202" to-port="1" />
		<edge from-layer="202" from-port="2" to-layer="279" to-port="0" />
		<edge from-layer="202" from-port="2" to-layer="205" to-port="0" />
		<edge from-layer="203" from-port="0" to-layer="278" to-port="0" />
		<edge from-layer="204" from-port="0" to-layer="208" to-port="0" />
		<edge from-layer="205" from-port="2" to-layer="207" to-port="0" />
		<edge from-layer="206" from-port="0" to-layer="207" to-port="1" />
		<edge from-layer="207" from-port="2" to-layer="208" to-port="1" />
		<edge from-layer="208" from-port="2" to-layer="209" to-port="0" />
		<edge from-layer="209" from-port="2" to-layer="211" to-port="0" />
		<edge from-layer="210" from-port="0" to-layer="211" to-port="1" />
		<edge from-layer="211" from-port="2" to-layer="261" to-port="0" />
		<edge from-layer="212" from-port="0" to-layer="257" to-port="0" />
		<edge from-layer="213" from-port="0" to-layer="246" to-port="0" />
		<edge from-layer="214" from-port="0" to-layer="217" to-port="0" />
		<edge from-layer="215" from-port="0" to-layer="216" to-port="1" />
		<edge from-layer="216" from-port="2" to-layer="217" to-port="1" />
		<edge from-layer="217" from-port="2" to-layer="218" to-port="0" />
		<edge from-layer="218" from-port="2" to-layer="220" to-port="0" />
		<edge from-layer="219" from-port="0" to-layer="220" to-port="1" />
		<edge from-layer="220" from-port="2" to-layer="228" to-port="0" />
		<edge from-layer="221" from-port="0" to-layer="224" to-port="0" />
		<edge from-layer="222" from-port="0" to-layer="223" to-port="1" />
		<edge from-layer="223" from-port="2" to-layer="224" to-port="1" />
		<edge from-layer="224" from-port="2" to-layer="225" to-port="0" />
		<edge from-layer="225" from-port="2" to-layer="227" to-port="0" />
		<edge from-layer="226" from-port="0" to-layer="227" to-port="1" />
		<edge from-layer="227" from-port="2" to-layer="228" to-port="1" />
		<edge from-layer="228" from-port="2" to-layer="230" to-port="0" />
		<edge from-layer="229" from-port="0" to-layer="230" to-port="1" />
		<edge from-layer="230" from-port="2" to-layer="231" to-port="0" />
		<edge from-layer="231" from-port="1" to-layer="239" to-port="0" />
		<edge from-layer="232" from-port="0" to-layer="235" to-port="0" />
		<edge from-layer="233" from-port="0" to-layer="234" to-port="1" />
		<edge from-layer="234" from-port="2" to-layer="235" to-port="1" />
		<edge from-layer="235" from-port="2" to-layer="236" to-port="0" />
		<edge from-layer="236" from-port="2" to-layer="238" to-port="0" />
		<edge from-layer="237" from-port="0" to-layer="238" to-port="1" />
		<edge from-layer="238" from-port="2" to-layer="239" to-port="1" />
		<edge from-layer="239" from-port="2" to-layer="241" to-port="0" />
		<edge from-layer="240" from-port="0" to-layer="241" to-port="1" />
		<edge from-layer="241" from-port="2" to-layer="243" to-port="0" />
		<edge from-layer="242" from-port="0" to-layer="341" to-port="1" />
		<edge from-layer="242" from-port="0" to-layer="243" to-port="1" />
		<edge from-layer="243" from-port="2" to-layer="245" to-port="0" />
		<edge from-layer="244" from-port="0" to-layer="245" to-port="1" />
		<edge from-layer="245" from-port="2" to-layer="246" to-port="1" />
		<edge from-layer="246" from-port="2" to-layer="247" to-port="1" />
		<edge from-layer="247" from-port="2" to-layer="249" to-port="0" />
		<edge from-layer="248" from-port="0" to-layer="249" to-port="1" />
		<edge from-layer="249" from-port="2" to-layer="251" to-port="0" />
		<edge from-layer="250" from-port="0" to-layer="251" to-port="1" />
		<edge from-layer="251" from-port="2" to-layer="253" to-port="0" />
		<edge from-layer="252" from-port="0" to-layer="253" to-port="1" />
		<edge from-layer="253" from-port="2" to-layer="267" to-port="0" />
		<edge from-layer="253" from-port="2" to-layer="254" to-port="0" />
		<edge from-layer="253" from-port="2" to-layer="345" to-port="0" />
		<edge from-layer="254" from-port="2" to-layer="256" to-port="0" />
		<edge from-layer="254" from-port="2" to-layer="315" to-port="0" />
		<edge from-layer="255" from-port="0" to-layer="256" to-port="1" />
		<edge from-layer="256" from-port="2" to-layer="257" to-port="1" />
		<edge from-layer="257" from-port="2" to-layer="258" to-port="0" />
		<edge from-layer="258" from-port="2" to-layer="260" to-port="0" />
		<edge from-layer="259" from-port="0" to-layer="260" to-port="1" />
		<edge from-layer="260" from-port="2" to-layer="261" to-port="1" />
		<edge from-layer="261" from-port="2" to-layer="263" to-port="0" />
		<edge from-layer="262" from-port="0" to-layer="263" to-port="1" />
		<edge from-layer="263" from-port="2" to-layer="264" to-port="0" />
		<edge from-layer="264" from-port="1" to-layer="272" to-port="0" />
		<edge from-layer="265" from-port="0" to-layer="268" to-port="0" />
		<edge from-layer="266" from-port="0" to-layer="267" to-port="1" />
		<edge from-layer="267" from-port="2" to-layer="268" to-port="1" />
		<edge from-layer="268" from-port="2" to-layer="269" to-port="0" />
		<edge from-layer="269" from-port="2" to-layer="271" to-port="0" />
		<edge from-layer="270" from-port="0" to-layer="271" to-port="1" />
		<edge from-layer="271" from-port="2" to-layer="272" to-port="1" />
		<edge from-layer="272" from-port="2" to-layer="274" to-port="0" />
		<edge from-layer="273" from-port="0" to-layer="274" to-port="1" />
		<edge from-layer="274" from-port="2" to-layer="275" to-port="0" />
		<edge from-layer="275" from-port="2" to-layer="277" to-port="0" />
		<edge from-layer="276" from-port="0" to-layer="277" to-port="1" />
		<edge from-layer="277" from-port="2" to-layer="278" to-port="1" />
		<edge from-layer="278" from-port="2" to-layer="279" to-port="1" />
		<edge from-layer="279" from-port="2" to-layer="281" to-port="0" />
		<edge from-layer="280" from-port="0" to-layer="281" to-port="1" />
		<edge from-layer="281" from-port="2" to-layer="283" to-port="0" />
		<edge from-layer="282" from-port="0" to-layer="283" to-port="1" />
		<edge from-layer="283" from-port="2" to-layer="285" to-port="0" />
		<edge from-layer="284" from-port="0" to-layer="285" to-port="1" />
		<edge from-layer="285" from-port="2" to-layer="295" to-port="0" />
		<edge from-layer="285" from-port="2" to-layer="289" to-port="0" />
		<edge from-layer="286" from-port="0" to-layer="294" to-port="0" />
		<edge from-layer="287" from-port="0" to-layer="290" to-port="0" />
		<edge from-layer="288" from-port="0" to-layer="289" to-port="1" />
		<edge from-layer="289" from-port="2" to-layer="290" to-port="1" />
		<edge from-layer="290" from-port="2" to-layer="291" to-port="0" />
		<edge from-layer="291" from-port="1" to-layer="293" to-port="0" />
		<edge from-layer="292" from-port="0" to-layer="293" to-port="1" />
		<edge from-layer="293" from-port="2" to-layer="294" to-port="1" />
		<edge from-layer="294" from-port="2" to-layer="295" to-port="1" />
		<edge from-layer="295" from-port="2" to-layer="297" to-port="0" />
		<edge from-layer="296" from-port="0" to-layer="297" to-port="1" />
		<edge from-layer="297" from-port="2" to-layer="299" to-port="0" />
		<edge from-layer="298" from-port="0" to-layer="299" to-port="1" />
		<edge from-layer="299" from-port="2" to-layer="301" to-port="0" />
		<edge from-layer="300" from-port="0" to-layer="301" to-port="1" />
		<edge from-layer="301" from-port="2" to-layer="304" to-port="0" />
		<edge from-layer="301" from-port="2" to-layer="377" to-port="0" />
		<edge from-layer="301" from-port="2" to-layer="333" to-port="0" />
		<edge from-layer="302" from-port="0" to-layer="376" to-port="0" />
		<edge from-layer="303" from-port="0" to-layer="307" to-port="0" />
		<edge from-layer="304" from-port="2" to-layer="306" to-port="0" />
		<edge from-layer="304" from-port="2" to-layer="322" to-port="0" />
		<edge from-layer="305" from-port="0" to-layer="306" to-port="1" />
		<edge from-layer="306" from-port="2" to-layer="307" to-port="1" />
		<edge from-layer="307" from-port="2" to-layer="308" to-port="0" />
		<edge from-layer="308" from-port="2" to-layer="310" to-port="0" />
		<edge from-layer="309" from-port="0" to-layer="310" to-port="1" />
		<edge from-layer="310" from-port="2" to-layer="359" to-port="0" />
		<edge from-layer="311" from-port="0" to-layer="355" to-port="0" />
		<edge from-layer="312" from-port="0" to-layer="344" to-port="0" />
		<edge from-layer="313" from-port="0" to-layer="316" to-port="0" />
		<edge from-layer="314" from-port="0" to-layer="315" to-port="1" />
		<edge from-layer="315" from-port="2" to-layer="316" to-port="1" />
		<edge from-layer="316" from-port="2" to-layer="317" to-port="0" />
		<edge from-layer="317" from-port="2" to-layer="319" to-port="0" />
		<edge from-layer="318" from-port="0" to-layer="319" to-port="1" />
		<edge from-layer="319" from-port="2" to-layer="327" to-port="0" />
		<edge from-layer="320" from-port="0" to-layer="323" to-port="0" />
		<edge from-layer="321" from-port="0" to-layer="322" to-port="1" />
		<edge from-layer="322" from-port="2" to-layer="323" to-port="1" />
		<edge from-layer="323" from-port="2" to-layer="324" to-port="0" />
		<edge from-layer="324" from-port="2" to-layer="326" to-port="0" />
		<edge from-layer="325" from-port="0" to-layer="326" to-port="1" />
		<edge from-layer="326" from-port="2" to-layer="327" to-port="1" />
		<edge from-layer="327" from-port="2" to-layer="329" to-port="0" />
		<edge from-layer="328" from-port="0" to-layer="329" to-port="1" />
		<edge from-layer="329" from-port="2" to-layer="330" to-port="0" />
		<edge from-layer="330" from-port="1" to-layer="338" to-port="0" />
		<edge from-layer="331" from-port="0" to-layer="334" to-port="0" />
		<edge from-layer="332" from-port="0" to-layer="333" to-port="1" />
		<edge from-layer="333" from-port="2" to-layer="334" to-port="1" />
		<edge from-layer="334" from-port="2" to-layer="335" to-port="0" />
		<edge from-layer="335" from-port="2" to-layer="337" to-port="0" />
		<edge from-layer="336" from-port="0" to-layer="337" to-port="1" />
		<edge from-layer="337" from-port="2" to-layer="338" to-port="1" />
		<edge from-layer="338" from-port="2" to-layer="340" to-port="0" />
		<edge from-layer="339" from-port="0" to-layer="340" to-port="1" />
		<edge from-layer="340" from-port="2" to-layer="341" to-port="0" />
		<edge from-layer="341" from-port="2" to-layer="343" to-port="0" />
		<edge from-layer="342" from-port="0" to-layer="343" to-port="1" />
		<edge from-layer="343" from-port="2" to-layer="344" to-port="1" />
		<edge from-layer="344" from-port="2" to-layer="345" to-port="1" />
		<edge from-layer="345" from-port="2" to-layer="347" to-port="0" />
		<edge from-layer="346" from-port="0" to-layer="347" to-port="1" />
		<edge from-layer="347" from-port="2" to-layer="349" to-port="0" />
		<edge from-layer="348" from-port="0" to-layer="349" to-port="1" />
		<edge from-layer="349" from-port="2" to-layer="351" to-port="0" />
		<edge from-layer="350" from-port="0" to-layer="351" to-port="1" />
		<edge from-layer="351" from-port="2" to-layer="352" to-port="0" />
		<edge from-layer="351" from-port="2" to-layer="460" to-port="0" />
		<edge from-layer="351" from-port="2" to-layer="365" to-port="0" />
		<edge from-layer="352" from-port="2" to-layer="354" to-port="0" />
		<edge from-layer="353" from-port="0" to-layer="354" to-port="1" />
		<edge from-layer="354" from-port="2" to-layer="355" to-port="1" />
		<edge from-layer="355" from-port="2" to-layer="356" to-port="0" />
		<edge from-layer="356" from-port="2" to-layer="358" to-port="0" />
		<edge from-layer="357" from-port="0" to-layer="358" to-port="1" />
		<edge from-layer="358" from-port="2" to-layer="359" to-port="1" />
		<edge from-layer="359" from-port="2" to-layer="361" to-port="0" />
		<edge from-layer="360" from-port="0" to-layer="361" to-port="1" />
		<edge from-layer="361" from-port="2" to-layer="362" to-port="0" />
		<edge from-layer="362" from-port="1" to-layer="370" to-port="0" />
		<edge from-layer="363" from-port="0" to-layer="366" to-port="0" />
		<edge from-layer="364" from-port="0" to-layer="365" to-port="1" />
		<edge from-layer="365" from-port="2" to-layer="366" to-port="1" />
		<edge from-layer="366" from-port="2" to-layer="367" to-port="0" />
		<edge from-layer="367" from-port="2" to-layer="369" to-port="0" />
		<edge from-layer="368" from-port="0" to-layer="369" to-port="1" />
		<edge from-layer="369" from-port="2" to-layer="370" to-port="1" />
		<edge from-layer="370" from-port="2" to-layer="372" to-port="0" />
		<edge from-layer="371" from-port="0" to-layer="372" to-port="1" />
		<edge from-layer="372" from-port="2" to-layer="373" to-port="0" />
		<edge from-layer="373" from-port="2" to-layer="375" to-port="0" />
		<edge from-layer="374" from-port="0" to-layer="375" to-port="1" />
		<edge from-layer="375" from-port="2" to-layer="376" to-port="1" />
		<edge from-layer="376" from-port="2" to-layer="377" to-port="1" />
		<edge from-layer="377" from-port="2" to-layer="379" to-port="0" />
		<edge from-layer="378" from-port="0" to-layer="379" to-port="1" />
		<edge from-layer="379" from-port="2" to-layer="381" to-port="0" />
		<edge from-layer="380" from-port="0" to-layer="381" to-port="1" />
		<edge from-layer="381" from-port="2" to-layer="383" to-port="0" />
		<edge from-layer="382" from-port="0" to-layer="383" to-port="1" />
		<edge from-layer="383" from-port="2" to-layer="386" to-port="0" />
		<edge from-layer="384" from-port="0" to-layer="456" to-port="1" />
		<edge from-layer="384" from-port="0" to-layer="386" to-port="3" />
		<edge from-layer="384" from-port="0" to-layer="386" to-port="4" />
		<edge from-layer="384" from-port="0" to-layer="438" to-port="1" />
		<edge from-layer="384" from-port="0" to-layer="386" to-port="1" />
		<edge from-layer="384" from-port="0" to-layer="484" to-port="2" />
		<edge from-layer="384" from-port="0" to-layer="484" to-port="3" />
		<edge from-layer="384" from-port="0" to-layer="484" to-port="4" />
		<edge from-layer="384" from-port="0" to-layer="403" to-port="1" />
		<edge from-layer="384" from-port="0" to-layer="420" to-port="1" />
		<edge from-layer="385" from-port="0" to-layer="386" to-port="2" />
		<edge from-layer="386" from-port="5" to-layer="388" to-port="0" />
		<edge from-layer="386" from-port="5" to-layer="441" to-port="0" />
		<edge from-layer="386" from-port="5" to-layer="423" to-port="0" />
		<edge from-layer="386" from-port="5" to-layer="405" to-port="0" />
		<edge from-layer="387" from-port="0" to-layer="388" to-port="2" />
		<edge from-layer="388" from-port="3" to-layer="390" to-port="0" />
		<edge from-layer="389" from-port="0" to-layer="390" to-port="1" />
		<edge from-layer="390" from-port="2" to-layer="392" to-port="0" />
		<edge from-layer="391" from-port="0" to-layer="392" to-port="1" />
		<edge from-layer="392" from-port="2" to-layer="393" to-port="0" />
		<edge from-layer="393" from-port="1" to-layer="395" to-port="0" />
		<edge from-layer="394" from-port="0" to-layer="395" to-port="1" />
		<edge from-layer="395" from-port="2" to-layer="397" to-port="0" />
		<edge from-layer="396" from-port="0" to-layer="397" to-port="1" />
		<edge from-layer="397" from-port="2" to-layer="398" to-port="0" />
		<edge from-layer="398" from-port="1" to-layer="400" to-port="0" />
		<edge from-layer="399" from-port="0" to-layer="400" to-port="1" />
		<edge from-layer="400" from-port="2" to-layer="402" to-port="0" />
		<edge from-layer="401" from-port="0" to-layer="402" to-port="1" />
		<edge from-layer="402" from-port="2" to-layer="403" to-port="0" />
		<edge from-layer="403" from-port="2" to-layer="457" to-port="0" />
		<edge from-layer="404" from-port="0" to-layer="405" to-port="2" />
		<edge from-layer="405" from-port="3" to-layer="407" to-port="0" />
		<edge from-layer="406" from-port="0" to-layer="407" to-port="1" />
		<edge from-layer="407" from-port="2" to-layer="409" to-port="0" />
		<edge from-layer="408" from-port="0" to-layer="409" to-port="1" />
		<edge from-layer="409" from-port="2" to-layer="410" to-port="0" />
		<edge from-layer="410" from-port="1" to-layer="412" to-port="0" />
		<edge from-layer="411" from-port="0" to-layer="412" to-port="1" />
		<edge from-layer="412" from-port="2" to-layer="414" to-port="0" />
		<edge from-layer="413" from-port="0" to-layer="414" to-port="1" />
		<edge from-layer="414" from-port="2" to-layer="415" to-port="0" />
		<edge from-layer="415" from-port="1" to-layer="417" to-port="0" />
		<edge from-layer="416" from-port="0" to-layer="417" to-port="1" />
		<edge from-layer="417" from-port="2" to-layer="419" to-port="0" />
		<edge from-layer="418" from-port="0" to-layer="419" to-port="1" />
		<edge from-layer="419" from-port="2" to-layer="420" to-port="0" />
		<edge from-layer="420" from-port="2" to-layer="457" to-port="1" />
		<edge from-layer="421" from-port="0" to-layer="423" to-port="1" />
		<edge from-layer="422" from-port="0" to-layer="423" to-port="2" />
		<edge from-layer="423" from-port="3" to-layer="425" to-port="0" />
		<edge from-layer="424" from-port="0" to-layer="425" to-port="1" />
		<edge from-layer="425" from-port="2" to-layer="427" to-port="0" />
		<edge from-layer="426" from-port="0" to-layer="427" to-port="1" />
		<edge from-layer="427" from-port="2" to-layer="428" to-port="0" />
		<edge from-layer="428" from-port="1" to-layer="430" to-port="0" />
		<edge from-layer="429" from-port="0" to-layer="430" to-port="1" />
		<edge from-layer="430" from-port="2" to-layer="432" to-port="0" />
		<edge from-layer="431" from-port="0" to-layer="432" to-port="1" />
		<edge from-layer="432" from-port="2" to-layer="433" to-port="0" />
		<edge from-layer="433" from-port="1" to-layer="435" to-port="0" />
		<edge from-layer="434" from-port="0" to-layer="435" to-port="1" />
		<edge from-layer="435" from-port="2" to-layer="437" to-port="0" />
		<edge from-layer="436" from-port="0" to-layer="437" to-port="1" />
		<edge from-layer="437" from-port="2" to-layer="438" to-port="0" />
		<edge from-layer="438" from-port="2" to-layer="457" to-port="2" />
		<edge from-layer="439" from-port="0" to-layer="441" to-port="1" />
		<edge from-layer="440" from-port="0" to-layer="441" to-port="2" />
		<edge from-layer="441" from-port="3" to-layer="443" to-port="0" />
		<edge from-layer="442" from-port="0" to-layer="443" to-port="1" />
		<edge from-layer="443" from-port="2" to-layer="445" to-port="0" />
		<edge from-layer="444" from-port="0" to-layer="445" to-port="1" />
		<edge from-layer="445" from-port="2" to-layer="446" to-port="0" />
		<edge from-layer="446" from-port="1" to-layer="448" to-port="0" />
		<edge from-layer="447" from-port="0" to-layer="448" to-port="1" />
		<edge from-layer="448" from-port="2" to-layer="450" to-port="0" />
		<edge from-layer="449" from-port="0" to-layer="450" to-port="1" />
		<edge from-layer="450" from-port="2" to-layer="451" to-port="0" />
		<edge from-layer="451" from-port="1" to-layer="453" to-port="0" />
		<edge from-layer="452" from-port="0" to-layer="453" to-port="1" />
		<edge from-layer="453" from-port="2" to-layer="455" to-port="0" />
		<edge from-layer="454" from-port="0" to-layer="455" to-port="1" />
		<edge from-layer="455" from-port="2" to-layer="456" to-port="0" />
		<edge from-layer="456" from-port="2" to-layer="457" to-port="3" />
		<edge from-layer="457" from-port="4" to-layer="480" to-port="0" />
		<edge from-layer="458" from-port="0" to-layer="469" to-port="0" />
		<edge from-layer="459" from-port="0" to-layer="460" to-port="1" />
		<edge from-layer="460" from-port="2" to-layer="462" to-port="0" />
		<edge from-layer="461" from-port="0" to-layer="462" to-port="1" />
		<edge from-layer="462" from-port="2" to-layer="464" to-port="0" />
		<edge from-layer="463" from-port="0" to-layer="464" to-port="1" />
		<edge from-layer="464" from-port="2" to-layer="466" to-port="0" />
		<edge from-layer="465" from-port="0" to-layer="466" to-port="1" />
		<edge from-layer="466" from-port="2" to-layer="468" to-port="0" />
		<edge from-layer="467" from-port="0" to-layer="468" to-port="1" />
		<edge from-layer="468" from-port="2" to-layer="469" to-port="1" />
		<edge from-layer="469" from-port="2" to-layer="471" to-port="0" />
		<edge from-layer="470" from-port="0" to-layer="471" to-port="1" />
		<edge from-layer="471" from-port="2" to-layer="472" to-port="0" />
		<edge from-layer="472" from-port="1" to-layer="474" to-port="0" />
		<edge from-layer="473" from-port="0" to-layer="474" to-port="1" />
		<edge from-layer="474" from-port="2" to-layer="476" to-port="0" />
		<edge from-layer="475" from-port="0" to-layer="476" to-port="1" />
		<edge from-layer="476" from-port="2" to-layer="477" to-port="0" />
		<edge from-layer="477" from-port="1" to-layer="479" to-port="0" />
		<edge from-layer="478" from-port="0" to-layer="479" to-port="1" />
		<edge from-layer="479" from-port="2" to-layer="480" to-port="1" />
		<edge from-layer="480" from-port="2" to-layer="482" to-port="0" />
		<edge from-layer="481" from-port="0" to-layer="482" to-port="1" />
		<edge from-layer="482" from-port="2" to-layer="484" to-port="0" />
		<edge from-layer="483" from-port="0" to-layer="484" to-port="1" />
		<edge from-layer="484" from-port="5" to-layer="485" to-port="0" />
	</edges>
	<rt_info>
		<Runtime_version value="2025.2.0-19140-c01cd93e24d-releases/2025/2" />
		<conversion_parameters>
			<is_python_object value="False" />
		</conversion_parameters>
	</rt_info>
</net>
