<?xml version="1.0"?>
<net name="main_graph" version="11">
	<layers>
		<layer id="1" name="image_embeddings" type="Parameter" version="opset1">
			<data shape="1,256,64,64" element_type="f32" />
			<output>
				<port id="0" precision="FP32" names="image_embeddings">
					<dim>1</dim>
					<dim>256</dim>
					<dim>64</dim>
					<dim>64</dim>
				</port>
			</output>
		</layer>
		<layer id="0" name="boxes" type="Parameter" version="opset1">
			<data shape="4" element_type="f32" />
			<output>
				<port id="0" precision="FP32" names="boxes">
					<dim>4</dim>
				</port>
			</output>
		</layer>
		<layer id="2" name="Constant_19732" type="Const" version="opset1">
			<data element_type="f32" shape="1, 1, 256" offset="0" size="1024" />
			<output>
				<port id="0" precision="FP32">
					<dim>1</dim>
					<dim>1</dim>
					<dim>256</dim>
				</port>
			</output>
		</layer>
		<layer id="3" name="Constant_19728" type="Const" version="opset1">
			<data element_type="f32" shape="1, 1, 256" offset="1024" size="1024" />
			<output>
				<port id="0" precision="FP32">
					<dim>1</dim>
					<dim>1</dim>
					<dim>256</dim>
				</port>
			</output>
		</layer>
		<layer id="4" name="/mask_decoder/Expand" type="Const" version="opset1">
			<data element_type="f32" shape="1, 5, 256" offset="2048" size="5120" />
			<output>
				<port id="0" precision="FP32" names="/mask_decoder/Expand_output_0">
					<dim>1</dim>
					<dim>5</dim>
					<dim>256</dim>
				</port>
			</output>
		</layer>
		<layer id="5" name="/Constant" type="Const" version="opset1">
			<data element_type="i64" shape="3" offset="7168" size="24" />
			<output>
				<port id="0" precision="I64" names="/Constant_output_0">
					<dim>3</dim>
				</port>
			</output>
		</layer>
		<layer id="6" name="/Reshape" type="Reshape" version="opset1">
			<data special_zero="true" />
			<input>
				<port id="0" precision="FP32">
					<dim>4</dim>
				</port>
				<port id="1" precision="I64">
					<dim>3</dim>
				</port>
			</input>
			<output>
				<port id="2" precision="FP32" names="/Reshape_output_0">
					<dim>1</dim>
					<dim>2</dim>
					<dim>2</dim>
				</port>
			</output>
		</layer>
		<layer id="7" name="Constant_19726" type="Const" version="opset1">
			<data element_type="f32" shape="1, 1, 1" offset="7192" size="4" />
			<output>
				<port id="0" precision="FP32">
					<dim>1</dim>
					<dim>1</dim>
					<dim>1</dim>
				</port>
			</output>
		</layer>
		<layer id="8" name="/Mul" type="Multiply" version="opset1">
			<data auto_broadcast="numpy" />
			<input>
				<port id="0" precision="FP32">
					<dim>1</dim>
					<dim>2</dim>
					<dim>2</dim>
				</port>
				<port id="1" precision="FP32">
					<dim>1</dim>
					<dim>1</dim>
					<dim>1</dim>
				</port>
			</input>
			<output>
				<port id="2" precision="FP32" names="/Mul_output_0">
					<dim>1</dim>
					<dim>2</dim>
					<dim>2</dim>
				</port>
			</output>
		</layer>
		<layer id="9" name="Constant_19727" type="Const" version="opset1">
			<data element_type="f32" shape="1, 1, 1" offset="7196" size="4" />
			<output>
				<port id="0" precision="FP32">
					<dim>1</dim>
					<dim>1</dim>
					<dim>1</dim>
				</port>
			</output>
		</layer>
		<layer id="10" name="/Sub" type="Add" version="opset1">
			<data auto_broadcast="numpy" />
			<input>
				<port id="0" precision="FP32">
					<dim>1</dim>
					<dim>2</dim>
					<dim>2</dim>
				</port>
				<port id="1" precision="FP32">
					<dim>1</dim>
					<dim>1</dim>
					<dim>1</dim>
				</port>
			</input>
			<output>
				<port id="2" precision="FP32" names="/Sub_output_0">
					<dim>1</dim>
					<dim>2</dim>
					<dim>2</dim>
				</port>
			</output>
		</layer>
		<layer id="11" name="Multiply_19608" type="Const" version="opset1">
			<data element_type="f32" shape="128, 2" offset="7200" size="1024" />
			<output>
				<port id="0" precision="FP32">
					<dim>128</dim>
					<dim>2</dim>
				</port>
			</output>
		</layer>
		<layer id="12" name="/Mul_1" type="MatMul" version="opset1">
			<data transpose_a="false" transpose_b="true" />
			<input>
				<port id="0" precision="FP32">
					<dim>1</dim>
					<dim>2</dim>
					<dim>2</dim>
				</port>
				<port id="1" precision="FP32">
					<dim>128</dim>
					<dim>2</dim>
				</port>
			</input>
			<output>
				<port id="2" precision="FP32" names="/Mul_1_output_0">
					<dim>1</dim>
					<dim>2</dim>
					<dim>128</dim>
				</port>
			</output>
		</layer>
		<layer id="13" name="/Sin" type="Sin" version="opset1">
			<input>
				<port id="0" precision="FP32">
					<dim>1</dim>
					<dim>2</dim>
					<dim>128</dim>
				</port>
			</input>
			<output>
				<port id="1" precision="FP32" names="/Sin_output_0">
					<dim>1</dim>
					<dim>2</dim>
					<dim>128</dim>
				</port>
			</output>
		</layer>
		<layer id="14" name="/Cos" type="Cos" version="opset1">
			<input>
				<port id="0" precision="FP32">
					<dim>1</dim>
					<dim>2</dim>
					<dim>128</dim>
				</port>
			</input>
			<output>
				<port id="1" precision="FP32" names="/Cos_output_0">
					<dim>1</dim>
					<dim>2</dim>
					<dim>128</dim>
				</port>
			</output>
		</layer>
		<layer id="15" name="/Concat" type="Concat" version="opset1">
			<data axis="-1" />
			<input>
				<port id="0" precision="FP32">
					<dim>1</dim>
					<dim>2</dim>
					<dim>128</dim>
				</port>
				<port id="1" precision="FP32">
					<dim>1</dim>
					<dim>2</dim>
					<dim>128</dim>
				</port>
			</input>
			<output>
				<port id="2" precision="FP32" names="/Concat_output_0">
					<dim>1</dim>
					<dim>2</dim>
					<dim>256</dim>
				</port>
			</output>
		</layer>
		<layer id="16" name="/Concat_1" type="Const" version="opset1">
			<data element_type="i64" shape="1, 1, 256, 3" offset="8224" size="6144" />
			<output>
				<port id="0" precision="I64" names="/Concat_1_output_0">
					<dim>1</dim>
					<dim>1</dim>
					<dim>256</dim>
					<dim>3</dim>
				</port>
			</output>
		</layer>
		<layer id="17" name="/Constant_5" type="Const" version="opset1">
			<data element_type="i64" shape="" offset="14368" size="8" />
			<output>
				<port id="0" precision="I64" names="/Constant_5_output_0" />
			</output>
		</layer>
		<layer id="18" name="Constant_15505" type="Const" version="opset1">
			<data element_type="i64" shape="" offset="14376" size="8" />
			<output>
				<port id="0" precision="I64" />
			</output>
		</layer>
		<layer id="19" name="/Gather" type="Gather" version="opset8">
			<data batch_dims="0" />
			<input>
				<port id="0" precision="FP32">
					<dim>1</dim>
					<dim>2</dim>
					<dim>256</dim>
				</port>
				<port id="1" precision="I64" />
				<port id="2" precision="I64" />
			</input>
			<output>
				<port id="3" precision="FP32" names="/Gather_output_0">
					<dim>1</dim>
					<dim>256</dim>
				</port>
			</output>
		</layer>
		<layer id="20" name="prompt_encoder.point_embeddings.2.weight" type="Const" version="opset1">
			<data element_type="f32" shape="1, 256" offset="14384" size="1024" />
			<output>
				<port id="0" precision="FP32" names="prompt_encoder.point_embeddings.2.weight">
					<dim>1</dim>
					<dim>256</dim>
				</port>
			</output>
		</layer>
		<layer id="21" name="/Add" type="Add" version="opset1">
			<data auto_broadcast="numpy" />
			<input>
				<port id="0" precision="FP32">
					<dim>1</dim>
					<dim>256</dim>
				</port>
				<port id="1" precision="FP32">
					<dim>1</dim>
					<dim>256</dim>
				</port>
			</input>
			<output>
				<port id="2" precision="FP32" names="/Add_output_0">
					<dim>1</dim>
					<dim>256</dim>
				</port>
			</output>
		</layer>
		<layer id="22" name="ShapeOf_19151" type="ShapeOf" version="opset3">
			<data output_type="i64" />
			<input>
				<port id="0" precision="FP32">
					<dim>1</dim>
					<dim>2</dim>
					<dim>256</dim>
				</port>
			</input>
			<output>
				<port id="1" precision="I64">
					<dim>3</dim>
				</port>
			</output>
		</layer>
		<layer id="23" name="Constant_19152" type="Const" version="opset1">
			<data element_type="i64" shape="2" offset="15408" size="16" />
			<output>
				<port id="0" precision="I64">
					<dim>2</dim>
				</port>
			</output>
		</layer>
		<layer id="24" name="Constant_19150" type="Const" version="opset1">
			<data element_type="i64" shape="" offset="14368" size="8" />
			<output>
				<port id="0" precision="I64" />
			</output>
		</layer>
		<layer id="25" name="/Shape" type="Gather" version="opset1">
			<input>
				<port id="0" precision="I64">
					<dim>3</dim>
				</port>
				<port id="1" precision="I64">
					<dim>2</dim>
				</port>
				<port id="2" precision="I64" />
			</input>
			<output>
				<port id="3" precision="I64" names="/Shape_2_output_0,/Shape_4_output_0,/Shape_6_output_0,/Shape_output_0">
					<dim>2</dim>
				</port>
			</output>
		</layer>
		<layer id="26" name="/Expand" type="Broadcast" version="opset3">
			<data mode="bidirectional" />
			<input>
				<port id="0" precision="FP32">
					<dim>1</dim>
					<dim>256</dim>
				</port>
				<port id="1" precision="I64">
					<dim>2</dim>
				</port>
			</input>
			<output>
				<port id="2" precision="FP32" names="/Expand_4_output_0,/Expand_output_0">
					<dim>1</dim>
					<dim>256</dim>
				</port>
			</output>
		</layer>
		<layer id="27" name="/Concat_2" type="Const" version="opset1">
			<data element_type="i64" shape="3" offset="15424" size="24" />
			<output>
				<port id="0" precision="I64" names="/Concat_2_output_0">
					<dim>3</dim>
				</port>
			</output>
		</layer>
		<layer id="28" name="/Reshape_1" type="Reshape" version="opset1">
			<data special_zero="true" />
			<input>
				<port id="0" precision="FP32">
					<dim>1</dim>
					<dim>256</dim>
				</port>
				<port id="1" precision="I64">
					<dim>3</dim>
				</port>
			</input>
			<output>
				<port id="2" precision="FP32" names="/Reshape_1_output_0,/Reshape_2_output_0">
					<dim>1</dim>
					<dim>1</dim>
					<dim>256</dim>
				</port>
			</output>
		</layer>
		<layer id="29" name="/ScatterND" type="ScatterNDUpdate" version="opset4">
			<input>
				<port id="0" precision="FP32">
					<dim>1</dim>
					<dim>2</dim>
					<dim>256</dim>
				</port>
				<port id="1" precision="I64">
					<dim>1</dim>
					<dim>1</dim>
					<dim>256</dim>
					<dim>3</dim>
				</port>
				<port id="2" precision="FP32">
					<dim>1</dim>
					<dim>1</dim>
					<dim>256</dim>
				</port>
			</input>
			<output>
				<port id="3" precision="FP32" names="/ScatterND_output_0">
					<dim>1</dim>
					<dim>2</dim>
					<dim>256</dim>
				</port>
			</output>
		</layer>
		<layer id="30" name="/Concat_3" type="Const" version="opset1">
			<data element_type="i64" shape="1, 1, 256, 3" offset="8224" size="6144" />
			<output>
				<port id="0" precision="I64" names="/Concat_3_output_0">
					<dim>1</dim>
					<dim>1</dim>
					<dim>256</dim>
					<dim>3</dim>
				</port>
			</output>
		</layer>
		<layer id="31" name="/ScatterND_1" type="ScatterNDUpdate" version="opset4">
			<input>
				<port id="0" precision="FP32">
					<dim>1</dim>
					<dim>2</dim>
					<dim>256</dim>
				</port>
				<port id="1" precision="I64">
					<dim>1</dim>
					<dim>1</dim>
					<dim>256</dim>
					<dim>3</dim>
				</port>
				<port id="2" precision="FP32">
					<dim>1</dim>
					<dim>1</dim>
					<dim>256</dim>
				</port>
			</input>
			<output>
				<port id="3" precision="FP32" names="/ScatterND_1_output_0">
					<dim>1</dim>
					<dim>2</dim>
					<dim>256</dim>
				</port>
			</output>
		</layer>
		<layer id="32" name="/Concat_5" type="Const" version="opset1">
			<data element_type="i64" shape="1, 1, 256, 3" offset="15448" size="6144" />
			<output>
				<port id="0" precision="I64" names="/Concat_5_output_0">
					<dim>1</dim>
					<dim>1</dim>
					<dim>256</dim>
					<dim>3</dim>
				</port>
			</output>
		</layer>
		<layer id="33" name="/Constant_2" type="Const" version="opset1">
			<data element_type="i64" shape="" offset="14376" size="8" />
			<output>
				<port id="0" precision="I64" names="/Constant_2_output_0" />
			</output>
		</layer>
		<layer id="34" name="Constant_15652" type="Const" version="opset1">
			<data element_type="i64" shape="" offset="14376" size="8" />
			<output>
				<port id="0" precision="I64" />
			</output>
		</layer>
		<layer id="35" name="/Gather_2" type="Gather" version="opset8">
			<data batch_dims="0" />
			<input>
				<port id="0" precision="FP32">
					<dim>1</dim>
					<dim>2</dim>
					<dim>256</dim>
				</port>
				<port id="1" precision="I64" />
				<port id="2" precision="I64" />
			</input>
			<output>
				<port id="3" precision="FP32" names="/Gather_2_output_0">
					<dim>1</dim>
					<dim>256</dim>
				</port>
			</output>
		</layer>
		<layer id="36" name="prompt_encoder.point_embeddings.3.weight" type="Const" version="opset1">
			<data element_type="f32" shape="1, 256" offset="21592" size="1024" />
			<output>
				<port id="0" precision="FP32" names="prompt_encoder.point_embeddings.3.weight">
					<dim>1</dim>
					<dim>256</dim>
				</port>
			</output>
		</layer>
		<layer id="37" name="/Add_1" type="Add" version="opset1">
			<data auto_broadcast="numpy" />
			<input>
				<port id="0" precision="FP32">
					<dim>1</dim>
					<dim>256</dim>
				</port>
				<port id="1" precision="FP32">
					<dim>1</dim>
					<dim>256</dim>
				</port>
			</input>
			<output>
				<port id="2" precision="FP32" names="/Add_1_output_0">
					<dim>1</dim>
					<dim>256</dim>
				</port>
			</output>
		</layer>
		<layer id="38" name="/Expand_8" type="Broadcast" version="opset3">
			<data mode="bidirectional" />
			<input>
				<port id="0" precision="FP32">
					<dim>1</dim>
					<dim>256</dim>
				</port>
				<port id="1" precision="I64">
					<dim>2</dim>
				</port>
			</input>
			<output>
				<port id="2" precision="FP32" names="/Expand_12_output_0,/Expand_8_output_0">
					<dim>1</dim>
					<dim>256</dim>
				</port>
			</output>
		</layer>
		<layer id="39" name="/Concat_6" type="Const" version="opset1">
			<data element_type="i64" shape="3" offset="15424" size="24" />
			<output>
				<port id="0" precision="I64" names="/Concat_6_output_0">
					<dim>3</dim>
				</port>
			</output>
		</layer>
		<layer id="40" name="/Reshape_3" type="Reshape" version="opset1">
			<data special_zero="true" />
			<input>
				<port id="0" precision="FP32">
					<dim>1</dim>
					<dim>256</dim>
				</port>
				<port id="1" precision="I64">
					<dim>3</dim>
				</port>
			</input>
			<output>
				<port id="2" precision="FP32" names="/Reshape_3_output_0,/Reshape_4_output_0">
					<dim>1</dim>
					<dim>1</dim>
					<dim>256</dim>
				</port>
			</output>
		</layer>
		<layer id="41" name="/ScatterND_2" type="ScatterNDUpdate" version="opset4">
			<input>
				<port id="0" precision="FP32">
					<dim>1</dim>
					<dim>2</dim>
					<dim>256</dim>
				</port>
				<port id="1" precision="I64">
					<dim>1</dim>
					<dim>1</dim>
					<dim>256</dim>
					<dim>3</dim>
				</port>
				<port id="2" precision="FP32">
					<dim>1</dim>
					<dim>1</dim>
					<dim>256</dim>
				</port>
			</input>
			<output>
				<port id="3" precision="FP32" names="/ScatterND_2_output_0">
					<dim>1</dim>
					<dim>2</dim>
					<dim>256</dim>
				</port>
			</output>
		</layer>
		<layer id="42" name="/Concat_7" type="Const" version="opset1">
			<data element_type="i64" shape="1, 1, 256, 3" offset="15448" size="6144" />
			<output>
				<port id="0" precision="I64" names="/Concat_7_output_0">
					<dim>1</dim>
					<dim>1</dim>
					<dim>256</dim>
					<dim>3</dim>
				</port>
			</output>
		</layer>
		<layer id="43" name="/ScatterND_3" type="ScatterNDUpdate" version="opset4">
			<input>
				<port id="0" precision="FP32">
					<dim>1</dim>
					<dim>2</dim>
					<dim>256</dim>
				</port>
				<port id="1" precision="I64">
					<dim>1</dim>
					<dim>1</dim>
					<dim>256</dim>
					<dim>3</dim>
				</port>
				<port id="2" precision="FP32">
					<dim>1</dim>
					<dim>1</dim>
					<dim>256</dim>
				</port>
			</input>
			<output>
				<port id="3" precision="FP32" names="/ScatterND_3_output_0">
					<dim>1</dim>
					<dim>2</dim>
					<dim>256</dim>
				</port>
			</output>
		</layer>
		<layer id="44" name="/mask_decoder/Concat" type="Concat" version="opset1">
			<data axis="1" />
			<input>
				<port id="0" precision="FP32">
					<dim>1</dim>
					<dim>5</dim>
					<dim>256</dim>
				</port>
				<port id="1" precision="FP32">
					<dim>1</dim>
					<dim>2</dim>
					<dim>256</dim>
				</port>
			</input>
			<output>
				<port id="2" precision="FP32" names="/mask_decoder/Concat_output_0">
					<dim>1</dim>
					<dim>7</dim>
					<dim>256</dim>
				</port>
			</output>
		</layer>
		<layer id="45" name="Transpose_19246" type="Const" version="opset1">
			<data element_type="f32" shape="256, 256" offset="22616" size="262144" />
			<output>
				<port id="0" precision="FP32">
					<dim>256</dim>
					<dim>256</dim>
				</port>
			</output>
		</layer>
		<layer id="46" name="/mask_decoder/transformer/layers.0/self_attn/q_proj/MatMul" type="MatMul" version="opset1">
			<data transpose_a="false" transpose_b="true" />
			<input>
				<port id="0" precision="FP32">
					<dim>1</dim>
					<dim>7</dim>
					<dim>256</dim>
				</port>
				<port id="1" precision="FP32">
					<dim>256</dim>
					<dim>256</dim>
				</port>
			</input>
			<output>
				<port id="2" precision="FP32" names="/mask_decoder/transformer/layers.0/self_attn/q_proj/MatMul_output_0">
					<dim>1</dim>
					<dim>7</dim>
					<dim>256</dim>
				</port>
			</output>
		</layer>
		<layer id="47" name="/mask_decoder/transformer/layers.0/self_attn/q_proj/Add" type="Add" version="opset1">
			<data auto_broadcast="numpy" />
			<input>
				<port id="0" precision="FP32">
					<dim>1</dim>
					<dim>1</dim>
					<dim>256</dim>
				</port>
				<port id="1" precision="FP32">
					<dim>1</dim>
					<dim>7</dim>
					<dim>256</dim>
				</port>
			</input>
			<output>
				<port id="2" precision="FP32" names="/mask_decoder/transformer/layers.0/self_attn/q_proj/Add_output_0">
					<dim>1</dim>
					<dim>7</dim>
					<dim>256</dim>
				</port>
			</output>
		</layer>
		<layer id="48" name="/mask_decoder/transformer/layers.0/self_attn/Constant" type="Const" version="opset1">
			<data element_type="i64" shape="4" offset="284760" size="32" />
			<output>
				<port id="0" precision="I64" names="/mask_decoder/transformer/layers.0/self_attn/Constant_output_0">
					<dim>4</dim>
				</port>
			</output>
		</layer>
		<layer id="49" name="/mask_decoder/transformer/layers.0/self_attn/Reshape" type="Reshape" version="opset1">
			<data special_zero="true" />
			<input>
				<port id="0" precision="FP32">
					<dim>1</dim>
					<dim>7</dim>
					<dim>256</dim>
				</port>
				<port id="1" precision="I64">
					<dim>4</dim>
				</port>
			</input>
			<output>
				<port id="2" precision="FP32" names="/mask_decoder/transformer/layers.0/self_attn/Reshape_output_0">
					<dim>1</dim>
					<dim>7</dim>
					<dim>8</dim>
					<dim>32</dim>
				</port>
			</output>
		</layer>
		<layer id="50" name="Constant_15920" type="Const" version="opset1">
			<data element_type="i64" shape="4" offset="284792" size="32" />
			<output>
				<port id="0" precision="I64">
					<dim>4</dim>
				</port>
			</output>
		</layer>
		<layer id="51" name="/mask_decoder/transformer/layers.0/self_attn/Transpose" type="Transpose" version="opset1">
			<input>
				<port id="0" precision="FP32">
					<dim>1</dim>
					<dim>7</dim>
					<dim>8</dim>
					<dim>32</dim>
				</port>
				<port id="1" precision="I64">
					<dim>4</dim>
				</port>
			</input>
			<output>
				<port id="2" precision="FP32" names="/mask_decoder/transformer/layers.0/self_attn/Transpose_output_0">
					<dim>1</dim>
					<dim>8</dim>
					<dim>7</dim>
					<dim>32</dim>
				</port>
			</output>
		</layer>
		<layer id="52" name="Constant_19729" type="Const" version="opset1">
			<data element_type="f32" shape="1, 1, 256" offset="284824" size="1024" />
			<output>
				<port id="0" precision="FP32">
					<dim>1</dim>
					<dim>1</dim>
					<dim>256</dim>
				</port>
			</output>
		</layer>
		<layer id="53" name="Transpose_19253" type="Const" version="opset1">
			<data element_type="f32" shape="256, 256" offset="285848" size="262144" />
			<output>
				<port id="0" precision="FP32">
					<dim>256</dim>
					<dim>256</dim>
				</port>
			</output>
		</layer>
		<layer id="54" name="/mask_decoder/transformer/layers.0/self_attn/k_proj/MatMul" type="MatMul" version="opset1">
			<data transpose_a="false" transpose_b="true" />
			<input>
				<port id="0" precision="FP32">
					<dim>1</dim>
					<dim>7</dim>
					<dim>256</dim>
				</port>
				<port id="1" precision="FP32">
					<dim>256</dim>
					<dim>256</dim>
				</port>
			</input>
			<output>
				<port id="2" precision="FP32" names="/mask_decoder/transformer/layers.0/self_attn/k_proj/MatMul_output_0">
					<dim>1</dim>
					<dim>7</dim>
					<dim>256</dim>
				</port>
			</output>
		</layer>
		<layer id="55" name="/mask_decoder/transformer/layers.0/self_attn/k_proj/Add" type="Add" version="opset1">
			<data auto_broadcast="numpy" />
			<input>
				<port id="0" precision="FP32">
					<dim>1</dim>
					<dim>1</dim>
					<dim>256</dim>
				</port>
				<port id="1" precision="FP32">
					<dim>1</dim>
					<dim>7</dim>
					<dim>256</dim>
				</port>
			</input>
			<output>
				<port id="2" precision="FP32" names="/mask_decoder/transformer/layers.0/self_attn/k_proj/Add_output_0">
					<dim>1</dim>
					<dim>7</dim>
					<dim>256</dim>
				</port>
			</output>
		</layer>
		<layer id="56" name="/mask_decoder/transformer/layers.0/self_attn/Constant_1" type="Const" version="opset1">
			<data element_type="i64" shape="4" offset="284760" size="32" />
			<output>
				<port id="0" precision="I64" names="/mask_decoder/transformer/layers.0/self_attn/Constant_1_output_0">
					<dim>4</dim>
				</port>
			</output>
		</layer>
		<layer id="57" name="/mask_decoder/transformer/layers.0/self_attn/Reshape_1" type="Reshape" version="opset1">
			<data special_zero="true" />
			<input>
				<port id="0" precision="FP32">
					<dim>1</dim>
					<dim>7</dim>
					<dim>256</dim>
				</port>
				<port id="1" precision="I64">
					<dim>4</dim>
				</port>
			</input>
			<output>
				<port id="2" precision="FP32" names="/mask_decoder/transformer/layers.0/self_attn/Reshape_1_output_0">
					<dim>1</dim>
					<dim>7</dim>
					<dim>8</dim>
					<dim>32</dim>
				</port>
			</output>
		</layer>
		<layer id="58" name="Constant_15928" type="Const" version="opset1">
			<data element_type="i64" shape="4" offset="547992" size="32" />
			<output>
				<port id="0" precision="I64">
					<dim>4</dim>
				</port>
			</output>
		</layer>
		<layer id="59" name="/mask_decoder/transformer/layers.0/self_attn/Transpose_2" type="Transpose" version="opset1">
			<input>
				<port id="0" precision="FP32">
					<dim>1</dim>
					<dim>7</dim>
					<dim>8</dim>
					<dim>32</dim>
				</port>
				<port id="1" precision="I64">
					<dim>4</dim>
				</port>
			</input>
			<output>
				<port id="2" precision="FP32" names="/mask_decoder/transformer/layers.0/self_attn/Transpose_2_output_0">
					<dim>1</dim>
					<dim>8</dim>
					<dim>32</dim>
					<dim>7</dim>
				</port>
			</output>
		</layer>
		<layer id="60" name="Constant_19730" type="Const" version="opset1">
			<data element_type="f32" shape="1, 1, 1, 1" offset="548024" size="4" />
			<output>
				<port id="0" precision="FP32">
					<dim>1</dim>
					<dim>1</dim>
					<dim>1</dim>
					<dim>1</dim>
				</port>
			</output>
		</layer>
		<layer id="61" name="Multiply_19610" type="Multiply" version="opset1">
			<data auto_broadcast="numpy" />
			<input>
				<port id="0" precision="FP32">
					<dim>1</dim>
					<dim>8</dim>
					<dim>32</dim>
					<dim>7</dim>
				</port>
				<port id="1" precision="FP32">
					<dim>1</dim>
					<dim>1</dim>
					<dim>1</dim>
					<dim>1</dim>
				</port>
			</input>
			<output>
				<port id="2" precision="FP32">
					<dim>1</dim>
					<dim>8</dim>
					<dim>32</dim>
					<dim>7</dim>
				</port>
			</output>
		</layer>
		<layer id="62" name="/mask_decoder/transformer/layers.0/self_attn/Div" type="MatMul" version="opset1">
			<data transpose_a="false" transpose_b="false" />
			<input>
				<port id="0" precision="FP32">
					<dim>1</dim>
					<dim>8</dim>
					<dim>7</dim>
					<dim>32</dim>
				</port>
				<port id="1" precision="FP32">
					<dim>1</dim>
					<dim>8</dim>
					<dim>32</dim>
					<dim>7</dim>
				</port>
			</input>
			<output>
				<port id="2" precision="FP32" names="/mask_decoder/transformer/layers.0/self_attn/Div_output_0">
					<dim>1</dim>
					<dim>8</dim>
					<dim>7</dim>
					<dim>7</dim>
				</port>
			</output>
		</layer>
		<layer id="63" name="/mask_decoder/transformer/layers.0/self_attn/Softmax" type="SoftMax" version="opset8">
			<data axis="-1" />
			<input>
				<port id="0" precision="FP32">
					<dim>1</dim>
					<dim>8</dim>
					<dim>7</dim>
					<dim>7</dim>
				</port>
			</input>
			<output>
				<port id="1" precision="FP32" names="/mask_decoder/transformer/layers.0/self_attn/Softmax_output_0">
					<dim>1</dim>
					<dim>8</dim>
					<dim>7</dim>
					<dim>7</dim>
				</port>
			</output>
		</layer>
		<layer id="64" name="Constant_19731" type="Const" version="opset1">
			<data element_type="f32" shape="1, 1, 256" offset="548028" size="1024" />
			<output>
				<port id="0" precision="FP32">
					<dim>1</dim>
					<dim>1</dim>
					<dim>256</dim>
				</port>
			</output>
		</layer>
		<layer id="65" name="Transpose_19262" type="Const" version="opset1">
			<data element_type="f32" shape="256, 256" offset="549052" size="262144" />
			<output>
				<port id="0" precision="FP32">
					<dim>256</dim>
					<dim>256</dim>
				</port>
			</output>
		</layer>
		<layer id="66" name="/mask_decoder/transformer/layers.0/self_attn/v_proj/MatMul" type="MatMul" version="opset1">
			<data transpose_a="false" transpose_b="true" />
			<input>
				<port id="0" precision="FP32">
					<dim>1</dim>
					<dim>7</dim>
					<dim>256</dim>
				</port>
				<port id="1" precision="FP32">
					<dim>256</dim>
					<dim>256</dim>
				</port>
			</input>
			<output>
				<port id="2" precision="FP32" names="/mask_decoder/transformer/layers.0/self_attn/v_proj/MatMul_output_0">
					<dim>1</dim>
					<dim>7</dim>
					<dim>256</dim>
				</port>
			</output>
		</layer>
		<layer id="67" name="/mask_decoder/transformer/layers.0/self_attn/v_proj/Add" type="Add" version="opset1">
			<data auto_broadcast="numpy" />
			<input>
				<port id="0" precision="FP32">
					<dim>1</dim>
					<dim>1</dim>
					<dim>256</dim>
				</port>
				<port id="1" precision="FP32">
					<dim>1</dim>
					<dim>7</dim>
					<dim>256</dim>
				</port>
			</input>
			<output>
				<port id="2" precision="FP32" names="/mask_decoder/transformer/layers.0/self_attn/v_proj/Add_output_0">
					<dim>1</dim>
					<dim>7</dim>
					<dim>256</dim>
				</port>
			</output>
		</layer>
		<layer id="68" name="/mask_decoder/transformer/layers.0/self_attn/Constant_2" type="Const" version="opset1">
			<data element_type="i64" shape="4" offset="284760" size="32" />
			<output>
				<port id="0" precision="I64" names="/mask_decoder/transformer/layers.0/self_attn/Constant_2_output_0">
					<dim>4</dim>
				</port>
			</output>
		</layer>
		<layer id="69" name="/mask_decoder/transformer/layers.0/self_attn/Reshape_2" type="Reshape" version="opset1">
			<data special_zero="true" />
			<input>
				<port id="0" precision="FP32">
					<dim>1</dim>
					<dim>7</dim>
					<dim>256</dim>
				</port>
				<port id="1" precision="I64">
					<dim>4</dim>
				</port>
			</input>
			<output>
				<port id="2" precision="FP32" names="/mask_decoder/transformer/layers.0/self_attn/Reshape_2_output_0">
					<dim>1</dim>
					<dim>7</dim>
					<dim>8</dim>
					<dim>32</dim>
				</port>
			</output>
		</layer>
		<layer id="70" name="Constant_15926" type="Const" version="opset1">
			<data element_type="i64" shape="4" offset="284792" size="32" />
			<output>
				<port id="0" precision="I64">
					<dim>4</dim>
				</port>
			</output>
		</layer>
		<layer id="71" name="/mask_decoder/transformer/layers.0/self_attn/Transpose_1" type="Transpose" version="opset1">
			<input>
				<port id="0" precision="FP32">
					<dim>1</dim>
					<dim>7</dim>
					<dim>8</dim>
					<dim>32</dim>
				</port>
				<port id="1" precision="I64">
					<dim>4</dim>
				</port>
			</input>
			<output>
				<port id="2" precision="FP32" names="/mask_decoder/transformer/layers.0/self_attn/Transpose_1_output_0">
					<dim>1</dim>
					<dim>8</dim>
					<dim>7</dim>
					<dim>32</dim>
				</port>
			</output>
		</layer>
		<layer id="72" name="/mask_decoder/transformer/layers.0/self_attn/MatMul_1" type="MatMul" version="opset1">
			<data transpose_a="false" transpose_b="false" />
			<input>
				<port id="0" precision="FP32">
					<dim>1</dim>
					<dim>8</dim>
					<dim>7</dim>
					<dim>7</dim>
				</port>
				<port id="1" precision="FP32">
					<dim>1</dim>
					<dim>8</dim>
					<dim>7</dim>
					<dim>32</dim>
				</port>
			</input>
			<output>
				<port id="2" precision="FP32" names="/mask_decoder/transformer/layers.0/self_attn/MatMul_1_output_0">
					<dim>1</dim>
					<dim>8</dim>
					<dim>7</dim>
					<dim>32</dim>
				</port>
			</output>
		</layer>
		<layer id="73" name="Constant_15935" type="Const" version="opset1">
			<data element_type="i64" shape="4" offset="284792" size="32" />
			<output>
				<port id="0" precision="I64">
					<dim>4</dim>
				</port>
			</output>
		</layer>
		<layer id="74" name="/mask_decoder/transformer/layers.0/self_attn/Transpose_3" type="Transpose" version="opset1">
			<input>
				<port id="0" precision="FP32">
					<dim>1</dim>
					<dim>8</dim>
					<dim>7</dim>
					<dim>32</dim>
				</port>
				<port id="1" precision="I64">
					<dim>4</dim>
				</port>
			</input>
			<output>
				<port id="2" precision="FP32" names="/mask_decoder/transformer/layers.0/self_attn/Transpose_3_output_0">
					<dim>1</dim>
					<dim>7</dim>
					<dim>8</dim>
					<dim>32</dim>
				</port>
			</output>
		</layer>
		<layer id="75" name="/mask_decoder/transformer/layers.0/self_attn/Constant_4" type="Const" version="opset1">
			<data element_type="i64" shape="3" offset="811196" size="24" />
			<output>
				<port id="0" precision="I64" names="/mask_decoder/transformer/layers.0/self_attn/Constant_4_output_0">
					<dim>3</dim>
				</port>
			</output>
		</layer>
		<layer id="76" name="/mask_decoder/transformer/layers.0/self_attn/Reshape_3" type="Reshape" version="opset1">
			<data special_zero="true" />
			<input>
				<port id="0" precision="FP32">
					<dim>1</dim>
					<dim>7</dim>
					<dim>8</dim>
					<dim>32</dim>
				</port>
				<port id="1" precision="I64">
					<dim>3</dim>
				</port>
			</input>
			<output>
				<port id="2" precision="FP32" names="/mask_decoder/transformer/layers.0/self_attn/Reshape_3_output_0">
					<dim>1</dim>
					<dim>7</dim>
					<dim>256</dim>
				</port>
			</output>
		</layer>
		<layer id="77" name="Transpose_19271" type="Const" version="opset1">
			<data element_type="f32" shape="256, 256" offset="811220" size="262144" />
			<output>
				<port id="0" precision="FP32">
					<dim>256</dim>
					<dim>256</dim>
				</port>
			</output>
		</layer>
		<layer id="78" name="/mask_decoder/transformer/layers.0/self_attn/out_proj/MatMul" type="MatMul" version="opset1">
			<data transpose_a="false" transpose_b="true" />
			<input>
				<port id="0" precision="FP32">
					<dim>1</dim>
					<dim>7</dim>
					<dim>256</dim>
				</port>
				<port id="1" precision="FP32">
					<dim>256</dim>
					<dim>256</dim>
				</port>
			</input>
			<output>
				<port id="2" precision="FP32" names="/mask_decoder/transformer/layers.0/self_attn/out_proj/MatMul_output_0">
					<dim>1</dim>
					<dim>7</dim>
					<dim>256</dim>
				</port>
			</output>
		</layer>
		<layer id="79" name="/mask_decoder/transformer/layers.0/self_attn/out_proj/Add" type="Add" version="opset1">
			<data auto_broadcast="numpy" />
			<input>
				<port id="0" precision="FP32">
					<dim>1</dim>
					<dim>1</dim>
					<dim>256</dim>
				</port>
				<port id="1" precision="FP32">
					<dim>1</dim>
					<dim>7</dim>
					<dim>256</dim>
				</port>
			</input>
			<output>
				<port id="2" precision="FP32" names="/mask_decoder/transformer/layers.0/self_attn/out_proj/Add_output_0">
					<dim>1</dim>
					<dim>7</dim>
					<dim>256</dim>
				</port>
			</output>
		</layer>
		<layer id="80" name="Range_15944" type="Const" version="opset1">
			<data element_type="i64" shape="1" offset="1073364" size="8" />
			<output>
				<port id="0" precision="I64">
					<dim>1</dim>
				</port>
			</output>
		</layer>
		<layer id="81" name="MVN_15945" type="MVN" version="opset6">
			<data eps="9.9999997473787516e-06" normalize_variance="true" eps_mode="INSIDE_SQRT" />
			<input>
				<port id="0" precision="FP32">
					<dim>1</dim>
					<dim>7</dim>
					<dim>256</dim>
				</port>
				<port id="1" precision="I64">
					<dim>1</dim>
				</port>
			</input>
			<output>
				<port id="2" precision="FP32">
					<dim>1</dim>
					<dim>7</dim>
					<dim>256</dim>
				</port>
			</output>
		</layer>
		<layer id="82" name="Constant_19733" type="Const" version="opset1">
			<data element_type="f32" shape="1, 1, 256" offset="1073372" size="1024" />
			<output>
				<port id="0" precision="FP32">
					<dim>1</dim>
					<dim>1</dim>
					<dim>256</dim>
				</port>
			</output>
		</layer>
		<layer id="83" name="Multiply_15946" type="Multiply" version="opset1">
			<data auto_broadcast="numpy" />
			<input>
				<port id="0" precision="FP32">
					<dim>1</dim>
					<dim>7</dim>
					<dim>256</dim>
				</port>
				<port id="1" precision="FP32">
					<dim>1</dim>
					<dim>1</dim>
					<dim>256</dim>
				</port>
			</input>
			<output>
				<port id="2" precision="FP32">
					<dim>1</dim>
					<dim>7</dim>
					<dim>256</dim>
				</port>
			</output>
		</layer>
		<layer id="84" name="Constant_19734" type="Const" version="opset1">
			<data element_type="f32" shape="1, 1, 256" offset="1074396" size="1024" />
			<output>
				<port id="0" precision="FP32">
					<dim>1</dim>
					<dim>1</dim>
					<dim>256</dim>
				</port>
			</output>
		</layer>
		<layer id="85" name="/mask_decoder/transformer/layers.0/norm1/LayerNormalization" type="Add" version="opset1">
			<data auto_broadcast="numpy" />
			<input>
				<port id="0" precision="FP32">
					<dim>1</dim>
					<dim>7</dim>
					<dim>256</dim>
				</port>
				<port id="1" precision="FP32">
					<dim>1</dim>
					<dim>1</dim>
					<dim>256</dim>
				</port>
			</input>
			<output>
				<port id="2" precision="FP32" names="/mask_decoder/transformer/layers.0/norm1/LayerNormalization_output_0">
					<dim>1</dim>
					<dim>7</dim>
					<dim>256</dim>
				</port>
			</output>
		</layer>
		<layer id="86" name="Constant_19739" type="Const" version="opset1">
			<data element_type="f32" shape="1, 1, 256" offset="1075420" size="1024" />
			<output>
				<port id="0" precision="FP32">
					<dim>1</dim>
					<dim>1</dim>
					<dim>256</dim>
				</port>
			</output>
		</layer>
		<layer id="87" name="Constant_19735" type="Const" version="opset1">
			<data element_type="f32" shape="1, 1, 128" offset="1076444" size="512" />
			<output>
				<port id="0" precision="FP32">
					<dim>1</dim>
					<dim>1</dim>
					<dim>128</dim>
				</port>
			</output>
		</layer>
		<layer id="88" name="/mask_decoder/transformer/layers.0/Add" type="Add" version="opset1">
			<data auto_broadcast="numpy" />
			<input>
				<port id="0" precision="FP32">
					<dim>1</dim>
					<dim>7</dim>
					<dim>256</dim>
				</port>
				<port id="1" precision="FP32">
					<dim>1</dim>
					<dim>7</dim>
					<dim>256</dim>
				</port>
			</input>
			<output>
				<port id="2" precision="FP32" names="/mask_decoder/transformer/layers.0/Add_output_0">
					<dim>1</dim>
					<dim>7</dim>
					<dim>256</dim>
				</port>
			</output>
		</layer>
		<layer id="89" name="Transpose_19284" type="Const" version="opset1">
			<data element_type="f32" shape="128, 256" offset="1076956" size="131072" />
			<output>
				<port id="0" precision="FP32">
					<dim>128</dim>
					<dim>256</dim>
				</port>
			</output>
		</layer>
		<layer id="90" name="/mask_decoder/transformer/layers.0/cross_attn_token_to_image/q_proj/MatMul" type="MatMul" version="opset1">
			<data transpose_a="false" transpose_b="true" />
			<input>
				<port id="0" precision="FP32">
					<dim>1</dim>
					<dim>7</dim>
					<dim>256</dim>
				</port>
				<port id="1" precision="FP32">
					<dim>128</dim>
					<dim>256</dim>
				</port>
			</input>
			<output>
				<port id="2" precision="FP32" names="/mask_decoder/transformer/layers.0/cross_attn_token_to_image/q_proj/MatMul_output_0">
					<dim>1</dim>
					<dim>7</dim>
					<dim>128</dim>
				</port>
			</output>
		</layer>
		<layer id="91" name="/mask_decoder/transformer/layers.0/cross_attn_token_to_image/q_proj/Add" type="Add" version="opset1">
			<data auto_broadcast="numpy" />
			<input>
				<port id="0" precision="FP32">
					<dim>1</dim>
					<dim>1</dim>
					<dim>128</dim>
				</port>
				<port id="1" precision="FP32">
					<dim>1</dim>
					<dim>7</dim>
					<dim>128</dim>
				</port>
			</input>
			<output>
				<port id="2" precision="FP32" names="/mask_decoder/transformer/layers.0/cross_attn_token_to_image/q_proj/Add_output_0">
					<dim>1</dim>
					<dim>7</dim>
					<dim>128</dim>
				</port>
			</output>
		</layer>
		<layer id="92" name="/mask_decoder/transformer/layers.0/cross_attn_token_to_image/Constant" type="Const" version="opset1">
			<data element_type="i64" shape="4" offset="1208028" size="32" />
			<output>
				<port id="0" precision="I64" names="/mask_decoder/transformer/layers.0/cross_attn_token_to_image/Constant_output_0">
					<dim>4</dim>
				</port>
			</output>
		</layer>
		<layer id="93" name="/mask_decoder/transformer/layers.0/cross_attn_token_to_image/Reshape" type="Reshape" version="opset1">
			<data special_zero="true" />
			<input>
				<port id="0" precision="FP32">
					<dim>1</dim>
					<dim>7</dim>
					<dim>128</dim>
				</port>
				<port id="1" precision="I64">
					<dim>4</dim>
				</port>
			</input>
			<output>
				<port id="2" precision="FP32" names="/mask_decoder/transformer/layers.0/cross_attn_token_to_image/Reshape_output_0">
					<dim>1</dim>
					<dim>7</dim>
					<dim>8</dim>
					<dim>16</dim>
				</port>
			</output>
		</layer>
		<layer id="94" name="Constant_15958" type="Const" version="opset1">
			<data element_type="i64" shape="4" offset="284792" size="32" />
			<output>
				<port id="0" precision="I64">
					<dim>4</dim>
				</port>
			</output>
		</layer>
		<layer id="95" name="/mask_decoder/transformer/layers.0/cross_attn_token_to_image/Transpose" type="Transpose" version="opset1">
			<input>
				<port id="0" precision="FP32">
					<dim>1</dim>
					<dim>7</dim>
					<dim>8</dim>
					<dim>16</dim>
				</port>
				<port id="1" precision="I64">
					<dim>4</dim>
				</port>
			</input>
			<output>
				<port id="2" precision="FP32" names="/mask_decoder/transformer/layers.0/cross_attn_token_to_image/Transpose_output_0">
					<dim>1</dim>
					<dim>8</dim>
					<dim>7</dim>
					<dim>16</dim>
				</port>
			</output>
		</layer>
		<layer id="96" name="Constant_19736" type="Const" version="opset1">
			<data element_type="f32" shape="1, 1, 128" offset="1208060" size="512" />
			<output>
				<port id="0" precision="FP32">
					<dim>1</dim>
					<dim>1</dim>
					<dim>128</dim>
				</port>
			</output>
		</layer>
		<layer id="97" name="/Expand_16" type="Const" version="opset1">
			<data element_type="f32" shape="1, 256, 64, 64" offset="1208572" size="4194304" />
			<output>
				<port id="0" precision="FP32" names="/Expand_16_output_0">
					<dim>1</dim>
					<dim>256</dim>
					<dim>64</dim>
					<dim>64</dim>
				</port>
			</output>
		</layer>
		<layer id="98" name="/mask_decoder/Add" type="Add" version="opset1">
			<data auto_broadcast="numpy" />
			<input>
				<port id="0" precision="FP32">
					<dim>1</dim>
					<dim>256</dim>
					<dim>64</dim>
					<dim>64</dim>
				</port>
				<port id="1" precision="FP32">
					<dim>1</dim>
					<dim>256</dim>
					<dim>64</dim>
					<dim>64</dim>
				</port>
			</input>
			<output>
				<port id="2" precision="FP32" names="/mask_decoder/Add_output_0">
					<dim>1</dim>
					<dim>256</dim>
					<dim>64</dim>
					<dim>64</dim>
				</port>
			</output>
		</layer>
		<layer id="99" name="Constant_19889" type="Const" version="opset1">
			<data element_type="i64" shape="3" offset="5402876" size="24" />
			<output>
				<port id="0" precision="I64">
					<dim>3</dim>
				</port>
			</output>
		</layer>
		<layer id="100" name="/mask_decoder/transformer/Reshape" type="Reshape" version="opset1">
			<data special_zero="true" />
			<input>
				<port id="0" precision="FP32">
					<dim>1</dim>
					<dim>256</dim>
					<dim>64</dim>
					<dim>64</dim>
				</port>
				<port id="1" precision="I64">
					<dim>3</dim>
				</port>
			</input>
			<output>
				<port id="2" precision="FP32" names="/mask_decoder/transformer/Reshape_output_0">
					<dim>1</dim>
					<dim>256</dim>
					<dim>4096</dim>
				</port>
			</output>
		</layer>
		<layer id="101" name="Constant_15894" type="Const" version="opset1">
			<data element_type="i64" shape="3" offset="5402900" size="24" />
			<output>
				<port id="0" precision="I64">
					<dim>3</dim>
				</port>
			</output>
		</layer>
		<layer id="102" name="/mask_decoder/transformer/Transpose" type="Transpose" version="opset1">
			<input>
				<port id="0" precision="FP32">
					<dim>1</dim>
					<dim>256</dim>
					<dim>4096</dim>
				</port>
				<port id="1" precision="I64">
					<dim>3</dim>
				</port>
			</input>
			<output>
				<port id="2" precision="FP32" names="/mask_decoder/transformer/Transpose_output_0">
					<dim>1</dim>
					<dim>4096</dim>
					<dim>256</dim>
				</port>
			</output>
		</layer>
		<layer id="103" name="/mask_decoder/transformer/Transpose_1" type="Const" version="opset1">
			<data element_type="f32" shape="1, 4096, 256" offset="5402924" size="4194304" />
			<output>
				<port id="0" precision="FP32" names="/mask_decoder/transformer/Transpose_1_output_0">
					<dim>1</dim>
					<dim>4096</dim>
					<dim>256</dim>
				</port>
			</output>
		</layer>
		<layer id="104" name="/mask_decoder/transformer/layers.0/Add_1" type="Add" version="opset1">
			<data auto_broadcast="numpy" />
			<input>
				<port id="0" precision="FP32">
					<dim>1</dim>
					<dim>4096</dim>
					<dim>256</dim>
				</port>
				<port id="1" precision="FP32">
					<dim>1</dim>
					<dim>4096</dim>
					<dim>256</dim>
				</port>
			</input>
			<output>
				<port id="2" precision="FP32" names="/mask_decoder/transformer/layers.0/Add_1_output_0">
					<dim>1</dim>
					<dim>4096</dim>
					<dim>256</dim>
				</port>
			</output>
		</layer>
		<layer id="105" name="Transpose_19295" type="Const" version="opset1">
			<data element_type="f32" shape="128, 256" offset="9597228" size="131072" />
			<output>
				<port id="0" precision="FP32">
					<dim>128</dim>
					<dim>256</dim>
				</port>
			</output>
		</layer>
		<layer id="106" name="/mask_decoder/transformer/layers.0/cross_attn_token_to_image/k_proj/MatMul" type="MatMul" version="opset1">
			<data transpose_a="false" transpose_b="true" />
			<input>
				<port id="0" precision="FP32">
					<dim>1</dim>
					<dim>4096</dim>
					<dim>256</dim>
				</port>
				<port id="1" precision="FP32">
					<dim>128</dim>
					<dim>256</dim>
				</port>
			</input>
			<output>
				<port id="2" precision="FP32" names="/mask_decoder/transformer/layers.0/cross_attn_token_to_image/k_proj/MatMul_output_0">
					<dim>1</dim>
					<dim>4096</dim>
					<dim>128</dim>
				</port>
			</output>
		</layer>
		<layer id="107" name="/mask_decoder/transformer/layers.0/cross_attn_token_to_image/k_proj/Add" type="Add" version="opset1">
			<data auto_broadcast="numpy" />
			<input>
				<port id="0" precision="FP32">
					<dim>1</dim>
					<dim>1</dim>
					<dim>128</dim>
				</port>
				<port id="1" precision="FP32">
					<dim>1</dim>
					<dim>4096</dim>
					<dim>128</dim>
				</port>
			</input>
			<output>
				<port id="2" precision="FP32" names="/mask_decoder/transformer/layers.0/cross_attn_token_to_image/k_proj/Add_output_0">
					<dim>1</dim>
					<dim>4096</dim>
					<dim>128</dim>
				</port>
			</output>
		</layer>
		<layer id="108" name="/mask_decoder/transformer/layers.0/cross_attn_token_to_image/Constant_1" type="Const" version="opset1">
			<data element_type="i64" shape="4" offset="9728300" size="32" />
			<output>
				<port id="0" precision="I64" names="/mask_decoder/transformer/layers.0/cross_attn_token_to_image/Constant_1_output_0">
					<dim>4</dim>
				</port>
			</output>
		</layer>
		<layer id="109" name="/mask_decoder/transformer/layers.0/cross_attn_token_to_image/Reshape_1" type="Reshape" version="opset1">
			<data special_zero="true" />
			<input>
				<port id="0" precision="FP32">
					<dim>1</dim>
					<dim>4096</dim>
					<dim>128</dim>
				</port>
				<port id="1" precision="I64">
					<dim>4</dim>
				</port>
			</input>
			<output>
				<port id="2" precision="FP32" names="/mask_decoder/transformer/layers.0/cross_attn_token_to_image/Reshape_1_output_0">
					<dim>1</dim>
					<dim>4096</dim>
					<dim>8</dim>
					<dim>16</dim>
				</port>
			</output>
		</layer>
		<layer id="110" name="Constant_15966" type="Const" version="opset1">
			<data element_type="i64" shape="4" offset="547992" size="32" />
			<output>
				<port id="0" precision="I64">
					<dim>4</dim>
				</port>
			</output>
		</layer>
		<layer id="111" name="/mask_decoder/transformer/layers.0/cross_attn_token_to_image/Transpose_2" type="Transpose" version="opset1">
			<input>
				<port id="0" precision="FP32">
					<dim>1</dim>
					<dim>4096</dim>
					<dim>8</dim>
					<dim>16</dim>
				</port>
				<port id="1" precision="I64">
					<dim>4</dim>
				</port>
			</input>
			<output>
				<port id="2" precision="FP32" names="/mask_decoder/transformer/layers.0/cross_attn_token_to_image/Transpose_2_output_0">
					<dim>1</dim>
					<dim>8</dim>
					<dim>16</dim>
					<dim>4096</dim>
				</port>
			</output>
		</layer>
		<layer id="112" name="Constant_19737" type="Const" version="opset1">
			<data element_type="f32" shape="1, 1, 1, 1" offset="9728332" size="4" />
			<output>
				<port id="0" precision="FP32">
					<dim>1</dim>
					<dim>1</dim>
					<dim>1</dim>
					<dim>1</dim>
				</port>
			</output>
		</layer>
		<layer id="113" name="Multiply_19612" type="Multiply" version="opset1">
			<data auto_broadcast="numpy" />
			<input>
				<port id="0" precision="FP32">
					<dim>1</dim>
					<dim>8</dim>
					<dim>16</dim>
					<dim>4096</dim>
				</port>
				<port id="1" precision="FP32">
					<dim>1</dim>
					<dim>1</dim>
					<dim>1</dim>
					<dim>1</dim>
				</port>
			</input>
			<output>
				<port id="2" precision="FP32">
					<dim>1</dim>
					<dim>8</dim>
					<dim>16</dim>
					<dim>4096</dim>
				</port>
			</output>
		</layer>
		<layer id="114" name="/mask_decoder/transformer/layers.0/cross_attn_token_to_image/Div" type="MatMul" version="opset1">
			<data transpose_a="false" transpose_b="false" />
			<input>
				<port id="0" precision="FP32">
					<dim>1</dim>
					<dim>8</dim>
					<dim>7</dim>
					<dim>16</dim>
				</port>
				<port id="1" precision="FP32">
					<dim>1</dim>
					<dim>8</dim>
					<dim>16</dim>
					<dim>4096</dim>
				</port>
			</input>
			<output>
				<port id="2" precision="FP32" names="/mask_decoder/transformer/layers.0/cross_attn_token_to_image/Div_output_0">
					<dim>1</dim>
					<dim>8</dim>
					<dim>7</dim>
					<dim>4096</dim>
				</port>
			</output>
		</layer>
		<layer id="115" name="/mask_decoder/transformer/layers.0/cross_attn_token_to_image/Softmax" type="SoftMax" version="opset8">
			<data axis="-1" />
			<input>
				<port id="0" precision="FP32">
					<dim>1</dim>
					<dim>8</dim>
					<dim>7</dim>
					<dim>4096</dim>
				</port>
			</input>
			<output>
				<port id="1" precision="FP32" names="/mask_decoder/transformer/layers.0/cross_attn_token_to_image/Softmax_output_0">
					<dim>1</dim>
					<dim>8</dim>
					<dim>7</dim>
					<dim>4096</dim>
				</port>
			</output>
		</layer>
		<layer id="116" name="Constant_19738" type="Const" version="opset1">
			<data element_type="f32" shape="1, 1, 128" offset="9728336" size="512" />
			<output>
				<port id="0" precision="FP32">
					<dim>1</dim>
					<dim>1</dim>
					<dim>128</dim>
				</port>
			</output>
		</layer>
		<layer id="117" name="Transpose_19304" type="Const" version="opset1">
			<data element_type="f32" shape="128, 256" offset="9728848" size="131072" />
			<output>
				<port id="0" precision="FP32">
					<dim>128</dim>
					<dim>256</dim>
				</port>
			</output>
		</layer>
		<layer id="118" name="/mask_decoder/transformer/layers.0/cross_attn_token_to_image/v_proj/MatMul" type="MatMul" version="opset1">
			<data transpose_a="true" transpose_b="true" />
			<input>
				<port id="0" precision="FP32">
					<dim>1</dim>
					<dim>256</dim>
					<dim>4096</dim>
				</port>
				<port id="1" precision="FP32">
					<dim>128</dim>
					<dim>256</dim>
				</port>
			</input>
			<output>
				<port id="2" precision="FP32" names="/mask_decoder/transformer/layers.0/cross_attn_token_to_image/v_proj/MatMul_output_0">
					<dim>1</dim>
					<dim>4096</dim>
					<dim>128</dim>
				</port>
			</output>
		</layer>
		<layer id="119" name="/mask_decoder/transformer/layers.0/cross_attn_token_to_image/v_proj/Add" type="Add" version="opset1">
			<data auto_broadcast="numpy" />
			<input>
				<port id="0" precision="FP32">
					<dim>1</dim>
					<dim>1</dim>
					<dim>128</dim>
				</port>
				<port id="1" precision="FP32">
					<dim>1</dim>
					<dim>4096</dim>
					<dim>128</dim>
				</port>
			</input>
			<output>
				<port id="2" precision="FP32" names="/mask_decoder/transformer/layers.0/cross_attn_token_to_image/v_proj/Add_output_0">
					<dim>1</dim>
					<dim>4096</dim>
					<dim>128</dim>
				</port>
			</output>
		</layer>
		<layer id="120" name="/mask_decoder/transformer/layers.0/cross_attn_token_to_image/Constant_2" type="Const" version="opset1">
			<data element_type="i64" shape="4" offset="9728300" size="32" />
			<output>
				<port id="0" precision="I64" names="/mask_decoder/transformer/layers.0/cross_attn_token_to_image/Constant_2_output_0">
					<dim>4</dim>
				</port>
			</output>
		</layer>
		<layer id="121" name="/mask_decoder/transformer/layers.0/cross_attn_token_to_image/Reshape_2" type="Reshape" version="opset1">
			<data special_zero="true" />
			<input>
				<port id="0" precision="FP32">
					<dim>1</dim>
					<dim>4096</dim>
					<dim>128</dim>
				</port>
				<port id="1" precision="I64">
					<dim>4</dim>
				</port>
			</input>
			<output>
				<port id="2" precision="FP32" names="/mask_decoder/transformer/layers.0/cross_attn_token_to_image/Reshape_2_output_0">
					<dim>1</dim>
					<dim>4096</dim>
					<dim>8</dim>
					<dim>16</dim>
				</port>
			</output>
		</layer>
		<layer id="122" name="Constant_15964" type="Const" version="opset1">
			<data element_type="i64" shape="4" offset="284792" size="32" />
			<output>
				<port id="0" precision="I64">
					<dim>4</dim>
				</port>
			</output>
		</layer>
		<layer id="123" name="/mask_decoder/transformer/layers.0/cross_attn_token_to_image/Transpose_1" type="Transpose" version="opset1">
			<input>
				<port id="0" precision="FP32">
					<dim>1</dim>
					<dim>4096</dim>
					<dim>8</dim>
					<dim>16</dim>
				</port>
				<port id="1" precision="I64">
					<dim>4</dim>
				</port>
			</input>
			<output>
				<port id="2" precision="FP32" names="/mask_decoder/transformer/layers.0/cross_attn_token_to_image/Transpose_1_output_0">
					<dim>1</dim>
					<dim>8</dim>
					<dim>4096</dim>
					<dim>16</dim>
				</port>
			</output>
		</layer>
		<layer id="124" name="/mask_decoder/transformer/layers.0/cross_attn_token_to_image/MatMul_1" type="MatMul" version="opset1">
			<data transpose_a="false" transpose_b="false" />
			<input>
				<port id="0" precision="FP32">
					<dim>1</dim>
					<dim>8</dim>
					<dim>7</dim>
					<dim>4096</dim>
				</port>
				<port id="1" precision="FP32">
					<dim>1</dim>
					<dim>8</dim>
					<dim>4096</dim>
					<dim>16</dim>
				</port>
			</input>
			<output>
				<port id="2" precision="FP32" names="/mask_decoder/transformer/layers.0/cross_attn_token_to_image/MatMul_1_output_0">
					<dim>1</dim>
					<dim>8</dim>
					<dim>7</dim>
					<dim>16</dim>
				</port>
			</output>
		</layer>
		<layer id="125" name="Constant_15973" type="Const" version="opset1">
			<data element_type="i64" shape="4" offset="284792" size="32" />
			<output>
				<port id="0" precision="I64">
					<dim>4</dim>
				</port>
			</output>
		</layer>
		<layer id="126" name="/mask_decoder/transformer/layers.0/cross_attn_token_to_image/Transpose_3" type="Transpose" version="opset1">
			<input>
				<port id="0" precision="FP32">
					<dim>1</dim>
					<dim>8</dim>
					<dim>7</dim>
					<dim>16</dim>
				</port>
				<port id="1" precision="I64">
					<dim>4</dim>
				</port>
			</input>
			<output>
				<port id="2" precision="FP32" names="/mask_decoder/transformer/layers.0/cross_attn_token_to_image/Transpose_3_output_0">
					<dim>1</dim>
					<dim>7</dim>
					<dim>8</dim>
					<dim>16</dim>
				</port>
			</output>
		</layer>
		<layer id="127" name="/mask_decoder/transformer/layers.0/cross_attn_token_to_image/Constant_4" type="Const" version="opset1">
			<data element_type="i64" shape="3" offset="9859920" size="24" />
			<output>
				<port id="0" precision="I64" names="/mask_decoder/transformer/layers.0/cross_attn_token_to_image/Constant_4_output_0">
					<dim>3</dim>
				</port>
			</output>
		</layer>
		<layer id="128" name="/mask_decoder/transformer/layers.0/cross_attn_token_to_image/Reshape_3" type="Reshape" version="opset1">
			<data special_zero="true" />
			<input>
				<port id="0" precision="FP32">
					<dim>1</dim>
					<dim>7</dim>
					<dim>8</dim>
					<dim>16</dim>
				</port>
				<port id="1" precision="I64">
					<dim>3</dim>
				</port>
			</input>
			<output>
				<port id="2" precision="FP32" names="/mask_decoder/transformer/layers.0/cross_attn_token_to_image/Reshape_3_output_0">
					<dim>1</dim>
					<dim>7</dim>
					<dim>128</dim>
				</port>
			</output>
		</layer>
		<layer id="129" name="Transpose_19313" type="Const" version="opset1">
			<data element_type="f32" shape="256, 128" offset="9859944" size="131072" />
			<output>
				<port id="0" precision="FP32">
					<dim>256</dim>
					<dim>128</dim>
				</port>
			</output>
		</layer>
		<layer id="130" name="/mask_decoder/transformer/layers.0/cross_attn_token_to_image/out_proj/MatMul" type="MatMul" version="opset1">
			<data transpose_a="false" transpose_b="true" />
			<input>
				<port id="0" precision="FP32">
					<dim>1</dim>
					<dim>7</dim>
					<dim>128</dim>
				</port>
				<port id="1" precision="FP32">
					<dim>256</dim>
					<dim>128</dim>
				</port>
			</input>
			<output>
				<port id="2" precision="FP32" names="/mask_decoder/transformer/layers.0/cross_attn_token_to_image/out_proj/MatMul_output_0">
					<dim>1</dim>
					<dim>7</dim>
					<dim>256</dim>
				</port>
			</output>
		</layer>
		<layer id="131" name="/mask_decoder/transformer/layers.0/cross_attn_token_to_image/out_proj/Add" type="Add" version="opset1">
			<data auto_broadcast="numpy" />
			<input>
				<port id="0" precision="FP32">
					<dim>1</dim>
					<dim>1</dim>
					<dim>256</dim>
				</port>
				<port id="1" precision="FP32">
					<dim>1</dim>
					<dim>7</dim>
					<dim>256</dim>
				</port>
			</input>
			<output>
				<port id="2" precision="FP32" names="/mask_decoder/transformer/layers.0/cross_attn_token_to_image/out_proj/Add_output_0">
					<dim>1</dim>
					<dim>7</dim>
					<dim>256</dim>
				</port>
			</output>
		</layer>
		<layer id="132" name="/mask_decoder/transformer/layers.0/Add_2" type="Add" version="opset1">
			<data auto_broadcast="numpy" />
			<input>
				<port id="0" precision="FP32">
					<dim>1</dim>
					<dim>7</dim>
					<dim>256</dim>
				</port>
				<port id="1" precision="FP32">
					<dim>1</dim>
					<dim>7</dim>
					<dim>256</dim>
				</port>
			</input>
			<output>
				<port id="2" precision="FP32" names="/mask_decoder/transformer/layers.0/Add_2_output_0">
					<dim>1</dim>
					<dim>7</dim>
					<dim>256</dim>
				</port>
			</output>
		</layer>
		<layer id="133" name="Range_15983" type="Const" version="opset1">
			<data element_type="i64" shape="1" offset="1073364" size="8" />
			<output>
				<port id="0" precision="I64">
					<dim>1</dim>
				</port>
			</output>
		</layer>
		<layer id="134" name="MVN_15984" type="MVN" version="opset6">
			<data eps="9.9999997473787516e-06" normalize_variance="true" eps_mode="INSIDE_SQRT" />
			<input>
				<port id="0" precision="FP32">
					<dim>1</dim>
					<dim>7</dim>
					<dim>256</dim>
				</port>
				<port id="1" precision="I64">
					<dim>1</dim>
				</port>
			</input>
			<output>
				<port id="2" precision="FP32">
					<dim>1</dim>
					<dim>7</dim>
					<dim>256</dim>
				</port>
			</output>
		</layer>
		<layer id="135" name="Constant_19740" type="Const" version="opset1">
			<data element_type="f32" shape="1, 1, 256" offset="9991016" size="1024" />
			<output>
				<port id="0" precision="FP32">
					<dim>1</dim>
					<dim>1</dim>
					<dim>256</dim>
				</port>
			</output>
		</layer>
		<layer id="136" name="Multiply_15985" type="Multiply" version="opset1">
			<data auto_broadcast="numpy" />
			<input>
				<port id="0" precision="FP32">
					<dim>1</dim>
					<dim>7</dim>
					<dim>256</dim>
				</port>
				<port id="1" precision="FP32">
					<dim>1</dim>
					<dim>1</dim>
					<dim>256</dim>
				</port>
			</input>
			<output>
				<port id="2" precision="FP32">
					<dim>1</dim>
					<dim>7</dim>
					<dim>256</dim>
				</port>
			</output>
		</layer>
		<layer id="137" name="Constant_19741" type="Const" version="opset1">
			<data element_type="f32" shape="1, 1, 256" offset="9992040" size="1024" />
			<output>
				<port id="0" precision="FP32">
					<dim>1</dim>
					<dim>1</dim>
					<dim>256</dim>
				</port>
			</output>
		</layer>
		<layer id="138" name="/mask_decoder/transformer/layers.0/norm2/LayerNormalization" type="Add" version="opset1">
			<data auto_broadcast="numpy" />
			<input>
				<port id="0" precision="FP32">
					<dim>1</dim>
					<dim>7</dim>
					<dim>256</dim>
				</port>
				<port id="1" precision="FP32">
					<dim>1</dim>
					<dim>1</dim>
					<dim>256</dim>
				</port>
			</input>
			<output>
				<port id="2" precision="FP32" names="/mask_decoder/transformer/layers.0/norm2/LayerNormalization_output_0">
					<dim>1</dim>
					<dim>7</dim>
					<dim>256</dim>
				</port>
			</output>
		</layer>
		<layer id="139" name="Constant_19743" type="Const" version="opset1">
			<data element_type="f32" shape="1, 1, 256" offset="9993064" size="1024" />
			<output>
				<port id="0" precision="FP32">
					<dim>1</dim>
					<dim>1</dim>
					<dim>256</dim>
				</port>
			</output>
		</layer>
		<layer id="140" name="Constant_19742" type="Const" version="opset1">
			<data element_type="f32" shape="1, 1, 2048" offset="9994088" size="8192" />
			<output>
				<port id="0" precision="FP32">
					<dim>1</dim>
					<dim>1</dim>
					<dim>2048</dim>
				</port>
			</output>
		</layer>
		<layer id="141" name="Transpose_19326" type="Const" version="opset1">
			<data element_type="f32" shape="2048, 256" offset="10002280" size="2097152" />
			<output>
				<port id="0" precision="FP32">
					<dim>2048</dim>
					<dim>256</dim>
				</port>
			</output>
		</layer>
		<layer id="142" name="/mask_decoder/transformer/layers.0/mlp/lin1/MatMul" type="MatMul" version="opset1">
			<data transpose_a="false" transpose_b="true" />
			<input>
				<port id="0" precision="FP32">
					<dim>1</dim>
					<dim>7</dim>
					<dim>256</dim>
				</port>
				<port id="1" precision="FP32">
					<dim>2048</dim>
					<dim>256</dim>
				</port>
			</input>
			<output>
				<port id="2" precision="FP32" names="/mask_decoder/transformer/layers.0/mlp/lin1/MatMul_output_0">
					<dim>1</dim>
					<dim>7</dim>
					<dim>2048</dim>
				</port>
			</output>
		</layer>
		<layer id="143" name="/mask_decoder/transformer/layers.0/mlp/lin1/Add" type="Add" version="opset1">
			<data auto_broadcast="numpy" />
			<input>
				<port id="0" precision="FP32">
					<dim>1</dim>
					<dim>1</dim>
					<dim>2048</dim>
				</port>
				<port id="1" precision="FP32">
					<dim>1</dim>
					<dim>7</dim>
					<dim>2048</dim>
				</port>
			</input>
			<output>
				<port id="2" precision="FP32" names="/mask_decoder/transformer/layers.0/mlp/lin1/Add_output_0">
					<dim>1</dim>
					<dim>7</dim>
					<dim>2048</dim>
				</port>
			</output>
		</layer>
		<layer id="144" name="/mask_decoder/transformer/layers.0/mlp/act/Relu" type="ReLU" version="opset1">
			<input>
				<port id="0" precision="FP32">
					<dim>1</dim>
					<dim>7</dim>
					<dim>2048</dim>
				</port>
			</input>
			<output>
				<port id="1" precision="FP32" names="/mask_decoder/transformer/layers.0/mlp/act/Relu_output_0">
					<dim>1</dim>
					<dim>7</dim>
					<dim>2048</dim>
				</port>
			</output>
		</layer>
		<layer id="145" name="Transpose_19333" type="Const" version="opset1">
			<data element_type="f32" shape="256, 2048" offset="12099432" size="2097152" />
			<output>
				<port id="0" precision="FP32">
					<dim>256</dim>
					<dim>2048</dim>
				</port>
			</output>
		</layer>
		<layer id="146" name="/mask_decoder/transformer/layers.0/mlp/lin2/MatMul" type="MatMul" version="opset1">
			<data transpose_a="false" transpose_b="true" />
			<input>
				<port id="0" precision="FP32">
					<dim>1</dim>
					<dim>7</dim>
					<dim>2048</dim>
				</port>
				<port id="1" precision="FP32">
					<dim>256</dim>
					<dim>2048</dim>
				</port>
			</input>
			<output>
				<port id="2" precision="FP32" names="/mask_decoder/transformer/layers.0/mlp/lin2/MatMul_output_0">
					<dim>1</dim>
					<dim>7</dim>
					<dim>256</dim>
				</port>
			</output>
		</layer>
		<layer id="147" name="/mask_decoder/transformer/layers.0/mlp/lin2/Add" type="Add" version="opset1">
			<data auto_broadcast="numpy" />
			<input>
				<port id="0" precision="FP32">
					<dim>1</dim>
					<dim>1</dim>
					<dim>256</dim>
				</port>
				<port id="1" precision="FP32">
					<dim>1</dim>
					<dim>7</dim>
					<dim>256</dim>
				</port>
			</input>
			<output>
				<port id="2" precision="FP32" names="/mask_decoder/transformer/layers.0/mlp/lin2/Add_output_0">
					<dim>1</dim>
					<dim>7</dim>
					<dim>256</dim>
				</port>
			</output>
		</layer>
		<layer id="148" name="/mask_decoder/transformer/layers.0/Add_3" type="Add" version="opset1">
			<data auto_broadcast="numpy" />
			<input>
				<port id="0" precision="FP32">
					<dim>1</dim>
					<dim>7</dim>
					<dim>256</dim>
				</port>
				<port id="1" precision="FP32">
					<dim>1</dim>
					<dim>7</dim>
					<dim>256</dim>
				</port>
			</input>
			<output>
				<port id="2" precision="FP32" names="/mask_decoder/transformer/layers.0/Add_3_output_0">
					<dim>1</dim>
					<dim>7</dim>
					<dim>256</dim>
				</port>
			</output>
		</layer>
		<layer id="149" name="Range_15996" type="Const" version="opset1">
			<data element_type="i64" shape="1" offset="1073364" size="8" />
			<output>
				<port id="0" precision="I64">
					<dim>1</dim>
				</port>
			</output>
		</layer>
		<layer id="150" name="MVN_15997" type="MVN" version="opset6">
			<data eps="9.9999997473787516e-06" normalize_variance="true" eps_mode="INSIDE_SQRT" />
			<input>
				<port id="0" precision="FP32">
					<dim>1</dim>
					<dim>7</dim>
					<dim>256</dim>
				</port>
				<port id="1" precision="I64">
					<dim>1</dim>
				</port>
			</input>
			<output>
				<port id="2" precision="FP32">
					<dim>1</dim>
					<dim>7</dim>
					<dim>256</dim>
				</port>
			</output>
		</layer>
		<layer id="151" name="Constant_19744" type="Const" version="opset1">
			<data element_type="f32" shape="1, 1, 256" offset="14196584" size="1024" />
			<output>
				<port id="0" precision="FP32">
					<dim>1</dim>
					<dim>1</dim>
					<dim>256</dim>
				</port>
			</output>
		</layer>
		<layer id="152" name="Multiply_15998" type="Multiply" version="opset1">
			<data auto_broadcast="numpy" />
			<input>
				<port id="0" precision="FP32">
					<dim>1</dim>
					<dim>7</dim>
					<dim>256</dim>
				</port>
				<port id="1" precision="FP32">
					<dim>1</dim>
					<dim>1</dim>
					<dim>256</dim>
				</port>
			</input>
			<output>
				<port id="2" precision="FP32">
					<dim>1</dim>
					<dim>7</dim>
					<dim>256</dim>
				</port>
			</output>
		</layer>
		<layer id="153" name="Constant_19745" type="Const" version="opset1">
			<data element_type="f32" shape="1, 1, 256" offset="14197608" size="1024" />
			<output>
				<port id="0" precision="FP32">
					<dim>1</dim>
					<dim>1</dim>
					<dim>256</dim>
				</port>
			</output>
		</layer>
		<layer id="154" name="/mask_decoder/transformer/layers.0/norm3/LayerNormalization" type="Add" version="opset1">
			<data auto_broadcast="numpy" />
			<input>
				<port id="0" precision="FP32">
					<dim>1</dim>
					<dim>7</dim>
					<dim>256</dim>
				</port>
				<port id="1" precision="FP32">
					<dim>1</dim>
					<dim>1</dim>
					<dim>256</dim>
				</port>
			</input>
			<output>
				<port id="2" precision="FP32" names="/mask_decoder/transformer/layers.0/norm3/LayerNormalization_output_0">
					<dim>1</dim>
					<dim>7</dim>
					<dim>256</dim>
				</port>
			</output>
		</layer>
		<layer id="155" name="Constant_19750" type="Const" version="opset1">
			<data element_type="f32" shape="1, 1, 256" offset="14198632" size="1024" />
			<output>
				<port id="0" precision="FP32">
					<dim>1</dim>
					<dim>1</dim>
					<dim>256</dim>
				</port>
			</output>
		</layer>
		<layer id="156" name="Constant_19746" type="Const" version="opset1">
			<data element_type="f32" shape="1, 1, 256" offset="14199656" size="1024" />
			<output>
				<port id="0" precision="FP32">
					<dim>1</dim>
					<dim>1</dim>
					<dim>256</dim>
				</port>
			</output>
		</layer>
		<layer id="157" name="/mask_decoder/transformer/layers.0/Add_4" type="Add" version="opset1">
			<data auto_broadcast="numpy" />
			<input>
				<port id="0" precision="FP32">
					<dim>1</dim>
					<dim>7</dim>
					<dim>256</dim>
				</port>
				<port id="1" precision="FP32">
					<dim>1</dim>
					<dim>7</dim>
					<dim>256</dim>
				</port>
			</input>
			<output>
				<port id="2" precision="FP32" names="/mask_decoder/transformer/layers.0/Add_4_output_0">
					<dim>1</dim>
					<dim>7</dim>
					<dim>256</dim>
				</port>
			</output>
		</layer>
		<layer id="158" name="Transpose_19348" type="Const" version="opset1">
			<data element_type="f32" shape="256, 256" offset="14200680" size="262144" />
			<output>
				<port id="0" precision="FP32">
					<dim>256</dim>
					<dim>256</dim>
				</port>
			</output>
		</layer>
		<layer id="159" name="/mask_decoder/transformer/layers.1/self_attn/q_proj/MatMul" type="MatMul" version="opset1">
			<data transpose_a="false" transpose_b="true" />
			<input>
				<port id="0" precision="FP32">
					<dim>1</dim>
					<dim>7</dim>
					<dim>256</dim>
				</port>
				<port id="1" precision="FP32">
					<dim>256</dim>
					<dim>256</dim>
				</port>
			</input>
			<output>
				<port id="2" precision="FP32" names="/mask_decoder/transformer/layers.1/self_attn/q_proj/MatMul_output_0">
					<dim>1</dim>
					<dim>7</dim>
					<dim>256</dim>
				</port>
			</output>
		</layer>
		<layer id="160" name="/mask_decoder/transformer/layers.1/self_attn/q_proj/Add" type="Add" version="opset1">
			<data auto_broadcast="numpy" />
			<input>
				<port id="0" precision="FP32">
					<dim>1</dim>
					<dim>1</dim>
					<dim>256</dim>
				</port>
				<port id="1" precision="FP32">
					<dim>1</dim>
					<dim>7</dim>
					<dim>256</dim>
				</port>
			</input>
			<output>
				<port id="2" precision="FP32" names="/mask_decoder/transformer/layers.1/self_attn/q_proj/Add_output_0">
					<dim>1</dim>
					<dim>7</dim>
					<dim>256</dim>
				</port>
			</output>
		</layer>
		<layer id="161" name="/mask_decoder/transformer/layers.1/self_attn/Constant" type="Const" version="opset1">
			<data element_type="i64" shape="4" offset="284760" size="32" />
			<output>
				<port id="0" precision="I64" names="/mask_decoder/transformer/layers.1/self_attn/Constant_output_0">
					<dim>4</dim>
				</port>
			</output>
		</layer>
		<layer id="162" name="/mask_decoder/transformer/layers.1/self_attn/Reshape" type="Reshape" version="opset1">
			<data special_zero="true" />
			<input>
				<port id="0" precision="FP32">
					<dim>1</dim>
					<dim>7</dim>
					<dim>256</dim>
				</port>
				<port id="1" precision="I64">
					<dim>4</dim>
				</port>
			</input>
			<output>
				<port id="2" precision="FP32" names="/mask_decoder/transformer/layers.1/self_attn/Reshape_output_0">
					<dim>1</dim>
					<dim>7</dim>
					<dim>8</dim>
					<dim>32</dim>
				</port>
			</output>
		</layer>
		<layer id="163" name="Constant_16046" type="Const" version="opset1">
			<data element_type="i64" shape="4" offset="284792" size="32" />
			<output>
				<port id="0" precision="I64">
					<dim>4</dim>
				</port>
			</output>
		</layer>
		<layer id="164" name="/mask_decoder/transformer/layers.1/self_attn/Transpose" type="Transpose" version="opset1">
			<input>
				<port id="0" precision="FP32">
					<dim>1</dim>
					<dim>7</dim>
					<dim>8</dim>
					<dim>32</dim>
				</port>
				<port id="1" precision="I64">
					<dim>4</dim>
				</port>
			</input>
			<output>
				<port id="2" precision="FP32" names="/mask_decoder/transformer/layers.1/self_attn/Transpose_output_0">
					<dim>1</dim>
					<dim>8</dim>
					<dim>7</dim>
					<dim>32</dim>
				</port>
			</output>
		</layer>
		<layer id="165" name="Constant_19747" type="Const" version="opset1">
			<data element_type="f32" shape="1, 1, 256" offset="14462824" size="1024" />
			<output>
				<port id="0" precision="FP32">
					<dim>1</dim>
					<dim>1</dim>
					<dim>256</dim>
				</port>
			</output>
		</layer>
		<layer id="166" name="Transpose_19355" type="Const" version="opset1">
			<data element_type="f32" shape="256, 256" offset="14463848" size="262144" />
			<output>
				<port id="0" precision="FP32">
					<dim>256</dim>
					<dim>256</dim>
				</port>
			</output>
		</layer>
		<layer id="167" name="/mask_decoder/transformer/layers.1/self_attn/k_proj/MatMul" type="MatMul" version="opset1">
			<data transpose_a="false" transpose_b="true" />
			<input>
				<port id="0" precision="FP32">
					<dim>1</dim>
					<dim>7</dim>
					<dim>256</dim>
				</port>
				<port id="1" precision="FP32">
					<dim>256</dim>
					<dim>256</dim>
				</port>
			</input>
			<output>
				<port id="2" precision="FP32" names="/mask_decoder/transformer/layers.1/self_attn/k_proj/MatMul_output_0">
					<dim>1</dim>
					<dim>7</dim>
					<dim>256</dim>
				</port>
			</output>
		</layer>
		<layer id="168" name="/mask_decoder/transformer/layers.1/self_attn/k_proj/Add" type="Add" version="opset1">
			<data auto_broadcast="numpy" />
			<input>
				<port id="0" precision="FP32">
					<dim>1</dim>
					<dim>1</dim>
					<dim>256</dim>
				</port>
				<port id="1" precision="FP32">
					<dim>1</dim>
					<dim>7</dim>
					<dim>256</dim>
				</port>
			</input>
			<output>
				<port id="2" precision="FP32" names="/mask_decoder/transformer/layers.1/self_attn/k_proj/Add_output_0">
					<dim>1</dim>
					<dim>7</dim>
					<dim>256</dim>
				</port>
			</output>
		</layer>
		<layer id="169" name="/mask_decoder/transformer/layers.1/self_attn/Constant_1" type="Const" version="opset1">
			<data element_type="i64" shape="4" offset="284760" size="32" />
			<output>
				<port id="0" precision="I64" names="/mask_decoder/transformer/layers.1/self_attn/Constant_1_output_0">
					<dim>4</dim>
				</port>
			</output>
		</layer>
		<layer id="170" name="/mask_decoder/transformer/layers.1/self_attn/Reshape_1" type="Reshape" version="opset1">
			<data special_zero="true" />
			<input>
				<port id="0" precision="FP32">
					<dim>1</dim>
					<dim>7</dim>
					<dim>256</dim>
				</port>
				<port id="1" precision="I64">
					<dim>4</dim>
				</port>
			</input>
			<output>
				<port id="2" precision="FP32" names="/mask_decoder/transformer/layers.1/self_attn/Reshape_1_output_0">
					<dim>1</dim>
					<dim>7</dim>
					<dim>8</dim>
					<dim>32</dim>
				</port>
			</output>
		</layer>
		<layer id="171" name="Constant_16054" type="Const" version="opset1">
			<data element_type="i64" shape="4" offset="547992" size="32" />
			<output>
				<port id="0" precision="I64">
					<dim>4</dim>
				</port>
			</output>
		</layer>
		<layer id="172" name="/mask_decoder/transformer/layers.1/self_attn/Transpose_2" type="Transpose" version="opset1">
			<input>
				<port id="0" precision="FP32">
					<dim>1</dim>
					<dim>7</dim>
					<dim>8</dim>
					<dim>32</dim>
				</port>
				<port id="1" precision="I64">
					<dim>4</dim>
				</port>
			</input>
			<output>
				<port id="2" precision="FP32" names="/mask_decoder/transformer/layers.1/self_attn/Transpose_2_output_0">
					<dim>1</dim>
					<dim>8</dim>
					<dim>32</dim>
					<dim>7</dim>
				</port>
			</output>
		</layer>
		<layer id="173" name="Constant_19748" type="Const" version="opset1">
			<data element_type="f32" shape="1, 1, 1, 1" offset="548024" size="4" />
			<output>
				<port id="0" precision="FP32">
					<dim>1</dim>
					<dim>1</dim>
					<dim>1</dim>
					<dim>1</dim>
				</port>
			</output>
		</layer>
		<layer id="174" name="Multiply_19614" type="Multiply" version="opset1">
			<data auto_broadcast="numpy" />
			<input>
				<port id="0" precision="FP32">
					<dim>1</dim>
					<dim>8</dim>
					<dim>32</dim>
					<dim>7</dim>
				</port>
				<port id="1" precision="FP32">
					<dim>1</dim>
					<dim>1</dim>
					<dim>1</dim>
					<dim>1</dim>
				</port>
			</input>
			<output>
				<port id="2" precision="FP32">
					<dim>1</dim>
					<dim>8</dim>
					<dim>32</dim>
					<dim>7</dim>
				</port>
			</output>
		</layer>
		<layer id="175" name="/mask_decoder/transformer/layers.1/self_attn/Div" type="MatMul" version="opset1">
			<data transpose_a="false" transpose_b="false" />
			<input>
				<port id="0" precision="FP32">
					<dim>1</dim>
					<dim>8</dim>
					<dim>7</dim>
					<dim>32</dim>
				</port>
				<port id="1" precision="FP32">
					<dim>1</dim>
					<dim>8</dim>
					<dim>32</dim>
					<dim>7</dim>
				</port>
			</input>
			<output>
				<port id="2" precision="FP32" names="/mask_decoder/transformer/layers.1/self_attn/Div_output_0">
					<dim>1</dim>
					<dim>8</dim>
					<dim>7</dim>
					<dim>7</dim>
				</port>
			</output>
		</layer>
		<layer id="176" name="/mask_decoder/transformer/layers.1/self_attn/Softmax" type="SoftMax" version="opset8">
			<data axis="-1" />
			<input>
				<port id="0" precision="FP32">
					<dim>1</dim>
					<dim>8</dim>
					<dim>7</dim>
					<dim>7</dim>
				</port>
			</input>
			<output>
				<port id="1" precision="FP32" names="/mask_decoder/transformer/layers.1/self_attn/Softmax_output_0">
					<dim>1</dim>
					<dim>8</dim>
					<dim>7</dim>
					<dim>7</dim>
				</port>
			</output>
		</layer>
		<layer id="177" name="Constant_19749" type="Const" version="opset1">
			<data element_type="f32" shape="1, 1, 256" offset="14725992" size="1024" />
			<output>
				<port id="0" precision="FP32">
					<dim>1</dim>
					<dim>1</dim>
					<dim>256</dim>
				</port>
			</output>
		</layer>
		<layer id="178" name="Transpose_19364" type="Const" version="opset1">
			<data element_type="f32" shape="256, 256" offset="14727016" size="262144" />
			<output>
				<port id="0" precision="FP32">
					<dim>256</dim>
					<dim>256</dim>
				</port>
			</output>
		</layer>
		<layer id="179" name="/mask_decoder/transformer/layers.1/self_attn/v_proj/MatMul" type="MatMul" version="opset1">
			<data transpose_a="false" transpose_b="true" />
			<input>
				<port id="0" precision="FP32">
					<dim>1</dim>
					<dim>7</dim>
					<dim>256</dim>
				</port>
				<port id="1" precision="FP32">
					<dim>256</dim>
					<dim>256</dim>
				</port>
			</input>
			<output>
				<port id="2" precision="FP32" names="/mask_decoder/transformer/layers.1/self_attn/v_proj/MatMul_output_0">
					<dim>1</dim>
					<dim>7</dim>
					<dim>256</dim>
				</port>
			</output>
		</layer>
		<layer id="180" name="/mask_decoder/transformer/layers.1/self_attn/v_proj/Add" type="Add" version="opset1">
			<data auto_broadcast="numpy" />
			<input>
				<port id="0" precision="FP32">
					<dim>1</dim>
					<dim>1</dim>
					<dim>256</dim>
				</port>
				<port id="1" precision="FP32">
					<dim>1</dim>
					<dim>7</dim>
					<dim>256</dim>
				</port>
			</input>
			<output>
				<port id="2" precision="FP32" names="/mask_decoder/transformer/layers.1/self_attn/v_proj/Add_output_0">
					<dim>1</dim>
					<dim>7</dim>
					<dim>256</dim>
				</port>
			</output>
		</layer>
		<layer id="181" name="/mask_decoder/transformer/layers.1/self_attn/Constant_2" type="Const" version="opset1">
			<data element_type="i64" shape="4" offset="284760" size="32" />
			<output>
				<port id="0" precision="I64" names="/mask_decoder/transformer/layers.1/self_attn/Constant_2_output_0">
					<dim>4</dim>
				</port>
			</output>
		</layer>
		<layer id="182" name="/mask_decoder/transformer/layers.1/self_attn/Reshape_2" type="Reshape" version="opset1">
			<data special_zero="true" />
			<input>
				<port id="0" precision="FP32">
					<dim>1</dim>
					<dim>7</dim>
					<dim>256</dim>
				</port>
				<port id="1" precision="I64">
					<dim>4</dim>
				</port>
			</input>
			<output>
				<port id="2" precision="FP32" names="/mask_decoder/transformer/layers.1/self_attn/Reshape_2_output_0">
					<dim>1</dim>
					<dim>7</dim>
					<dim>8</dim>
					<dim>32</dim>
				</port>
			</output>
		</layer>
		<layer id="183" name="Constant_16052" type="Const" version="opset1">
			<data element_type="i64" shape="4" offset="284792" size="32" />
			<output>
				<port id="0" precision="I64">
					<dim>4</dim>
				</port>
			</output>
		</layer>
		<layer id="184" name="/mask_decoder/transformer/layers.1/self_attn/Transpose_1" type="Transpose" version="opset1">
			<input>
				<port id="0" precision="FP32">
					<dim>1</dim>
					<dim>7</dim>
					<dim>8</dim>
					<dim>32</dim>
				</port>
				<port id="1" precision="I64">
					<dim>4</dim>
				</port>
			</input>
			<output>
				<port id="2" precision="FP32" names="/mask_decoder/transformer/layers.1/self_attn/Transpose_1_output_0">
					<dim>1</dim>
					<dim>8</dim>
					<dim>7</dim>
					<dim>32</dim>
				</port>
			</output>
		</layer>
		<layer id="185" name="/mask_decoder/transformer/layers.1/self_attn/MatMul_1" type="MatMul" version="opset1">
			<data transpose_a="false" transpose_b="false" />
			<input>
				<port id="0" precision="FP32">
					<dim>1</dim>
					<dim>8</dim>
					<dim>7</dim>
					<dim>7</dim>
				</port>
				<port id="1" precision="FP32">
					<dim>1</dim>
					<dim>8</dim>
					<dim>7</dim>
					<dim>32</dim>
				</port>
			</input>
			<output>
				<port id="2" precision="FP32" names="/mask_decoder/transformer/layers.1/self_attn/MatMul_1_output_0">
					<dim>1</dim>
					<dim>8</dim>
					<dim>7</dim>
					<dim>32</dim>
				</port>
			</output>
		</layer>
		<layer id="186" name="Constant_16061" type="Const" version="opset1">
			<data element_type="i64" shape="4" offset="284792" size="32" />
			<output>
				<port id="0" precision="I64">
					<dim>4</dim>
				</port>
			</output>
		</layer>
		<layer id="187" name="/mask_decoder/transformer/layers.1/self_attn/Transpose_3" type="Transpose" version="opset1">
			<input>
				<port id="0" precision="FP32">
					<dim>1</dim>
					<dim>8</dim>
					<dim>7</dim>
					<dim>32</dim>
				</port>
				<port id="1" precision="I64">
					<dim>4</dim>
				</port>
			</input>
			<output>
				<port id="2" precision="FP32" names="/mask_decoder/transformer/layers.1/self_attn/Transpose_3_output_0">
					<dim>1</dim>
					<dim>7</dim>
					<dim>8</dim>
					<dim>32</dim>
				</port>
			</output>
		</layer>
		<layer id="188" name="/mask_decoder/transformer/layers.1/self_attn/Constant_4" type="Const" version="opset1">
			<data element_type="i64" shape="3" offset="811196" size="24" />
			<output>
				<port id="0" precision="I64" names="/mask_decoder/transformer/layers.1/self_attn/Constant_4_output_0">
					<dim>3</dim>
				</port>
			</output>
		</layer>
		<layer id="189" name="/mask_decoder/transformer/layers.1/self_attn/Reshape_3" type="Reshape" version="opset1">
			<data special_zero="true" />
			<input>
				<port id="0" precision="FP32">
					<dim>1</dim>
					<dim>7</dim>
					<dim>8</dim>
					<dim>32</dim>
				</port>
				<port id="1" precision="I64">
					<dim>3</dim>
				</port>
			</input>
			<output>
				<port id="2" precision="FP32" names="/mask_decoder/transformer/layers.1/self_attn/Reshape_3_output_0">
					<dim>1</dim>
					<dim>7</dim>
					<dim>256</dim>
				</port>
			</output>
		</layer>
		<layer id="190" name="Transpose_19373" type="Const" version="opset1">
			<data element_type="f32" shape="256, 256" offset="14989160" size="262144" />
			<output>
				<port id="0" precision="FP32">
					<dim>256</dim>
					<dim>256</dim>
				</port>
			</output>
		</layer>
		<layer id="191" name="/mask_decoder/transformer/layers.1/self_attn/out_proj/MatMul" type="MatMul" version="opset1">
			<data transpose_a="false" transpose_b="true" />
			<input>
				<port id="0" precision="FP32">
					<dim>1</dim>
					<dim>7</dim>
					<dim>256</dim>
				</port>
				<port id="1" precision="FP32">
					<dim>256</dim>
					<dim>256</dim>
				</port>
			</input>
			<output>
				<port id="2" precision="FP32" names="/mask_decoder/transformer/layers.1/self_attn/out_proj/MatMul_output_0">
					<dim>1</dim>
					<dim>7</dim>
					<dim>256</dim>
				</port>
			</output>
		</layer>
		<layer id="192" name="/mask_decoder/transformer/layers.1/self_attn/out_proj/Add" type="Add" version="opset1">
			<data auto_broadcast="numpy" />
			<input>
				<port id="0" precision="FP32">
					<dim>1</dim>
					<dim>1</dim>
					<dim>256</dim>
				</port>
				<port id="1" precision="FP32">
					<dim>1</dim>
					<dim>7</dim>
					<dim>256</dim>
				</port>
			</input>
			<output>
				<port id="2" precision="FP32" names="/mask_decoder/transformer/layers.1/self_attn/out_proj/Add_output_0">
					<dim>1</dim>
					<dim>7</dim>
					<dim>256</dim>
				</port>
			</output>
		</layer>
		<layer id="193" name="/mask_decoder/transformer/layers.1/Add" type="Add" version="opset1">
			<data auto_broadcast="numpy" />
			<input>
				<port id="0" precision="FP32">
					<dim>1</dim>
					<dim>7</dim>
					<dim>256</dim>
				</port>
				<port id="1" precision="FP32">
					<dim>1</dim>
					<dim>7</dim>
					<dim>256</dim>
				</port>
			</input>
			<output>
				<port id="2" precision="FP32" names="/mask_decoder/transformer/layers.1/Add_output_0">
					<dim>1</dim>
					<dim>7</dim>
					<dim>256</dim>
				</port>
			</output>
		</layer>
		<layer id="194" name="Range_16071" type="Const" version="opset1">
			<data element_type="i64" shape="1" offset="1073364" size="8" />
			<output>
				<port id="0" precision="I64">
					<dim>1</dim>
				</port>
			</output>
		</layer>
		<layer id="195" name="MVN_16072" type="MVN" version="opset6">
			<data eps="9.9999997473787516e-06" normalize_variance="true" eps_mode="INSIDE_SQRT" />
			<input>
				<port id="0" precision="FP32">
					<dim>1</dim>
					<dim>7</dim>
					<dim>256</dim>
				</port>
				<port id="1" precision="I64">
					<dim>1</dim>
				</port>
			</input>
			<output>
				<port id="2" precision="FP32">
					<dim>1</dim>
					<dim>7</dim>
					<dim>256</dim>
				</port>
			</output>
		</layer>
		<layer id="196" name="Constant_19751" type="Const" version="opset1">
			<data element_type="f32" shape="1, 1, 256" offset="15251304" size="1024" />
			<output>
				<port id="0" precision="FP32">
					<dim>1</dim>
					<dim>1</dim>
					<dim>256</dim>
				</port>
			</output>
		</layer>
		<layer id="197" name="Multiply_16073" type="Multiply" version="opset1">
			<data auto_broadcast="numpy" />
			<input>
				<port id="0" precision="FP32">
					<dim>1</dim>
					<dim>7</dim>
					<dim>256</dim>
				</port>
				<port id="1" precision="FP32">
					<dim>1</dim>
					<dim>1</dim>
					<dim>256</dim>
				</port>
			</input>
			<output>
				<port id="2" precision="FP32">
					<dim>1</dim>
					<dim>7</dim>
					<dim>256</dim>
				</port>
			</output>
		</layer>
		<layer id="198" name="Constant_19752" type="Const" version="opset1">
			<data element_type="f32" shape="1, 1, 256" offset="15252328" size="1024" />
			<output>
				<port id="0" precision="FP32">
					<dim>1</dim>
					<dim>1</dim>
					<dim>256</dim>
				</port>
			</output>
		</layer>
		<layer id="199" name="/mask_decoder/transformer/layers.1/norm1/LayerNormalization" type="Add" version="opset1">
			<data auto_broadcast="numpy" />
			<input>
				<port id="0" precision="FP32">
					<dim>1</dim>
					<dim>7</dim>
					<dim>256</dim>
				</port>
				<port id="1" precision="FP32">
					<dim>1</dim>
					<dim>1</dim>
					<dim>256</dim>
				</port>
			</input>
			<output>
				<port id="2" precision="FP32" names="/mask_decoder/transformer/layers.1/norm1/LayerNormalization_output_0">
					<dim>1</dim>
					<dim>7</dim>
					<dim>256</dim>
				</port>
			</output>
		</layer>
		<layer id="200" name="Constant_19764" type="Const" version="opset1">
			<data element_type="f32" shape="1, 1, 256" offset="15253352" size="1024" />
			<output>
				<port id="0" precision="FP32">
					<dim>1</dim>
					<dim>1</dim>
					<dim>256</dim>
				</port>
			</output>
		</layer>
		<layer id="201" name="Constant_19753" type="Const" version="opset1">
			<data element_type="f32" shape="1, 1, 128" offset="15254376" size="512" />
			<output>
				<port id="0" precision="FP32">
					<dim>1</dim>
					<dim>1</dim>
					<dim>128</dim>
				</port>
			</output>
		</layer>
		<layer id="202" name="/mask_decoder/transformer/layers.1/Add_1" type="Add" version="opset1">
			<data auto_broadcast="numpy" />
			<input>
				<port id="0" precision="FP32">
					<dim>1</dim>
					<dim>7</dim>
					<dim>256</dim>
				</port>
				<port id="1" precision="FP32">
					<dim>1</dim>
					<dim>7</dim>
					<dim>256</dim>
				</port>
			</input>
			<output>
				<port id="2" precision="FP32" names="/mask_decoder/transformer/layers.1/Add_1_output_0">
					<dim>1</dim>
					<dim>7</dim>
					<dim>256</dim>
				</port>
			</output>
		</layer>
		<layer id="203" name="Transpose_19388" type="Const" version="opset1">
			<data element_type="f32" shape="128, 256" offset="15254888" size="131072" />
			<output>
				<port id="0" precision="FP32">
					<dim>128</dim>
					<dim>256</dim>
				</port>
			</output>
		</layer>
		<layer id="204" name="/mask_decoder/transformer/layers.1/cross_attn_token_to_image/q_proj/MatMul" type="MatMul" version="opset1">
			<data transpose_a="false" transpose_b="true" />
			<input>
				<port id="0" precision="FP32">
					<dim>1</dim>
					<dim>7</dim>
					<dim>256</dim>
				</port>
				<port id="1" precision="FP32">
					<dim>128</dim>
					<dim>256</dim>
				</port>
			</input>
			<output>
				<port id="2" precision="FP32" names="/mask_decoder/transformer/layers.1/cross_attn_token_to_image/q_proj/MatMul_output_0">
					<dim>1</dim>
					<dim>7</dim>
					<dim>128</dim>
				</port>
			</output>
		</layer>
		<layer id="205" name="/mask_decoder/transformer/layers.1/cross_attn_token_to_image/q_proj/Add" type="Add" version="opset1">
			<data auto_broadcast="numpy" />
			<input>
				<port id="0" precision="FP32">
					<dim>1</dim>
					<dim>1</dim>
					<dim>128</dim>
				</port>
				<port id="1" precision="FP32">
					<dim>1</dim>
					<dim>7</dim>
					<dim>128</dim>
				</port>
			</input>
			<output>
				<port id="2" precision="FP32" names="/mask_decoder/transformer/layers.1/cross_attn_token_to_image/q_proj/Add_output_0">
					<dim>1</dim>
					<dim>7</dim>
					<dim>128</dim>
				</port>
			</output>
		</layer>
		<layer id="206" name="/mask_decoder/transformer/layers.1/cross_attn_token_to_image/Constant" type="Const" version="opset1">
			<data element_type="i64" shape="4" offset="1208028" size="32" />
			<output>
				<port id="0" precision="I64" names="/mask_decoder/transformer/layers.1/cross_attn_token_to_image/Constant_output_0">
					<dim>4</dim>
				</port>
			</output>
		</layer>
		<layer id="207" name="/mask_decoder/transformer/layers.1/cross_attn_token_to_image/Reshape" type="Reshape" version="opset1">
			<data special_zero="true" />
			<input>
				<port id="0" precision="FP32">
					<dim>1</dim>
					<dim>7</dim>
					<dim>128</dim>
				</port>
				<port id="1" precision="I64">
					<dim>4</dim>
				</port>
			</input>
			<output>
				<port id="2" precision="FP32" names="/mask_decoder/transformer/layers.1/cross_attn_token_to_image/Reshape_output_0">
					<dim>1</dim>
					<dim>7</dim>
					<dim>8</dim>
					<dim>16</dim>
				</port>
			</output>
		</layer>
		<layer id="208" name="Constant_16085" type="Const" version="opset1">
			<data element_type="i64" shape="4" offset="284792" size="32" />
			<output>
				<port id="0" precision="I64">
					<dim>4</dim>
				</port>
			</output>
		</layer>
		<layer id="209" name="/mask_decoder/transformer/layers.1/cross_attn_token_to_image/Transpose" type="Transpose" version="opset1">
			<input>
				<port id="0" precision="FP32">
					<dim>1</dim>
					<dim>7</dim>
					<dim>8</dim>
					<dim>16</dim>
				</port>
				<port id="1" precision="I64">
					<dim>4</dim>
				</port>
			</input>
			<output>
				<port id="2" precision="FP32" names="/mask_decoder/transformer/layers.1/cross_attn_token_to_image/Transpose_output_0">
					<dim>1</dim>
					<dim>8</dim>
					<dim>7</dim>
					<dim>16</dim>
				</port>
			</output>
		</layer>
		<layer id="210" name="Constant_19761" type="Const" version="opset1">
			<data element_type="f32" shape="1, 1, 128" offset="15385960" size="512" />
			<output>
				<port id="0" precision="FP32">
					<dim>1</dim>
					<dim>1</dim>
					<dim>128</dim>
				</port>
			</output>
		</layer>
		<layer id="211" name="Constant_19758" type="Const" version="opset1">
			<data element_type="f32" shape="1, 1, 256" offset="15386472" size="1024" />
			<output>
				<port id="0" precision="FP32">
					<dim>1</dim>
					<dim>1</dim>
					<dim>256</dim>
				</port>
			</output>
		</layer>
		<layer id="212" name="Constant_19754" type="Const" version="opset1">
			<data element_type="f32" shape="1, 1, 128" offset="15387496" size="512" />
			<output>
				<port id="0" precision="FP32">
					<dim>1</dim>
					<dim>1</dim>
					<dim>128</dim>
				</port>
			</output>
		</layer>
		<layer id="213" name="Transpose_19395" type="Const" version="opset1">
			<data element_type="f32" shape="128, 256" offset="15388008" size="131072" />
			<output>
				<port id="0" precision="FP32">
					<dim>128</dim>
					<dim>256</dim>
				</port>
			</output>
		</layer>
		<layer id="214" name="/mask_decoder/transformer/layers.0/cross_attn_image_to_token/q_proj/MatMul" type="MatMul" version="opset1">
			<data transpose_a="false" transpose_b="true" />
			<input>
				<port id="0" precision="FP32">
					<dim>1</dim>
					<dim>4096</dim>
					<dim>256</dim>
				</port>
				<port id="1" precision="FP32">
					<dim>128</dim>
					<dim>256</dim>
				</port>
			</input>
			<output>
				<port id="2" precision="FP32" names="/mask_decoder/transformer/layers.0/cross_attn_image_to_token/q_proj/MatMul_output_0">
					<dim>1</dim>
					<dim>4096</dim>
					<dim>128</dim>
				</port>
			</output>
		</layer>
		<layer id="215" name="/mask_decoder/transformer/layers.0/cross_attn_image_to_token/q_proj/Add" type="Add" version="opset1">
			<data auto_broadcast="numpy" />
			<input>
				<port id="0" precision="FP32">
					<dim>1</dim>
					<dim>1</dim>
					<dim>128</dim>
				</port>
				<port id="1" precision="FP32">
					<dim>1</dim>
					<dim>4096</dim>
					<dim>128</dim>
				</port>
			</input>
			<output>
				<port id="2" precision="FP32" names="/mask_decoder/transformer/layers.0/cross_attn_image_to_token/q_proj/Add_output_0">
					<dim>1</dim>
					<dim>4096</dim>
					<dim>128</dim>
				</port>
			</output>
		</layer>
		<layer id="216" name="/mask_decoder/transformer/layers.0/cross_attn_image_to_token/Constant" type="Const" version="opset1">
			<data element_type="i64" shape="4" offset="9728300" size="32" />
			<output>
				<port id="0" precision="I64" names="/mask_decoder/transformer/layers.0/cross_attn_image_to_token/Constant_output_0">
					<dim>4</dim>
				</port>
			</output>
		</layer>
		<layer id="217" name="/mask_decoder/transformer/layers.0/cross_attn_image_to_token/Reshape" type="Reshape" version="opset1">
			<data special_zero="true" />
			<input>
				<port id="0" precision="FP32">
					<dim>1</dim>
					<dim>4096</dim>
					<dim>128</dim>
				</port>
				<port id="1" precision="I64">
					<dim>4</dim>
				</port>
			</input>
			<output>
				<port id="2" precision="FP32" names="/mask_decoder/transformer/layers.0/cross_attn_image_to_token/Reshape_output_0">
					<dim>1</dim>
					<dim>4096</dim>
					<dim>8</dim>
					<dim>16</dim>
				</port>
			</output>
		</layer>
		<layer id="218" name="Constant_16009" type="Const" version="opset1">
			<data element_type="i64" shape="4" offset="284792" size="32" />
			<output>
				<port id="0" precision="I64">
					<dim>4</dim>
				</port>
			</output>
		</layer>
		<layer id="219" name="/mask_decoder/transformer/layers.0/cross_attn_image_to_token/Transpose" type="Transpose" version="opset1">
			<input>
				<port id="0" precision="FP32">
					<dim>1</dim>
					<dim>4096</dim>
					<dim>8</dim>
					<dim>16</dim>
				</port>
				<port id="1" precision="I64">
					<dim>4</dim>
				</port>
			</input>
			<output>
				<port id="2" precision="FP32" names="/mask_decoder/transformer/layers.0/cross_attn_image_to_token/Transpose_output_0">
					<dim>1</dim>
					<dim>8</dim>
					<dim>4096</dim>
					<dim>16</dim>
				</port>
			</output>
		</layer>
		<layer id="220" name="Constant_19755" type="Const" version="opset1">
			<data element_type="f32" shape="1, 1, 128" offset="15519080" size="512" />
			<output>
				<port id="0" precision="FP32">
					<dim>1</dim>
					<dim>1</dim>
					<dim>128</dim>
				</port>
			</output>
		</layer>
		<layer id="221" name="Transpose_19402" type="Const" version="opset1">
			<data element_type="f32" shape="128, 256" offset="15519592" size="131072" />
			<output>
				<port id="0" precision="FP32">
					<dim>128</dim>
					<dim>256</dim>
				</port>
			</output>
		</layer>
		<layer id="222" name="/mask_decoder/transformer/layers.0/cross_attn_image_to_token/k_proj/MatMul" type="MatMul" version="opset1">
			<data transpose_a="false" transpose_b="true" />
			<input>
				<port id="0" precision="FP32">
					<dim>1</dim>
					<dim>7</dim>
					<dim>256</dim>
				</port>
				<port id="1" precision="FP32">
					<dim>128</dim>
					<dim>256</dim>
				</port>
			</input>
			<output>
				<port id="2" precision="FP32" names="/mask_decoder/transformer/layers.0/cross_attn_image_to_token/k_proj/MatMul_output_0">
					<dim>1</dim>
					<dim>7</dim>
					<dim>128</dim>
				</port>
			</output>
		</layer>
		<layer id="223" name="/mask_decoder/transformer/layers.0/cross_attn_image_to_token/k_proj/Add" type="Add" version="opset1">
			<data auto_broadcast="numpy" />
			<input>
				<port id="0" precision="FP32">
					<dim>1</dim>
					<dim>1</dim>
					<dim>128</dim>
				</port>
				<port id="1" precision="FP32">
					<dim>1</dim>
					<dim>7</dim>
					<dim>128</dim>
				</port>
			</input>
			<output>
				<port id="2" precision="FP32" names="/mask_decoder/transformer/layers.0/cross_attn_image_to_token/k_proj/Add_output_0">
					<dim>1</dim>
					<dim>7</dim>
					<dim>128</dim>
				</port>
			</output>
		</layer>
		<layer id="224" name="/mask_decoder/transformer/layers.0/cross_attn_image_to_token/Constant_1" type="Const" version="opset1">
			<data element_type="i64" shape="4" offset="1208028" size="32" />
			<output>
				<port id="0" precision="I64" names="/mask_decoder/transformer/layers.0/cross_attn_image_to_token/Constant_1_output_0">
					<dim>4</dim>
				</port>
			</output>
		</layer>
		<layer id="225" name="/mask_decoder/transformer/layers.0/cross_attn_image_to_token/Reshape_1" type="Reshape" version="opset1">
			<data special_zero="true" />
			<input>
				<port id="0" precision="FP32">
					<dim>1</dim>
					<dim>7</dim>
					<dim>128</dim>
				</port>
				<port id="1" precision="I64">
					<dim>4</dim>
				</port>
			</input>
			<output>
				<port id="2" precision="FP32" names="/mask_decoder/transformer/layers.0/cross_attn_image_to_token/Reshape_1_output_0">
					<dim>1</dim>
					<dim>7</dim>
					<dim>8</dim>
					<dim>16</dim>
				</port>
			</output>
		</layer>
		<layer id="226" name="Constant_16017" type="Const" version="opset1">
			<data element_type="i64" shape="4" offset="547992" size="32" />
			<output>
				<port id="0" precision="I64">
					<dim>4</dim>
				</port>
			</output>
		</layer>
		<layer id="227" name="/mask_decoder/transformer/layers.0/cross_attn_image_to_token/Transpose_2" type="Transpose" version="opset1">
			<input>
				<port id="0" precision="FP32">
					<dim>1</dim>
					<dim>7</dim>
					<dim>8</dim>
					<dim>16</dim>
				</port>
				<port id="1" precision="I64">
					<dim>4</dim>
				</port>
			</input>
			<output>
				<port id="2" precision="FP32" names="/mask_decoder/transformer/layers.0/cross_attn_image_to_token/Transpose_2_output_0">
					<dim>1</dim>
					<dim>8</dim>
					<dim>16</dim>
					<dim>7</dim>
				</port>
			</output>
		</layer>
		<layer id="228" name="Constant_19756" type="Const" version="opset1">
			<data element_type="f32" shape="1, 1, 1, 1" offset="9728332" size="4" />
			<output>
				<port id="0" precision="FP32">
					<dim>1</dim>
					<dim>1</dim>
					<dim>1</dim>
					<dim>1</dim>
				</port>
			</output>
		</layer>
		<layer id="229" name="Multiply_19616" type="Multiply" version="opset1">
			<data auto_broadcast="numpy" />
			<input>
				<port id="0" precision="FP32">
					<dim>1</dim>
					<dim>8</dim>
					<dim>16</dim>
					<dim>7</dim>
				</port>
				<port id="1" precision="FP32">
					<dim>1</dim>
					<dim>1</dim>
					<dim>1</dim>
					<dim>1</dim>
				</port>
			</input>
			<output>
				<port id="2" precision="FP32">
					<dim>1</dim>
					<dim>8</dim>
					<dim>16</dim>
					<dim>7</dim>
				</port>
			</output>
		</layer>
		<layer id="230" name="/mask_decoder/transformer/layers.0/cross_attn_image_to_token/Div" type="MatMul" version="opset1">
			<data transpose_a="false" transpose_b="false" />
			<input>
				<port id="0" precision="FP32">
					<dim>1</dim>
					<dim>8</dim>
					<dim>4096</dim>
					<dim>16</dim>
				</port>
				<port id="1" precision="FP32">
					<dim>1</dim>
					<dim>8</dim>
					<dim>16</dim>
					<dim>7</dim>
				</port>
			</input>
			<output>
				<port id="2" precision="FP32" names="/mask_decoder/transformer/layers.0/cross_attn_image_to_token/Div_output_0">
					<dim>1</dim>
					<dim>8</dim>
					<dim>4096</dim>
					<dim>7</dim>
				</port>
			</output>
		</layer>
		<layer id="231" name="/mask_decoder/transformer/layers.0/cross_attn_image_to_token/Softmax" type="SoftMax" version="opset8">
			<data axis="-1" />
			<input>
				<port id="0" precision="FP32">
					<dim>1</dim>
					<dim>8</dim>
					<dim>4096</dim>
					<dim>7</dim>
				</port>
			</input>
			<output>
				<port id="1" precision="FP32" names="/mask_decoder/transformer/layers.0/cross_attn_image_to_token/Softmax_output_0">
					<dim>1</dim>
					<dim>8</dim>
					<dim>4096</dim>
					<dim>7</dim>
				</port>
			</output>
		</layer>
		<layer id="232" name="Constant_19757" type="Const" version="opset1">
			<data element_type="f32" shape="1, 1, 128" offset="15650664" size="512" />
			<output>
				<port id="0" precision="FP32">
					<dim>1</dim>
					<dim>1</dim>
					<dim>128</dim>
				</port>
			</output>
		</layer>
		<layer id="233" name="Transpose_19411" type="Const" version="opset1">
			<data element_type="f32" shape="128, 256" offset="15651176" size="131072" />
			<output>
				<port id="0" precision="FP32">
					<dim>128</dim>
					<dim>256</dim>
				</port>
			</output>
		</layer>
		<layer id="234" name="/mask_decoder/transformer/layers.0/cross_attn_image_to_token/v_proj/MatMul" type="MatMul" version="opset1">
			<data transpose_a="false" transpose_b="true" />
			<input>
				<port id="0" precision="FP32">
					<dim>1</dim>
					<dim>7</dim>
					<dim>256</dim>
				</port>
				<port id="1" precision="FP32">
					<dim>128</dim>
					<dim>256</dim>
				</port>
			</input>
			<output>
				<port id="2" precision="FP32" names="/mask_decoder/transformer/layers.0/cross_attn_image_to_token/v_proj/MatMul_output_0">
					<dim>1</dim>
					<dim>7</dim>
					<dim>128</dim>
				</port>
			</output>
		</layer>
		<layer id="235" name="/mask_decoder/transformer/layers.0/cross_attn_image_to_token/v_proj/Add" type="Add" version="opset1">
			<data auto_broadcast="numpy" />
			<input>
				<port id="0" precision="FP32">
					<dim>1</dim>
					<dim>1</dim>
					<dim>128</dim>
				</port>
				<port id="1" precision="FP32">
					<dim>1</dim>
					<dim>7</dim>
					<dim>128</dim>
				</port>
			</input>
			<output>
				<port id="2" precision="FP32" names="/mask_decoder/transformer/layers.0/cross_attn_image_to_token/v_proj/Add_output_0">
					<dim>1</dim>
					<dim>7</dim>
					<dim>128</dim>
				</port>
			</output>
		</layer>
		<layer id="236" name="/mask_decoder/transformer/layers.0/cross_attn_image_to_token/Constant_2" type="Const" version="opset1">
			<data element_type="i64" shape="4" offset="1208028" size="32" />
			<output>
				<port id="0" precision="I64" names="/mask_decoder/transformer/layers.0/cross_attn_image_to_token/Constant_2_output_0">
					<dim>4</dim>
				</port>
			</output>
		</layer>
		<layer id="237" name="/mask_decoder/transformer/layers.0/cross_attn_image_to_token/Reshape_2" type="Reshape" version="opset1">
			<data special_zero="true" />
			<input>
				<port id="0" precision="FP32">
					<dim>1</dim>
					<dim>7</dim>
					<dim>128</dim>
				</port>
				<port id="1" precision="I64">
					<dim>4</dim>
				</port>
			</input>
			<output>
				<port id="2" precision="FP32" names="/mask_decoder/transformer/layers.0/cross_attn_image_to_token/Reshape_2_output_0">
					<dim>1</dim>
					<dim>7</dim>
					<dim>8</dim>
					<dim>16</dim>
				</port>
			</output>
		</layer>
		<layer id="238" name="Constant_16015" type="Const" version="opset1">
			<data element_type="i64" shape="4" offset="284792" size="32" />
			<output>
				<port id="0" precision="I64">
					<dim>4</dim>
				</port>
			</output>
		</layer>
		<layer id="239" name="/mask_decoder/transformer/layers.0/cross_attn_image_to_token/Transpose_1" type="Transpose" version="opset1">
			<input>
				<port id="0" precision="FP32">
					<dim>1</dim>
					<dim>7</dim>
					<dim>8</dim>
					<dim>16</dim>
				</port>
				<port id="1" precision="I64">
					<dim>4</dim>
				</port>
			</input>
			<output>
				<port id="2" precision="FP32" names="/mask_decoder/transformer/layers.0/cross_attn_image_to_token/Transpose_1_output_0">
					<dim>1</dim>
					<dim>8</dim>
					<dim>7</dim>
					<dim>16</dim>
				</port>
			</output>
		</layer>
		<layer id="240" name="/mask_decoder/transformer/layers.0/cross_attn_image_to_token/MatMul_1" type="MatMul" version="opset1">
			<data transpose_a="false" transpose_b="false" />
			<input>
				<port id="0" precision="FP32">
					<dim>1</dim>
					<dim>8</dim>
					<dim>4096</dim>
					<dim>7</dim>
				</port>
				<port id="1" precision="FP32">
					<dim>1</dim>
					<dim>8</dim>
					<dim>7</dim>
					<dim>16</dim>
				</port>
			</input>
			<output>
				<port id="2" precision="FP32" names="/mask_decoder/transformer/layers.0/cross_attn_image_to_token/MatMul_1_output_0">
					<dim>1</dim>
					<dim>8</dim>
					<dim>4096</dim>
					<dim>16</dim>
				</port>
			</output>
		</layer>
		<layer id="241" name="Constant_16024" type="Const" version="opset1">
			<data element_type="i64" shape="4" offset="284792" size="32" />
			<output>
				<port id="0" precision="I64">
					<dim>4</dim>
				</port>
			</output>
		</layer>
		<layer id="242" name="/mask_decoder/transformer/layers.0/cross_attn_image_to_token/Transpose_3" type="Transpose" version="opset1">
			<input>
				<port id="0" precision="FP32">
					<dim>1</dim>
					<dim>8</dim>
					<dim>4096</dim>
					<dim>16</dim>
				</port>
				<port id="1" precision="I64">
					<dim>4</dim>
				</port>
			</input>
			<output>
				<port id="2" precision="FP32" names="/mask_decoder/transformer/layers.0/cross_attn_image_to_token/Transpose_3_output_0">
					<dim>1</dim>
					<dim>4096</dim>
					<dim>8</dim>
					<dim>16</dim>
				</port>
			</output>
		</layer>
		<layer id="243" name="/mask_decoder/transformer/layers.0/cross_attn_image_to_token/Constant_4" type="Const" version="opset1">
			<data element_type="i64" shape="3" offset="15782248" size="24" />
			<output>
				<port id="0" precision="I64" names="/mask_decoder/transformer/layers.0/cross_attn_image_to_token/Constant_4_output_0">
					<dim>3</dim>
				</port>
			</output>
		</layer>
		<layer id="244" name="/mask_decoder/transformer/layers.0/cross_attn_image_to_token/Reshape_3" type="Reshape" version="opset1">
			<data special_zero="true" />
			<input>
				<port id="0" precision="FP32">
					<dim>1</dim>
					<dim>4096</dim>
					<dim>8</dim>
					<dim>16</dim>
				</port>
				<port id="1" precision="I64">
					<dim>3</dim>
				</port>
			</input>
			<output>
				<port id="2" precision="FP32" names="/mask_decoder/transformer/layers.0/cross_attn_image_to_token/Reshape_3_output_0">
					<dim>1</dim>
					<dim>4096</dim>
					<dim>128</dim>
				</port>
			</output>
		</layer>
		<layer id="245" name="Transpose_19420" type="Const" version="opset1">
			<data element_type="f32" shape="256, 128" offset="15782272" size="131072" />
			<output>
				<port id="0" precision="FP32">
					<dim>256</dim>
					<dim>128</dim>
				</port>
			</output>
		</layer>
		<layer id="246" name="/mask_decoder/transformer/layers.0/cross_attn_image_to_token/out_proj/MatMul" type="MatMul" version="opset1">
			<data transpose_a="false" transpose_b="true" />
			<input>
				<port id="0" precision="FP32">
					<dim>1</dim>
					<dim>4096</dim>
					<dim>128</dim>
				</port>
				<port id="1" precision="FP32">
					<dim>256</dim>
					<dim>128</dim>
				</port>
			</input>
			<output>
				<port id="2" precision="FP32" names="/mask_decoder/transformer/layers.0/cross_attn_image_to_token/out_proj/MatMul_output_0">
					<dim>1</dim>
					<dim>4096</dim>
					<dim>256</dim>
				</port>
			</output>
		</layer>
		<layer id="247" name="/mask_decoder/transformer/layers.0/cross_attn_image_to_token/out_proj/Add" type="Add" version="opset1">
			<data auto_broadcast="numpy" />
			<input>
				<port id="0" precision="FP32">
					<dim>1</dim>
					<dim>1</dim>
					<dim>256</dim>
				</port>
				<port id="1" precision="FP32">
					<dim>1</dim>
					<dim>4096</dim>
					<dim>256</dim>
				</port>
			</input>
			<output>
				<port id="2" precision="FP32" names="/mask_decoder/transformer/layers.0/cross_attn_image_to_token/out_proj/Add_output_0">
					<dim>1</dim>
					<dim>4096</dim>
					<dim>256</dim>
				</port>
			</output>
		</layer>
		<layer id="248" name="/mask_decoder/transformer/layers.0/Add_5" type="Add" version="opset1">
			<data auto_broadcast="numpy" />
			<input>
				<port id="0" precision="FP32">
					<dim>1</dim>
					<dim>4096</dim>
					<dim>256</dim>
				</port>
				<port id="1" precision="FP32">
					<dim>1</dim>
					<dim>4096</dim>
					<dim>256</dim>
				</port>
			</input>
			<output>
				<port id="2" precision="FP32" names="/mask_decoder/transformer/layers.0/Add_5_output_0">
					<dim>1</dim>
					<dim>4096</dim>
					<dim>256</dim>
				</port>
			</output>
		</layer>
		<layer id="249" name="Range_16034" type="Const" version="opset1">
			<data element_type="i64" shape="1" offset="1073364" size="8" />
			<output>
				<port id="0" precision="I64">
					<dim>1</dim>
				</port>
			</output>
		</layer>
		<layer id="250" name="MVN_16035" type="MVN" version="opset6">
			<data eps="9.9999997473787516e-06" normalize_variance="true" eps_mode="INSIDE_SQRT" />
			<input>
				<port id="0" precision="FP32">
					<dim>1</dim>
					<dim>4096</dim>
					<dim>256</dim>
				</port>
				<port id="1" precision="I64">
					<dim>1</dim>
				</port>
			</input>
			<output>
				<port id="2" precision="FP32">
					<dim>1</dim>
					<dim>4096</dim>
					<dim>256</dim>
				</port>
			</output>
		</layer>
		<layer id="251" name="Constant_19759" type="Const" version="opset1">
			<data element_type="f32" shape="1, 1, 256" offset="15913344" size="1024" />
			<output>
				<port id="0" precision="FP32">
					<dim>1</dim>
					<dim>1</dim>
					<dim>256</dim>
				</port>
			</output>
		</layer>
		<layer id="252" name="Multiply_16036" type="Multiply" version="opset1">
			<data auto_broadcast="numpy" />
			<input>
				<port id="0" precision="FP32">
					<dim>1</dim>
					<dim>4096</dim>
					<dim>256</dim>
				</port>
				<port id="1" precision="FP32">
					<dim>1</dim>
					<dim>1</dim>
					<dim>256</dim>
				</port>
			</input>
			<output>
				<port id="2" precision="FP32">
					<dim>1</dim>
					<dim>4096</dim>
					<dim>256</dim>
				</port>
			</output>
		</layer>
		<layer id="253" name="Constant_19760" type="Const" version="opset1">
			<data element_type="f32" shape="1, 1, 256" offset="15914368" size="1024" />
			<output>
				<port id="0" precision="FP32">
					<dim>1</dim>
					<dim>1</dim>
					<dim>256</dim>
				</port>
			</output>
		</layer>
		<layer id="254" name="/mask_decoder/transformer/layers.0/norm4/LayerNormalization" type="Add" version="opset1">
			<data auto_broadcast="numpy" />
			<input>
				<port id="0" precision="FP32">
					<dim>1</dim>
					<dim>4096</dim>
					<dim>256</dim>
				</port>
				<port id="1" precision="FP32">
					<dim>1</dim>
					<dim>1</dim>
					<dim>256</dim>
				</port>
			</input>
			<output>
				<port id="2" precision="FP32" names="/mask_decoder/transformer/layers.0/norm4/LayerNormalization_output_0">
					<dim>1</dim>
					<dim>4096</dim>
					<dim>256</dim>
				</port>
			</output>
		</layer>
		<layer id="255" name="/mask_decoder/transformer/layers.1/Add_2" type="Add" version="opset1">
			<data auto_broadcast="numpy" />
			<input>
				<port id="0" precision="FP32">
					<dim>1</dim>
					<dim>4096</dim>
					<dim>256</dim>
				</port>
				<port id="1" precision="FP32">
					<dim>1</dim>
					<dim>4096</dim>
					<dim>256</dim>
				</port>
			</input>
			<output>
				<port id="2" precision="FP32" names="/mask_decoder/transformer/layers.1/Add_2_output_0">
					<dim>1</dim>
					<dim>4096</dim>
					<dim>256</dim>
				</port>
			</output>
		</layer>
		<layer id="256" name="Transpose_19435" type="Const" version="opset1">
			<data element_type="f32" shape="128, 256" offset="15915392" size="131072" />
			<output>
				<port id="0" precision="FP32">
					<dim>128</dim>
					<dim>256</dim>
				</port>
			</output>
		</layer>
		<layer id="257" name="/mask_decoder/transformer/layers.1/cross_attn_token_to_image/k_proj/MatMul" type="MatMul" version="opset1">
			<data transpose_a="false" transpose_b="true" />
			<input>
				<port id="0" precision="FP32">
					<dim>1</dim>
					<dim>4096</dim>
					<dim>256</dim>
				</port>
				<port id="1" precision="FP32">
					<dim>128</dim>
					<dim>256</dim>
				</port>
			</input>
			<output>
				<port id="2" precision="FP32" names="/mask_decoder/transformer/layers.1/cross_attn_token_to_image/k_proj/MatMul_output_0">
					<dim>1</dim>
					<dim>4096</dim>
					<dim>128</dim>
				</port>
			</output>
		</layer>
		<layer id="258" name="/mask_decoder/transformer/layers.1/cross_attn_token_to_image/k_proj/Add" type="Add" version="opset1">
			<data auto_broadcast="numpy" />
			<input>
				<port id="0" precision="FP32">
					<dim>1</dim>
					<dim>1</dim>
					<dim>128</dim>
				</port>
				<port id="1" precision="FP32">
					<dim>1</dim>
					<dim>4096</dim>
					<dim>128</dim>
				</port>
			</input>
			<output>
				<port id="2" precision="FP32" names="/mask_decoder/transformer/layers.1/cross_attn_token_to_image/k_proj/Add_output_0">
					<dim>1</dim>
					<dim>4096</dim>
					<dim>128</dim>
				</port>
			</output>
		</layer>
		<layer id="259" name="/mask_decoder/transformer/layers.1/cross_attn_token_to_image/Constant_1" type="Const" version="opset1">
			<data element_type="i64" shape="4" offset="9728300" size="32" />
			<output>
				<port id="0" precision="I64" names="/mask_decoder/transformer/layers.1/cross_attn_token_to_image/Constant_1_output_0">
					<dim>4</dim>
				</port>
			</output>
		</layer>
		<layer id="260" name="/mask_decoder/transformer/layers.1/cross_attn_token_to_image/Reshape_1" type="Reshape" version="opset1">
			<data special_zero="true" />
			<input>
				<port id="0" precision="FP32">
					<dim>1</dim>
					<dim>4096</dim>
					<dim>128</dim>
				</port>
				<port id="1" precision="I64">
					<dim>4</dim>
				</port>
			</input>
			<output>
				<port id="2" precision="FP32" names="/mask_decoder/transformer/layers.1/cross_attn_token_to_image/Reshape_1_output_0">
					<dim>1</dim>
					<dim>4096</dim>
					<dim>8</dim>
					<dim>16</dim>
				</port>
			</output>
		</layer>
		<layer id="261" name="Constant_16093" type="Const" version="opset1">
			<data element_type="i64" shape="4" offset="547992" size="32" />
			<output>
				<port id="0" precision="I64">
					<dim>4</dim>
				</port>
			</output>
		</layer>
		<layer id="262" name="/mask_decoder/transformer/layers.1/cross_attn_token_to_image/Transpose_2" type="Transpose" version="opset1">
			<input>
				<port id="0" precision="FP32">
					<dim>1</dim>
					<dim>4096</dim>
					<dim>8</dim>
					<dim>16</dim>
				</port>
				<port id="1" precision="I64">
					<dim>4</dim>
				</port>
			</input>
			<output>
				<port id="2" precision="FP32" names="/mask_decoder/transformer/layers.1/cross_attn_token_to_image/Transpose_2_output_0">
					<dim>1</dim>
					<dim>8</dim>
					<dim>16</dim>
					<dim>4096</dim>
				</port>
			</output>
		</layer>
		<layer id="263" name="Constant_19762" type="Const" version="opset1">
			<data element_type="f32" shape="1, 1, 1, 1" offset="9728332" size="4" />
			<output>
				<port id="0" precision="FP32">
					<dim>1</dim>
					<dim>1</dim>
					<dim>1</dim>
					<dim>1</dim>
				</port>
			</output>
		</layer>
		<layer id="264" name="Multiply_19618" type="Multiply" version="opset1">
			<data auto_broadcast="numpy" />
			<input>
				<port id="0" precision="FP32">
					<dim>1</dim>
					<dim>8</dim>
					<dim>16</dim>
					<dim>4096</dim>
				</port>
				<port id="1" precision="FP32">
					<dim>1</dim>
					<dim>1</dim>
					<dim>1</dim>
					<dim>1</dim>
				</port>
			</input>
			<output>
				<port id="2" precision="FP32">
					<dim>1</dim>
					<dim>8</dim>
					<dim>16</dim>
					<dim>4096</dim>
				</port>
			</output>
		</layer>
		<layer id="265" name="/mask_decoder/transformer/layers.1/cross_attn_token_to_image/Div" type="MatMul" version="opset1">
			<data transpose_a="false" transpose_b="false" />
			<input>
				<port id="0" precision="FP32">
					<dim>1</dim>
					<dim>8</dim>
					<dim>7</dim>
					<dim>16</dim>
				</port>
				<port id="1" precision="FP32">
					<dim>1</dim>
					<dim>8</dim>
					<dim>16</dim>
					<dim>4096</dim>
				</port>
			</input>
			<output>
				<port id="2" precision="FP32" names="/mask_decoder/transformer/layers.1/cross_attn_token_to_image/Div_output_0">
					<dim>1</dim>
					<dim>8</dim>
					<dim>7</dim>
					<dim>4096</dim>
				</port>
			</output>
		</layer>
		<layer id="266" name="/mask_decoder/transformer/layers.1/cross_attn_token_to_image/Softmax" type="SoftMax" version="opset8">
			<data axis="-1" />
			<input>
				<port id="0" precision="FP32">
					<dim>1</dim>
					<dim>8</dim>
					<dim>7</dim>
					<dim>4096</dim>
				</port>
			</input>
			<output>
				<port id="1" precision="FP32" names="/mask_decoder/transformer/layers.1/cross_attn_token_to_image/Softmax_output_0">
					<dim>1</dim>
					<dim>8</dim>
					<dim>7</dim>
					<dim>4096</dim>
				</port>
			</output>
		</layer>
		<layer id="267" name="Constant_19763" type="Const" version="opset1">
			<data element_type="f32" shape="1, 1, 128" offset="16046464" size="512" />
			<output>
				<port id="0" precision="FP32">
					<dim>1</dim>
					<dim>1</dim>
					<dim>128</dim>
				</port>
			</output>
		</layer>
		<layer id="268" name="Transpose_19444" type="Const" version="opset1">
			<data element_type="f32" shape="128, 256" offset="16046976" size="131072" />
			<output>
				<port id="0" precision="FP32">
					<dim>128</dim>
					<dim>256</dim>
				</port>
			</output>
		</layer>
		<layer id="269" name="/mask_decoder/transformer/layers.1/cross_attn_token_to_image/v_proj/MatMul" type="MatMul" version="opset1">
			<data transpose_a="false" transpose_b="true" />
			<input>
				<port id="0" precision="FP32">
					<dim>1</dim>
					<dim>4096</dim>
					<dim>256</dim>
				</port>
				<port id="1" precision="FP32">
					<dim>128</dim>
					<dim>256</dim>
				</port>
			</input>
			<output>
				<port id="2" precision="FP32" names="/mask_decoder/transformer/layers.1/cross_attn_token_to_image/v_proj/MatMul_output_0">
					<dim>1</dim>
					<dim>4096</dim>
					<dim>128</dim>
				</port>
			</output>
		</layer>
		<layer id="270" name="/mask_decoder/transformer/layers.1/cross_attn_token_to_image/v_proj/Add" type="Add" version="opset1">
			<data auto_broadcast="numpy" />
			<input>
				<port id="0" precision="FP32">
					<dim>1</dim>
					<dim>1</dim>
					<dim>128</dim>
				</port>
				<port id="1" precision="FP32">
					<dim>1</dim>
					<dim>4096</dim>
					<dim>128</dim>
				</port>
			</input>
			<output>
				<port id="2" precision="FP32" names="/mask_decoder/transformer/layers.1/cross_attn_token_to_image/v_proj/Add_output_0">
					<dim>1</dim>
					<dim>4096</dim>
					<dim>128</dim>
				</port>
			</output>
		</layer>
		<layer id="271" name="/mask_decoder/transformer/layers.1/cross_attn_token_to_image/Constant_2" type="Const" version="opset1">
			<data element_type="i64" shape="4" offset="9728300" size="32" />
			<output>
				<port id="0" precision="I64" names="/mask_decoder/transformer/layers.1/cross_attn_token_to_image/Constant_2_output_0">
					<dim>4</dim>
				</port>
			</output>
		</layer>
		<layer id="272" name="/mask_decoder/transformer/layers.1/cross_attn_token_to_image/Reshape_2" type="Reshape" version="opset1">
			<data special_zero="true" />
			<input>
				<port id="0" precision="FP32">
					<dim>1</dim>
					<dim>4096</dim>
					<dim>128</dim>
				</port>
				<port id="1" precision="I64">
					<dim>4</dim>
				</port>
			</input>
			<output>
				<port id="2" precision="FP32" names="/mask_decoder/transformer/layers.1/cross_attn_token_to_image/Reshape_2_output_0">
					<dim>1</dim>
					<dim>4096</dim>
					<dim>8</dim>
					<dim>16</dim>
				</port>
			</output>
		</layer>
		<layer id="273" name="Constant_16091" type="Const" version="opset1">
			<data element_type="i64" shape="4" offset="284792" size="32" />
			<output>
				<port id="0" precision="I64">
					<dim>4</dim>
				</port>
			</output>
		</layer>
		<layer id="274" name="/mask_decoder/transformer/layers.1/cross_attn_token_to_image/Transpose_1" type="Transpose" version="opset1">
			<input>
				<port id="0" precision="FP32">
					<dim>1</dim>
					<dim>4096</dim>
					<dim>8</dim>
					<dim>16</dim>
				</port>
				<port id="1" precision="I64">
					<dim>4</dim>
				</port>
			</input>
			<output>
				<port id="2" precision="FP32" names="/mask_decoder/transformer/layers.1/cross_attn_token_to_image/Transpose_1_output_0">
					<dim>1</dim>
					<dim>8</dim>
					<dim>4096</dim>
					<dim>16</dim>
				</port>
			</output>
		</layer>
		<layer id="275" name="/mask_decoder/transformer/layers.1/cross_attn_token_to_image/MatMul_1" type="MatMul" version="opset1">
			<data transpose_a="false" transpose_b="false" />
			<input>
				<port id="0" precision="FP32">
					<dim>1</dim>
					<dim>8</dim>
					<dim>7</dim>
					<dim>4096</dim>
				</port>
				<port id="1" precision="FP32">
					<dim>1</dim>
					<dim>8</dim>
					<dim>4096</dim>
					<dim>16</dim>
				</port>
			</input>
			<output>
				<port id="2" precision="FP32" names="/mask_decoder/transformer/layers.1/cross_attn_token_to_image/MatMul_1_output_0">
					<dim>1</dim>
					<dim>8</dim>
					<dim>7</dim>
					<dim>16</dim>
				</port>
			</output>
		</layer>
		<layer id="276" name="Constant_16100" type="Const" version="opset1">
			<data element_type="i64" shape="4" offset="284792" size="32" />
			<output>
				<port id="0" precision="I64">
					<dim>4</dim>
				</port>
			</output>
		</layer>
		<layer id="277" name="/mask_decoder/transformer/layers.1/cross_attn_token_to_image/Transpose_3" type="Transpose" version="opset1">
			<input>
				<port id="0" precision="FP32">
					<dim>1</dim>
					<dim>8</dim>
					<dim>7</dim>
					<dim>16</dim>
				</port>
				<port id="1" precision="I64">
					<dim>4</dim>
				</port>
			</input>
			<output>
				<port id="2" precision="FP32" names="/mask_decoder/transformer/layers.1/cross_attn_token_to_image/Transpose_3_output_0">
					<dim>1</dim>
					<dim>7</dim>
					<dim>8</dim>
					<dim>16</dim>
				</port>
			</output>
		</layer>
		<layer id="278" name="/mask_decoder/transformer/layers.1/cross_attn_token_to_image/Constant_4" type="Const" version="opset1">
			<data element_type="i64" shape="3" offset="9859920" size="24" />
			<output>
				<port id="0" precision="I64" names="/mask_decoder/transformer/layers.1/cross_attn_token_to_image/Constant_4_output_0">
					<dim>3</dim>
				</port>
			</output>
		</layer>
		<layer id="279" name="/mask_decoder/transformer/layers.1/cross_attn_token_to_image/Reshape_3" type="Reshape" version="opset1">
			<data special_zero="true" />
			<input>
				<port id="0" precision="FP32">
					<dim>1</dim>
					<dim>7</dim>
					<dim>8</dim>
					<dim>16</dim>
				</port>
				<port id="1" precision="I64">
					<dim>3</dim>
				</port>
			</input>
			<output>
				<port id="2" precision="FP32" names="/mask_decoder/transformer/layers.1/cross_attn_token_to_image/Reshape_3_output_0">
					<dim>1</dim>
					<dim>7</dim>
					<dim>128</dim>
				</port>
			</output>
		</layer>
		<layer id="280" name="Transpose_19453" type="Const" version="opset1">
			<data element_type="f32" shape="256, 128" offset="16178048" size="131072" />
			<output>
				<port id="0" precision="FP32">
					<dim>256</dim>
					<dim>128</dim>
				</port>
			</output>
		</layer>
		<layer id="281" name="/mask_decoder/transformer/layers.1/cross_attn_token_to_image/out_proj/MatMul" type="MatMul" version="opset1">
			<data transpose_a="false" transpose_b="true" />
			<input>
				<port id="0" precision="FP32">
					<dim>1</dim>
					<dim>7</dim>
					<dim>128</dim>
				</port>
				<port id="1" precision="FP32">
					<dim>256</dim>
					<dim>128</dim>
				</port>
			</input>
			<output>
				<port id="2" precision="FP32" names="/mask_decoder/transformer/layers.1/cross_attn_token_to_image/out_proj/MatMul_output_0">
					<dim>1</dim>
					<dim>7</dim>
					<dim>256</dim>
				</port>
			</output>
		</layer>
		<layer id="282" name="/mask_decoder/transformer/layers.1/cross_attn_token_to_image/out_proj/Add" type="Add" version="opset1">
			<data auto_broadcast="numpy" />
			<input>
				<port id="0" precision="FP32">
					<dim>1</dim>
					<dim>1</dim>
					<dim>256</dim>
				</port>
				<port id="1" precision="FP32">
					<dim>1</dim>
					<dim>7</dim>
					<dim>256</dim>
				</port>
			</input>
			<output>
				<port id="2" precision="FP32" names="/mask_decoder/transformer/layers.1/cross_attn_token_to_image/out_proj/Add_output_0">
					<dim>1</dim>
					<dim>7</dim>
					<dim>256</dim>
				</port>
			</output>
		</layer>
		<layer id="283" name="/mask_decoder/transformer/layers.1/Add_3" type="Add" version="opset1">
			<data auto_broadcast="numpy" />
			<input>
				<port id="0" precision="FP32">
					<dim>1</dim>
					<dim>7</dim>
					<dim>256</dim>
				</port>
				<port id="1" precision="FP32">
					<dim>1</dim>
					<dim>7</dim>
					<dim>256</dim>
				</port>
			</input>
			<output>
				<port id="2" precision="FP32" names="/mask_decoder/transformer/layers.1/Add_3_output_0">
					<dim>1</dim>
					<dim>7</dim>
					<dim>256</dim>
				</port>
			</output>
		</layer>
		<layer id="284" name="Range_16110" type="Const" version="opset1">
			<data element_type="i64" shape="1" offset="1073364" size="8" />
			<output>
				<port id="0" precision="I64">
					<dim>1</dim>
				</port>
			</output>
		</layer>
		<layer id="285" name="MVN_16111" type="MVN" version="opset6">
			<data eps="9.9999997473787516e-06" normalize_variance="true" eps_mode="INSIDE_SQRT" />
			<input>
				<port id="0" precision="FP32">
					<dim>1</dim>
					<dim>7</dim>
					<dim>256</dim>
				</port>
				<port id="1" precision="I64">
					<dim>1</dim>
				</port>
			</input>
			<output>
				<port id="2" precision="FP32">
					<dim>1</dim>
					<dim>7</dim>
					<dim>256</dim>
				</port>
			</output>
		</layer>
		<layer id="286" name="Constant_19765" type="Const" version="opset1">
			<data element_type="f32" shape="1, 1, 256" offset="16309120" size="1024" />
			<output>
				<port id="0" precision="FP32">
					<dim>1</dim>
					<dim>1</dim>
					<dim>256</dim>
				</port>
			</output>
		</layer>
		<layer id="287" name="Multiply_16112" type="Multiply" version="opset1">
			<data auto_broadcast="numpy" />
			<input>
				<port id="0" precision="FP32">
					<dim>1</dim>
					<dim>7</dim>
					<dim>256</dim>
				</port>
				<port id="1" precision="FP32">
					<dim>1</dim>
					<dim>1</dim>
					<dim>256</dim>
				</port>
			</input>
			<output>
				<port id="2" precision="FP32">
					<dim>1</dim>
					<dim>7</dim>
					<dim>256</dim>
				</port>
			</output>
		</layer>
		<layer id="288" name="Constant_19766" type="Const" version="opset1">
			<data element_type="f32" shape="1, 1, 256" offset="16310144" size="1024" />
			<output>
				<port id="0" precision="FP32">
					<dim>1</dim>
					<dim>1</dim>
					<dim>256</dim>
				</port>
			</output>
		</layer>
		<layer id="289" name="/mask_decoder/transformer/layers.1/norm2/LayerNormalization" type="Add" version="opset1">
			<data auto_broadcast="numpy" />
			<input>
				<port id="0" precision="FP32">
					<dim>1</dim>
					<dim>7</dim>
					<dim>256</dim>
				</port>
				<port id="1" precision="FP32">
					<dim>1</dim>
					<dim>1</dim>
					<dim>256</dim>
				</port>
			</input>
			<output>
				<port id="2" precision="FP32" names="/mask_decoder/transformer/layers.1/norm2/LayerNormalization_output_0">
					<dim>1</dim>
					<dim>7</dim>
					<dim>256</dim>
				</port>
			</output>
		</layer>
		<layer id="290" name="Constant_19768" type="Const" version="opset1">
			<data element_type="f32" shape="1, 1, 256" offset="16311168" size="1024" />
			<output>
				<port id="0" precision="FP32">
					<dim>1</dim>
					<dim>1</dim>
					<dim>256</dim>
				</port>
			</output>
		</layer>
		<layer id="291" name="Constant_19767" type="Const" version="opset1">
			<data element_type="f32" shape="1, 1, 2048" offset="16312192" size="8192" />
			<output>
				<port id="0" precision="FP32">
					<dim>1</dim>
					<dim>1</dim>
					<dim>2048</dim>
				</port>
			</output>
		</layer>
		<layer id="292" name="Transpose_19466" type="Const" version="opset1">
			<data element_type="f32" shape="2048, 256" offset="16320384" size="2097152" />
			<output>
				<port id="0" precision="FP32">
					<dim>2048</dim>
					<dim>256</dim>
				</port>
			</output>
		</layer>
		<layer id="293" name="/mask_decoder/transformer/layers.1/mlp/lin1/MatMul" type="MatMul" version="opset1">
			<data transpose_a="false" transpose_b="true" />
			<input>
				<port id="0" precision="FP32">
					<dim>1</dim>
					<dim>7</dim>
					<dim>256</dim>
				</port>
				<port id="1" precision="FP32">
					<dim>2048</dim>
					<dim>256</dim>
				</port>
			</input>
			<output>
				<port id="2" precision="FP32" names="/mask_decoder/transformer/layers.1/mlp/lin1/MatMul_output_0">
					<dim>1</dim>
					<dim>7</dim>
					<dim>2048</dim>
				</port>
			</output>
		</layer>
		<layer id="294" name="/mask_decoder/transformer/layers.1/mlp/lin1/Add" type="Add" version="opset1">
			<data auto_broadcast="numpy" />
			<input>
				<port id="0" precision="FP32">
					<dim>1</dim>
					<dim>1</dim>
					<dim>2048</dim>
				</port>
				<port id="1" precision="FP32">
					<dim>1</dim>
					<dim>7</dim>
					<dim>2048</dim>
				</port>
			</input>
			<output>
				<port id="2" precision="FP32" names="/mask_decoder/transformer/layers.1/mlp/lin1/Add_output_0">
					<dim>1</dim>
					<dim>7</dim>
					<dim>2048</dim>
				</port>
			</output>
		</layer>
		<layer id="295" name="/mask_decoder/transformer/layers.1/mlp/act/Relu" type="ReLU" version="opset1">
			<input>
				<port id="0" precision="FP32">
					<dim>1</dim>
					<dim>7</dim>
					<dim>2048</dim>
				</port>
			</input>
			<output>
				<port id="1" precision="FP32" names="/mask_decoder/transformer/layers.1/mlp/act/Relu_output_0">
					<dim>1</dim>
					<dim>7</dim>
					<dim>2048</dim>
				</port>
			</output>
		</layer>
		<layer id="296" name="Transpose_19473" type="Const" version="opset1">
			<data element_type="f32" shape="256, 2048" offset="18417536" size="2097152" />
			<output>
				<port id="0" precision="FP32">
					<dim>256</dim>
					<dim>2048</dim>
				</port>
			</output>
		</layer>
		<layer id="297" name="/mask_decoder/transformer/layers.1/mlp/lin2/MatMul" type="MatMul" version="opset1">
			<data transpose_a="false" transpose_b="true" />
			<input>
				<port id="0" precision="FP32">
					<dim>1</dim>
					<dim>7</dim>
					<dim>2048</dim>
				</port>
				<port id="1" precision="FP32">
					<dim>256</dim>
					<dim>2048</dim>
				</port>
			</input>
			<output>
				<port id="2" precision="FP32" names="/mask_decoder/transformer/layers.1/mlp/lin2/MatMul_output_0">
					<dim>1</dim>
					<dim>7</dim>
					<dim>256</dim>
				</port>
			</output>
		</layer>
		<layer id="298" name="/mask_decoder/transformer/layers.1/mlp/lin2/Add" type="Add" version="opset1">
			<data auto_broadcast="numpy" />
			<input>
				<port id="0" precision="FP32">
					<dim>1</dim>
					<dim>1</dim>
					<dim>256</dim>
				</port>
				<port id="1" precision="FP32">
					<dim>1</dim>
					<dim>7</dim>
					<dim>256</dim>
				</port>
			</input>
			<output>
				<port id="2" precision="FP32" names="/mask_decoder/transformer/layers.1/mlp/lin2/Add_output_0">
					<dim>1</dim>
					<dim>7</dim>
					<dim>256</dim>
				</port>
			</output>
		</layer>
		<layer id="299" name="/mask_decoder/transformer/layers.1/Add_4" type="Add" version="opset1">
			<data auto_broadcast="numpy" />
			<input>
				<port id="0" precision="FP32">
					<dim>1</dim>
					<dim>7</dim>
					<dim>256</dim>
				</port>
				<port id="1" precision="FP32">
					<dim>1</dim>
					<dim>7</dim>
					<dim>256</dim>
				</port>
			</input>
			<output>
				<port id="2" precision="FP32" names="/mask_decoder/transformer/layers.1/Add_4_output_0">
					<dim>1</dim>
					<dim>7</dim>
					<dim>256</dim>
				</port>
			</output>
		</layer>
		<layer id="300" name="Range_16123" type="Const" version="opset1">
			<data element_type="i64" shape="1" offset="1073364" size="8" />
			<output>
				<port id="0" precision="I64">
					<dim>1</dim>
				</port>
			</output>
		</layer>
		<layer id="301" name="MVN_16124" type="MVN" version="opset6">
			<data eps="9.9999997473787516e-06" normalize_variance="true" eps_mode="INSIDE_SQRT" />
			<input>
				<port id="0" precision="FP32">
					<dim>1</dim>
					<dim>7</dim>
					<dim>256</dim>
				</port>
				<port id="1" precision="I64">
					<dim>1</dim>
				</port>
			</input>
			<output>
				<port id="2" precision="FP32">
					<dim>1</dim>
					<dim>7</dim>
					<dim>256</dim>
				</port>
			</output>
		</layer>
		<layer id="302" name="Constant_19769" type="Const" version="opset1">
			<data element_type="f32" shape="1, 1, 256" offset="20514688" size="1024" />
			<output>
				<port id="0" precision="FP32">
					<dim>1</dim>
					<dim>1</dim>
					<dim>256</dim>
				</port>
			</output>
		</layer>
		<layer id="303" name="Multiply_16125" type="Multiply" version="opset1">
			<data auto_broadcast="numpy" />
			<input>
				<port id="0" precision="FP32">
					<dim>1</dim>
					<dim>7</dim>
					<dim>256</dim>
				</port>
				<port id="1" precision="FP32">
					<dim>1</dim>
					<dim>1</dim>
					<dim>256</dim>
				</port>
			</input>
			<output>
				<port id="2" precision="FP32">
					<dim>1</dim>
					<dim>7</dim>
					<dim>256</dim>
				</port>
			</output>
		</layer>
		<layer id="304" name="Constant_19770" type="Const" version="opset1">
			<data element_type="f32" shape="1, 1, 256" offset="20515712" size="1024" />
			<output>
				<port id="0" precision="FP32">
					<dim>1</dim>
					<dim>1</dim>
					<dim>256</dim>
				</port>
			</output>
		</layer>
		<layer id="305" name="/mask_decoder/transformer/layers.1/norm3/LayerNormalization" type="Add" version="opset1">
			<data auto_broadcast="numpy" />
			<input>
				<port id="0" precision="FP32">
					<dim>1</dim>
					<dim>7</dim>
					<dim>256</dim>
				</port>
				<port id="1" precision="FP32">
					<dim>1</dim>
					<dim>1</dim>
					<dim>256</dim>
				</port>
			</input>
			<output>
				<port id="2" precision="FP32" names="/mask_decoder/transformer/layers.1/norm3/LayerNormalization_output_0">
					<dim>1</dim>
					<dim>7</dim>
					<dim>256</dim>
				</port>
			</output>
		</layer>
		<layer id="306" name="Constant_19782" type="Const" version="opset1">
			<data element_type="f32" shape="1, 1, 256" offset="20516736" size="1024" />
			<output>
				<port id="0" precision="FP32">
					<dim>1</dim>
					<dim>1</dim>
					<dim>256</dim>
				</port>
			</output>
		</layer>
		<layer id="307" name="Constant_19771" type="Const" version="opset1">
			<data element_type="f32" shape="1, 1, 128" offset="20517760" size="512" />
			<output>
				<port id="0" precision="FP32">
					<dim>1</dim>
					<dim>1</dim>
					<dim>128</dim>
				</port>
			</output>
		</layer>
		<layer id="308" name="/mask_decoder/transformer/layers.1/Add_5" type="Add" version="opset1">
			<data auto_broadcast="numpy" />
			<input>
				<port id="0" precision="FP32">
					<dim>1</dim>
					<dim>7</dim>
					<dim>256</dim>
				</port>
				<port id="1" precision="FP32">
					<dim>1</dim>
					<dim>7</dim>
					<dim>256</dim>
				</port>
			</input>
			<output>
				<port id="2" precision="FP32" names="/mask_decoder/transformer/layers.1/Add_5_output_0">
					<dim>1</dim>
					<dim>7</dim>
					<dim>256</dim>
				</port>
			</output>
		</layer>
		<layer id="309" name="Transpose_19488" type="Const" version="opset1">
			<data element_type="f32" shape="128, 256" offset="20518272" size="131072" />
			<output>
				<port id="0" precision="FP32">
					<dim>128</dim>
					<dim>256</dim>
				</port>
			</output>
		</layer>
		<layer id="310" name="/mask_decoder/transformer/final_attn_token_to_image/q_proj/MatMul" type="MatMul" version="opset1">
			<data transpose_a="false" transpose_b="true" />
			<input>
				<port id="0" precision="FP32">
					<dim>1</dim>
					<dim>7</dim>
					<dim>256</dim>
				</port>
				<port id="1" precision="FP32">
					<dim>128</dim>
					<dim>256</dim>
				</port>
			</input>
			<output>
				<port id="2" precision="FP32" names="/mask_decoder/transformer/final_attn_token_to_image/q_proj/MatMul_output_0">
					<dim>1</dim>
					<dim>7</dim>
					<dim>128</dim>
				</port>
			</output>
		</layer>
		<layer id="311" name="/mask_decoder/transformer/final_attn_token_to_image/q_proj/Add" type="Add" version="opset1">
			<data auto_broadcast="numpy" />
			<input>
				<port id="0" precision="FP32">
					<dim>1</dim>
					<dim>1</dim>
					<dim>128</dim>
				</port>
				<port id="1" precision="FP32">
					<dim>1</dim>
					<dim>7</dim>
					<dim>128</dim>
				</port>
			</input>
			<output>
				<port id="2" precision="FP32" names="/mask_decoder/transformer/final_attn_token_to_image/q_proj/Add_output_0">
					<dim>1</dim>
					<dim>7</dim>
					<dim>128</dim>
				</port>
			</output>
		</layer>
		<layer id="312" name="/mask_decoder/transformer/final_attn_token_to_image/Constant" type="Const" version="opset1">
			<data element_type="i64" shape="4" offset="1208028" size="32" />
			<output>
				<port id="0" precision="I64" names="/mask_decoder/transformer/final_attn_token_to_image/Constant_output_0">
					<dim>4</dim>
				</port>
			</output>
		</layer>
		<layer id="313" name="/mask_decoder/transformer/final_attn_token_to_image/Reshape" type="Reshape" version="opset1">
			<data special_zero="true" />
			<input>
				<port id="0" precision="FP32">
					<dim>1</dim>
					<dim>7</dim>
					<dim>128</dim>
				</port>
				<port id="1" precision="I64">
					<dim>4</dim>
				</port>
			</input>
			<output>
				<port id="2" precision="FP32" names="/mask_decoder/transformer/final_attn_token_to_image/Reshape_output_0">
					<dim>1</dim>
					<dim>7</dim>
					<dim>8</dim>
					<dim>16</dim>
				</port>
			</output>
		</layer>
		<layer id="314" name="Constant_16174" type="Const" version="opset1">
			<data element_type="i64" shape="4" offset="284792" size="32" />
			<output>
				<port id="0" precision="I64">
					<dim>4</dim>
				</port>
			</output>
		</layer>
		<layer id="315" name="/mask_decoder/transformer/final_attn_token_to_image/Transpose" type="Transpose" version="opset1">
			<input>
				<port id="0" precision="FP32">
					<dim>1</dim>
					<dim>7</dim>
					<dim>8</dim>
					<dim>16</dim>
				</port>
				<port id="1" precision="I64">
					<dim>4</dim>
				</port>
			</input>
			<output>
				<port id="2" precision="FP32" names="/mask_decoder/transformer/final_attn_token_to_image/Transpose_output_0">
					<dim>1</dim>
					<dim>8</dim>
					<dim>7</dim>
					<dim>16</dim>
				</port>
			</output>
		</layer>
		<layer id="316" name="Constant_19779" type="Const" version="opset1">
			<data element_type="f32" shape="1, 1, 128" offset="20649344" size="512" />
			<output>
				<port id="0" precision="FP32">
					<dim>1</dim>
					<dim>1</dim>
					<dim>128</dim>
				</port>
			</output>
		</layer>
		<layer id="317" name="Constant_19776" type="Const" version="opset1">
			<data element_type="f32" shape="1, 1, 256" offset="20649856" size="1024" />
			<output>
				<port id="0" precision="FP32">
					<dim>1</dim>
					<dim>1</dim>
					<dim>256</dim>
				</port>
			</output>
		</layer>
		<layer id="318" name="Constant_19772" type="Const" version="opset1">
			<data element_type="f32" shape="1, 1, 128" offset="20650880" size="512" />
			<output>
				<port id="0" precision="FP32">
					<dim>1</dim>
					<dim>1</dim>
					<dim>128</dim>
				</port>
			</output>
		</layer>
		<layer id="319" name="Transpose_19495" type="Const" version="opset1">
			<data element_type="f32" shape="128, 256" offset="20651392" size="131072" />
			<output>
				<port id="0" precision="FP32">
					<dim>128</dim>
					<dim>256</dim>
				</port>
			</output>
		</layer>
		<layer id="320" name="/mask_decoder/transformer/layers.1/cross_attn_image_to_token/q_proj/MatMul" type="MatMul" version="opset1">
			<data transpose_a="false" transpose_b="true" />
			<input>
				<port id="0" precision="FP32">
					<dim>1</dim>
					<dim>4096</dim>
					<dim>256</dim>
				</port>
				<port id="1" precision="FP32">
					<dim>128</dim>
					<dim>256</dim>
				</port>
			</input>
			<output>
				<port id="2" precision="FP32" names="/mask_decoder/transformer/layers.1/cross_attn_image_to_token/q_proj/MatMul_output_0">
					<dim>1</dim>
					<dim>4096</dim>
					<dim>128</dim>
				</port>
			</output>
		</layer>
		<layer id="321" name="/mask_decoder/transformer/layers.1/cross_attn_image_to_token/q_proj/Add" type="Add" version="opset1">
			<data auto_broadcast="numpy" />
			<input>
				<port id="0" precision="FP32">
					<dim>1</dim>
					<dim>1</dim>
					<dim>128</dim>
				</port>
				<port id="1" precision="FP32">
					<dim>1</dim>
					<dim>4096</dim>
					<dim>128</dim>
				</port>
			</input>
			<output>
				<port id="2" precision="FP32" names="/mask_decoder/transformer/layers.1/cross_attn_image_to_token/q_proj/Add_output_0">
					<dim>1</dim>
					<dim>4096</dim>
					<dim>128</dim>
				</port>
			</output>
		</layer>
		<layer id="322" name="/mask_decoder/transformer/layers.1/cross_attn_image_to_token/Constant" type="Const" version="opset1">
			<data element_type="i64" shape="4" offset="9728300" size="32" />
			<output>
				<port id="0" precision="I64" names="/mask_decoder/transformer/layers.1/cross_attn_image_to_token/Constant_output_0">
					<dim>4</dim>
				</port>
			</output>
		</layer>
		<layer id="323" name="/mask_decoder/transformer/layers.1/cross_attn_image_to_token/Reshape" type="Reshape" version="opset1">
			<data special_zero="true" />
			<input>
				<port id="0" precision="FP32">
					<dim>1</dim>
					<dim>4096</dim>
					<dim>128</dim>
				</port>
				<port id="1" precision="I64">
					<dim>4</dim>
				</port>
			</input>
			<output>
				<port id="2" precision="FP32" names="/mask_decoder/transformer/layers.1/cross_attn_image_to_token/Reshape_output_0">
					<dim>1</dim>
					<dim>4096</dim>
					<dim>8</dim>
					<dim>16</dim>
				</port>
			</output>
		</layer>
		<layer id="324" name="Constant_16136" type="Const" version="opset1">
			<data element_type="i64" shape="4" offset="284792" size="32" />
			<output>
				<port id="0" precision="I64">
					<dim>4</dim>
				</port>
			</output>
		</layer>
		<layer id="325" name="/mask_decoder/transformer/layers.1/cross_attn_image_to_token/Transpose" type="Transpose" version="opset1">
			<input>
				<port id="0" precision="FP32">
					<dim>1</dim>
					<dim>4096</dim>
					<dim>8</dim>
					<dim>16</dim>
				</port>
				<port id="1" precision="I64">
					<dim>4</dim>
				</port>
			</input>
			<output>
				<port id="2" precision="FP32" names="/mask_decoder/transformer/layers.1/cross_attn_image_to_token/Transpose_output_0">
					<dim>1</dim>
					<dim>8</dim>
					<dim>4096</dim>
					<dim>16</dim>
				</port>
			</output>
		</layer>
		<layer id="326" name="Constant_19773" type="Const" version="opset1">
			<data element_type="f32" shape="1, 1, 128" offset="20782464" size="512" />
			<output>
				<port id="0" precision="FP32">
					<dim>1</dim>
					<dim>1</dim>
					<dim>128</dim>
				</port>
			</output>
		</layer>
		<layer id="327" name="Transpose_19502" type="Const" version="opset1">
			<data element_type="f32" shape="128, 256" offset="20782976" size="131072" />
			<output>
				<port id="0" precision="FP32">
					<dim>128</dim>
					<dim>256</dim>
				</port>
			</output>
		</layer>
		<layer id="328" name="/mask_decoder/transformer/layers.1/cross_attn_image_to_token/k_proj/MatMul" type="MatMul" version="opset1">
			<data transpose_a="false" transpose_b="true" />
			<input>
				<port id="0" precision="FP32">
					<dim>1</dim>
					<dim>7</dim>
					<dim>256</dim>
				</port>
				<port id="1" precision="FP32">
					<dim>128</dim>
					<dim>256</dim>
				</port>
			</input>
			<output>
				<port id="2" precision="FP32" names="/mask_decoder/transformer/layers.1/cross_attn_image_to_token/k_proj/MatMul_output_0">
					<dim>1</dim>
					<dim>7</dim>
					<dim>128</dim>
				</port>
			</output>
		</layer>
		<layer id="329" name="/mask_decoder/transformer/layers.1/cross_attn_image_to_token/k_proj/Add" type="Add" version="opset1">
			<data auto_broadcast="numpy" />
			<input>
				<port id="0" precision="FP32">
					<dim>1</dim>
					<dim>1</dim>
					<dim>128</dim>
				</port>
				<port id="1" precision="FP32">
					<dim>1</dim>
					<dim>7</dim>
					<dim>128</dim>
				</port>
			</input>
			<output>
				<port id="2" precision="FP32" names="/mask_decoder/transformer/layers.1/cross_attn_image_to_token/k_proj/Add_output_0">
					<dim>1</dim>
					<dim>7</dim>
					<dim>128</dim>
				</port>
			</output>
		</layer>
		<layer id="330" name="/mask_decoder/transformer/layers.1/cross_attn_image_to_token/Constant_1" type="Const" version="opset1">
			<data element_type="i64" shape="4" offset="1208028" size="32" />
			<output>
				<port id="0" precision="I64" names="/mask_decoder/transformer/layers.1/cross_attn_image_to_token/Constant_1_output_0">
					<dim>4</dim>
				</port>
			</output>
		</layer>
		<layer id="331" name="/mask_decoder/transformer/layers.1/cross_attn_image_to_token/Reshape_1" type="Reshape" version="opset1">
			<data special_zero="true" />
			<input>
				<port id="0" precision="FP32">
					<dim>1</dim>
					<dim>7</dim>
					<dim>128</dim>
				</port>
				<port id="1" precision="I64">
					<dim>4</dim>
				</port>
			</input>
			<output>
				<port id="2" precision="FP32" names="/mask_decoder/transformer/layers.1/cross_attn_image_to_token/Reshape_1_output_0">
					<dim>1</dim>
					<dim>7</dim>
					<dim>8</dim>
					<dim>16</dim>
				</port>
			</output>
		</layer>
		<layer id="332" name="Constant_16144" type="Const" version="opset1">
			<data element_type="i64" shape="4" offset="547992" size="32" />
			<output>
				<port id="0" precision="I64">
					<dim>4</dim>
				</port>
			</output>
		</layer>
		<layer id="333" name="/mask_decoder/transformer/layers.1/cross_attn_image_to_token/Transpose_2" type="Transpose" version="opset1">
			<input>
				<port id="0" precision="FP32">
					<dim>1</dim>
					<dim>7</dim>
					<dim>8</dim>
					<dim>16</dim>
				</port>
				<port id="1" precision="I64">
					<dim>4</dim>
				</port>
			</input>
			<output>
				<port id="2" precision="FP32" names="/mask_decoder/transformer/layers.1/cross_attn_image_to_token/Transpose_2_output_0">
					<dim>1</dim>
					<dim>8</dim>
					<dim>16</dim>
					<dim>7</dim>
				</port>
			</output>
		</layer>
		<layer id="334" name="Constant_19774" type="Const" version="opset1">
			<data element_type="f32" shape="1, 1, 1, 1" offset="9728332" size="4" />
			<output>
				<port id="0" precision="FP32">
					<dim>1</dim>
					<dim>1</dim>
					<dim>1</dim>
					<dim>1</dim>
				</port>
			</output>
		</layer>
		<layer id="335" name="Multiply_19620" type="Multiply" version="opset1">
			<data auto_broadcast="numpy" />
			<input>
				<port id="0" precision="FP32">
					<dim>1</dim>
					<dim>8</dim>
					<dim>16</dim>
					<dim>7</dim>
				</port>
				<port id="1" precision="FP32">
					<dim>1</dim>
					<dim>1</dim>
					<dim>1</dim>
					<dim>1</dim>
				</port>
			</input>
			<output>
				<port id="2" precision="FP32">
					<dim>1</dim>
					<dim>8</dim>
					<dim>16</dim>
					<dim>7</dim>
				</port>
			</output>
		</layer>
		<layer id="336" name="/mask_decoder/transformer/layers.1/cross_attn_image_to_token/Div" type="MatMul" version="opset1">
			<data transpose_a="false" transpose_b="false" />
			<input>
				<port id="0" precision="FP32">
					<dim>1</dim>
					<dim>8</dim>
					<dim>4096</dim>
					<dim>16</dim>
				</port>
				<port id="1" precision="FP32">
					<dim>1</dim>
					<dim>8</dim>
					<dim>16</dim>
					<dim>7</dim>
				</port>
			</input>
			<output>
				<port id="2" precision="FP32" names="/mask_decoder/transformer/layers.1/cross_attn_image_to_token/Div_output_0">
					<dim>1</dim>
					<dim>8</dim>
					<dim>4096</dim>
					<dim>7</dim>
				</port>
			</output>
		</layer>
		<layer id="337" name="/mask_decoder/transformer/layers.1/cross_attn_image_to_token/Softmax" type="SoftMax" version="opset8">
			<data axis="-1" />
			<input>
				<port id="0" precision="FP32">
					<dim>1</dim>
					<dim>8</dim>
					<dim>4096</dim>
					<dim>7</dim>
				</port>
			</input>
			<output>
				<port id="1" precision="FP32" names="/mask_decoder/transformer/layers.1/cross_attn_image_to_token/Softmax_output_0">
					<dim>1</dim>
					<dim>8</dim>
					<dim>4096</dim>
					<dim>7</dim>
				</port>
			</output>
		</layer>
		<layer id="338" name="Constant_19775" type="Const" version="opset1">
			<data element_type="f32" shape="1, 1, 128" offset="20914048" size="512" />
			<output>
				<port id="0" precision="FP32">
					<dim>1</dim>
					<dim>1</dim>
					<dim>128</dim>
				</port>
			</output>
		</layer>
		<layer id="339" name="Transpose_19511" type="Const" version="opset1">
			<data element_type="f32" shape="128, 256" offset="20914560" size="131072" />
			<output>
				<port id="0" precision="FP32">
					<dim>128</dim>
					<dim>256</dim>
				</port>
			</output>
		</layer>
		<layer id="340" name="/mask_decoder/transformer/layers.1/cross_attn_image_to_token/v_proj/MatMul" type="MatMul" version="opset1">
			<data transpose_a="false" transpose_b="true" />
			<input>
				<port id="0" precision="FP32">
					<dim>1</dim>
					<dim>7</dim>
					<dim>256</dim>
				</port>
				<port id="1" precision="FP32">
					<dim>128</dim>
					<dim>256</dim>
				</port>
			</input>
			<output>
				<port id="2" precision="FP32" names="/mask_decoder/transformer/layers.1/cross_attn_image_to_token/v_proj/MatMul_output_0">
					<dim>1</dim>
					<dim>7</dim>
					<dim>128</dim>
				</port>
			</output>
		</layer>
		<layer id="341" name="/mask_decoder/transformer/layers.1/cross_attn_image_to_token/v_proj/Add" type="Add" version="opset1">
			<data auto_broadcast="numpy" />
			<input>
				<port id="0" precision="FP32">
					<dim>1</dim>
					<dim>1</dim>
					<dim>128</dim>
				</port>
				<port id="1" precision="FP32">
					<dim>1</dim>
					<dim>7</dim>
					<dim>128</dim>
				</port>
			</input>
			<output>
				<port id="2" precision="FP32" names="/mask_decoder/transformer/layers.1/cross_attn_image_to_token/v_proj/Add_output_0">
					<dim>1</dim>
					<dim>7</dim>
					<dim>128</dim>
				</port>
			</output>
		</layer>
		<layer id="342" name="/mask_decoder/transformer/layers.1/cross_attn_image_to_token/Constant_2" type="Const" version="opset1">
			<data element_type="i64" shape="4" offset="1208028" size="32" />
			<output>
…
				<port id="2" precision="FP32" names="/mask_decoder/output_upscaling/output_upscaling.1/Mul_output_0">
					<dim>1</dim>
					<dim>64</dim>
					<dim>128</dim>
					<dim>128</dim>
				</port>
			</output>
		</layer>
		<layer id="488" name="Constant_19798" type="Const" version="opset1">
			<data element_type="f32" shape="1, 64, 1, 1" offset="24074168" size="256" />
			<output>
				<port id="0" precision="FP32">
					<dim>1</dim>
					<dim>64</dim>
					<dim>1</dim>
					<dim>1</dim>
				</port>
			</output>
		</layer>
		<layer id="489" name="/mask_decoder/output_upscaling/output_upscaling.1/Add_1" type="Add" version="opset1">
			<data auto_broadcast="numpy" />
			<input>
				<port id="0" precision="FP32">
					<dim>1</dim>
					<dim>64</dim>
					<dim>128</dim>
					<dim>128</dim>
				</port>
				<port id="1" precision="FP32">
					<dim>1</dim>
					<dim>64</dim>
					<dim>1</dim>
					<dim>1</dim>
				</port>
			</input>
			<output>
				<port id="2" precision="FP32" names="/mask_decoder/output_upscaling/output_upscaling.1/Add_1_output_0">
					<dim>1</dim>
					<dim>64</dim>
					<dim>128</dim>
					<dim>128</dim>
				</port>
			</output>
		</layer>
		<layer id="490" name="/mask_decoder/output_upscaling/output_upscaling.2/Mul_1" type="Gelu" version="opset7">
			<data approximation_mode="ERF" />
			<input>
				<port id="0" precision="FP32">
					<dim>1</dim>
					<dim>64</dim>
					<dim>128</dim>
					<dim>128</dim>
				</port>
			</input>
			<output>
				<port id="1" precision="FP32" names="/mask_decoder/output_upscaling/output_upscaling.2/Mul_1_output_0">
					<dim>1</dim>
					<dim>64</dim>
					<dim>128</dim>
					<dim>128</dim>
				</port>
			</output>
		</layer>
		<layer id="491" name="mask_decoder.output_upscaling.3.weight" type="Const" version="opset1">
			<data element_type="f32" shape="64, 32, 2, 2" offset="24074424" size="32768" />
			<output>
				<port id="0" precision="FP32" names="mask_decoder.output_upscaling.3.weight">
					<dim>64</dim>
					<dim>32</dim>
					<dim>2</dim>
					<dim>2</dim>
				</port>
			</output>
		</layer>
		<layer id="492" name="ConvolutionBackpropData_16237" type="ConvolutionBackpropData" version="opset1">
			<data strides="2, 2" dilations="1, 1" pads_begin="0, 0" pads_end="0, 0" auto_pad="explicit" output_padding="0, 0" />
			<input>
				<port id="0" precision="FP32">
					<dim>1</dim>
					<dim>64</dim>
					<dim>128</dim>
					<dim>128</dim>
				</port>
				<port id="1" precision="FP32">
					<dim>64</dim>
					<dim>32</dim>
					<dim>2</dim>
					<dim>2</dim>
				</port>
			</input>
			<output>
				<port id="2" precision="FP32">
					<dim>1</dim>
					<dim>32</dim>
					<dim>256</dim>
					<dim>256</dim>
				</port>
			</output>
		</layer>
		<layer id="493" name="Reshape_16239" type="Const" version="opset1">
			<data element_type="f32" shape="1, 32, 1, 1" offset="24107192" size="128" />
			<output>
				<port id="0" precision="FP32">
					<dim>1</dim>
					<dim>32</dim>
					<dim>1</dim>
					<dim>1</dim>
				</port>
			</output>
		</layer>
		<layer id="494" name="/mask_decoder/output_upscaling/output_upscaling.3/ConvTranspose" type="Add" version="opset1">
			<data auto_broadcast="numpy" />
			<input>
				<port id="0" precision="FP32">
					<dim>1</dim>
					<dim>32</dim>
					<dim>256</dim>
					<dim>256</dim>
				</port>
				<port id="1" precision="FP32">
					<dim>1</dim>
					<dim>32</dim>
					<dim>1</dim>
					<dim>1</dim>
				</port>
			</input>
			<output>
				<port id="2" precision="FP32" names="/mask_decoder/output_upscaling/output_upscaling.3/ConvTranspose_output_0">
					<dim>1</dim>
					<dim>32</dim>
					<dim>256</dim>
					<dim>256</dim>
				</port>
			</output>
		</layer>
		<layer id="495" name="/mask_decoder/output_upscaling/output_upscaling.4/Mul_1" type="Gelu" version="opset7">
			<data approximation_mode="ERF" />
			<input>
				<port id="0" precision="FP32">
					<dim>1</dim>
					<dim>32</dim>
					<dim>256</dim>
					<dim>256</dim>
				</port>
			</input>
			<output>
				<port id="1" precision="FP32" names="/mask_decoder/output_upscaling/output_upscaling.4/Mul_1_output_0">
					<dim>1</dim>
					<dim>32</dim>
					<dim>256</dim>
					<dim>256</dim>
				</port>
			</output>
		</layer>
		<layer id="496" name="/mask_decoder/Constant_23" type="Const" version="opset1">
			<data element_type="i64" shape="3" offset="24107320" size="24" />
			<output>
				<port id="0" precision="I64" names="/mask_decoder/Constant_23_output_0">
					<dim>3</dim>
				</port>
			</output>
		</layer>
		<layer id="497" name="/mask_decoder/Reshape_2" type="Reshape" version="opset1">
			<data special_zero="true" />
			<input>
				<port id="0" precision="FP32">
					<dim>1</dim>
					<dim>32</dim>
					<dim>256</dim>
					<dim>256</dim>
				</port>
				<port id="1" precision="I64">
					<dim>3</dim>
				</port>
			</input>
			<output>
				<port id="2" precision="FP32" names="/mask_decoder/Reshape_2_output_0">
					<dim>1</dim>
					<dim>32</dim>
					<dim>65536</dim>
				</port>
			</output>
		</layer>
		<layer id="498" name="/mask_decoder/MatMul" type="MatMul" version="opset1">
			<data transpose_a="false" transpose_b="false" />
			<input>
				<port id="0" precision="FP32">
					<dim>1</dim>
					<dim>4</dim>
					<dim>32</dim>
				</port>
				<port id="1" precision="FP32">
					<dim>1</dim>
					<dim>32</dim>
					<dim>65536</dim>
				</port>
			</input>
			<output>
				<port id="2" precision="FP32" names="/mask_decoder/MatMul_output_0">
					<dim>1</dim>
					<dim>4</dim>
					<dim>65536</dim>
				</port>
			</output>
		</layer>
		<layer id="499" name="/mask_decoder/Constant_24" type="Const" version="opset1">
			<data element_type="i64" shape="4" offset="24107344" size="32" />
			<output>
				<port id="0" precision="I64" names="/mask_decoder/Constant_24_output_0">
					<dim>4</dim>
				</port>
			</output>
		</layer>
		<layer id="500" name="/mask_decoder/Reshape_3" type="Reshape" version="opset1">
			<data special_zero="true" />
			<input>
				<port id="0" precision="FP32">
					<dim>1</dim>
					<dim>4</dim>
					<dim>65536</dim>
				</port>
				<port id="1" precision="I64">
					<dim>4</dim>
				</port>
			</input>
			<output>
				<port id="2" precision="FP32" names="/mask_decoder/Reshape_3_output_0">
					<dim>1</dim>
					<dim>4</dim>
					<dim>256</dim>
					<dim>256</dim>
				</port>
			</output>
		</layer>
		<layer id="501" name="/mask_decoder/Constant_26" type="Const" version="opset1">
			<data element_type="i64" shape="1" offset="14368" size="8" />
			<output>
				<port id="0" precision="I64" names="/mask_decoder/Constant_26_output_0">
					<dim>1</dim>
				</port>
			</output>
		</layer>
		<layer id="502" name="/mask_decoder/Constant_27" type="Const" version="opset1">
			<data element_type="i64" shape="1" offset="14376" size="8" />
			<output>
				<port id="0" precision="I64" names="/mask_decoder/Constant_27_output_0">
					<dim>1</dim>
				</port>
			</output>
		</layer>
		<layer id="503" name="/mask_decoder/Constant_28" type="Const" version="opset1">
			<data element_type="i64" shape="1" offset="14376" size="8" />
			<output>
				<port id="0" precision="I64" names="/mask_decoder/Constant_28_output_0">
					<dim>1</dim>
				</port>
			</output>
		</layer>
		<layer id="504" name="/mask_decoder/Constant_25" type="Const" version="opset1">
			<data element_type="i64" shape="1" offset="14376" size="8" />
			<output>
				<port id="0" precision="I64" names="/mask_decoder/Constant_25_output_0">
					<dim>1</dim>
				</port>
			</output>
		</layer>
		<layer id="505" name="/mask_decoder/Slice_3" type="Slice" version="opset8">
			<input>
				<port id="0" precision="FP32">
					<dim>1</dim>
					<dim>4</dim>
					<dim>256</dim>
					<dim>256</dim>
				</port>
				<port id="1" precision="I64">
					<dim>1</dim>
				</port>
				<port id="2" precision="I64">
					<dim>1</dim>
				</port>
				<port id="3" precision="I64">
					<dim>1</dim>
				</port>
				<port id="4" precision="I64">
					<dim>1</dim>
				</port>
			</input>
			<output>
				<port id="5" precision="FP32" names="/mask_decoder/Slice_3_output_0">
					<dim>1</dim>
					<dim>1</dim>
					<dim>256</dim>
					<dim>256</dim>
				</port>
			</output>
		</layer>
		<layer id="506" name="/Shape_8" type="ShapeOf" version="opset3">
			<data output_type="i64" />
			<input>
				<port id="0" precision="FP32">
					<dim>1</dim>
					<dim>1</dim>
					<dim>256</dim>
					<dim>256</dim>
				</port>
			</input>
			<output>
				<port id="1" precision="I64" names="/Shape_8_output_0">
					<dim>4</dim>
				</port>
			</output>
		</layer>
		<layer id="507" name="/Constant_64" type="Const" version="opset1">
			<data element_type="i64" shape="1" offset="14368" size="8" />
			<output>
				<port id="0" precision="I64" names="/Constant_64_output_0">
					<dim>1</dim>
				</port>
			</output>
		</layer>
		<layer id="508" name="/Constant_65" type="Const" version="opset1">
			<data element_type="i64" shape="1" offset="22693000" size="8" />
			<output>
				<port id="0" precision="I64" names="/Constant_65_output_0">
					<dim>1</dim>
				</port>
			</output>
		</layer>
		<layer id="509" name="Broadcast_16362" type="Const" version="opset1">
			<data element_type="i64" shape="1" offset="14376" size="8" />
			<output>
				<port id="0" precision="I64">
					<dim>1</dim>
				</port>
			</output>
		</layer>
		<layer id="510" name="/Constant_63" type="Const" version="opset1">
			<data element_type="i64" shape="1" offset="14368" size="8" />
			<output>
				<port id="0" precision="I64" names="/Constant_63_output_0">
					<dim>1</dim>
				</port>
			</output>
		</layer>
		<layer id="511" name="/Slice_4" type="Slice" version="opset8">
			<input>
				<port id="0" precision="I64">
					<dim>4</dim>
				</port>
				<port id="1" precision="I64">
					<dim>1</dim>
				</port>
				<port id="2" precision="I64">
					<dim>1</dim>
				</port>
				<port id="3" precision="I64">
					<dim>1</dim>
				</port>
				<port id="4" precision="I64">
					<dim>1</dim>
				</port>
			</input>
			<output>
				<port id="5" precision="I64" names="/Slice_4_output_0">
					<dim>2</dim>
				</port>
			</output>
		</layer>
		<layer id="512" name="/Constant_66" type="Const" version="opset1">
			<data element_type="i64" shape="2" offset="24107376" size="16" />
			<output>
				<port id="0" precision="I64" names="/Constant_66_output_0">
					<dim>2</dim>
				</port>
			</output>
		</layer>
		<layer id="513" name="/Concat_9" type="Concat" version="opset1">
			<data axis="0" />
			<input>
				<port id="0" precision="I64">
					<dim>2</dim>
				</port>
				<port id="1" precision="I64">
					<dim>2</dim>
				</port>
			</input>
			<output>
				<port id="2" precision="I64" names="/Concat_9_output_0">
					<dim>4</dim>
				</port>
			</output>
		</layer>
		<layer id="514" name="masks" type="Interpolate" version="opset11">
			<data mode="linear_onnx" shape_calculation_mode="sizes" coordinate_transformation_mode="half_pixel" nearest_mode="floor" antialias="false" pads_begin="0, 0, 0, 0" pads_end="0, 0, 0, 0" cube_coeff="-0.75" />
			<input>
				<port id="0" precision="FP32">
					<dim>1</dim>
					<dim>1</dim>
					<dim>256</dim>
					<dim>256</dim>
				</port>
				<port id="1" precision="I64">
					<dim>4</dim>
				</port>
			</input>
			<output>
				<port id="2" precision="FP32" names="masks">
					<dim>1</dim>
					<dim>1</dim>
					<dim>256</dim>
					<dim>256</dim>
				</port>
			</output>
		</layer>
		<layer id="515" name="masks/sink_port_0" type="Result" version="opset1" output_names="masks">
			<input>
				<port id="0" precision="FP32">
					<dim>1</dim>
					<dim>1</dim>
					<dim>256</dim>
					<dim>256</dim>
				</port>
			</input>
		</layer>
	</layers>
	<edges>
		<edge from-layer="0" from-port="0" to-layer="6" to-port="0" />
		<edge from-layer="1" from-port="0" to-layer="98" to-port="0" />
		<edge from-layer="2" from-port="0" to-layer="79" to-port="0" />
		<edge from-layer="3" from-port="0" to-layer="47" to-port="0" />
		<edge from-layer="4" from-port="0" to-layer="44" to-port="0" />
		<edge from-layer="5" from-port="0" to-layer="6" to-port="1" />
		<edge from-layer="6" from-port="2" to-layer="8" to-port="0" />
		<edge from-layer="7" from-port="0" to-layer="8" to-port="1" />
		<edge from-layer="8" from-port="2" to-layer="10" to-port="0" />
		<edge from-layer="9" from-port="0" to-layer="10" to-port="1" />
		<edge from-layer="10" from-port="2" to-layer="12" to-port="0" />
		<edge from-layer="11" from-port="0" to-layer="12" to-port="1" />
		<edge from-layer="12" from-port="2" to-layer="13" to-port="0" />
		<edge from-layer="12" from-port="2" to-layer="14" to-port="0" />
		<edge from-layer="13" from-port="1" to-layer="15" to-port="0" />
		<edge from-layer="14" from-port="1" to-layer="15" to-port="1" />
		<edge from-layer="15" from-port="2" to-layer="19" to-port="0" />
		<edge from-layer="15" from-port="2" to-layer="22" to-port="0" />
		<edge from-layer="15" from-port="2" to-layer="29" to-port="0" />
		<edge from-layer="16" from-port="0" to-layer="29" to-port="1" />
		<edge from-layer="17" from-port="0" to-layer="19" to-port="1" />
		<edge from-layer="17" from-port="0" to-layer="402" to-port="1" />
		<edge from-layer="18" from-port="0" to-layer="19" to-port="2" />
		<edge from-layer="19" from-port="3" to-layer="21" to-port="0" />
		<edge from-layer="20" from-port="0" to-layer="21" to-port="1" />
		<edge from-layer="21" from-port="2" to-layer="26" to-port="0" />
		<edge from-layer="22" from-port="1" to-layer="25" to-port="0" />
		<edge from-layer="23" from-port="0" to-layer="25" to-port="1" />
		<edge from-layer="24" from-port="0" to-layer="25" to-port="2" />
		<edge from-layer="25" from-port="3" to-layer="26" to-port="1" />
		<edge from-layer="25" from-port="3" to-layer="38" to-port="1" />
		<edge from-layer="26" from-port="2" to-layer="28" to-port="0" />
		<edge from-layer="27" from-port="0" to-layer="28" to-port="1" />
		<edge from-layer="28" from-port="2" to-layer="29" to-port="2" />
		<edge from-layer="28" from-port="2" to-layer="31" to-port="2" />
		<edge from-layer="29" from-port="3" to-layer="31" to-port="0" />
		<edge from-layer="30" from-port="0" to-layer="31" to-port="1" />
		<edge from-layer="31" from-port="3" to-layer="41" to-port="0" />
		<edge from-layer="31" from-port="3" to-layer="35" to-port="0" />
		<edge from-layer="32" from-port="0" to-layer="41" to-port="1" />
		<edge from-layer="33" from-port="0" to-layer="420" to-port="1" />
		<edge from-layer="33" from-port="0" to-layer="35" to-port="1" />
		<edge from-layer="34" from-port="0" to-layer="35" to-port="2" />
		<edge from-layer="35" from-port="3" to-layer="37" to-port="0" />
		<edge from-layer="36" from-port="0" to-layer="37" to-port="1" />
		<edge from-layer="37" from-port="2" to-layer="38" to-port="0" />
		<edge from-layer="38" from-port="2" to-layer="40" to-port="0" />
		<edge from-layer="39" from-port="0" to-layer="40" to-port="1" />
		<edge from-layer="40" from-port="2" to-layer="41" to-port="2" />
		<edge from-layer="40" from-port="2" to-layer="43" to-port="2" />
		<edge from-layer="41" from-port="3" to-layer="43" to-port="0" />
		<edge from-layer="42" from-port="0" to-layer="43" to-port="1" />
		<edge from-layer="43" from-port="3" to-layer="44" to-port="1" />
		<edge from-layer="44" from-port="2" to-layer="54" to-port="0" />
		<edge from-layer="44" from-port="2" to-layer="308" to-port="1" />
		<edge from-layer="44" from-port="2" to-layer="66" to-port="0" />
		<edge from-layer="44" from-port="2" to-layer="88" to-port="1" />
		<edge from-layer="44" from-port="2" to-layer="46" to-port="0" />
		<edge from-layer="44" from-port="2" to-layer="157" to-port="1" />
		<edge from-layer="44" from-port="2" to-layer="202" to-port="1" />
		<edge from-layer="45" from-port="0" to-layer="46" to-port="1" />
		<edge from-layer="46" from-port="2" to-layer="47" to-port="1" />
		<edge from-layer="47" from-port="2" to-layer="49" to-port="0" />
		<edge from-layer="48" from-port="0" to-layer="49" to-port="1" />
		<edge from-layer="49" from-port="2" to-layer="51" to-port="0" />
		<edge from-layer="50" from-port="0" to-layer="51" to-port="1" />
		<edge from-layer="51" from-port="2" to-layer="62" to-port="0" />
		<edge from-layer="52" from-port="0" to-layer="55" to-port="0" />
		<edge from-layer="53" from-port="0" to-layer="54" to-port="1" />
		<edge from-layer="54" from-port="2" to-layer="55" to-port="1" />
		<edge from-layer="55" from-port="2" to-layer="57" to-port="0" />
		<edge from-layer="56" from-port="0" to-layer="57" to-port="1" />
		<edge from-layer="57" from-port="2" to-layer="59" to-port="0" />
		<edge from-layer="58" from-port="0" to-layer="59" to-port="1" />
		<edge from-layer="59" from-port="2" to-layer="61" to-port="0" />
		<edge from-layer="60" from-port="0" to-layer="61" to-port="1" />
		<edge from-layer="61" from-port="2" to-layer="62" to-port="1" />
		<edge from-layer="62" from-port="2" to-layer="63" to-port="0" />
		<edge from-layer="63" from-port="1" to-layer="72" to-port="0" />
		<edge from-layer="64" from-port="0" to-layer="67" to-port="0" />
		<edge from-layer="65" from-port="0" to-layer="66" to-port="1" />
		<edge from-layer="66" from-port="2" to-layer="67" to-port="1" />
		<edge from-layer="67" from-port="2" to-layer="69" to-port="0" />
		<edge from-layer="68" from-port="0" to-layer="69" to-port="1" />
		<edge from-layer="69" from-port="2" to-layer="71" to-port="0" />
		<edge from-layer="70" from-port="0" to-layer="71" to-port="1" />
		<edge from-layer="71" from-port="2" to-layer="72" to-port="1" />
		<edge from-layer="72" from-port="2" to-layer="74" to-port="0" />
		<edge from-layer="73" from-port="0" to-layer="74" to-port="1" />
		<edge from-layer="74" from-port="2" to-layer="76" to-port="0" />
		<edge from-layer="75" from-port="0" to-layer="76" to-port="1" />
		<edge from-layer="76" from-port="2" to-layer="78" to-port="0" />
		<edge from-layer="77" from-port="0" to-layer="78" to-port="1" />
		<edge from-layer="78" from-port="2" to-layer="79" to-port="1" />
		<edge from-layer="79" from-port="2" to-layer="81" to-port="0" />
		<edge from-layer="80" from-port="0" to-layer="81" to-port="1" />
		<edge from-layer="81" from-port="2" to-layer="83" to-port="0" />
		<edge from-layer="82" from-port="0" to-layer="83" to-port="1" />
		<edge from-layer="83" from-port="2" to-layer="85" to-port="0" />
		<edge from-layer="84" from-port="0" to-layer="85" to-port="1" />
		<edge from-layer="85" from-port="2" to-layer="88" to-port="0" />
		<edge from-layer="85" from-port="2" to-layer="132" to-port="0" />
		<edge from-layer="86" from-port="0" to-layer="131" to-port="0" />
		<edge from-layer="87" from-port="0" to-layer="91" to-port="0" />
		<edge from-layer="88" from-port="2" to-layer="90" to-port="0" />
		<edge from-layer="89" from-port="0" to-layer="90" to-port="1" />
		<edge from-layer="90" from-port="2" to-layer="91" to-port="1" />
		<edge from-layer="91" from-port="2" to-layer="93" to-port="0" />
		<edge from-layer="92" from-port="0" to-layer="93" to-port="1" />
		<edge from-layer="93" from-port="2" to-layer="95" to-port="0" />
		<edge from-layer="94" from-port="0" to-layer="95" to-port="1" />
		<edge from-layer="95" from-port="2" to-layer="114" to-port="0" />
		<edge from-layer="96" from-port="0" to-layer="107" to-port="0" />
		<edge from-layer="97" from-port="0" to-layer="98" to-port="1" />
		<edge from-layer="98" from-port="2" to-layer="100" to-port="0" />
		<edge from-layer="99" from-port="0" to-layer="100" to-port="1" />
		<edge from-layer="100" from-port="2" to-layer="102" to-port="0" />
		<edge from-layer="100" from-port="2" to-layer="118" to-port="0" />
		<edge from-layer="101" from-port="0" to-layer="102" to-port="1" />
		<edge from-layer="102" from-port="2" to-layer="104" to-port="0" />
		<edge from-layer="102" from-port="2" to-layer="248" to-port="0" />
		<edge from-layer="103" from-port="0" to-layer="104" to-port="1" />
		<edge from-layer="103" from-port="0" to-layer="361" to-port="1" />
		<edge from-layer="103" from-port="0" to-layer="255" to-port="1" />
		<edge from-layer="104" from-port="2" to-layer="106" to-port="0" />
		<edge from-layer="104" from-port="2" to-layer="214" to-port="0" />
		<edge from-layer="105" from-port="0" to-layer="106" to-port="1" />
		<edge from-layer="106" from-port="2" to-layer="107" to-port="1" />
		<edge from-layer="107" from-port="2" to-layer="109" to-port="0" />
		<edge from-layer="108" from-port="0" to-layer="109" to-port="1" />
		<edge from-layer="109" from-port="2" to-layer="111" to-port="0" />
		<edge from-layer="110" from-port="0" to-layer="111" to-port="1" />
		<edge from-layer="111" from-port="2" to-layer="113" to-port="0" />
		<edge from-layer="112" from-port="0" to-layer="113" to-port="1" />
		<edge from-layer="113" from-port="2" to-layer="114" to-port="1" />
		<edge from-layer="114" from-port="2" to-layer="115" to-port="0" />
		<edge from-layer="115" from-port="1" to-layer="124" to-port="0" />
		<edge from-layer="116" from-port="0" to-layer="119" to-port="0" />
		<edge from-layer="117" from-port="0" to-layer="118" to-port="1" />
		<edge from-layer="118" from-port="2" to-layer="119" to-port="1" />
		<edge from-layer="119" from-port="2" to-layer="121" to-port="0" />
		<edge from-layer="120" from-port="0" to-layer="121" to-port="1" />
		<edge from-layer="121" from-port="2" to-layer="123" to-port="0" />
		<edge from-layer="122" from-port="0" to-layer="123" to-port="1" />
		<edge from-layer="123" from-port="2" to-layer="124" to-port="1" />
		<edge from-layer="124" from-port="2" to-layer="126" to-port="0" />
		<edge from-layer="125" from-port="0" to-layer="126" to-port="1" />
		<edge from-layer="126" from-port="2" to-layer="128" to-port="0" />
		<edge from-layer="127" from-port="0" to-layer="128" to-port="1" />
		<edge from-layer="128" from-port="2" to-layer="130" to-port="0" />
		<edge from-layer="129" from-port="0" to-layer="130" to-port="1" />
		<edge from-layer="130" from-port="2" to-layer="131" to-port="1" />
		<edge from-layer="131" from-port="2" to-layer="132" to-port="1" />
		<edge from-layer="132" from-port="2" to-layer="134" to-port="0" />
		<edge from-layer="133" from-port="0" to-layer="134" to-port="1" />
		<edge from-layer="134" from-port="2" to-layer="136" to-port="0" />
		<edge from-layer="135" from-port="0" to-layer="136" to-port="1" />
		<edge from-layer="136" from-port="2" to-layer="138" to-port="0" />
		<edge from-layer="137" from-port="0" to-layer="138" to-port="1" />
		<edge from-layer="138" from-port="2" to-layer="148" to-port="0" />
		<edge from-layer="138" from-port="2" to-layer="142" to-port="0" />
		<edge from-layer="139" from-port="0" to-layer="147" to-port="0" />
		<edge from-layer="140" from-port="0" to-layer="143" to-port="0" />
		<edge from-layer="141" from-port="0" to-layer="142" to-port="1" />
		<edge from-layer="142" from-port="2" to-layer="143" to-port="1" />
		<edge from-layer="143" from-port="2" to-layer="144" to-port="0" />
		<edge from-layer="144" from-port="1" to-layer="146" to-port="0" />
		<edge from-layer="145" from-port="0" to-layer="146" to-port="1" />
		<edge from-layer="146" from-port="2" to-layer="147" to-port="1" />
		<edge from-layer="147" from-port="2" to-layer="148" to-port="1" />
		<edge from-layer="148" from-port="2" to-layer="150" to-port="0" />
		<edge from-layer="149" from-port="0" to-layer="150" to-port="1" />
		<edge from-layer="150" from-port="2" to-layer="152" to-port="0" />
		<edge from-layer="151" from-port="0" to-layer="152" to-port="1" />
		<edge from-layer="152" from-port="2" to-layer="154" to-port="0" />
		<edge from-layer="153" from-port="0" to-layer="154" to-port="1" />
		<edge from-layer="154" from-port="2" to-layer="157" to-port="0" />
		<edge from-layer="154" from-port="2" to-layer="234" to-port="0" />
		<edge from-layer="154" from-port="2" to-layer="179" to-port="0" />
		<edge from-layer="154" from-port="2" to-layer="193" to-port="0" />
		<edge from-layer="155" from-port="0" to-layer="192" to-port="0" />
		<edge from-layer="156" from-port="0" to-layer="160" to-port="0" />
		<edge from-layer="157" from-port="2" to-layer="159" to-port="0" />
		<edge from-layer="157" from-port="2" to-layer="167" to-port="0" />
		<edge from-layer="157" from-port="2" to-layer="222" to-port="0" />
		<edge from-layer="158" from-port="0" to-layer="159" to-port="1" />
		<edge from-layer="159" from-port="2" to-layer="160" to-port="1" />
		<edge from-layer="160" from-port="2" to-layer="162" to-port="0" />
		<edge from-layer="161" from-port="0" to-layer="162" to-port="1" />
		<edge from-layer="162" from-port="2" to-layer="164" to-port="0" />
		<edge from-layer="163" from-port="0" to-layer="164" to-port="1" />
		<edge from-layer="164" from-port="2" to-layer="175" to-port="0" />
		<edge from-layer="165" from-port="0" to-layer="168" to-port="0" />
		<edge from-layer="166" from-port="0" to-layer="167" to-port="1" />
		<edge from-layer="167" from-port="2" to-layer="168" to-port="1" />
		<edge from-layer="168" from-port="2" to-layer="170" to-port="0" />
		<edge from-layer="169" from-port="0" to-layer="170" to-port="1" />
		<edge from-layer="170" from-port="2" to-layer="172" to-port="0" />
		<edge from-layer="171" from-port="0" to-layer="172" to-port="1" />
		<edge from-layer="172" from-port="2" to-layer="174" to-port="0" />
		<edge from-layer="173" from-port="0" to-layer="174" to-port="1" />
		<edge from-layer="174" from-port="2" to-layer="175" to-port="1" />
		<edge from-layer="175" from-port="2" to-layer="176" to-port="0" />
		<edge from-layer="176" from-port="1" to-layer="185" to-port="0" />
		<edge from-layer="177" from-port="0" to-layer="180" to-port="0" />
		<edge from-layer="178" from-port="0" to-layer="179" to-port="1" />
		<edge from-layer="179" from-port="2" to-layer="180" to-port="1" />
		<edge from-layer="180" from-port="2" to-layer="182" to-port="0" />
		<edge from-layer="181" from-port="0" to-layer="182" to-port="1" />
		<edge from-layer="182" from-port="2" to-layer="184" to-port="0" />
		<edge from-layer="183" from-port="0" to-layer="184" to-port="1" />
		<edge from-layer="184" from-port="2" to-layer="185" to-port="1" />
		<edge from-layer="185" from-port="2" to-layer="187" to-port="0" />
		<edge from-layer="186" from-port="0" to-layer="187" to-port="1" />
		<edge from-layer="187" from-port="2" to-layer="189" to-port="0" />
		<edge from-layer="188" from-port="0" to-layer="189" to-port="1" />
		<edge from-layer="189" from-port="2" to-layer="191" to-port="0" />
		<edge from-layer="190" from-port="0" to-layer="191" to-port="1" />
		<edge from-layer="191" from-port="2" to-layer="192" to-port="1" />
		<edge from-layer="192" from-port="2" to-layer="193" to-port="1" />
		<edge from-layer="193" from-port="2" to-layer="195" to-port="0" />
		<edge from-layer="194" from-port="0" to-layer="195" to-port="1" />
		<edge from-layer="195" from-port="2" to-layer="197" to-port="0" />
		<edge from-layer="196" from-port="0" to-layer="197" to-port="1" />
		<edge from-layer="197" from-port="2" to-layer="199" to-port="0" />
		<edge from-layer="198" from-port="0" to-layer="199" to-port="1" />
		<edge from-layer="199" from-port="2" to-layer="202" to-port="0" />
		<edge from-layer="199" from-port="2" to-layer="283" to-port="0" />
		<edge from-layer="200" from-port="0" to-layer="282" to-port="0" />
		<edge from-layer="201" from-port="0" to-layer="205" to-port="0" />
		<edge from-layer="202" from-port="2" to-layer="204" to-port="0" />
		<edge from-layer="203" from-port="0" to-layer="204" to-port="1" />
		<edge from-layer="204" from-port="2" to-layer="205" to-port="1" />
		<edge from-layer="205" from-port="2" to-layer="207" to-port="0" />
		<edge from-layer="206" from-port="0" to-layer="207" to-port="1" />
		<edge from-layer="207" from-port="2" to-layer="209" to-port="0" />
		<edge from-layer="208" from-port="0" to-layer="209" to-port="1" />
		<edge from-layer="209" from-port="2" to-layer="265" to-port="0" />
		<edge from-layer="210" from-port="0" to-layer="258" to-port="0" />
		<edge from-layer="211" from-port="0" to-layer="247" to-port="0" />
		<edge from-layer="212" from-port="0" to-layer="215" to-port="0" />
		<edge from-layer="213" from-port="0" to-layer="214" to-port="1" />
		<edge from-layer="214" from-port="2" to-layer="215" to-port="1" />
		<edge from-layer="215" from-port="2" to-layer="217" to-port="0" />
		<edge from-layer="216" from-port="0" to-layer="217" to-port="1" />
		<edge from-layer="217" from-port="2" to-layer="219" to-port="0" />
		<edge from-layer="218" from-port="0" to-layer="219" to-port="1" />
		<edge from-layer="219" from-port="2" to-layer="230" to-port="0" />
		<edge from-layer="220" from-port="0" to-layer="223" to-port="0" />
		<edge from-layer="221" from-port="0" to-layer="222" to-port="1" />
		<edge from-layer="222" from-port="2" to-layer="223" to-port="1" />
		<edge from-layer="223" from-port="2" to-layer="225" to-port="0" />
		<edge from-layer="224" from-port="0" to-layer="225" to-port="1" />
		<edge from-layer="225" from-port="2" to-layer="227" to-port="0" />
		<edge from-layer="226" from-port="0" to-layer="227" to-port="1" />
		<edge from-layer="227" from-port="2" to-layer="229" to-port="0" />
		<edge from-layer="228" from-port="0" to-layer="229" to-port="1" />
		<edge from-layer="229" from-port="2" to-layer="230" to-port="1" />
		<edge from-layer="230" from-port="2" to-layer="231" to-port="0" />
		<edge from-layer="231" from-port="1" to-layer="240" to-port="0" />
		<edge from-layer="232" from-port="0" to-layer="235" to-port="0" />
		<edge from-layer="233" from-port="0" to-layer="234" to-port="1" />
		<edge from-layer="234" from-port="2" to-layer="235" to-port="1" />
		<edge from-layer="235" from-port="2" to-layer="237" to-port="0" />
		<edge from-layer="236" from-port="0" to-layer="237" to-port="1" />
		<edge from-layer="237" from-port="2" to-layer="239" to-port="0" />
		<edge from-layer="238" from-port="0" to-layer="239" to-port="1" />
		<edge from-layer="239" from-port="2" to-layer="240" to-port="1" />
		<edge from-layer="240" from-port="2" to-layer="242" to-port="0" />
		<edge from-layer="241" from-port="0" to-layer="242" to-port="1" />
		<edge from-layer="242" from-port="2" to-layer="244" to-port="0" />
		<edge from-layer="243" from-port="0" to-layer="244" to-port="1" />
		<edge from-layer="244" from-port="2" to-layer="246" to-port="0" />
		<edge from-layer="245" from-port="0" to-layer="246" to-port="1" />
		<edge from-layer="246" from-port="2" to-layer="247" to-port="1" />
		<edge from-layer="247" from-port="2" to-layer="248" to-port="1" />
		<edge from-layer="248" from-port="2" to-layer="250" to-port="0" />
		<edge from-layer="249" from-port="0" to-layer="250" to-port="1" />
		<edge from-layer="250" from-port="2" to-layer="252" to-port="0" />
		<edge from-layer="251" from-port="0" to-layer="252" to-port="1" />
		<edge from-layer="252" from-port="2" to-layer="254" to-port="0" />
		<edge from-layer="253" from-port="0" to-layer="254" to-port="1" />
		<edge from-layer="254" from-port="2" to-layer="255" to-port="0" />
		<edge from-layer="254" from-port="2" to-layer="269" to-port="0" />
		<edge from-layer="254" from-port="2" to-layer="354" to-port="0" />
		<edge from-layer="255" from-port="2" to-layer="320" to-port="0" />
		<edge from-layer="255" from-port="2" to-layer="257" to-port="0" />
		<edge from-layer="256" from-port="0" to-layer="257" to-port="1" />
		<edge from-layer="257" from-port="2" to-layer="258" to-port="1" />
		<edge from-layer="258" from-port="2" to-layer="260" to-port="0" />
		<edge from-layer="259" from-port="0" to-layer="260" to-port="1" />
		<edge from-layer="260" from-port="2" to-layer="262" to-port="0" />
		<edge from-layer="261" from-port="0" to-layer="262" to-port="1" />
		<edge from-layer="262" from-port="2" to-layer="264" to-port="0" />
		<edge from-layer="263" from-port="0" to-layer="264" to-port="1" />
		<edge from-layer="264" from-port="2" to-layer="265" to-port="1" />
		<edge from-layer="265" from-port="2" to-layer="266" to-port="0" />
		<edge from-layer="266" from-port="1" to-layer="275" to-port="0" />
		<edge from-layer="267" from-port="0" to-layer="270" to-port="0" />
		<edge from-layer="268" from-port="0" to-layer="269" to-port="1" />
		<edge from-layer="269" from-port="2" to-layer="270" to-port="1" />
		<edge from-layer="270" from-port="2" to-layer="272" to-port="0" />
		<edge from-layer="271" from-port="0" to-layer="272" to-port="1" />
		<edge from-layer="272" from-port="2" to-layer="274" to-port="0" />
		<edge from-layer="273" from-port="0" to-layer="274" to-port="1" />
		<edge from-layer="274" from-port="2" to-layer="275" to-port="1" />
		<edge from-layer="275" from-port="2" to-layer="277" to-port="0" />
		<edge from-layer="276" from-port="0" to-layer="277" to-port="1" />
		<edge from-layer="277" from-port="2" to-layer="279" to-port="0" />
		<edge from-layer="278" from-port="0" to-layer="279" to-port="1" />
		<edge from-layer="279" from-port="2" to-layer="281" to-port="0" />
		<edge from-layer="280" from-port="0" to-layer="281" to-port="1" />
		<edge from-layer="281" from-port="2" to-layer="282" to-port="1" />
		<edge from-layer="282" from-port="2" to-layer="283" to-port="1" />
		<edge from-layer="283" from-port="2" to-layer="285" to-port="0" />
		<edge from-layer="284" from-port="0" to-layer="285" to-port="1" />
		<edge from-layer="285" from-port="2" to-layer="287" to-port="0" />
		<edge from-layer="286" from-port="0" to-layer="287" to-port="1" />
		<edge from-layer="287" from-port="2" to-layer="289" to-port="0" />
		<edge from-layer="288" from-port="0" to-layer="289" to-port="1" />
		<edge from-layer="289" from-port="2" to-layer="293" to-port="0" />
		<edge from-layer="289" from-port="2" to-layer="299" to-port="0" />
		<edge from-layer="290" from-port="0" to-layer="298" to-port="0" />
		<edge from-layer="291" from-port="0" to-layer="294" to-port="0" />
		<edge from-layer="292" from-port="0" to-layer="293" to-port="1" />
		<edge from-layer="293" from-port="2" to-layer="294" to-port="1" />
		<edge from-layer="294" from-port="2" to-layer="295" to-port="0" />
		<edge from-layer="295" from-port="1" to-layer="297" to-port="0" />
		<edge from-layer="296" from-port="0" to-layer="297" to-port="1" />
		<edge from-layer="297" from-port="2" to-layer="298" to-port="1" />
		<edge from-layer="298" from-port="2" to-layer="299" to-port="1" />
		<edge from-layer="299" from-port="2" to-layer="301" to-port="0" />
		<edge from-layer="300" from-port="0" to-layer="301" to-port="1" />
		<edge from-layer="301" from-port="2" to-layer="303" to-port="0" />
		<edge from-layer="302" from-port="0" to-layer="303" to-port="1" />
		<edge from-layer="303" from-port="2" to-layer="305" to-port="0" />
		<edge from-layer="304" from-port="0" to-layer="305" to-port="1" />
		<edge from-layer="305" from-port="2" to-layer="308" to-port="0" />
		<edge from-layer="305" from-port="2" to-layer="340" to-port="0" />
		<edge from-layer="305" from-port="2" to-layer="389" to-port="0" />
		<edge from-layer="306" from-port="0" to-layer="388" to-port="0" />
		<edge from-layer="307" from-port="0" to-layer="311" to-port="0" />
		<edge from-layer="308" from-port="2" to-layer="310" to-port="0" />
		<edge from-layer="308" from-port="2" to-layer="328" to-port="0" />
		<edge from-layer="309" from-port="0" to-layer="310" to-port="1" />
		<edge from-layer="310" from-port="2" to-layer="311" to-port="1" />
		<edge from-layer="311" from-port="2" to-layer="313" to-port="0" />
		<edge from-layer="312" from-port="0" to-layer="313" to-port="1" />
		<edge from-layer="313" from-port="2" to-layer="315" to-port="0" />
		<edge from-layer="314" from-port="0" to-layer="315" to-port="1" />
		<edge from-layer="315" from-port="2" to-layer="371" to-port="0" />
		<edge from-layer="316" from-port="0" to-layer="364" to-port="0" />
		<edge from-layer="317" from-port="0" to-layer="353" to-port="0" />
		<edge from-layer="318" from-port="0" to-layer="321" to-port="0" />
		<edge from-layer="319" from-port="0" to-layer="320" to-port="1" />
		<edge from-layer="320" from-port="2" to-layer="321" to-port="1" />
		<edge from-layer="321" from-port="2" to-layer="323" to-port="0" />
		<edge from-layer="322" from-port="0" to-layer="323" to-port="1" />
		<edge from-layer="323" from-port="2" to-layer="325" to-port="0" />
		<edge from-layer="324" from-port="0" to-layer="325" to-port="1" />
		<edge from-layer="325" from-port="2" to-layer="336" to-port="0" />
		<edge from-layer="326" from-port="0" to-layer="329" to-port="0" />
		<edge from-layer="327" from-port="0" to-layer="328" to-port="1" />
		<edge from-layer="328" from-port="2" to-layer="329" to-port="1" />
		<edge from-layer="329" from-port="2" to-layer="331" to-port="0" />
		<edge from-layer="330" from-port="0" to-layer="331" to-port="1" />
		<edge from-layer="331" from-port="2" to-layer="333" to-port="0" />
		<edge from-layer="332" from-port="0" to-layer="333" to-port="1" />
		<edge from-layer="333" from-port="2" to-layer="335" to-port="0" />
		<edge from-layer="334" from-port="0" to-layer="335" to-port="1" />
		<edge from-layer="335" from-port="2" to-layer="336" to-port="1" />
		<edge from-layer="336" from-port="2" to-layer="337" to-port="0" />
		<edge from-layer="337" from-port="1" to-layer="346" to-port="0" />
		<edge from-layer="338" from-port="0" to-layer="341" to-port="0" />
		<edge from-layer="339" from-port="0" to-layer="340" to-port="1" />
		<edge from-layer="340" from-port="2" to-layer="341" to-port="1" />
		<edge from-layer="341" from-port="2" to-layer="343" to-port="0" />
		<edge from-layer="342" from-port="0" to-layer="343" to-port="1" />
		<edge from-layer="343" from-port="2" to-layer="345" to-port="0" />
		<edge from-layer="344" from-port="0" to-layer="345" to-port="1" />
		<edge from-layer="345" from-port="2" to-layer="346" to-port="1" />
		<edge from-layer="346" from-port="2" to-layer="348" to-port="0" />
		<edge from-layer="347" from-port="0" to-layer="348" to-port="1" />
		<edge from-layer="348" from-port="2" to-layer="350" to-port="0" />
		<edge from-layer="349" from-port="0" to-layer="350" to-port="1" />
		<edge from-layer="350" from-port="2" to-layer="352" to-port="0" />
		<edge from-layer="351" from-port="0" to-layer="352" to-port="1" />
		<edge from-layer="352" from-port="2" to-layer="353" to-port="1" />
		<edge from-layer="353" from-port="2" to-layer="354" to-port="1" />
		<edge from-layer="354" from-port="2" to-layer="356" to-port="0" />
		<edge from-layer="355" from-port="0" to-layer="356" to-port="1" />
		<edge from-layer="356" from-port="2" to-layer="358" to-port="0" />
		<edge from-layer="357" from-port="0" to-layer="358" to-port="1" />
		<edge from-layer="358" from-port="2" to-layer="360" to-port="0" />
		<edge from-layer="359" from-port="0" to-layer="360" to-port="1" />
		<edge from-layer="360" from-port="2" to-layer="361" to-port="0" />
		<edge from-layer="360" from-port="2" to-layer="478" to-port="0" />
		<edge from-layer="360" from-port="2" to-layer="375" to-port="0" />
		<edge from-layer="361" from-port="2" to-layer="363" to-port="0" />
		<edge from-layer="362" from-port="0" to-layer="363" to-port="1" />
		<edge from-layer="363" from-port="2" to-layer="364" to-port="1" />
		<edge from-layer="364" from-port="2" to-layer="366" to-port="0" />
		<edge from-layer="365" from-port="0" to-layer="366" to-port="1" />
		<edge from-layer="366" from-port="2" to-layer="368" to-port="0" />
		<edge from-layer="367" from-port="0" to-layer="368" to-port="1" />
		<edge from-layer="368" from-port="2" to-layer="370" to-port="0" />
		<edge from-layer="369" from-port="0" to-layer="370" to-port="1" />
		<edge from-layer="370" from-port="2" to-layer="371" to-port="1" />
		<edge from-layer="371" from-port="2" to-layer="372" to-port="0" />
		<edge from-layer="372" from-port="1" to-layer="381" to-port="0" />
		<edge from-layer="373" from-port="0" to-layer="376" to-port="0" />
		<edge from-layer="374" from-port="0" to-layer="375" to-port="1" />
		<edge from-layer="375" from-port="2" to-layer="376" to-port="1" />
		<edge from-layer="376" from-port="2" to-layer="378" to-port="0" />
		<edge from-layer="377" from-port="0" to-layer="378" to-port="1" />
		<edge from-layer="378" from-port="2" to-layer="380" to-port="0" />
		<edge from-layer="379" from-port="0" to-layer="380" to-port="1" />
		<edge from-layer="380" from-port="2" to-layer="381" to-port="1" />
		<edge from-layer="381" from-port="2" to-layer="383" to-port="0" />
		<edge from-layer="382" from-port="0" to-layer="383" to-port="1" />
		<edge from-layer="383" from-port="2" to-layer="385" to-port="0" />
		<edge from-layer="384" from-port="0" to-layer="385" to-port="1" />
		<edge from-layer="385" from-port="2" to-layer="387" to-port="0" />
		<edge from-layer="386" from-port="0" to-layer="387" to-port="1" />
		<edge from-layer="387" from-port="2" to-layer="388" to-port="1" />
		<edge from-layer="388" from-port="2" to-layer="389" to-port="1" />
		<edge from-layer="389" from-port="2" to-layer="391" to-port="0" />
		<edge from-layer="390" from-port="0" to-layer="391" to-port="1" />
		<edge from-layer="391" from-port="2" to-layer="393" to-port="0" />
		<edge from-layer="392" from-port="0" to-layer="393" to-port="1" />
		<edge from-layer="393" from-port="2" to-layer="395" to-port="0" />
		<edge from-layer="394" from-port="0" to-layer="395" to-port="1" />
		<edge from-layer="395" from-port="2" to-layer="400" to-port="0" />
		<edge from-layer="396" from-port="0" to-layer="400" to-port="1" />
		<edge from-layer="397" from-port="0" to-layer="400" to-port="2" />
		<edge from-layer="398" from-port="0" to-layer="400" to-port="3" />
		<edge from-layer="399" from-port="0" to-layer="400" to-port="4" />
		<edge from-layer="400" from-port="5" to-layer="402" to-port="0" />
		<edge from-layer="400" from-port="5" to-layer="420" to-port="0" />
		<edge from-layer="400" from-port="5" to-layer="439" to-port="0" />
		<edge from-layer="400" from-port="5" to-layer="458" to-port="0" />
		<edge from-layer="401" from-port="0" to-layer="402" to-port="2" />
		<edge from-layer="402" from-port="3" to-layer="404" to-port="0" />
		<edge from-layer="403" from-port="0" to-layer="404" to-port="1" />
		<edge from-layer="404" from-port="2" to-layer="406" to-port="0" />
		<edge from-layer="405" from-port="0" to-layer="406" to-port="1" />
		<edge from-layer="406" from-port="2" to-layer="407" to-port="0" />
		<edge from-layer="407" from-port="1" to-layer="409" to-port="0" />
		<edge from-layer="408" from-port="0" to-layer="409" to-port="1" />
		<edge from-layer="409" from-port="2" to-layer="411" to-port="0" />
		<edge from-layer="410" from-port="0" to-layer="411" to-port="1" />
		<edge from-layer="411" from-port="2" to-layer="412" to-port="0" />
		<edge from-layer="412" from-port="1" to-layer="414" to-port="0" />
		<edge from-layer="413" from-port="0" to-layer="414" to-port="1" />
		<edge from-layer="414" from-port="2" to-layer="416" to-port="0" />
		<edge from-layer="415" from-port="0" to-layer="416" to-port="1" />
		<edge from-layer="416" from-port="2" to-layer="418" to-port="0" />
		<edge from-layer="417" from-port="0" to-layer="418" to-port="1" />
		<edge from-layer="418" from-port="2" to-layer="475" to-port="0" />
		<edge from-layer="419" from-port="0" to-layer="420" to-port="2" />
		<edge from-layer="420" from-port="3" to-layer="422" to-port="0" />
		<edge from-layer="421" from-port="0" to-layer="422" to-port="1" />
		<edge from-layer="422" from-port="2" to-layer="424" to-port="0" />
		<edge from-layer="423" from-port="0" to-layer="424" to-port="1" />
		<edge from-layer="424" from-port="2" to-layer="425" to-port="0" />
		<edge from-layer="425" from-port="1" to-layer="427" to-port="0" />
		<edge from-layer="426" from-port="0" to-layer="427" to-port="1" />
		<edge from-layer="427" from-port="2" to-layer="429" to-port="0" />
		<edge from-layer="428" from-port="0" to-layer="429" to-port="1" />
		<edge from-layer="429" from-port="2" to-layer="430" to-port="0" />
		<edge from-layer="430" from-port="1" to-layer="432" to-port="0" />
		<edge from-layer="431" from-port="0" to-layer="432" to-port="1" />
		<edge from-layer="432" from-port="2" to-layer="434" to-port="0" />
		<edge from-layer="433" from-port="0" to-layer="434" to-port="1" />
		<edge from-layer="434" from-port="2" to-layer="436" to-port="0" />
		<edge from-layer="435" from-port="0" to-layer="436" to-port="1" />
		<edge from-layer="436" from-port="2" to-layer="475" to-port="1" />
		<edge from-layer="437" from-port="0" to-layer="439" to-port="1" />
		<edge from-layer="438" from-port="0" to-layer="439" to-port="2" />
		<edge from-layer="439" from-port="3" to-layer="441" to-port="0" />
		<edge from-layer="440" from-port="0" to-layer="441" to-port="1" />
		<edge from-layer="441" from-port="2" to-layer="443" to-port="0" />
		<edge from-layer="442" from-port="0" to-layer="443" to-port="1" />
		<edge from-layer="443" from-port="2" to-layer="444" to-port="0" />
		<edge from-layer="444" from-port="1" to-layer="446" to-port="0" />
		<edge from-layer="445" from-port="0" to-layer="446" to-port="1" />
		<edge from-layer="446" from-port="2" to-layer="448" to-port="0" />
		<edge from-layer="447" from-port="0" to-layer="448" to-port="1" />
		<edge from-layer="448" from-port="2" to-layer="449" to-port="0" />
		<edge from-layer="449" from-port="1" to-layer="451" to-port="0" />
		<edge from-layer="450" from-port="0" to-layer="451" to-port="1" />
		<edge from-layer="451" from-port="2" to-layer="453" to-port="0" />
		<edge from-layer="452" from-port="0" to-layer="453" to-port="1" />
		<edge from-layer="453" from-port="2" to-layer="455" to-port="0" />
		<edge from-layer="454" from-port="0" to-layer="455" to-port="1" />
		<edge from-layer="455" from-port="2" to-layer="475" to-port="2" />
		<edge from-layer="456" from-port="0" to-layer="458" to-port="1" />
		<edge from-layer="457" from-port="0" to-layer="458" to-port="2" />
		<edge from-layer="458" from-port="3" to-layer="460" to-port="0" />
		<edge from-layer="459" from-port="0" to-layer="460" to-port="1" />
		<edge from-layer="460" from-port="2" to-layer="462" to-port="0" />
		<edge from-layer="461" from-port="0" to-layer="462" to-port="1" />
		<edge from-layer="462" from-port="2" to-layer="463" to-port="0" />
		<edge from-layer="463" from-port="1" to-layer="465" to-port="0" />
		<edge from-layer="464" from-port="0" to-layer="465" to-port="1" />
		<edge from-layer="465" from-port="2" to-layer="467" to-port="0" />
		<edge from-layer="466" from-port="0" to-layer="467" to-port="1" />
		<edge from-layer="467" from-port="2" to-layer="468" to-port="0" />
		<edge from-layer="468" from-port="1" to-layer="470" to-port="0" />
		<edge from-layer="469" from-port="0" to-layer="470" to-port="1" />
		<edge from-layer="470" from-port="2" to-layer="472" to-port="0" />
		<edge from-layer="471" from-port="0" to-layer="472" to-port="1" />
		<edge from-layer="472" from-port="2" to-layer="474" to-port="0" />
		<edge from-layer="473" from-port="0" to-layer="474" to-port="1" />
		<edge from-layer="474" from-port="2" to-layer="475" to-port="3" />
		<edge from-layer="475" from-port="4" to-layer="498" to-port="0" />
		<edge from-layer="476" from-port="0" to-layer="487" to-port="0" />
		<edge from-layer="477" from-port="0" to-layer="478" to-port="1" />
		<edge from-layer="478" from-port="2" to-layer="480" to-port="0" />
		<edge from-layer="479" from-port="0" to-layer="480" to-port="1" />
		<edge from-layer="480" from-port="2" to-layer="482" to-port="0" />
		<edge from-layer="481" from-port="0" to-layer="482" to-port="1" />
		<edge from-layer="482" from-port="2" to-layer="484" to-port="0" />
		<edge from-layer="483" from-port="0" to-layer="484" to-port="1" />
		<edge from-layer="484" from-port="2" to-layer="486" to-port="0" />
		<edge from-layer="485" from-port="0" to-layer="486" to-port="1" />
		<edge from-layer="486" from-port="2" to-layer="487" to-port="1" />
		<edge from-layer="487" from-port="2" to-layer="489" to-port="0" />
		<edge from-layer="488" from-port="0" to-layer="489" to-port="1" />
		<edge from-layer="489" from-port="2" to-layer="490" to-port="0" />
		<edge from-layer="490" from-port="1" to-layer="492" to-port="0" />
		<edge from-layer="491" from-port="0" to-layer="492" to-port="1" />
		<edge from-layer="492" from-port="2" to-layer="494" to-port="0" />
		<edge from-layer="493" from-port="0" to-layer="494" to-port="1" />
		<edge from-layer="494" from-port="2" to-layer="495" to-port="0" />
		<edge from-layer="495" from-port="1" to-layer="497" to-port="0" />
		<edge from-layer="496" from-port="0" to-layer="497" to-port="1" />
		<edge from-layer="497" from-port="2" to-layer="498" to-port="1" />
		<edge from-layer="498" from-port="2" to-layer="500" to-port="0" />
		<edge from-layer="499" from-port="0" to-layer="500" to-port="1" />
		<edge from-layer="500" from-port="2" to-layer="505" to-port="0" />
		<edge from-layer="501" from-port="0" to-layer="505" to-port="1" />
		<edge from-layer="502" from-port="0" to-layer="505" to-port="2" />
		<edge from-layer="503" from-port="0" to-layer="505" to-port="3" />
		<edge from-layer="504" from-port="0" to-layer="505" to-port="4" />
		<edge from-layer="505" from-port="5" to-layer="506" to-port="0" />
		<edge from-layer="505" from-port="5" to-layer="514" to-port="0" />
		<edge from-layer="506" from-port="1" to-layer="511" to-port="0" />
		<edge from-layer="507" from-port="0" to-layer="511" to-port="1" />
		<edge from-layer="508" from-port="0" to-layer="511" to-port="2" />
		<edge from-layer="509" from-port="0" to-layer="511" to-port="3" />
		<edge from-layer="510" from-port="0" to-layer="511" to-port="4" />
		<edge from-layer="511" from-port="5" to-layer="513" to-port="0" />
		<edge from-layer="512" from-port="0" to-layer="513" to-port="1" />
		<edge from-layer="513" from-port="2" to-layer="514" to-port="1" />
		<edge from-layer="514" from-port="2" to-layer="515" to-port="0" />
	</edges>
	<rt_info>
		<Runtime_version value="2025.1.0-18503-6fec06580ab-releases/2025/1" />
		<conversion_parameters>
			<is_python_object value="False" />
		</conversion_parameters>
	</rt_info>
</net>
