<?xml version="1.0"?>
<net name="main_graph" version="11">
	<layers>
		<layer id="1" name="image_embeddings" type="Parameter" version="opset1">
			<data shape="1,256,64,64" element_type="f32" />
			<output>
				<port id="0" precision="FP32" names="image_embeddings">
					<dim>1</dim>
					<dim>256</dim>
					<dim>64</dim>
					<dim>64</dim>
				</port>
			</output>
		</layer>
		<layer id="0" name="boxes" type="Parameter" version="opset1">
			<data shape="?,4" element_type="f32" />
			<output>
				<port id="0" precision="FP32" names="boxes">
					<dim>-1</dim>
					<dim>4</dim>
				</port>
			</output>
		</layer>
		<layer id="2" name="Constant_9234" type="Const" version="opset1">
			<data element_type="f32" shape="1, 1, 256" offset="0" size="1024" />
			<output>
				<port id="0" precision="FP32">
					<dim>1</dim>
					<dim>1</dim>
					<dim>256</dim>
				</port>
			</output>
		</layer>
		<layer id="3" name="Constant_9230" type="Const" version="opset1">
			<data element_type="f32" shape="1, 1, 256" offset="1024" size="1024" />
			<output>
				<port id="0" precision="FP32">
					<dim>1</dim>
					<dim>1</dim>
					<dim>256</dim>
				</port>
			</output>
		</layer>
		<layer id="4" name="onnx::Expand_1619" type="Const" version="opset1">
			<data element_type="f32" shape="1, 5, 256" offset="2048" size="5120" />
			<output>
				<port id="0" precision="FP32" names="onnx::Expand_1619">
					<dim>1</dim>
					<dim>5</dim>
					<dim>256</dim>
				</port>
			</output>
		</layer>
		<layer id="5" name="Constant_9218" type="Const" version="opset1">
			<data element_type="f32" shape="1, 1" offset="7168" size="4" />
			<output>
				<port id="0" precision="FP32">
					<dim>1</dim>
					<dim>1</dim>
				</port>
			</output>
		</layer>
		<layer id="6" name="/prompt_encoder/Add" type="Add" version="opset1">
			<data auto_broadcast="numpy" />
			<input>
				<port id="0" precision="FP32">
					<dim>-1</dim>
					<dim>4</dim>
				</port>
				<port id="1" precision="FP32">
					<dim>1</dim>
					<dim>1</dim>
				</port>
			</input>
			<output>
				<port id="2" precision="FP32" names="/prompt_encoder/Add_output_0">
					<dim>-1</dim>
					<dim>4</dim>
				</port>
			</output>
		</layer>
		<layer id="7" name="/prompt_encoder/Constant_6_output_0" type="Const" version="opset1">
			<data element_type="i64" shape="3" offset="7172" size="24" />
			<output>
				<port id="0" precision="I64" names="/prompt_encoder/Constant_6_output_0">
					<dim>3</dim>
				</port>
			</output>
		</layer>
		<layer id="8" name="/prompt_encoder/Reshape" type="Reshape" version="opset1">
			<data special_zero="true" />
			<input>
				<port id="0" precision="FP32">
					<dim>-1</dim>
					<dim>4</dim>
				</port>
				<port id="1" precision="I64">
					<dim>3</dim>
				</port>
			</input>
			<output>
				<port id="2" precision="FP32" names="/prompt_encoder/Reshape_output_0">
					<dim>-1</dim>
					<dim>2</dim>
					<dim>2</dim>
				</port>
			</output>
		</layer>
		<layer id="9" name="ShapeOf_9716" type="ShapeOf" version="opset3">
			<data output_type="i64" />
			<input>
				<port id="0" precision="FP32">
					<dim>-1</dim>
					<dim>2</dim>
					<dim>2</dim>
				</port>
			</input>
			<output>
				<port id="1" precision="I64" names="onnx::Gather_164,onnx::Gather_229">
					<dim>3</dim>
				</port>
			</output>
		</layer>
		<layer id="10" name="Constant_9717" type="Const" version="opset1">
			<data element_type="i64" shape="" offset="7196" size="8" />
			<output>
				<port id="0" precision="I64" />
			</output>
		</layer>
		<layer id="11" name="Constant_9718" type="Const" version="opset1">
			<data element_type="i64" shape="" offset="7196" size="8" />
			<output>
				<port id="0" precision="I64" />
			</output>
		</layer>
		<layer id="12" name="Gather_9719" type="Gather" version="opset8">
			<data batch_dims="0" />
			<input>
				<port id="0" precision="I64">
					<dim>3</dim>
				</port>
				<port id="1" precision="I64" />
				<port id="2" precision="I64" />
			</input>
			<output>
				<port id="3" precision="I64" names="onnx::Cast_166,onnx::Cast_231,onnx::Cast_306,onnx::Cast_366,onnx::Cast_427,onnx::Cast_487" />
			</output>
		</layer>
		<layer id="13" name="Constant_9754" type="Const" version="opset1">
			<data element_type="i64" shape="1" offset="7204" size="8" />
			<output>
				<port id="0" precision="I64">
					<dim>1</dim>
				</port>
			</output>
		</layer>
		<layer id="14" name="Reshape_9755" type="Reshape" version="opset1">
			<data special_zero="false" />
			<input>
				<port id="0" precision="I64" />
				<port id="1" precision="I64">
					<dim>1</dim>
				</port>
			</input>
			<output>
				<port id="2" precision="I64" names="/mask_decoder/Gather_1_output_0,/mask_decoder/Gather_output_0,/mask_decoder/Reshape_1_output_0,/mask_decoder/Unsqueeze_output_0">
					<dim>1</dim>
				</port>
			</output>
		</layer>
		<layer id="15" name="/prompt_encoder/Constant_11_output_0" type="Const" version="opset1">
			<data element_type="i64" shape="1" offset="7212" size="8" />
			<output>
				<port id="0" precision="I64" names="/prompt_encoder/Constant_11_output_0">
					<dim>1</dim>
				</port>
			</output>
		</layer>
		<layer id="16" name="/mask_decoder/Concat" type="Concat" version="opset1">
			<data axis="0" />
			<input>
				<port id="0" precision="I64">
					<dim>1</dim>
				</port>
				<port id="1" precision="I64">
					<dim>1</dim>
				</port>
				<port id="2" precision="I64">
					<dim>1</dim>
				</port>
			</input>
			<output>
				<port id="3" precision="I64" names="/mask_decoder/Concat_output_0">
					<dim>3</dim>
				</port>
			</output>
		</layer>
		<layer id="17" name="/prompt_encoder/Mul_output_0" type="Const" version="opset1">
			<data element_type="i64" shape="3" offset="7220" size="24" />
			<output>
				<port id="0" precision="I64" names="/prompt_encoder/Mul_output_0">
					<dim>3</dim>
				</port>
			</output>
		</layer>
		<layer id="18" name="/mask_decoder/Equal" type="Equal" version="opset1">
			<data auto_broadcast="numpy" />
			<input>
				<port id="0" precision="I64">
					<dim>3</dim>
				</port>
				<port id="1" precision="I64">
					<dim>3</dim>
				</port>
			</input>
			<output>
				<port id="2" precision="BOOL" names="/mask_decoder/Equal_output_0">
					<dim>3</dim>
				</port>
			</output>
		</layer>
		<layer id="19" name="/prompt_encoder/ConstantOfShape_1_output_0" type="Const" version="opset1">
			<data element_type="i64" shape="3" offset="7244" size="24" />
			<output>
				<port id="0" precision="I64" names="/prompt_encoder/ConstantOfShape_1_output_0">
					<dim>3</dim>
				</port>
			</output>
		</layer>
		<layer id="20" name="/mask_decoder/Where" type="Select" version="opset1">
			<data auto_broadcast="numpy" />
			<input>
				<port id="0" precision="BOOL">
					<dim>3</dim>
				</port>
				<port id="1" precision="I64">
					<dim>3</dim>
				</port>
				<port id="2" precision="I64">
					<dim>3</dim>
				</port>
			</input>
			<output>
				<port id="3" precision="I64" names="/mask_decoder/Where_output_0">
					<dim>3</dim>
				</port>
			</output>
		</layer>
		<layer id="21" name="/mask_decoder/Expand" type="Broadcast" version="opset3">
			<data mode="bidirectional" />
			<input>
				<port id="0" precision="FP32">
					<dim>1</dim>
					<dim>5</dim>
					<dim>256</dim>
				</port>
				<port id="1" precision="I64">
					<dim>3</dim>
				</port>
			</input>
			<output>
				<port id="2" precision="FP32" names="/mask_decoder/Expand_output_0">
					<dim>-1</dim>
					<dim>5</dim>
					<dim>256</dim>
				</port>
			</output>
		</layer>
		<layer id="22" name="/prompt_encoder/Constant_output_0" type="Const" version="opset1">
			<data element_type="i64" shape="" offset="7196" size="8" />
			<output>
				<port id="0" precision="I64" names="/prompt_encoder/Constant_output_0" />
			</output>
		</layer>
		<layer id="23" name="/prompt_encoder/Constant_4_output_0" type="Const" version="opset1">
			<data element_type="i64" shape="" offset="7204" size="8" />
			<output>
				<port id="0" precision="I64" names="/prompt_encoder/Constant_4_output_0" />
			</output>
		</layer>
		<layer id="24" name="Range_456" type="Range" version="opset4">
			<data output_type="i64" />
			<input>
				<port id="0" precision="I64" />
				<port id="1" precision="I64" />
				<port id="2" precision="I64" />
			</input>
			<output>
				<port id="3" precision="I64" names="onnx::Reshape_170,onnx::Reshape_235,onnx::Reshape_310,onnx::Reshape_370,onnx::Reshape_431,onnx::Reshape_491">
					<dim>-1</dim>
				</port>
			</output>
		</layer>
		<layer id="25" name="onnx::Reshape_179" type="Const" version="opset1">
			<data element_type="i64" shape="3" offset="7268" size="24" />
			<output>
				<port id="0" precision="I64" names="onnx::Reshape_179">
					<dim>3</dim>
				</port>
			</output>
		</layer>
		<layer id="26" name="Reshape_466" type="Reshape" version="opset1">
			<data special_zero="true" />
			<input>
				<port id="0" precision="I64">
					<dim>-1</dim>
				</port>
				<port id="1" precision="I64">
					<dim>3</dim>
				</port>
			</input>
			<output>
				<port id="2" precision="I64" names="onnx::Add_180,onnx::Add_245,onnx::Add_319,onnx::Add_379,onnx::Add_440,onnx::Add_500">
					<dim>-1</dim>
					<dim>1</dim>
					<dim>1</dim>
				</port>
			</output>
		</layer>
		<layer id="27" name="Constant_9219" type="Const" version="opset1">
			<data element_type="i64" shape="1, 2, 1" offset="7292" size="16" />
			<output>
				<port id="0" precision="I64">
					<dim>1</dim>
					<dim>2</dim>
					<dim>1</dim>
				</port>
			</output>
		</layer>
		<layer id="28" name="/prompt_encoder/Add_1" type="Add" version="opset1">
			<data auto_broadcast="numpy" />
			<input>
				<port id="0" precision="I64">
					<dim>-1</dim>
					<dim>1</dim>
					<dim>1</dim>
				</port>
				<port id="1" precision="I64">
					<dim>1</dim>
					<dim>2</dim>
					<dim>1</dim>
				</port>
			</input>
			<output>
				<port id="2" precision="I64" names="/prompt_encoder/Add_1_output_0">
					<dim>-1</dim>
					<dim>2</dim>
					<dim>1</dim>
				</port>
			</output>
		</layer>
		<layer id="29" name="/prompt_encoder/Shape_2" type="ShapeOf" version="opset3">
			<data output_type="i64" />
			<input>
				<port id="0" precision="I64">
					<dim>-1</dim>
					<dim>2</dim>
					<dim>1</dim>
				</port>
			</input>
			<output>
				<port id="1" precision="I64" names="/prompt_encoder/Shape_2_output_0,/prompt_encoder/Shape_8_output_0">
					<dim>3</dim>
				</port>
			</output>
		</layer>
		<layer id="30" name="/prompt_encoder/Equal" type="Equal" version="opset1">
			<data auto_broadcast="numpy" />
			<input>
				<port id="0" precision="I64">
					<dim>3</dim>
				</port>
				<port id="1" precision="I64">
					<dim>3</dim>
				</port>
			</input>
			<output>
				<port id="2" precision="BOOL" names="/prompt_encoder/Equal_3_output_0,/prompt_encoder/Equal_output_0">
					<dim>3</dim>
				</port>
			</output>
		</layer>
		<layer id="31" name="/prompt_encoder/Where" type="Select" version="opset1">
			<data auto_broadcast="numpy" />
			<input>
				<port id="0" precision="BOOL">
					<dim>3</dim>
				</port>
				<port id="1" precision="I64">
					<dim>3</dim>
				</port>
				<port id="2" precision="I64">
					<dim>3</dim>
				</port>
			</input>
			<output>
				<port id="3" precision="I64" names="/prompt_encoder/Where_3_output_0,/prompt_encoder/Where_output_0">
					<dim>3</dim>
				</port>
			</output>
		</layer>
		<layer id="32" name="/prompt_encoder/Expand_1" type="Broadcast" version="opset3">
			<data mode="bidirectional" />
			<input>
				<port id="0" precision="I64">
					<dim>-1</dim>
					<dim>1</dim>
					<dim>1</dim>
				</port>
				<port id="1" precision="I64">
					<dim>3</dim>
				</port>
			</input>
			<output>
				<port id="2" precision="I64" names="/prompt_encoder/Expand_1_output_0,/prompt_encoder/Expand_5_output_0">
					<dim>-1</dim>
					<dim>2</dim>
					<dim>1</dim>
				</port>
			</output>
		</layer>
		<layer id="33" name="/prompt_encoder/Unsqueeze_1" type="Unsqueeze" version="opset1">
			<input>
				<port id="0" precision="I64">
					<dim>-1</dim>
					<dim>2</dim>
					<dim>1</dim>
				</port>
				<port id="1" precision="I64">
					<dim>1</dim>
				</port>
			</input>
			<output>
				<port id="2" precision="I64" names="/prompt_encoder/Unsqueeze_1_output_0,/prompt_encoder/Unsqueeze_4_output_0">
					<dim>-1</dim>
					<dim>2</dim>
					<dim>1</dim>
					<dim>1</dim>
				</port>
			</output>
		</layer>
		<layer id="34" name="onnx::Add_182" type="Const" version="opset1">
			<data element_type="i64" shape="2, 1" offset="7292" size="16" />
			<output>
				<port id="0" precision="I64" names="onnx::Add_182">
					<dim>2</dim>
					<dim>1</dim>
				</port>
			</output>
		</layer>
		<layer id="35" name="/prompt_encoder/Expand_2" type="Broadcast" version="opset3">
			<data mode="bidirectional" />
			<input>
				<port id="0" precision="I64">
					<dim>2</dim>
					<dim>1</dim>
				</port>
				<port id="1" precision="I64">
					<dim>3</dim>
				</port>
			</input>
			<output>
				<port id="2" precision="I64" names="/prompt_encoder/Expand_2_output_0,/prompt_encoder/Expand_6_output_0">
					<dim>-1</dim>
					<dim>2</dim>
					<dim>1</dim>
				</port>
			</output>
		</layer>
		<layer id="36" name="/prompt_encoder/Unsqueeze_2" type="Unsqueeze" version="opset1">
			<input>
				<port id="0" precision="I64">
					<dim>-1</dim>
					<dim>2</dim>
					<dim>1</dim>
				</port>
				<port id="1" precision="I64">
					<dim>1</dim>
				</port>
			</input>
			<output>
				<port id="2" precision="I64" names="/prompt_encoder/Unsqueeze_2_output_0,/prompt_encoder/Unsqueeze_5_output_0">
					<dim>-1</dim>
					<dim>2</dim>
					<dim>1</dim>
					<dim>1</dim>
				</port>
			</output>
		</layer>
		<layer id="37" name="onnx::Unsqueeze_144" type="Const" version="opset1">
			<data element_type="i64" shape="1" offset="7196" size="8" />
			<output>
				<port id="0" precision="I64" names="onnx::Unsqueeze_144">
					<dim>1</dim>
				</port>
			</output>
		</layer>
		<layer id="38" name="/prompt_encoder/Expand_3" type="Broadcast" version="opset3">
			<data mode="bidirectional" />
			<input>
				<port id="0" precision="I64">
					<dim>1</dim>
				</port>
				<port id="1" precision="I64">
					<dim>3</dim>
				</port>
			</input>
			<output>
				<port id="2" precision="I64" names="/prompt_encoder/Expand_3_output_0">
					<dim>-1</dim>
					<dim>2</dim>
					<dim>1</dim>
				</port>
			</output>
		</layer>
		<layer id="39" name="/prompt_encoder/Unsqueeze_3" type="Unsqueeze" version="opset1">
			<input>
				<port id="0" precision="I64">
					<dim>-1</dim>
					<dim>2</dim>
					<dim>1</dim>
				</port>
				<port id="1" precision="I64">
					<dim>1</dim>
				</port>
			</input>
			<output>
				<port id="2" precision="I64" names="/prompt_encoder/Unsqueeze_3_output_0">
					<dim>-1</dim>
					<dim>2</dim>
					<dim>1</dim>
					<dim>1</dim>
				</port>
			</output>
		</layer>
		<layer id="40" name="/prompt_encoder/Concat_1" type="Concat" version="opset1">
			<data axis="-1" />
			<input>
				<port id="0" precision="I64">
					<dim>-1</dim>
					<dim>2</dim>
					<dim>1</dim>
					<dim>1</dim>
				</port>
				<port id="1" precision="I64">
					<dim>-1</dim>
					<dim>2</dim>
					<dim>1</dim>
					<dim>1</dim>
				</port>
				<port id="2" precision="I64">
					<dim>-1</dim>
					<dim>2</dim>
					<dim>1</dim>
					<dim>1</dim>
				</port>
			</input>
			<output>
				<port id="3" precision="I64" names="/prompt_encoder/Concat_1_output_0">
					<dim>-1</dim>
					<dim>2</dim>
					<dim>1</dim>
					<dim>3</dim>
				</port>
			</output>
		</layer>
		<layer id="41" name="Constant_169" type="Const" version="opset1">
			<data element_type="i64" shape="" offset="7308" size="8" />
			<output>
				<port id="0" precision="I64" />
			</output>
		</layer>
		<layer id="42" name="/prompt_encoder/Gather_1" type="Gather" version="opset8">
			<data batch_dims="0" />
			<input>
				<port id="0" precision="FP32">
					<dim>-1</dim>
					<dim>2</dim>
					<dim>2</dim>
				</port>
				<port id="1" precision="I64" />
				<port id="2" precision="I64" />
			</input>
			<output>
				<port id="3" precision="FP32" names="/prompt_encoder/Gather_1_output_0">
					<dim>-1</dim>
					<dim>2</dim>
				</port>
			</output>
		</layer>
		<layer id="43" name="Constant_9220" type="Const" version="opset1">
			<data element_type="f32" shape="1, 1" offset="7316" size="4" />
			<output>
				<port id="0" precision="FP32">
					<dim>1</dim>
					<dim>1</dim>
				</port>
			</output>
		</layer>
		<layer id="44" name="/prompt_encoder/Div" type="Multiply" version="opset1">
			<data auto_broadcast="numpy" />
			<input>
				<port id="0" precision="FP32">
					<dim>-1</dim>
					<dim>2</dim>
				</port>
				<port id="1" precision="FP32">
					<dim>1</dim>
					<dim>1</dim>
				</port>
			</input>
			<output>
				<port id="2" precision="FP32" names="/prompt_encoder/Div_output_0">
					<dim>-1</dim>
					<dim>2</dim>
				</port>
			</output>
		</layer>
		<layer id="45" name="Constant_6107" type="Const" version="opset1">
			<data element_type="i64" shape="2" offset="7292" size="16" />
			<output>
				<port id="0" precision="I64">
					<dim>2</dim>
				</port>
			</output>
		</layer>
		<layer id="46" name="Constant_6105" type="Const" version="opset1">
			<data element_type="i64" shape="" offset="7196" size="8" />
			<output>
				<port id="0" precision="I64" />
			</output>
		</layer>
		<layer id="47" name="/prompt_encoder/Shape_1" type="Gather" version="opset1">
			<input>
				<port id="0" precision="I64">
					<dim>3</dim>
				</port>
				<port id="1" precision="I64">
					<dim>2</dim>
				</port>
				<port id="2" precision="I64" />
			</input>
			<output>
				<port id="3" precision="I64" names="/prompt_encoder/Shape_1_output_0,/prompt_encoder/Shape_7_output_0">
					<dim>2</dim>
				</port>
			</output>
		</layer>
		<layer id="48" name="/prompt_encoder/Expand" type="Broadcast" version="opset3">
			<data mode="bidirectional" />
			<input>
				<port id="0" precision="FP32">
					<dim>-1</dim>
					<dim>2</dim>
				</port>
				<port id="1" precision="I64">
					<dim>2</dim>
				</port>
			</input>
			<output>
				<port id="2" precision="FP32" names="/prompt_encoder/Expand_output_0">
					<dim>-1</dim>
					<dim>2</dim>
				</port>
			</output>
		</layer>
		<layer id="49" name="Constant_9845" type="Const" version="opset1">
			<data element_type="i64" shape="3" offset="7320" size="24" />
			<output>
				<port id="0" precision="I64">
					<dim>3</dim>
				</port>
			</output>
		</layer>
		<layer id="50" name="/prompt_encoder/Reshape_1" type="Reshape" version="opset1">
			<data special_zero="true" />
			<input>
				<port id="0" precision="FP32">
					<dim>-1</dim>
					<dim>2</dim>
				</port>
				<port id="1" precision="I64">
					<dim>3</dim>
				</port>
			</input>
			<output>
				<port id="2" precision="FP32" names="/prompt_encoder/Reshape_1_output_0">
					<dim>-1</dim>
					<dim>2</dim>
					<dim>1</dim>
				</port>
			</output>
		</layer>
		<layer id="51" name="/prompt_encoder/ScatterND" type="ScatterNDUpdate" version="opset4">
			<input>
				<port id="0" precision="FP32">
					<dim>-1</dim>
					<dim>2</dim>
					<dim>2</dim>
				</port>
				<port id="1" precision="I64">
					<dim>-1</dim>
					<dim>2</dim>
					<dim>1</dim>
					<dim>3</dim>
				</port>
				<port id="2" precision="FP32">
					<dim>-1</dim>
					<dim>2</dim>
					<dim>1</dim>
				</port>
			</input>
			<output>
				<port id="3" precision="FP32" names="/prompt_encoder/ScatterND_output_0">
					<dim>-1</dim>
					<dim>2</dim>
					<dim>2</dim>
				</port>
			</output>
		</layer>
		<layer id="52" name="onnx::Expand_243" type="Const" version="opset1">
			<data element_type="i64" shape="1" offset="7204" size="8" />
			<output>
				<port id="0" precision="I64" names="onnx::Expand_243">
					<dim>1</dim>
				</port>
			</output>
		</layer>
		<layer id="53" name="/prompt_encoder/Expand_7" type="Broadcast" version="opset3">
			<data mode="bidirectional" />
			<input>
				<port id="0" precision="I64">
					<dim>1</dim>
				</port>
				<port id="1" precision="I64">
					<dim>3</dim>
				</port>
			</input>
			<output>
				<port id="2" precision="I64" names="/prompt_encoder/Expand_7_output_0">
					<dim>-1</dim>
					<dim>2</dim>
					<dim>1</dim>
				</port>
			</output>
		</layer>
		<layer id="54" name="/prompt_encoder/Unsqueeze_6" type="Unsqueeze" version="opset1">
			<input>
				<port id="0" precision="I64">
					<dim>-1</dim>
					<dim>2</dim>
					<dim>1</dim>
				</port>
				<port id="1" precision="I64">
					<dim>1</dim>
				</port>
			</input>
			<output>
				<port id="2" precision="I64" names="/prompt_encoder/Unsqueeze_6_output_0">
					<dim>-1</dim>
					<dim>2</dim>
					<dim>1</dim>
					<dim>1</dim>
				</port>
			</output>
		</layer>
		<layer id="55" name="/prompt_encoder/Concat_3" type="Concat" version="opset1">
			<data axis="-1" />
			<input>
				<port id="0" precision="I64">
					<dim>-1</dim>
					<dim>2</dim>
					<dim>1</dim>
					<dim>1</dim>
				</port>
				<port id="1" precision="I64">
					<dim>-1</dim>
					<dim>2</dim>
					<dim>1</dim>
					<dim>1</dim>
				</port>
				<port id="2" precision="I64">
					<dim>-1</dim>
					<dim>2</dim>
					<dim>1</dim>
					<dim>1</dim>
				</port>
			</input>
			<output>
				<port id="3" precision="I64" names="/prompt_encoder/Concat_3_output_0">
					<dim>-1</dim>
					<dim>2</dim>
					<dim>1</dim>
					<dim>3</dim>
				</port>
			</output>
		</layer>
		<layer id="56" name="Constant_207" type="Const" version="opset1">
			<data element_type="i64" shape="" offset="7308" size="8" />
			<output>
				<port id="0" precision="I64" />
			</output>
		</layer>
		<layer id="57" name="/prompt_encoder/Gather_3" type="Gather" version="opset8">
			<data batch_dims="0" />
			<input>
				<port id="0" precision="FP32">
					<dim>-1</dim>
					<dim>2</dim>
					<dim>2</dim>
				</port>
				<port id="1" precision="I64" />
				<port id="2" precision="I64" />
			</input>
			<output>
				<port id="3" precision="FP32" names="/prompt_encoder/Gather_3_output_0">
					<dim>-1</dim>
					<dim>2</dim>
				</port>
			</output>
		</layer>
		<layer id="58" name="Constant_9222" type="Const" version="opset1">
			<data element_type="f32" shape="1, 1" offset="7316" size="4" />
			<output>
				<port id="0" precision="FP32">
					<dim>1</dim>
					<dim>1</dim>
				</port>
			</output>
		</layer>
		<layer id="59" name="/prompt_encoder/Div_1" type="Multiply" version="opset1">
			<data auto_broadcast="numpy" />
			<input>
				<port id="0" precision="FP32">
					<dim>-1</dim>
					<dim>2</dim>
				</port>
				<port id="1" precision="FP32">
					<dim>1</dim>
					<dim>1</dim>
				</port>
			</input>
			<output>
				<port id="2" precision="FP32" names="/prompt_encoder/Div_1_output_0">
					<dim>-1</dim>
					<dim>2</dim>
				</port>
			</output>
		</layer>
		<layer id="60" name="/prompt_encoder/Expand_4" type="Broadcast" version="opset3">
			<data mode="bidirectional" />
			<input>
				<port id="0" precision="FP32">
					<dim>-1</dim>
					<dim>2</dim>
				</port>
				<port id="1" precision="I64">
					<dim>2</dim>
				</port>
			</input>
			<output>
				<port id="2" precision="FP32" names="/prompt_encoder/Expand_4_output_0">
					<dim>-1</dim>
					<dim>2</dim>
				</port>
			</output>
		</layer>
		<layer id="61" name="Constant_9846" type="Const" version="opset1">
			<data element_type="i64" shape="3" offset="7320" size="24" />
			<output>
				<port id="0" precision="I64">
					<dim>3</dim>
				</port>
			</output>
		</layer>
		<layer id="62" name="/prompt_encoder/Reshape_2" type="Reshape" version="opset1">
			<data special_zero="true" />
			<input>
				<port id="0" precision="FP32">
					<dim>-1</dim>
					<dim>2</dim>
				</port>
				<port id="1" precision="I64">
					<dim>3</dim>
				</port>
			</input>
			<output>
				<port id="2" precision="FP32" names="/prompt_encoder/Reshape_2_output_0">
					<dim>-1</dim>
					<dim>2</dim>
					<dim>1</dim>
				</port>
			</output>
		</layer>
		<layer id="63" name="/prompt_encoder/ScatterND_1" type="ScatterNDUpdate" version="opset4">
			<input>
				<port id="0" precision="FP32">
					<dim>-1</dim>
					<dim>2</dim>
					<dim>2</dim>
				</port>
				<port id="1" precision="I64">
					<dim>-1</dim>
					<dim>2</dim>
					<dim>1</dim>
					<dim>3</dim>
				</port>
				<port id="2" precision="FP32">
					<dim>-1</dim>
					<dim>2</dim>
					<dim>1</dim>
				</port>
			</input>
			<output>
				<port id="3" precision="FP32" names="/prompt_encoder/ScatterND_1_output_0">
					<dim>-1</dim>
					<dim>2</dim>
					<dim>2</dim>
				</port>
			</output>
		</layer>
		<layer id="64" name="Constant_9223" type="Const" version="opset1">
			<data element_type="f32" shape="1, 1, 1" offset="7344" size="4" />
			<output>
				<port id="0" precision="FP32">
					<dim>1</dim>
					<dim>1</dim>
					<dim>1</dim>
				</port>
			</output>
		</layer>
		<layer id="65" name="/prompt_encoder/Mul_6" type="Multiply" version="opset1">
			<data auto_broadcast="numpy" />
			<input>
				<port id="0" precision="FP32">
					<dim>-1</dim>
					<dim>2</dim>
					<dim>2</dim>
				</port>
				<port id="1" precision="FP32">
					<dim>1</dim>
					<dim>1</dim>
					<dim>1</dim>
				</port>
			</input>
			<output>
				<port id="2" precision="FP32" names="/prompt_encoder/Mul_6_output_0">
					<dim>-1</dim>
					<dim>2</dim>
					<dim>2</dim>
				</port>
			</output>
		</layer>
		<layer id="66" name="Constant_9224" type="Const" version="opset1">
			<data element_type="f32" shape="1, 1, 1" offset="7348" size="4" />
			<output>
				<port id="0" precision="FP32">
					<dim>1</dim>
					<dim>1</dim>
					<dim>1</dim>
				</port>
			</output>
		</layer>
		<layer id="67" name="/prompt_encoder/Sub" type="Add" version="opset1">
			<data auto_broadcast="numpy" />
			<input>
				<port id="0" precision="FP32">
					<dim>-1</dim>
					<dim>2</dim>
					<dim>2</dim>
				</port>
				<port id="1" precision="FP32">
					<dim>1</dim>
					<dim>1</dim>
					<dim>1</dim>
				</port>
			</input>
			<output>
				<port id="2" precision="FP32" names="/prompt_encoder/Sub_output_0">
					<dim>-1</dim>
					<dim>2</dim>
					<dim>2</dim>
				</port>
			</output>
		</layer>
		<layer id="68" name="Transpose_6830" type="Const" version="opset1">
			<data element_type="f32" shape="128, 2" offset="7352" size="1024" />
			<output>
				<port id="0" precision="FP32">
					<dim>128</dim>
					<dim>2</dim>
				</port>
			</output>
		</layer>
		<layer id="69" name="/prompt_encoder/MatMul" type="MatMul" version="opset1">
			<data transpose_a="false" transpose_b="true" />
			<input>
				<port id="0" precision="FP32">
					<dim>-1</dim>
					<dim>2</dim>
					<dim>2</dim>
				</port>
				<port id="1" precision="FP32">
					<dim>128</dim>
					<dim>2</dim>
				</port>
			</input>
			<output>
				<port id="2" precision="FP32" names="/prompt_encoder/MatMul_output_0">
					<dim>-1</dim>
					<dim>2</dim>
					<dim>128</dim>
				</port>
			</output>
		</layer>
		<layer id="70" name="Constant_9225" type="Const" version="opset1">
			<data element_type="f32" shape="1, 1, 1" offset="8376" size="4" />
			<output>
				<port id="0" precision="FP32">
					<dim>1</dim>
					<dim>1</dim>
					<dim>1</dim>
				</port>
			</output>
		</layer>
		<layer id="71" name="/prompt_encoder/Mul_7" type="Multiply" version="opset1">
			<data auto_broadcast="numpy" />
			<input>
				<port id="0" precision="FP32">
					<dim>-1</dim>
					<dim>2</dim>
					<dim>128</dim>
				</port>
				<port id="1" precision="FP32">
					<dim>1</dim>
					<dim>1</dim>
					<dim>1</dim>
				</port>
			</input>
			<output>
				<port id="2" precision="FP32" names="/prompt_encoder/Mul_7_output_0">
					<dim>-1</dim>
					<dim>2</dim>
					<dim>128</dim>
				</port>
			</output>
		</layer>
		<layer id="72" name="/prompt_encoder/Sin" type="Sin" version="opset1">
			<input>
				<port id="0" precision="FP32">
					<dim>-1</dim>
					<dim>2</dim>
					<dim>128</dim>
				</port>
			</input>
			<output>
				<port id="1" precision="FP32" names="/prompt_encoder/Sin_output_0">
					<dim>-1</dim>
					<dim>2</dim>
					<dim>128</dim>
				</port>
			</output>
		</layer>
		<layer id="73" name="/prompt_encoder/Cos" type="Cos" version="opset1">
			<input>
				<port id="0" precision="FP32">
					<dim>-1</dim>
					<dim>2</dim>
					<dim>128</dim>
				</port>
			</input>
			<output>
				<port id="1" precision="FP32" names="/prompt_encoder/Cos_output_0">
					<dim>-1</dim>
					<dim>2</dim>
					<dim>128</dim>
				</port>
			</output>
		</layer>
		<layer id="74" name="/prompt_encoder/Concat_5" type="Concat" version="opset1">
			<data axis="-1" />
			<input>
				<port id="0" precision="FP32">
					<dim>-1</dim>
					<dim>2</dim>
					<dim>128</dim>
				</port>
				<port id="1" precision="FP32">
					<dim>-1</dim>
					<dim>2</dim>
					<dim>128</dim>
				</port>
			</input>
			<output>
				<port id="2" precision="FP32" names="/prompt_encoder/Concat_5_output_0">
					<dim>-1</dim>
					<dim>2</dim>
					<dim>256</dim>
				</port>
			</output>
		</layer>
		<layer id="75" name="Constant_9226" type="Const" version="opset1">
			<data element_type="i64" shape="1, 1, 256" offset="8380" size="2048" />
			<output>
				<port id="0" precision="I64">
					<dim>1</dim>
					<dim>1</dim>
					<dim>256</dim>
				</port>
			</output>
		</layer>
		<layer id="76" name="/prompt_encoder/Add_7" type="Add" version="opset1">
			<data auto_broadcast="numpy" />
			<input>
				<port id="0" precision="I64">
					<dim>-1</dim>
					<dim>1</dim>
					<dim>1</dim>
				</port>
				<port id="1" precision="I64">
					<dim>1</dim>
					<dim>1</dim>
					<dim>256</dim>
				</port>
			</input>
			<output>
				<port id="2" precision="I64" names="/prompt_encoder/Add_7_output_0">
					<dim>-1</dim>
					<dim>1</dim>
					<dim>256</dim>
				</port>
			</output>
		</layer>
		<layer id="77" name="/prompt_encoder/Shape_14" type="ShapeOf" version="opset3">
			<data output_type="i64" />
			<input>
				<port id="0" precision="I64">
					<dim>-1</dim>
					<dim>1</dim>
					<dim>256</dim>
				</port>
			</input>
			<output>
				<port id="1" precision="I64" names="/prompt_encoder/Shape_14_output_0,/prompt_encoder/Shape_20_output_0,/prompt_encoder/Shape_26_output_0,/prompt_encoder/Shape_32_output_0">
					<dim>3</dim>
				</port>
			</output>
		</layer>
		<layer id="78" name="/prompt_encoder/Equal_6" type="Equal" version="opset1">
			<data auto_broadcast="numpy" />
			<input>
				<port id="0" precision="I64">
					<dim>3</dim>
				</port>
				<port id="1" precision="I64">
					<dim>3</dim>
				</port>
			</input>
			<output>
				<port id="2" precision="BOOL" names="/prompt_encoder/Equal_12_output_0,/prompt_encoder/Equal_15_output_0,/prompt_encoder/Equal_6_output_0,/prompt_encoder/Equal_9_output_0">
					<dim>3</dim>
				</port>
			</output>
		</layer>
		<layer id="79" name="/prompt_encoder/Where_6" type="Select" version="opset1">
			<data auto_broadcast="numpy" />
			<input>
				<port id="0" precision="BOOL">
					<dim>3</dim>
				</port>
				<port id="1" precision="I64">
					<dim>3</dim>
				</port>
				<port id="2" precision="I64">
					<dim>3</dim>
				</port>
			</input>
			<output>
				<port id="3" precision="I64" names="/prompt_encoder/Where_12_output_0,/prompt_encoder/Where_15_output_0,/prompt_encoder/Where_6_output_0,/prompt_encoder/Where_9_output_0">
					<dim>3</dim>
				</port>
			</output>
		</layer>
		<layer id="80" name="/prompt_encoder/Expand_9" type="Broadcast" version="opset3">
			<data mode="bidirectional" />
			<input>
				<port id="0" precision="I64">
					<dim>-1</dim>
					<dim>1</dim>
					<dim>1</dim>
				</port>
				<port id="1" precision="I64">
					<dim>3</dim>
				</port>
			</input>
			<output>
				<port id="2" precision="I64" names="/prompt_encoder/Expand_13_output_0,/prompt_encoder/Expand_17_output_0,/prompt_encoder/Expand_21_output_0,/prompt_encoder/Expand_9_output_0">
					<dim>-1</dim>
					<dim>1</dim>
					<dim>256</dim>
				</port>
			</output>
		</layer>
		<layer id="81" name="/prompt_encoder/Unsqueeze_7" type="Unsqueeze" version="opset1">
			<input>
				<port id="0" precision="I64">
					<dim>-1</dim>
					<dim>1</dim>
					<dim>256</dim>
				</port>
				<port id="1" precision="I64">
					<dim>1</dim>
				</port>
			</input>
			<output>
				<port id="2" precision="I64" names="/prompt_encoder/Unsqueeze_10_output_0,/prompt_encoder/Unsqueeze_13_output_0,/prompt_encoder/Unsqueeze_16_output_0,/prompt_encoder/Unsqueeze_7_output_0">
					<dim>-1</dim>
					<dim>1</dim>
					<dim>256</dim>
					<dim>1</dim>
				</port>
			</output>
		</layer>
		<layer id="82" name="onnx::Expand_320" type="Const" version="opset1">
			<data element_type="i64" shape="1, 1" offset="7196" size="8" />
			<output>
				<port id="0" precision="I64" names="onnx::Expand_320">
					<dim>1</dim>
					<dim>1</dim>
				</port>
			</output>
		</layer>
		<layer id="83" name="/prompt_encoder/Expand_10" type="Broadcast" version="opset3">
			<data mode="bidirectional" />
			<input>
				<port id="0" precision="I64">
					<dim>1</dim>
					<dim>1</dim>
				</port>
				<port id="1" precision="I64">
					<dim>3</dim>
				</port>
			</input>
			<output>
				<port id="2" precision="I64" names="/prompt_encoder/Expand_10_output_0,/prompt_encoder/Expand_14_output_0">
					<dim>-1</dim>
					<dim>1</dim>
					<dim>256</dim>
				</port>
			</output>
		</layer>
		<layer id="84" name="/prompt_encoder/Unsqueeze_8" type="Unsqueeze" version="opset1">
			<input>
				<port id="0" precision="I64">
					<dim>-1</dim>
					<dim>1</dim>
					<dim>256</dim>
				</port>
				<port id="1" precision="I64">
					<dim>1</dim>
				</port>
			</input>
			<output>
				<port id="2" precision="I64" names="/prompt_encoder/Unsqueeze_11_output_0,/prompt_encoder/Unsqueeze_8_output_0">
					<dim>-1</dim>
					<dim>1</dim>
					<dim>256</dim>
					<dim>1</dim>
				</port>
			</output>
		</layer>
		<layer id="85" name="Constant_2721" type="Const" version="opset1">
			<data element_type="i64" shape="" offset="7196" size="8" />
			<output>
				<port id="0" precision="I64" />
			</output>
		</layer>
		<layer id="86" name="Constant_2717" type="Const" version="opset1">
			<data element_type="i64" shape="" offset="7212" size="8" />
			<output>
				<port id="0" precision="I64" />
			</output>
		</layer>
		<layer id="87" name="Constant_2716" type="Const" version="opset1">
			<data element_type="i32" shape="" offset="10428" size="4" />
			<output>
				<port id="0" precision="I32" />
			</output>
		</layer>
		<layer id="88" name="Gather_2718" type="Gather" version="opset8">
			<data batch_dims="0" />
			<input>
				<port id="0" precision="I64">
					<dim>3</dim>
				</port>
				<port id="1" precision="I64" />
				<port id="2" precision="I32" />
			</input>
			<output>
				<port id="3" precision="I64" />
			</output>
		</layer>
		<layer id="89" name="Constant_2719" type="Const" version="opset1">
			<data element_type="i64" shape="" offset="7204" size="8" />
			<output>
				<port id="0" precision="I64" />
			</output>
		</layer>
		<layer id="90" name="Equal_2720" type="Equal" version="opset1">
			<data auto_broadcast="numpy" />
			<input>
				<port id="0" precision="I64" />
				<port id="1" precision="I64" />
			</input>
			<output>
				<port id="2" precision="BOOL" />
			</output>
		</layer>
		<layer id="91" name="Constant_2722" type="Const" version="opset1">
			<data element_type="i64" shape="" offset="10432" size="8" />
			<output>
				<port id="0" precision="I64" />
			</output>
		</layer>
		<layer id="92" name="Select_2724" type="Select" version="opset1">
			<data auto_broadcast="numpy" />
			<input>
				<port id="0" precision="BOOL" />
				<port id="1" precision="I64" />
				<port id="2" precision="I64" />
			</input>
			<output>
				<port id="3" precision="I64" />
			</output>
		</layer>
		<layer id="93" name="Constant_2725" type="Const" version="opset1">
			<data element_type="i64" shape="" offset="7204" size="8" />
			<output>
				<port id="0" precision="I64" />
			</output>
		</layer>
		<layer id="94" name="Range_2726" type="Range" version="opset4">
			<data output_type="i64" />
			<input>
				<port id="0" precision="I64" />
				<port id="1" precision="I64" />
				<port id="2" precision="I64" />
			</input>
			<output>
				<port id="3" precision="I64">
					<dim>256</dim>
				</port>
			</output>
		</layer>
		<layer id="95" name="/prompt_encoder/Expand_11" type="Broadcast" version="opset3">
			<data mode="bidirectional" />
			<input>
				<port id="0" precision="I64">
					<dim>256</dim>
				</port>
				<port id="1" precision="I64">
					<dim>3</dim>
				</port>
			</input>
			<output>
				<port id="2" precision="I64" names="/prompt_encoder/Expand_11_output_0,/prompt_encoder/Expand_15_output_0,/prompt_encoder/Expand_19_output_0,/prompt_encoder/Expand_23_output_0">
					<dim>-1</dim>
					<dim>1</dim>
					<dim>256</dim>
				</port>
			</output>
		</layer>
		<layer id="96" name="/prompt_encoder/Unsqueeze_9" type="Unsqueeze" version="opset1">
			<input>
				<port id="0" precision="I64">
					<dim>-1</dim>
					<dim>1</dim>
					<dim>256</dim>
				</port>
				<port id="1" precision="I64">
					<dim>1</dim>
				</port>
			</input>
			<output>
				<port id="2" precision="I64" names="/prompt_encoder/Unsqueeze_12_output_0,/prompt_encoder/Unsqueeze_15_output_0,/prompt_encoder/Unsqueeze_18_output_0,/prompt_encoder/Unsqueeze_9_output_0">
					<dim>-1</dim>
					<dim>1</dim>
					<dim>256</dim>
					<dim>1</dim>
				</port>
			</output>
		</layer>
		<layer id="97" name="/prompt_encoder/Concat_6" type="Concat" version="opset1">
			<data axis="-1" />
			<input>
				<port id="0" precision="I64">
					<dim>-1</dim>
					<dim>1</dim>
					<dim>256</dim>
					<dim>1</dim>
				</port>
				<port id="1" precision="I64">
					<dim>-1</dim>
					<dim>1</dim>
					<dim>256</dim>
					<dim>1</dim>
				</port>
				<port id="2" precision="I64">
					<dim>-1</dim>
					<dim>1</dim>
					<dim>256</dim>
					<dim>1</dim>
				</port>
			</input>
			<output>
				<port id="3" precision="I64" names="/prompt_encoder/Concat_6_output_0,/prompt_encoder/Concat_8_output_0">
					<dim>-1</dim>
					<dim>1</dim>
					<dim>256</dim>
					<dim>3</dim>
				</port>
			</output>
		</layer>
		<layer id="98" name="Constant_253" type="Const" version="opset1">
			<data element_type="i64" shape="" offset="7204" size="8" />
			<output>
				<port id="0" precision="I64" />
			</output>
		</layer>
		<layer id="99" name="/prompt_encoder/Gather_5" type="Gather" version="opset8">
			<data batch_dims="0" />
			<input>
				<port id="0" precision="FP32">
					<dim>-1</dim>
					<dim>2</dim>
					<dim>256</dim>
				</port>
				<port id="1" precision="I64" />
				<port id="2" precision="I64" />
			</input>
			<output>
				<port id="3" precision="FP32" names="/prompt_encoder/Gather_5_output_0">
					<dim>-1</dim>
					<dim>256</dim>
				</port>
			</output>
		</layer>
		<layer id="100" name="prompt_encoder.point_embeddings.2.weight" type="Const" version="opset1">
			<data element_type="f32" shape="1, 256" offset="10440" size="1024" />
			<output>
				<port id="0" precision="FP32" names="prompt_encoder.point_embeddings.2.weight">
					<dim>1</dim>
					<dim>256</dim>
				</port>
			</output>
		</layer>
		<layer id="101" name="/prompt_encoder/Add_5" type="Add" version="opset1">
			<data auto_broadcast="numpy" />
			<input>
				<port id="0" precision="FP32">
					<dim>-1</dim>
					<dim>256</dim>
				</port>
				<port id="1" precision="FP32">
					<dim>1</dim>
					<dim>256</dim>
				</port>
			</input>
			<output>
				<port id="2" precision="FP32" names="/prompt_encoder/Add_5_output_0">
					<dim>-1</dim>
					<dim>256</dim>
				</port>
			</output>
		</layer>
		<layer id="102" name="Shape_589" type="ShapeOf" version="opset3">
			<data output_type="i64" />
			<input>
				<port id="0" precision="FP32">
					<dim>-1</dim>
					<dim>2</dim>
					<dim>256</dim>
				</port>
			</input>
			<output>
				<port id="1" precision="I64" names="/mask_decoder/Shape_output_0,onnx::Gather_304,onnx::Gather_364,onnx::Gather_425,onnx::Gather_485">
					<dim>3</dim>
				</port>
			</output>
		</layer>
		<layer id="103" name="Constant_6115" type="Const" version="opset1">
			<data element_type="i64" shape="2" offset="11464" size="16" />
			<output>
				<port id="0" precision="I64">
					<dim>2</dim>
				</port>
			</output>
		</layer>
		<layer id="104" name="Constant_6113" type="Const" version="opset1">
			<data element_type="i64" shape="" offset="7196" size="8" />
			<output>
				<port id="0" precision="I64" />
			</output>
		</layer>
		<layer id="105" name="/prompt_encoder/Shape_13" type="Gather" version="opset1">
			<input>
				<port id="0" precision="I64">
					<dim>3</dim>
				</port>
				<port id="1" precision="I64">
					<dim>2</dim>
				</port>
				<port id="2" precision="I64" />
			</input>
			<output>
				<port id="3" precision="I64" names="/prompt_encoder/Shape_13_output_0,/prompt_encoder/Shape_19_output_0,/prompt_encoder/Shape_25_output_0,/prompt_encoder/Shape_31_output_0">
					<dim>2</dim>
				</port>
			</output>
		</layer>
		<layer id="106" name="/prompt_encoder/Expand_8" type="Broadcast" version="opset3">
			<data mode="bidirectional" />
			<input>
				<port id="0" precision="FP32">
					<dim>-1</dim>
					<dim>256</dim>
				</port>
				<port id="1" precision="I64">
					<dim>2</dim>
				</port>
			</input>
			<output>
				<port id="2" precision="FP32" names="/prompt_encoder/Expand_12_output_0,/prompt_encoder/Expand_8_output_0">
					<dim>-1</dim>
					<dim>256</dim>
				</port>
			</output>
		</layer>
		<layer id="107" name="Constant_9847" type="Const" version="opset1">
			<data element_type="i64" shape="3" offset="11480" size="24" />
			<output>
				<port id="0" precision="I64">
					<dim>3</dim>
				</port>
			</output>
		</layer>
		<layer id="108" name="/prompt_encoder/Reshape_3" type="Reshape" version="opset1">
			<data special_zero="true" />
			<input>
				<port id="0" precision="FP32">
					<dim>-1</dim>
					<dim>256</dim>
				</port>
				<port id="1" precision="I64">
					<dim>3</dim>
				</port>
			</input>
			<output>
				<port id="2" precision="FP32" names="/prompt_encoder/Reshape_3_output_0,/prompt_encoder/Reshape_4_output_0">
					<dim>-1</dim>
					<dim>1</dim>
					<dim>256</dim>
				</port>
			</output>
		</layer>
		<layer id="109" name="/prompt_encoder/ScatterND_2" type="ScatterNDUpdate" version="opset4">
			<input>
				<port id="0" precision="FP32">
					<dim>-1</dim>
					<dim>2</dim>
					<dim>256</dim>
				</port>
				<port id="1" precision="I64">
					<dim>-1</dim>
					<dim>1</dim>
					<dim>256</dim>
					<dim>3</dim>
				</port>
				<port id="2" precision="FP32">
					<dim>-1</dim>
					<dim>1</dim>
					<dim>256</dim>
				</port>
			</input>
			<output>
				<port id="3" precision="FP32" names="/prompt_encoder/ScatterND_2_output_0">
					<dim>-1</dim>
					<dim>2</dim>
					<dim>256</dim>
				</port>
			</output>
		</layer>
		<layer id="110" name="/prompt_encoder/ScatterND_3" type="ScatterNDUpdate" version="opset4">
			<input>
				<port id="0" precision="FP32">
					<dim>-1</dim>
					<dim>2</dim>
					<dim>256</dim>
				</port>
				<port id="1" precision="I64">
					<dim>-1</dim>
					<dim>1</dim>
					<dim>256</dim>
					<dim>3</dim>
				</port>
				<port id="2" precision="FP32">
					<dim>-1</dim>
					<dim>1</dim>
					<dim>256</dim>
				</port>
			</input>
			<output>
				<port id="3" precision="FP32" names="/prompt_encoder/ScatterND_3_output_0">
					<dim>-1</dim>
					<dim>2</dim>
					<dim>256</dim>
				</port>
			</output>
		</layer>
		<layer id="111" name="onnx::Expand_441" type="Const" version="opset1">
			<data element_type="i64" shape="1, 1" offset="7204" size="8" />
			<output>
				<port id="0" precision="I64" names="onnx::Expand_441">
					<dim>1</dim>
					<dim>1</dim>
				</port>
			</output>
		</layer>
		<layer id="112" name="/prompt_encoder/Expand_18" type="Broadcast" version="opset3">
			<data mode="bidirectional" />
			<input>
				<port id="0" precision="I64">
					<dim>1</dim>
					<dim>1</dim>
				</port>
				<port id="1" precision="I64">
					<dim>3</dim>
				</port>
			</input>
			<output>
				<port id="2" precision="I64" names="/prompt_encoder/Expand_18_output_0,/prompt_encoder/Expand_22_output_0">
					<dim>-1</dim>
					<dim>1</dim>
					<dim>256</dim>
				</port>
			</output>
		</layer>
		<layer id="113" name="/prompt_encoder/Unsqueeze_14" type="Unsqueeze" version="opset1">
			<input>
				<port id="0" precision="I64">
					<dim>-1</dim>
					<dim>1</dim>
					<dim>256</dim>
				</port>
				<port id="1" precision="I64">
					<dim>1</dim>
				</port>
			</input>
			<output>
				<port id="2" precision="I64" names="/prompt_encoder/Unsqueeze_14_output_0,/prompt_encoder/Unsqueeze_17_output_0">
					<dim>-1</dim>
					<dim>1</dim>
					<dim>256</dim>
					<dim>1</dim>
				</port>
			</output>
		</layer>
		<layer id="114" name="/prompt_encoder/Concat_10" type="Concat" version="opset1">
			<data axis="-1" />
			<input>
				<port id="0" precision="I64">
					<dim>-1</dim>
					<dim>1</dim>
					<dim>256</dim>
					<dim>1</dim>
				</port>
				<port id="1" precision="I64">
					<dim>-1</dim>
					<dim>1</dim>
					<dim>256</dim>
					<dim>1</dim>
				</port>
				<port id="2" precision="I64">
					<dim>-1</dim>
					<dim>1</dim>
					<dim>256</dim>
					<dim>1</dim>
				</port>
			</input>
			<output>
				<port id="3" precision="I64" names="/prompt_encoder/Concat_10_output_0,/prompt_encoder/Concat_12_output_0">
					<dim>-1</dim>
					<dim>1</dim>
					<dim>256</dim>
					<dim>3</dim>
				</port>
			</output>
		</layer>
		<layer id="115" name="Constant_328" type="Const" version="opset1">
			<data element_type="i64" shape="" offset="7204" size="8" />
			<output>
				<port id="0" precision="I64" />
			</output>
		</layer>
		<layer id="116" name="/prompt_encoder/Gather_7" type="Gather" version="opset8">
			<data batch_dims="0" />
			<input>
				<port id="0" precision="FP32">
					<dim>-1</dim>
					<dim>2</dim>
					<dim>256</dim>
				</port>
				<port id="1" precision="I64" />
				<port id="2" precision="I64" />
			</input>
			<output>
				<port id="3" precision="FP32" names="/prompt_encoder/Gather_7_output_0">
					<dim>-1</dim>
					<dim>256</dim>
				</port>
			</output>
		</layer>
		<layer id="117" name="prompt_encoder.point_embeddings.3.weight" type="Const" version="opset1">
			<data element_type="f32" shape="1, 256" offset="11504" size="1024" />
			<output>
				<port id="0" precision="FP32" names="prompt_encoder.point_embeddings.3.weight">
					<dim>1</dim>
					<dim>256</dim>
				</port>
			</output>
		</layer>
		<layer id="118" name="/prompt_encoder/Add_10" type="Add" version="opset1">
			<data auto_broadcast="numpy" />
			<input>
				<port id="0" precision="FP32">
					<dim>-1</dim>
					<dim>256</dim>
				</port>
				<port id="1" precision="FP32">
					<dim>1</dim>
					<dim>256</dim>
				</port>
			</input>
			<output>
				<port id="2" precision="FP32" names="/prompt_encoder/Add_10_output_0">
					<dim>-1</dim>
					<dim>256</dim>
				</port>
			</output>
		</layer>
		<layer id="119" name="/prompt_encoder/Expand_16" type="Broadcast" version="opset3">
			<data mode="bidirectional" />
			<input>
				<port id="0" precision="FP32">
					<dim>-1</dim>
					<dim>256</dim>
				</port>
				<port id="1" precision="I64">
					<dim>2</dim>
				</port>
			</input>
			<output>
				<port id="2" precision="FP32" names="/prompt_encoder/Expand_16_output_0,/prompt_encoder/Expand_20_output_0">
					<dim>-1</dim>
					<dim>256</dim>
				</port>
			</output>
		</layer>
		<layer id="120" name="Constant_9849" type="Const" version="opset1">
			<data element_type="i64" shape="3" offset="11480" size="24" />
			<output>
				<port id="0" precision="I64">
					<dim>3</dim>
				</port>
			</output>
		</layer>
		<layer id="121" name="/prompt_encoder/Reshape_5" type="Reshape" version="opset1">
			<data special_zero="true" />
			<input>
				<port id="0" precision="FP32">
					<dim>-1</dim>
					<dim>256</dim>
				</port>
				<port id="1" precision="I64">
					<dim>3</dim>
				</port>
			</input>
			<output>
				<port id="2" precision="FP32" names="/prompt_encoder/Reshape_5_output_0,/prompt_encoder/Reshape_6_output_0">
					<dim>-1</dim>
					<dim>1</dim>
					<dim>256</dim>
				</port>
			</output>
		</layer>
		<layer id="122" name="/prompt_encoder/ScatterND_4" type="ScatterNDUpdate" version="opset4">
			<input>
				<port id="0" precision="FP32">
					<dim>-1</dim>
					<dim>2</dim>
					<dim>256</dim>
				</port>
				<port id="1" precision="I64">
					<dim>-1</dim>
					<dim>1</dim>
					<dim>256</dim>
					<dim>3</dim>
				</port>
				<port id="2" precision="FP32">
					<dim>-1</dim>
					<dim>1</dim>
					<dim>256</dim>
				</port>
			</input>
			<output>
				<port id="3" precision="FP32" names="/prompt_encoder/ScatterND_4_output_0">
					<dim>-1</dim>
					<dim>2</dim>
					<dim>256</dim>
				</port>
			</output>
		</layer>
		<layer id="123" name="/prompt_encoder/ScatterND_5" type="ScatterNDUpdate" version="opset4">
			<input>
				<port id="0" precision="FP32">
					<dim>-1</dim>
					<dim>2</dim>
					<dim>256</dim>
				</port>
				<port id="1" precision="I64">
					<dim>-1</dim>
					<dim>1</dim>
					<dim>256</dim>
					<dim>3</dim>
				</port>
				<port id="2" precision="FP32">
					<dim>-1</dim>
					<dim>1</dim>
					<dim>256</dim>
				</port>
			</input>
			<output>
				<port id="3" precision="FP32" names="/prompt_encoder/Concat_14_output_0,/prompt_encoder/ScatterND_5_output_0">
					<dim>-1</dim>
					<dim>2</dim>
					<dim>256</dim>
				</port>
			</output>
		</layer>
		<layer id="124" name="/mask_decoder/Concat_1" type="Concat" version="opset1">
			<data axis="1" />
			<input>
				<port id="0" precision="FP32">
					<dim>-1</dim>
					<dim>5</dim>
					<dim>256</dim>
				</port>
				<port id="1" precision="FP32">
					<dim>-1</dim>
					<dim>2</dim>
					<dim>256</dim>
				</port>
			</input>
			<output>
				<port id="2" precision="FP32" names="/mask_decoder/Concat_1_output_0">
					<dim>-1</dim>
					<dim>7</dim>
					<dim>256</dim>
				</port>
			</output>
		</layer>
		<layer id="125" name="Transpose_7175" type="Const" version="opset1">
			<data element_type="f32" shape="256, 256" offset="12528" size="262144" />
			<output>
				<port id="0" precision="FP32">
					<dim>256</dim>
					<dim>256</dim>
				</port>
			</output>
		</layer>
		<layer id="126" name="/mask_decoder/transformer/layers.0/self_attn/q_proj/MatMul" type="MatMul" version="opset1">
			<data transpose_a="false" transpose_b="true" />
			<input>
				<port id="0" precision="FP32">
					<dim>-1</dim>
					<dim>7</dim>
					<dim>256</dim>
				</port>
				<port id="1" precision="FP32">
					<dim>256</dim>
					<dim>256</dim>
				</port>
			</input>
			<output>
				<port id="2" precision="FP32" names="/mask_decoder/transformer/layers.0/self_attn/q_proj/MatMul_output_0">
					<dim>-1</dim>
					<dim>7</dim>
					<dim>256</dim>
				</port>
			</output>
		</layer>
		<layer id="127" name="/mask_decoder/transformer/layers.0/self_attn/q_proj/Add" type="Add" version="opset1">
			<data auto_broadcast="numpy" />
			<input>
				<port id="0" precision="FP32">
					<dim>1</dim>
					<dim>1</dim>
					<dim>256</dim>
				</port>
				<port id="1" precision="FP32">
					<dim>-1</dim>
					<dim>7</dim>
					<dim>256</dim>
				</port>
			</input>
			<output>
				<port id="2" precision="FP32" names="/mask_decoder/transformer/layers.0/self_attn/q_proj/Add_output_0">
					<dim>-1</dim>
					<dim>7</dim>
					<dim>256</dim>
				</port>
			</output>
		</layer>
		<layer id="128" name="/mask_decoder/transformer/layers.0/self_attn/Concat" type="Const" version="opset1">
			<data element_type="i64" shape="4" offset="274672" size="32" />
			<output>
				<port id="0" precision="I64">
					<dim>4</dim>
				</port>
			</output>
		</layer>
		<layer id="129" name="/mask_decoder/transformer/layers.0/self_attn/Reshape" type="Reshape" version="opset1">
			<data special_zero="true" />
			<input>
				<port id="0" precision="FP32">
					<dim>-1</dim>
					<dim>7</dim>
					<dim>256</dim>
				</port>
				<port id="1" precision="I64">
					<dim>4</dim>
				</port>
			</input>
			<output>
				<port id="2" precision="FP32" names="/mask_decoder/transformer/layers.0/self_attn/Reshape_output_0">
					<dim>-1</dim>
					<dim>7</dim>
					<dim>8</dim>
					<dim>32</dim>
				</port>
			</output>
		</layer>
		<layer id="130" name="Constant_516" type="Const" version="opset1">
			<data element_type="i64" shape="4" offset="274704" size="32" />
			<output>
				<port id="0" precision="I64">
					<dim>4</dim>
				</port>
			</output>
		</layer>
		<layer id="131" name="/mask_decoder/transformer/layers.0/self_attn/Transpose" type="Transpose" version="opset1">
			<input>
				<port id="0" precision="FP32">
					<dim>-1</dim>
					<dim>7</dim>
					<dim>8</dim>
					<dim>32</dim>
				</port>
				<port id="1" precision="I64">
					<dim>4</dim>
				</port>
			</input>
			<output>
				<port id="2" precision="FP32" names="/mask_decoder/transformer/layers.0/self_attn/Transpose_output_0">
					<dim>-1</dim>
					<dim>8</dim>
					<dim>7</dim>
					<dim>32</dim>
				</port>
			</output>
		</layer>
		<layer id="132" name="Constant_9231" type="Const" version="opset1">
			<data element_type="f32" shape="1, 1, 256" offset="274736" size="1024" />
			<output>
				<port id="0" precision="FP32">
					<dim>1</dim>
					<dim>1</dim>
					<dim>256</dim>
				</port>
			</output>
		</layer>
		<layer id="133" name="Transpose_7200" type="Const" version="opset1">
			<data element_type="f32" shape="256, 256" offset="275760" size="262144" />
			<output>
				<port id="0" precision="FP32">
					<dim>256</dim>
					<dim>256</dim>
				</port>
			</output>
		</layer>
		<layer id="134" name="/mask_decoder/transformer/layers.0/self_attn/k_proj/MatMul" type="MatMul" version="opset1">
			<data transpose_a="false" transpose_b="true" />
			<input>
				<port id="0" precision="FP32">
					<dim>-1</dim>
					<dim>7</dim>
					<dim>256</dim>
				</port>
				<port id="1" precision="FP32">
					<dim>256</dim>
					<dim>256</dim>
				</port>
			</input>
			<output>
				<port id="2" precision="FP32" names="/mask_decoder/transformer/layers.0/self_attn/k_proj/MatMul_output_0">
					<dim>-1</dim>
					<dim>7</dim>
					<dim>256</dim>
				</port>
			</output>
		</layer>
		<layer id="135" name="/mask_decoder/transformer/layers.0/self_attn/k_proj/Add" type="Add" version="opset1">
			<data auto_broadcast="numpy" />
			<input>
				<port id="0" precision="FP32">
					<dim>1</dim>
					<dim>1</dim>
					<dim>256</dim>
				</port>
				<port id="1" precision="FP32">
					<dim>-1</dim>
					<dim>7</dim>
					<dim>256</dim>
				</port>
			</input>
			<output>
				<port id="2" precision="FP32" names="/mask_decoder/transformer/layers.0/self_attn/k_proj/Add_output_0">
					<dim>-1</dim>
					<dim>7</dim>
					<dim>256</dim>
				</port>
			</output>
		</layer>
		<layer id="136" name="/mask_decoder/transformer/layers.0/self_attn/Concat_1" type="Const" version="opset1">
			<data element_type="i64" shape="4" offset="274672" size="32" />
			<output>
				<port id="0" precision="I64">
					<dim>4</dim>
				</port>
			</output>
		</layer>
		<layer id="137" name="/mask_decoder/transformer/layers.0/self_attn/Reshape_1" type="Reshape" version="opset1">
			<data special_zero="true" />
			<input>
				<port id="0" precision="FP32">
					<dim>-1</dim>
					<dim>7</dim>
					<dim>256</dim>
				</port>
				<port id="1" precision="I64">
					<dim>4</dim>
				</port>
			</input>
			<output>
				<port id="2" precision="FP32" names="/mask_decoder/transformer/layers.0/self_attn/Reshape_1_output_0">
					<dim>-1</dim>
					<dim>7</dim>
					<dim>8</dim>
					<dim>32</dim>
				</port>
			</output>
		</layer>
		<layer id="138" name="Constant_538" type="Const" version="opset1">
			<data element_type="i64" shape="4" offset="537904" size="32" />
			<output>
				<port id="0" precision="I64">
					<dim>4</dim>
				</port>
			</output>
		</layer>
		<layer id="139" name="/mask_decoder/transformer/layers.0/self_attn/Transpose_2" type="Transpose" version="opset1">
			<input>
				<port id="0" precision="FP32">
					<dim>-1</dim>
					<dim>7</dim>
					<dim>8</dim>
					<dim>32</dim>
				</port>
				<port id="1" precision="I64">
					<dim>4</dim>
				</port>
			</input>
			<output>
				<port id="2" precision="FP32" names="/mask_decoder/transformer/layers.0/self_attn/Transpose_2_output_0">
					<dim>-1</dim>
					<dim>8</dim>
					<dim>32</dim>
					<dim>7</dim>
				</port>
			</output>
		</layer>
		<layer id="140" name="/mask_decoder/transformer/layers.0/self_attn/MatMul" type="MatMul" version="opset1">
			<data transpose_a="false" transpose_b="false" />
			<input>
				<port id="0" precision="FP32">
					<dim>-1</dim>
					<dim>8</dim>
					<dim>7</dim>
					<dim>32</dim>
				</port>
				<port id="1" precision="FP32">
					<dim>-1</dim>
					<dim>8</dim>
					<dim>32</dim>
					<dim>7</dim>
				</port>
			</input>
			<output>
				<port id="2" precision="FP32" names="/mask_decoder/transformer/layers.0/self_attn/MatMul_output_0">
					<dim>-1</dim>
					<dim>8</dim>
					<dim>7</dim>
					<dim>7</dim>
				</port>
			</output>
		</layer>
		<layer id="141" name="Constant_9232" type="Const" version="opset1">
			<data element_type="f32" shape="1, 1, 1, 1" offset="537936" size="4" />
			<output>
				<port id="0" precision="FP32">
					<dim>1</dim>
					<dim>1</dim>
					<dim>1</dim>
					<dim>1</dim>
				</port>
			</output>
		</layer>
		<layer id="142" name="/mask_decoder/transformer/layers.0/self_attn/Div_3" type="Multiply" version="opset1">
			<data auto_broadcast="numpy" />
			<input>
				<port id="0" precision="FP32">
					<dim>-1</dim>
					<dim>8</dim>
					<dim>7</dim>
					<dim>7</dim>
				</port>
				<port id="1" precision="FP32">
					<dim>1</dim>
					<dim>1</dim>
					<dim>1</dim>
					<dim>1</dim>
				</port>
			</input>
			<output>
				<port id="2" precision="FP32" names="/mask_decoder/transformer/layers.0/self_attn/Div_3_output_0">
					<dim>-1</dim>
					<dim>8</dim>
					<dim>7</dim>
					<dim>7</dim>
				</port>
			</output>
		</layer>
		<layer id="143" name="/mask_decoder/transformer/layers.0/self_attn/Softmax" type="SoftMax" version="opset8">
			<data axis="-1" />
			<input>
				<port id="0" precision="FP32">
					<dim>-1</dim>
					<dim>8</dim>
					<dim>7</dim>
					<dim>7</dim>
				</port>
			</input>
			<output>
				<port id="1" precision="FP32" names="/mask_decoder/transformer/layers.0/self_attn/Softmax_output_0">
					<dim>-1</dim>
					<dim>8</dim>
					<dim>7</dim>
					<dim>7</dim>
				</port>
			</output>
		</layer>
		<layer id="144" name="Constant_9233" type="Const" version="opset1">
			<data element_type="f32" shape="1, 1, 256" offset="537940" size="1024" />
			<output>
				<port id="0" precision="FP32">
					<dim>1</dim>
					<dim>1</dim>
					<dim>256</dim>
				</port>
			</output>
		</layer>
		<layer id="145" name="Transpose_7237" type="Const" version="opset1">
			<data element_type="f32" shape="256, 256" offset="538964" size="262144" />
			<output>
				<port id="0" precision="FP32">
					<dim>256</dim>
					<dim>256</dim>
				</port>
			</output>
		</layer>
		<layer id="146" name="/mask_decoder/transformer/layers.0/self_attn/v_proj/MatMul" type="MatMul" version="opset1">
			<data transpose_a="false" transpose_b="true" />
			<input>
				<port id="0" precision="FP32">
					<dim>-1</dim>
					<dim>7</dim>
					<dim>256</dim>
				</port>
				<port id="1" precision="FP32">
					<dim>256</dim>
					<dim>256</dim>
				</port>
			</input>
			<output>
				<port id="2" precision="FP32" names="/mask_decoder/transformer/layers.0/self_attn/v_proj/MatMul_output_0">
					<dim>-1</dim>
					<dim>7</dim>
					<dim>256</dim>
				</port>
			</output>
		</layer>
		<layer id="147" name="/mask_decoder/transformer/layers.0/self_attn/v_proj/Add" type="Add" version="opset1">
			<data auto_broadcast="numpy" />
			<input>
				<port id="0" precision="FP32">
					<dim>1</dim>
					<dim>1</dim>
					<dim>256</dim>
				</port>
				<port id="1" precision="FP32">
					<dim>-1</dim>
					<dim>7</dim>
					<dim>256</dim>
				</port>
			</input>
			<output>
				<port id="2" precision="FP32" names="/mask_decoder/transformer/layers.0/self_attn/v_proj/Add_output_0">
					<dim>-1</dim>
					<dim>7</dim>
					<dim>256</dim>
				</port>
			</output>
		</layer>
		<layer id="148" name="/mask_decoder/transformer/layers.0/self_attn/Concat_2" type="Const" version="opset1">
			<data element_type="i64" shape="4" offset="274672" size="32" />
			<output>
				<port id="0" precision="I64">
					<dim>4</dim>
				</port>
			</output>
		</layer>
		<layer id="149" name="/mask_decoder/transformer/layers.0/self_attn/Reshape_2" type="Reshape" version="opset1">
			<data special_zero="true" />
			<input>
				<port id="0" precision="FP32">
					<dim>-1</dim>
					<dim>7</dim>
					<dim>256</dim>
				</port>
				<port id="1" precision="I64">
					<dim>4</dim>
				</port>
			</input>
			<output>
				<port id="2" precision="FP32" names="/mask_decoder/transformer/layers.0/self_attn/Reshape_2_output_0">
					<dim>-1</dim>
					<dim>7</dim>
					<dim>8</dim>
					<dim>32</dim>
				</port>
			</output>
		</layer>
		<layer id="150" name="Constant_536" type="Const" version="opset1">
			<data element_type="i64" shape="4" offset="274704" size="32" />
			<output>
				<port id="0" precision="I64">
					<dim>4</dim>
				</port>
			</output>
		</layer>
		<layer id="151" name="/mask_decoder/transformer/layers.0/self_attn/Transpose_1" type="Transpose" version="opset1">
			<input>
				<port id="0" precision="FP32">
					<dim>-1</dim>
					<dim>7</dim>
					<dim>8</dim>
					<dim>32</dim>
				</port>
				<port id="1" precision="I64">
					<dim>4</dim>
				</port>
			</input>
			<output>
				<port id="2" precision="FP32" names="/mask_decoder/transformer/layers.0/self_attn/Transpose_1_output_0">
					<dim>-1</dim>
					<dim>8</dim>
					<dim>7</dim>
					<dim>32</dim>
				</port>
			</output>
		</layer>
		<layer id="152" name="/mask_decoder/transformer/layers.0/self_attn/MatMul_1" type="MatMul" version="opset1">
			<data transpose_a="false" transpose_b="false" />
			<input>
				<port id="0" precision="FP32">
					<dim>-1</dim>
					<dim>8</dim>
					<dim>7</dim>
					<dim>7</dim>
				</port>
				<port id="1" precision="FP32">
					<dim>-1</dim>
					<dim>8</dim>
					<dim>7</dim>
					<dim>32</dim>
				</port>
			</input>
			<output>
				<port id="2" precision="FP32" names="/mask_decoder/transformer/layers.0/self_attn/MatMul_1_output_0">
					<dim>-1</dim>
					<dim>8</dim>
					<dim>7</dim>
					<dim>32</dim>
				</port>
			</output>
		</layer>
		<layer id="153" name="Constant_553" type="Const" version="opset1">
			<data element_type="i64" shape="4" offset="274704" size="32" />
			<output>
				<port id="0" precision="I64">
					<dim>4</dim>
				</port>
			</output>
		</layer>
		<layer id="154" name="/mask_decoder/transformer/layers.0/self_attn/Transpose_3" type="Transpose" version="opset1">
			<input>
				<port id="0" precision="FP32">
					<dim>-1</dim>
					<dim>8</dim>
					<dim>7</dim>
					<dim>32</dim>
				</port>
				<port id="1" precision="I64">
					<dim>4</dim>
				</port>
			</input>
			<output>
				<port id="2" precision="FP32" names="/mask_decoder/transformer/layers.0/self_attn/Transpose_3_output_0">
					<dim>-1</dim>
					<dim>7</dim>
					<dim>8</dim>
					<dim>32</dim>
				</port>
			</output>
		</layer>
		<layer id="155" name="Constant_9851" type="Const" version="opset1">
			<data element_type="i64" shape="3" offset="801108" size="24" />
			<output>
				<port id="0" precision="I64">
					<dim>3</dim>
				</port>
			</output>
		</layer>
		<layer id="156" name="/mask_decoder/transformer/layers.0/self_attn/Reshape_3" type="Reshape" version="opset1">
			<data special_zero="true" />
			<input>
				<port id="0" precision="FP32">
					<dim>-1</dim>
					<dim>7</dim>
					<dim>8</dim>
					<dim>32</dim>
				</port>
				<port id="1" precision="I64">
					<dim>3</dim>
				</port>
			</input>
			<output>
				<port id="2" precision="FP32" names="/mask_decoder/transformer/layers.0/self_attn/Reshape_3_output_0">
					<dim>-1</dim>
					<dim>7</dim>
					<dim>256</dim>
				</port>
			</output>
		</layer>
		<layer id="157" name="Transpose_7314" type="Const" version="opset1">
			<data element_type="f32" shape="256, 256" offset="801132" size="262144" />
			<output>
				<port id="0" precision="FP32">
					<dim>256</dim>
					<dim>256</dim>
				</port>
			</output>
		</layer>
		<layer id="158" name="/mask_decoder/transformer/layers.0/self_attn/out_proj/MatMul" type="MatMul" version="opset1">
			<data transpose_a="false" transpose_b="true" />
			<input>
				<port id="0" precision="FP32">
					<dim>-1</dim>
					<dim>7</dim>
					<dim>256</dim>
				</port>
				<port id="1" precision="FP32">
					<dim>256</dim>
					<dim>256</dim>
				</port>
			</input>
			<output>
				<port id="2" precision="FP32" names="/mask_decoder/transformer/layers.0/self_attn/out_proj/MatMul_output_0">
					<dim>-1</dim>
					<dim>7</dim>
					<dim>256</dim>
				</port>
			</output>
		</layer>
		<layer id="159" name="/mask_decoder/transformer/layers.0/self_attn/out_proj/Add" type="Add" version="opset1">
			<data auto_broadcast="numpy" />
			<input>
				<port id="0" precision="FP32">
					<dim>1</dim>
					<dim>1</dim>
					<dim>256</dim>
				</port>
				<port id="1" precision="FP32">
					<dim>-1</dim>
					<dim>7</dim>
					<dim>256</dim>
				</port>
			</input>
			<output>
				<port id="2" precision="FP32" names="/mask_decoder/transformer/layers.0/self_attn/out_proj/Add_output_0">
					<dim>-1</dim>
					<dim>7</dim>
					<dim>256</dim>
				</port>
			</output>
		</layer>
		<layer id="160" name="Range_566" type="Const" version="opset1">
			<data element_type="i64" shape="1" offset="7212" size="8" />
			<output>
				<port id="0" precision="I64">
					<dim>1</dim>
				</port>
			</output>
		</layer>
		<layer id="161" name="MVN_567" type="MVN" version="opset6">
			<data eps="9.9999997473787516e-06" normalize_variance="true" eps_mode="INSIDE_SQRT" />
			<input>
				<port id="0" precision="FP32">
					<dim>-1</dim>
					<dim>7</dim>
					<dim>256</dim>
				</port>
				<port id="1" precision="I64">
					<dim>1</dim>
				</port>
			</input>
			<output>
				<port id="2" precision="FP32">
					<dim>-1</dim>
					<dim>7</dim>
					<dim>256</dim>
				</port>
			</output>
		</layer>
		<layer id="162" name="Constant_9235" type="Const" version="opset1">
			<data element_type="f32" shape="1, 1, 256" offset="1063276" size="1024" />
			<output>
				<port id="0" precision="FP32">
					<dim>1</dim>
					<dim>1</dim>
					<dim>256</dim>
				</port>
			</output>
		</layer>
		<layer id="163" name="Multiply_568" type="Multiply" version="opset1">
			<data auto_broadcast="numpy" />
			<input>
				<port id="0" precision="FP32">
					<dim>-1</dim>
					<dim>7</dim>
					<dim>256</dim>
				</port>
				<port id="1" precision="FP32">
					<dim>1</dim>
					<dim>1</dim>
					<dim>256</dim>
				</port>
			</input>
			<output>
				<port id="2" precision="FP32">
					<dim>-1</dim>
					<dim>7</dim>
					<dim>256</dim>
				</port>
			</output>
		</layer>
		<layer id="164" name="Constant_9236" type="Const" version="opset1">
			<data element_type="f32" shape="1, 1, 256" offset="1064300" size="1024" />
			<output>
				<port id="0" precision="FP32">
					<dim>1</dim>
					<dim>1</dim>
					<dim>256</dim>
				</port>
			</output>
		</layer>
		<layer id="165" name="/mask_decoder/transformer/layers.0/norm1/LayerNormalization" type="Add" version="opset1">
			<data auto_broadcast="numpy" />
			<input>
				<port id="0" precision="FP32">
					<dim>-1</dim>
					<dim>7</dim>
					<dim>256</dim>
				</port>
				<port id="1" precision="FP32">
					<dim>1</dim>
					<dim>1</dim>
					<dim>256</dim>
				</port>
			</input>
			<output>
				<port id="2" precision="FP32" names="/mask_decoder/transformer/layers.0/norm1/LayerNormalization_output_0">
					<dim>-1</dim>
					<dim>7</dim>
					<dim>256</dim>
				</port>
			</output>
		</layer>
		<layer id="166" name="Constant_9241" type="Const" version="opset1">
			<data element_type="f32" shape="1, 1, 256" offset="1065324" size="1024" />
			<output>
				<port id="0" precision="FP32">
					<dim>1</dim>
					<dim>1</dim>
					<dim>256</dim>
				</port>
			</output>
		</layer>
		<layer id="167" name="Constant_9237" type="Const" version="opset1">
			<data element_type="f32" shape="1, 1, 128" offset="1066348" size="512" />
			<output>
				<port id="0" precision="FP32">
					<dim>1</dim>
					<dim>1</dim>
					<dim>128</dim>
				</port>
			</output>
		</layer>
		<layer id="168" name="/mask_decoder/transformer/layers.0/Add" type="Add" version="opset1">
			<data auto_broadcast="numpy" />
			<input>
				<port id="0" precision="FP32">
					<dim>-1</dim>
					<dim>7</dim>
					<dim>256</dim>
				</port>
				<port id="1" precision="FP32">
					<dim>-1</dim>
					<dim>7</dim>
					<dim>256</dim>
				</port>
			</input>
			<output>
				<port id="2" precision="FP32" names="/mask_decoder/transformer/layers.0/Add_output_0">
					<dim>-1</dim>
					<dim>7</dim>
					<dim>256</dim>
				</port>
			</output>
		</layer>
		<layer id="169" name="Transpose_7353" type="Const" version="opset1">
			<data element_type="f32" shape="128, 256" offset="1066860" size="131072" />
			<output>
				<port id="0" precision="FP32">
					<dim>128</dim>
					<dim>256</dim>
				</port>
			</output>
		</layer>
		<layer id="170" name="/mask_decoder/transformer/layers.0/cross_attn_token_to_image/q_proj/MatMul" type="MatMul" version="opset1">
			<data transpose_a="false" transpose_b="true" />
			<input>
				<port id="0" precision="FP32">
					<dim>-1</dim>
					<dim>7</dim>
					<dim>256</dim>
				</port>
				<port id="1" precision="FP32">
					<dim>128</dim>
					<dim>256</dim>
				</port>
			</input>
			<output>
				<port id="2" precision="FP32" names="/mask_decoder/transformer/layers.0/cross_attn_token_to_image/q_proj/MatMul_output_0">
					<dim>-1</dim>
					<dim>7</dim>
					<dim>128</dim>
				</port>
			</output>
		</layer>
		<layer id="171" name="/mask_decoder/transformer/layers.0/cross_attn_token_to_image/q_proj/Add" type="Add" version="opset1">
			<data auto_broadcast="numpy" />
			<input>
				<port id="0" precision="FP32">
					<dim>1</dim>
					<dim>1</dim>
					<dim>128</dim>
				</port>
				<port id="1" precision="FP32">
					<dim>-1</dim>
					<dim>7</dim>
					<dim>128</dim>
				</port>
			</input>
			<output>
				<port id="2" precision="FP32" names="/mask_decoder/transformer/layers.0/cross_attn_token_to_image/q_proj/Add_output_0">
					<dim>-1</dim>
					<dim>7</dim>
					<dim>128</dim>
				</port>
			</output>
		</layer>
		<layer id="172" name="/mask_decoder/transformer/layers.0/cross_attn_token_to_image/Concat" type="Const" version="opset1">
			<data element_type="i64" shape="4" offset="1197932" size="32" />
			<output>
				<port id="0" precision="I64">
					<dim>4</dim>
				</port>
			</output>
		</layer>
		<layer id="173" name="/mask_decoder/transformer/layers.0/cross_attn_token_to_image/Reshape" type="Reshape" version="opset1">
			<data special_zero="true" />
			<input>
				<port id="0" precision="FP32">
					<dim>-1</dim>
					<dim>7</dim>
					<dim>128</dim>
				</port>
				<port id="1" precision="I64">
					<dim>4</dim>
				</port>
			</input>
			<output>
				<port id="2" precision="FP32" names="/mask_decoder/transformer/layers.0/cross_attn_token_to_image/Reshape_output_0">
					<dim>-1</dim>
					<dim>7</dim>
					<dim>8</dim>
					<dim>16</dim>
				</port>
			</output>
		</layer>
		<layer id="174" name="Constant_587" type="Const" version="opset1">
			<data element_type="i64" shape="4" offset="274704" size="32" />
			<output>
				<port id="0" precision="I64">
					<dim>4</dim>
				</port>
			</output>
		</layer>
		<layer id="175" name="/mask_decoder/transformer/layers.0/cross_attn_token_to_image/Transpose" type="Transpose" version="opset1">
			<input>
				<port id="0" precision="FP32">
					<dim>-1</dim>
					<dim>7</dim>
					<dim>8</dim>
					<dim>16</dim>
				</port>
				<port id="1" precision="I64">
					<dim>4</dim>
				</port>
			</input>
			<output>
				<port id="2" precision="FP32" names="/mask_decoder/transformer/layers.0/cross_attn_token_to_image/Transpose_output_0">
					<dim>-1</dim>
					<dim>8</dim>
					<dim>7</dim>
					<dim>16</dim>
				</port>
			</output>
		</layer>
		<layer id="176" name="Constant_9238" type="Const" version="opset1">
			<data element_type="f32" shape="1, 1, 128" offset="1197964" size="512" />
			<output>
				<port id="0" precision="FP32">
					<dim>1</dim>
					<dim>1</dim>
					<dim>128</dim>
				</port>
			</output>
		</layer>
		<layer id="177" name="onnx::Expand_1614" type="Const" version="opset1">
			<data element_type="f32" shape="1, 256, 1, 1" offset="1198476" size="1024" />
			<output>
				<port id="0" precision="FP32" names="onnx::Expand_1614">
					<dim>1</dim>
					<dim>256</dim>
					<dim>1</dim>
					<dim>1</dim>
				</port>
			</output>
		</layer>
		<layer id="178" name="Add_6371" type="Add" version="opset1">
			<data auto_broadcast="numpy" />
			<input>
				<port id="0" precision="FP32">
					<dim>1</dim>
					<dim>256</dim>
					<dim>64</dim>
					<dim>64</dim>
				</port>
				<port id="1" precision="FP32">
					<dim>1</dim>
					<dim>256</dim>
					<dim>1</dim>
					<dim>1</dim>
				</port>
			</input>
			<output>
				<port id="2" precision="FP32">
					<dim>1</dim>
					<dim>256</dim>
					<dim>64</dim>
					<dim>64</dim>
				</port>
			</output>
		</layer>
		<layer id="179" name="ShapeOf_6372" type="ShapeOf" version="opset3">
			<data output_type="i64" />
			<input>
				<port id="0" precision="FP32">
					<dim>1</dim>
					<dim>256</dim>
					<dim>64</dim>
					<dim>64</dim>
				</port>
			</input>
			<output>
				<port id="1" precision="I64">
					<dim>4</dim>
				</port>
			</output>
		</layer>
		<layer id="180" name="ShapeOf_9768" type="ShapeOf" version="opset3">
			<data output_type="i64" />
			<input>
				<port id="0" precision="FP32">
					<dim>-1</dim>
					<dim>4</dim>
				</port>
			</input>
			<output>
				<port id="1" precision="I64">
					<dim>2</dim>
				</port>
			</output>
		</layer>
		<layer id="181" name="Constant_9769" type="Const" version="opset1">
			<data element_type="i64" shape="1" offset="7196" size="8" />
			<output>
				<port id="0" precision="I64">
					<dim>1</dim>
				</port>
			</output>
		</layer>
		<layer id="182" name="Constant_9770" type="Const" version="opset1">
			<data element_type="i64" shape="" offset="7196" size="8" />
			<output>
				<port id="0" precision="I64" />
			</output>
		</layer>
		<layer id="183" name="Gather_9771" type="Gather" version="opset8">
			<data batch_dims="0" />
			<input>
				<port id="0" precision="I64">
					<dim>2</dim>
				</port>
				<port id="1" precision="I64">
					<dim>1</dim>
				</port>
				<port id="2" precision="I64" />
			</input>
			<output>
				<port id="3" precision="I64" names="/prompt_encoder/Gather_output_0,/prompt_encoder/Unsqueeze_output_0">
					<dim>1</dim>
				</port>
			</output>
		</layer>
		<layer id="184" name="/prompt_encoder/Constant_75_output_0" type="Const" version="opset1">
			<data element_type="i64" shape="1" offset="1199500" size="8" />
			<output>
				<port id="0" precision="I64" names="/prompt_encoder/Constant_75_output_0">
					<dim>1</dim>
				</port>
			</output>
		</layer>
		<layer id="185" name="/prompt_encoder/Concat_15" type="Concat" version="opset1">
			<data axis="0" />
			<input>
				<port id="0" precision="I64">
					<dim>1</dim>
				</port>
				<port id="1" precision="I64">
					<dim>1</dim>
				</port>
				<port id="2" precision="I64">
					<dim>1</dim>
				</port>
				<port id="3" precision="I64">
					<dim>1</dim>
				</port>
			</input>
			<output>
				<port id="4" precision="I64" names="/prompt_encoder/Concat_15_output_0">
					<dim>4</dim>
				</port>
			</output>
		</layer>
		<layer id="186" name="/prompt_encoder/Mul_20_output_0" type="Const" version="opset1">
			<data element_type="i64" shape="4" offset="1199508" size="32" />
			<output>
				<port id="0" precision="I64" names="/prompt_encoder/Mul_20_output_0">
					<dim>4</dim>
				</port>
			</output>
		</layer>
		<layer id="187" name="/prompt_encoder/Equal_18" type="Equal" version="opset1">
			<data auto_broadcast="numpy" />
			<input>
				<port id="0" precision="I64">
					<dim>4</dim>
				</port>
				<port id="1" precision="I64">
					<dim>4</dim>
				</port>
			</input>
			<output>
				<port id="2" precision="BOOL" names="/prompt_encoder/Equal_18_output_0">
					<dim>4</dim>
				</port>
			</output>
		</layer>
		<layer id="188" name="/prompt_encoder/ConstantOfShape_19_output_0" type="Const" version="opset1">
			<data element_type="i64" shape="4" offset="1199540" size="32" />
			<output>
				<port id="0" precision="I64" names="/prompt_encoder/ConstantOfShape_19_output_0">
					<dim>4</dim>
				</port>
			</output>
		</layer>
		<layer id="189" name="/prompt_encoder/Where_18" type="Select" version="opset1">
			<data auto_broadcast="numpy" />
			<input>
				<port id="0" precision="BOOL">
					<dim>4</dim>
				</port>
				<port id="1" precision="I64">
					<dim>4</dim>
				</port>
				<port id="2" precision="I64">
					<dim>4</dim>
				</port>
			</input>
			<output>
				<port id="3" precision="I64" names="/prompt_encoder/Where_18_output_0">
					<dim>4</dim>
				</port>
			</output>
		</layer>
		<layer id="190" name="Maximum_6373" type="Maximum" version="opset1">
			<data auto_broadcast="numpy" />
			<input>
				<port id="0" precision="I64">
					<dim>4</dim>
				</port>
				<port id="1" precision="I64">
					<dim>4</dim>
				</port>
			</input>
			<output>
				<port id="2" precision="I64">
					<dim>4</dim>
				</port>
			</output>
		</layer>
		<layer id="191" name="/mask_decoder/Add" type="Broadcast" version="opset3">
			<data mode="numpy" />
			<input>
				<port id="0" precision="FP32">
					<dim>1</dim>
					<dim>256</dim>
					<dim>64</dim>
					<dim>64</dim>
				</port>
				<port id="1" precision="I64">
					<dim>4</dim>
				</port>
			</input>
			<output>
				<port id="2" precision="FP32" names="/mask_decoder/Add_output_0">
					<dim>-1</dim>
					<dim>256</dim>
					<dim>64</dim>
					<dim>64</dim>
				</port>
			</output>
		</layer>
		<layer id="192" name="Constant_9852" type="Const" version="opset1">
			<data element_type="i64" shape="3" offset="1199572" size="24" />
			<output>
				<port id="0" precision="I64">
					<dim>3</dim>
				</port>
			</output>
		</layer>
		<layer id="193" name="/mask_decoder/transformer/Reshape" type="Reshape" version="opset1">
			<data special_zero="true" />
			<input>
				<port id="0" precision="FP32">
					<dim>-1</dim>
					<dim>256</dim>
					<dim>64</dim>
					<dim>64</dim>
				</port>
				<port id="1" precision="I64">
					<dim>3</dim>
				</port>
			</input>
			<output>
				<port id="2" precision="FP32" names="/mask_decoder/transformer/Reshape_output_0">
					<dim>-1</dim>
					<dim>256</dim>
					<dim>4096</dim>
				</port>
			</output>
		</layer>
		<layer id="194" name="Constant_487" type="Const" version="opset1">
			<data element_type="i64" shape="3" offset="7320" size="24" />
			<output>
				<port id="0" precision="I64">
					<dim>3</dim>
				</port>
			</output>
		</layer>
		<layer id="195" name="/mask_decoder/transformer/Transpose" type="Transpose" version="opset1">
			<input>
				<port id="0" precision="FP32">
					<dim>-1</dim>
					<dim>256</dim>
					<dim>4096</dim>
				</port>
				<port id="1" precision="I64">
					<dim>3</dim>
				</port>
			</input>
			<output>
				<port id="2" precision="FP32" names="/mask_decoder/transformer/Transpose_output_0">
					<dim>-1</dim>
					<dim>4096</dim>
					<dim>256</dim>
				</port>
			</output>
		</layer>
		<layer id="196" name="/mask_decoder/Unsqueeze_1_output_0" type="Const" version="opset1">
			<data element_type="f32" shape="1, 1, 256, 64, 64" offset="1199596" size="4194304" />
			<output>
				<port id="0" precision="FP32" names="/mask_decoder/Unsqueeze_1_output_0">
					<dim>1</dim>
					<dim>1</dim>
					<dim>256</dim>
					<dim>64</dim>
					<dim>64</dim>
				</port>
			</output>
		</layer>
		<layer id="197" name="Convert_441" type="Const" version="opset1">
			<data element_type="i64" shape="1" offset="7204" size="8" />
			<output>
				<port id="0" precision="I64">
					<dim>1</dim>
				</port>
			</output>
		</layer>
		<layer id="198" name="Convert_442" type="Const" version="opset1">
			<data element_type="i64" shape="" offset="5393900" size="8" />
			<output>
				<port id="0" precision="I64" />
			</output>
		</layer>
		<layer id="199" name="/mask_decoder/Concat_2" type="Concat" version="opset1">
			<data axis="0" />
			<input>
				<port id="0" precision="I64">
					<dim>1</dim>
				</port>
				<port id="1" precision="I64">
					<dim>1</dim>
				</port>
			</input>
			<output>
				<port id="2" precision="I64" names="/mask_decoder/Concat_2_output_0">
					<dim>2</dim>
				</port>
			</output>
		</layer>
		<layer id="200" name="Constant_443" type="Const" version="opset1">
			<data element_type="i64" shape="" offset="7196" size="8" />
			<output>
				<port id="0" precision="I64" />
			</output>
		</layer>
		<layer id="201" name="Split_444" type="Split" version="opset1">
			<data num_splits="2" />
			<input>
				<port id="0" precision="I64">
					<dim>2</dim>
				</port>
				<port id="1" precision="I64" />
			</input>
			<output>
				<port id="2" precision="I64">
					<dim>1</dim>
				</port>
				<port id="3" precision="I64">
					<dim>1</dim>
				</port>
			</output>
		</layer>
		<layer id="202" name="Squeeze_9788" type="Squeeze" version="opset1">
			<input>
				<port id="0" precision="I64">
					<dim>1</dim>
				</port>
			</input>
			<output>
				<port id="1" precision="I64" />
			</output>
		</layer>
		<layer id="203" name="/mask_decoder/OneHot" type="OneHot" version="opset1">
			<data axis="1" />
			<input>
				<port id="0" precision="I64">
					<dim>1</dim>
				</port>
				<port id="1" precision="I64" />
				<port id="2" precision="I64" />
				<port id="3" precision="I64" />
			</input>
			<output>
				<port id="4" precision="I64" names="/mask_decoder/OneHot_output_0">
					<dim>1</dim>
					<dim>5</dim>
				</port>
			</output>
		</layer>
		<layer id="204" name="Constant_2496" type="Const" version="opset1">
			<data element_type="i64" shape="1" offset="7212" size="8" />
			<output>
				<port id="0" precision="I64">
					<dim>1</dim>
				</port>
			</output>
		</layer>
		<layer id="205" name="/mask_decoder/Reshape_2" type="Reshape" version="opset1">
			<data special_zero="true" />
			<input>
				<port id="0" precision="I64">
					<dim>1</dim>
					<dim>5</dim>
				</port>
				<port id="1" precision="I64">
					<dim>1</dim>
				</port>
			</input>
			<output>
				<port id="2" precision="I64" names="/mask_decoder/Reshape_2_output_0">
					<dim>5</dim>
				</port>
			</output>
		</layer>
		<layer id="206" name="/mask_decoder/Tile" type="Tile" version="opset1">
			<input>
				<port id="0" precision="FP32">
					<dim>1</dim>
					<dim>1</dim>
					<dim>256</dim>
					<dim>64</dim>
					<dim>64</dim>
				</port>
				<port id="1" precision="I64">
					<dim>5</dim>
				</port>
			</input>
			<output>
				<port id="2" precision="FP32" names="/mask_decoder/Tile_output_0">
					<dim>-1</dim>
					<dim>-1</dim>
					<dim>-1</dim>
					<dim>-1</dim>
					<dim>-1</dim>
				</port>
			</output>
		</layer>
		<layer id="207" name="/mask_decoder/Shape_4" type="ShapeOf" version="opset3">
			<data output_type="i64" />
			<input>
				<port id="0" precision="FP32">
					<dim>-1</dim>
					<dim>-1</dim>
					<dim>-1</dim>
					<dim>-1</dim>
					<dim>-1</dim>
				</port>
			</input>
			<output>
				<port id="1" precision="I64" names="/mask_decoder/Shape_4_output_0">
					<dim>5</dim>
				</port>
			</output>
		</layer>
		<layer id="208" name="/mask_decoder/Constant_20_output_0" type="Const" version="opset1">
			<data element_type="i64" shape="1" offset="7308" size="8" />
			<output>
				<port id="0" precision="I64" names="/mask_decoder/Constant_20_output_0">
					<dim>1</dim>
				</port>
			</output>
		</layer>
		<layer id="209" name="/mask_decoder/Constant_21_output_0" type="Const" version="opset1">
			<data element_type="i64" shape="1" offset="5393900" size="8" />
			<output>
				<port id="0" precision="I64" names="/mask_decoder/Constant_21_output_0">
					<dim>1</dim>
				</port>
			</output>
		</layer>
		<layer id="210" name="Broadcast_470" type="Const" version="opset1">
			<data element_type="i64" shape="1" offset="7204" size="8" />
			<output>
				<port id="0" precision="I64">
					<dim>1</dim>
				</port>
			</output>
		</layer>
		<layer id="211" name="/mask_decoder/Slice_2" type="Slice" version="opset8">
			<input>
				<port id="0" precision="I64">
					<dim>5</dim>
				</port>
				<port id="1" precision="I64">
					<dim>1</dim>
				</port>
				<port id="2" precision="I64">
					<dim>1</dim>
				</port>
				<port id="3" precision="I64">
					<dim>1</dim>
				</port>
				<port id="4" precision="I64">
					<dim>1</dim>
				</port>
			</input>
			<output>
				<port id="5" precision="I64" names="/mask_decoder/Slice_2_output_0">
					<dim>3</dim>
				</port>
			</output>
		</layer>
		<layer id="212" name="/mask_decoder/Concat_4" type="Concat" version="opset1">
			<data axis="0" />
			<input>
				<port id="0" precision="I64">
					<dim>1</dim>
				</port>
				<port id="1" precision="I64">
					<dim>3</dim>
				</port>
			</input>
			<output>
				<port id="2" precision="I64" names="/mask_decoder/Concat_4_output_0">
					<dim>4</dim>
				</port>
			</output>
		</layer>
		<layer id="213" name="/mask_decoder/Reshape_3" type="Reshape" version="opset1">
			<data special_zero="true" />
			<input>
				<port id="0" precision="FP32">
					<dim>-1</dim>
					<dim>-1</dim>
					<dim>-1</dim>
					<dim>-1</dim>
					<dim>-1</dim>
				</port>
				<port id="1" precision="I64">
					<dim>4</dim>
				</port>
			</input>
			<output>
				<port id="2" precision="FP32" names="/mask_decoder/Reshape_3_output_0">
					<dim>-1</dim>
					<dim>-1</dim>
					<dim>-1</dim>
					<dim>-1</dim>
				</port>
			</output>
		</layer>
		<layer id="214" name="Constant_9853" type="Const" version="opset1">
			<data element_type="i64" shape="3" offset="5393908" size="24" />
			<output>
				<port id="0" precision="I64">
					<dim>3</dim>
				</port>
			</output>
		</layer>
		<layer id="215" name="/mask_decoder/transformer/Reshape_1" type="Reshape" version="opset1">
			<data special_zero="true" />
			<input>
				<port id="0" precision="FP32">
					<dim>-1</dim>
					<dim>-1</dim>
					<dim>-1</dim>
					<dim>-1</dim>
				</port>
				<port id="1" precision="I64">
					<dim>3</dim>
				</port>
			</input>
			<output>
				<port id="2" precision="FP32" names="/mask_decoder/transformer/Reshape_1_output_0">
					<dim>-1</dim>
					<dim>-1</dim>
					<dim>-1</dim>
				</port>
			</output>
		</layer>
		<layer id="216" name="Constant_499" type="Const" version="opset1">
			<data element_type="i64" shape="3" offset="7320" size="24" />
			<output>
				<port id="0" precision="I64">
					<dim>3</dim>
				</port>
			</output>
		</layer>
		<layer id="217" name="/mask_decoder/transformer/Transpose_1" type="Transpose" version="opset1">
			<input>
				<port id="0" precision="FP32">
					<dim>-1</dim>
					<dim>-1</dim>
					<dim>-1</dim>
				</port>
				<port id="1" precision="I64">
					<dim>3</dim>
				</port>
			</input>
			<output>
				<port id="2" precision="FP32" names="/mask_decoder/transformer/Transpose_1_output_0">
					<dim>-1</dim>
					<dim>-1</dim>
					<dim>-1</dim>
				</port>
			</output>
		</layer>
		<layer id="218" name="/mask_decoder/transformer/layers.0/Add_1" type="Add" version="opset1">
			<data auto_broadcast="numpy" />
			<input>
				<port id="0" precision="FP32">
					<dim>-1</dim>
					<dim>4096</dim>
					<dim>256</dim>
				</port>
				<port id="1" precision="FP32">
					<dim>-1</dim>
					<dim>-1</dim>
					<dim>-1</dim>
				</port>
			</input>
			<output>
				<port id="2" precision="FP32" names="/mask_decoder/transformer/layers.0/Add_1_output_0">
					<dim>-1</dim>
					<dim>4096</dim>
					<dim>256</dim>
				</port>
			</output>
		</layer>
		<layer id="219" name="Transpose_7490" type="Const" version="opset1">
			<data element_type="f32" shape="128, 256" offset="5393932" size="131072" />
			<output>
				<port id="0" precision="FP32">
					<dim>128</dim>
					<dim>256</dim>
				</port>
			</output>
		</layer>
		<layer id="220" name="/mask_decoder/transformer/layers.0/cross_attn_token_to_image/k_proj/MatMul" type="MatMul" version="opset1">
			<data transpose_a="false" transpose_b="true" />
			<input>
				<port id="0" precision="FP32">
					<dim>-1</dim>
					<dim>4096</dim>
					<dim>256</dim>
				</port>
				<port id="1" precision="FP32">
					<dim>128</dim>
					<dim>256</dim>
				</port>
			</input>
			<output>
				<port id="2" precision="FP32" names="/mask_decoder/transformer/layers.0/cross_attn_token_to_image/k_proj/MatMul_output_0">
					<dim>-1</dim>
					<dim>4096</dim>
					<dim>128</dim>
				</port>
			</output>
		</layer>
		<layer id="221" name="/mask_decoder/transformer/layers.0/cross_attn_token_to_image/k_proj/Add" type="Add" version="opset1">
			<data auto_broadcast="numpy" />
			<input>
				<port id="0" precision="FP32">
					<dim>1</dim>
					<dim>1</dim>
					<dim>128</dim>
				</port>
				<port id="1" precision="FP32">
					<dim>-1</dim>
					<dim>4096</dim>
					<dim>128</dim>
				</port>
			</input>
			<output>
				<port id="2" precision="FP32" names="/mask_decoder/transformer/layers.0/cross_attn_token_to_image/k_proj/Add_output_0">
					<dim>-1</dim>
					<dim>4096</dim>
					<dim>128</dim>
				</port>
			</output>
		</layer>
		<layer id="222" name="/mask_decoder/transformer/layers.0/cross_attn_token_to_image/Concat_1" type="Const" version="opset1">
			<data element_type="i64" shape="4" offset="1197932" size="32" />
			<output>
				<port id="0" precision="I64">
					<dim>4</dim>
				</port>
			</output>
		</layer>
		<layer id="223" name="/mask_decoder/transformer/layers.0/cross_attn_token_to_image/Reshape_1" type="Reshape" version="opset1">
			<data special_zero="true" />
			<input>
				<port id="0" precision="FP32">
					<dim>-1</dim>
					<dim>4096</dim>
					<dim>128</dim>
				</port>
				<port id="1" precision="I64">
					<dim>4</dim>
				</port>
			</input>
			<output>
				<port id="2" precision="FP32" names="/mask_decoder/transformer/layers.0/cross_attn_token_to_image/Reshape_1_output_0">
					<dim>-1</dim>
					<dim>4096</dim>
					<dim>8</dim>
					<dim>16</dim>
				</port>
			</output>
		</layer>
		<layer id="224" name="Constant_609" type="Const" version="opset1">
			<data element_type="i64" shape="4" offset="537904" size="32" />
			<output>
				<port id="0" precision="I64">
					<dim>4</dim>
				</port>
			</output>
		</layer>
		<layer id="225" name="/mask_decoder/transformer/layers.0/cross_attn_token_to_image/Transpose_2" type="Transpose" version="opset1">
			<input>
				<port id="0" precision="FP32">
					<dim>-1</dim>
					<dim>4096</dim>
					<dim>8</dim>
					<dim>16</dim>
				</port>
				<port id="1" precision="I64">
					<dim>4</dim>
				</port>
			</input>
			<output>
				<port id="2" precision="FP32" names="/mask_decoder/transformer/layers.0/cross_attn_token_to_image/Transpose_2_output_0">
					<dim>-1</dim>
					<dim>8</dim>
					<dim>16</dim>
					<dim>4096</dim>
				</port>
			</output>
		</layer>
		<layer id="226" name="/mask_decoder/transformer/layers.0/cross_attn_token_to_image/MatMul" type="MatMul" version="opset1">
			<data transpose_a="false" transpose_b="false" />
			<input>
				<port id="0" precision="FP32">
					<dim>-1</dim>
					<dim>8</dim>
					<dim>7</dim>
					<dim>16</dim>
				</port>
				<port id="1" precision="FP32">
					<dim>-1</dim>
					<dim>8</dim>
					<dim>16</dim>
					<dim>4096</dim>
				</port>
			</input>
			<output>
				<port id="2" precision="FP32" names="/mask_decoder/transformer/layers.0/cross_attn_token_to_image/MatMul_output_0">
					<dim>-1</dim>
					<dim>8</dim>
					<dim>7</dim>
					<dim>4096</dim>
				</port>
			</output>
		</layer>
		<layer id="227" name="Constant_9239" type="Const" version="opset1">
			<data element_type="f32" shape="1, 1, 1, 1" offset="5525004" size="4" />
			<output>
				<port id="0" precision="FP32">
					<dim>1</dim>
					<dim>1</dim>
					<dim>1</dim>
					<dim>1</dim>
				</port>
			</output>
		</layer>
		<layer id="228" name="/mask_decoder/transformer/layers.0/cross_attn_token_to_image/Div_3" type="Multiply" version="opset1">
			<data auto_broadcast="numpy" />
			<input>
				<port id="0" precision="FP32">
					<dim>-1</dim>
					<dim>8</dim>
					<dim>7</dim>
					<dim>4096</dim>
				</port>
				<port id="1" precision="FP32">
					<dim>1</dim>
					<dim>1</dim>
					<dim>1</dim>
					<dim>1</dim>
				</port>
			</input>
			<output>
				<port id="2" precision="FP32" names="/mask_decoder/transformer/layers.0/cross_attn_token_to_image/Div_3_output_0">
					<dim>-1</dim>
					<dim>8</dim>
					<dim>7</dim>
					<dim>4096</dim>
				</port>
			</output>
		</layer>
		<layer id="229" name="/mask_decoder/transformer/layers.0/cross_attn_token_to_image/Softmax" type="SoftMax" version="opset8">
			<data axis="-1" />
			<input>
				<port id="0" precision="FP32">
					<dim>-1</dim>
					<dim>8</dim>
					<dim>7</dim>
					<dim>4096</dim>
				</port>
			</input>
			<output>
				<port id="1" precision="FP32" names="/mask_decoder/transformer/layers.0/cross_attn_token_to_image/Softmax_output_0">
					<dim>-1</dim>
					<dim>8</dim>
					<dim>7</dim>
					<dim>4096</dim>
				</port>
			</output>
		</layer>
		<layer id="230" name="Constant_9240" type="Const" version="opset1">
			<data element_type="f32" shape="1, 1, 128" offset="5525008" size="512" />
			<output>
				<port id="0" precision="FP32">
					<dim>1</dim>
					<dim>1</dim>
					<dim>128</dim>
				</port>
			</output>
		</layer>
		<layer id="231" name="Transpose_7525" type="Const" version="opset1">
			<data element_type="f32" shape="128, 256" offset="5525520" size="131072" />
			<output>
				<port id="0" precision="FP32">
					<dim>128</dim>
					<dim>256</dim>
				</port>
			</output>
		</layer>
		<layer id="232" name="/mask_decoder/transformer/layers.0/cross_attn_token_to_image/v_proj/MatMul" type="MatMul" version="opset1">
			<data transpose_a="true" transpose_b="true" />
			<input>
				<port id="0" precision="FP32">
					<dim>-1</dim>
					<dim>256</dim>
					<dim>4096</dim>
				</port>
				<port id="1" precision="FP32">
					<dim>128</dim>
					<dim>256</dim>
				</port>
			</input>
			<output>
				<port id="2" precision="FP32" names="/mask_decoder/transformer/layers.0/cross_attn_token_to_image/v_proj/MatMul_output_0">
					<dim>-1</dim>
					<dim>4096</dim>
					<dim>128</dim>
				</port>
			</output>
		</layer>
		<layer id="233" name="/mask_decoder/transformer/layers.0/cross_attn_token_to_image/v_proj/Add" type="Add" version="opset1">
			<data auto_broadcast="numpy" />
			<input>
				<port id="0" precision="FP32">
					<dim>1</dim>
					<dim>1</dim>
					<dim>128</dim>
				</port>
				<port id="1" precision="FP32">
					<dim>-1</dim>
					<dim>4096</dim>
					<dim>128</dim>
				</port>
			</input>
			<output>
				<port id="2" precision="FP32" names="/mask_decoder/transformer/layers.0/cross_attn_token_to_image/v_proj/Add_output_0">
					<dim>-1</dim>
					<dim>4096</dim>
					<dim>128</dim>
				</port>
			</output>
		</layer>
		<layer id="234" name="/mask_decoder/transformer/layers.0/cross_attn_token_to_image/Concat_2" type="Const" version="opset1">
			<data element_type="i64" shape="4" offset="1197932" size="32" />
			<output>
				<port id="0" precision="I64">
					<dim>4</dim>
				</port>
			</output>
		</layer>
		<layer id="235" name="/mask_decoder/transformer/layers.0/cross_attn_token_to_image/Reshape_2" type="Reshape" version="opset1">
			<data special_zero="true" />
			<input>
				<port id="0" precision="FP32">
					<dim>-1</dim>
					<dim>4096</dim>
					<dim>128</dim>
				</port>
				<port id="1" precision="I64">
					<dim>4</dim>
				</port>
			</input>
			<output>
				<port id="2" precision="FP32" names="/mask_decoder/transformer/layers.0/cross_attn_token_to_image/Reshape_2_output_0">
					<dim>-1</dim>
					<dim>4096</dim>
					<dim>8</dim>
					<dim>16</dim>
				</port>
			</output>
		</layer>
		<layer id="236" name="Constant_607" type="Const" version="opset1">
			<data element_type="i64" shape="4" offset="274704" size="32" />
			<output>
				<port id="0" precision="I64">
					<dim>4</dim>
				</port>
			</output>
		</layer>
		<layer id="237" name="/mask_decoder/transformer/layers.0/cross_attn_token_to_image/Transpose_1" type="Transpose" version="opset1">
			<input>
				<port id="0" precision="FP32">
					<dim>-1</dim>
					<dim>4096</dim>
					<dim>8</dim>
					<dim>16</dim>
				</port>
				<port id="1" precision="I64">
					<dim>4</dim>
				</port>
			</input>
			<output>
				<port id="2" precision="FP32" names="/mask_decoder/transformer/layers.0/cross_attn_token_to_image/Transpose_1_output_0">
					<dim>-1</dim>
					<dim>8</dim>
					<dim>4096</dim>
					<dim>16</dim>
				</port>
			</output>
		</layer>
		<layer id="238" name="/mask_decoder/transformer/layers.0/cross_attn_token_to_image/MatMul_1" type="MatMul" version="opset1">
			<data transpose_a="false" transpose_b="false" />
			<input>
				<port id="0" precision="FP32">
					<dim>-1</dim>
					<dim>8</dim>
					<dim>7</dim>
					<dim>4096</dim>
				</port>
				<port id="1" precision="FP32">
					<dim>-1</dim>
					<dim>8</dim>
					<dim>4096</dim>
					<dim>16</dim>
				</port>
			</input>
			<output>
				<port id="2" precision="FP32" names="/mask_decoder/transformer/layers.0/cross_attn_token_to_image/MatMul_1_output_0">
					<dim>-1</dim>
					<dim>8</dim>
					<dim>7</dim>
					<dim>16</dim>
				</port>
			</output>
		</layer>
		<layer id="239" name="Constant_624" type="Const" version="opset1">
			<data element_type="i64" shape="4" offset="274704" size="32" />
			<output>
				<port id="0" precision="I64">
					<dim>4</dim>
				</port>
			</output>
		</layer>
		<layer id="240" name="/mask_decoder/transformer/layers.0/cross_attn_token_to_image/Transpose_3" type="Transpose" version="opset1">
			<input>
				<port id="0" precision="FP32">
					<dim>-1</dim>
					<dim>8</dim>
					<dim>7</dim>
					<dim>16</dim>
				</port>
				<port id="1" precision="I64">
					<dim>4</dim>
				</port>
			</input>
			<output>
				<port id="2" precision="FP32" names="/mask_decoder/transformer/layers.0/cross_attn_token_to_image/Transpose_3_output_0">
					<dim>-1</dim>
					<dim>7</dim>
					<dim>8</dim>
					<dim>16</dim>
				</port>
			</output>
		</layer>
		<layer id="241" name="Constant_9854" type="Const" version="opset1">
			<data element_type="i64" shape="3" offset="5656592" size="24" />
			<output>
				<port id="0" precision="I64">
					<dim>3</dim>
				</port>
			</output>
		</layer>
		<layer id="242" name="/mask_decoder/transformer/layers.0/cross_attn_token_to_image/Reshape_3" type="Reshape" version="opset1">
			<data special_zero="true" />
			<input>
				<port id="0" precision="FP32">
					<dim>-1</dim>
					<dim>7</dim>
					<dim>8</dim>
					<dim>16</dim>
				</port>
				<port id="1" precision="I64">
					<dim>3</dim>
				</port>
			</input>
			<output>
				<port id="2" precision="FP32" names="/mask_decoder/transformer/layers.0/cross_attn_token_to_image/Reshape_3_output_0">
					<dim>-1</dim>
					<dim>7</dim>
					<dim>128</dim>
				</port>
			</output>
		</layer>
		<layer id="243" name="Transpose_7602" type="Const" version="opset1">
			<data element_type="f32" shape="256, 128" offset="5656616" size="131072" />
			<output>
				<port id="0" precision="FP32">
					<dim>256</dim>
					<dim>128</dim>
				</port>
			</output>
		</layer>
		<layer id="244" name="/mask_decoder/transformer/layers.0/cross_attn_token_to_image/out_proj/MatMul" type="MatMul" version="opset1">
			<data transpose_a="false" transpose_b="true" />
			<input>
				<port id="0" precision="FP32">
					<dim>-1</dim>
					<dim>7</dim>
					<dim>128</dim>
				</port>
				<port id="1" precision="FP32">
					<dim>256</dim>
					<dim>128</dim>
				</port>
			</input>
			<output>
				<port id="2" precision="FP32" names="/mask_decoder/transformer/layers.0/cross_attn_token_to_image/out_proj/MatMul_output_0">
					<dim>-1</dim>
					<dim>7</dim>
					<dim>256</dim>
				</port>
			</output>
		</layer>
		<layer id="245" name="/mask_decoder/transformer/layers.0/cross_attn_token_to_image/out_proj/Add" type="Add" version="opset1">
			<data auto_broadcast="numpy" />
			<input>
				<port id="0" precision="FP32">
					<dim>1</dim>
					<dim>1</dim>
					<dim>256</dim>
				</port>
				<port id="1" precision="FP32">
					<dim>-1</dim>
					<dim>7</dim>
					<dim>256</dim>
				</port>
			</input>
			<output>
				<port id="2" precision="FP32" names="/mask_decoder/transformer/layers.0/cross_attn_token_to_image/out_proj/Add_output_0">
					<dim>-1</dim>
					<dim>7</dim>
					<dim>256</dim>
				</port>
			</output>
		</layer>
		<layer id="246" name="/mask_decoder/transformer/layers.0/Add_2" type="Add" version="opset1">
			<data auto_broadcast="numpy" />
			<input>
				<port id="0" precision="FP32">
					<dim>-1</dim>
					<dim>7</dim>
					<dim>256</dim>
				</port>
				<port id="1" precision="FP32">
					<dim>-1</dim>
					<dim>7</dim>
					<dim>256</dim>
				</port>
			</input>
			<output>
				<port id="2" precision="FP32" names="/mask_decoder/transformer/layers.0/Add_2_output_0">
					<dim>-1</dim>
					<dim>7</dim>
					<dim>256</dim>
				</port>
			</output>
		</layer>
		<layer id="247" name="Range_638" type="Const" version="opset1">
			<data element_type="i64" shape="1" offset="7212" size="8" />
			<output>
				<port id="0" precision="I64">
					<dim>1</dim>
				</port>
			</output>
		</layer>
		<layer id="248" name="MVN_639" type="MVN" version="opset6">
			<data eps="9.9999997473787516e-06" normalize_variance="true" eps_mode="INSIDE_SQRT" />
			<input>
				<port id="0" precision="FP32">
					<dim>-1</dim>
					<dim>7</dim>
					<dim>256</dim>
				</port>
				<port id="1" precision="I64">
					<dim>1</dim>
				</port>
			</input>
			<output>
				<port id="2" precision="FP32">
					<dim>-1</dim>
					<dim>7</dim>
					<dim>256</dim>
				</port>
			</output>
		</layer>
		<layer id="249" name="Constant_9242" type="Const" version="opset1">
			<data element_type="f32" shape="1, 1, 256" offset="5787688" size="1024" />
			<output>
				<port id="0" precision="FP32">
					<dim>1</dim>
					<dim>1</dim>
					<dim>256</dim>
				</port>
			</output>
		</layer>
		<layer id="250" name="Multiply_640" type="Multiply" version="opset1">
			<data auto_broadcast="numpy" />
			<input>
				<port id="0" precision="FP32">
					<dim>-1</dim>
					<dim>7</dim>
					<dim>256</dim>
				</port>
				<port id="1" precision="FP32">
					<dim>1</dim>
					<dim>1</dim>
					<dim>256</dim>
				</port>
			</input>
			<output>
				<port id="2" precision="FP32">
					<dim>-1</dim>
					<dim>7</dim>
					<dim>256</dim>
				</port>
			</output>
		</layer>
		<layer id="251" name="Constant_9243" type="Const" version="opset1">
			<data element_type="f32" shape="1, 1, 256" offset="5788712" size="1024" />
			<output>
				<port id="0" precision="FP32">
					<dim>1</dim>
					<dim>1</dim>
					<dim>256</dim>
				</port>
			</output>
		</layer>
		<layer id="252" name="/mask_decoder/transformer/layers.0/norm2/LayerNormalization" type="Add" version="opset1">
			<data auto_broadcast="numpy" />
			<input>
				<port id="0" precision="FP32">
					<dim>-1</dim>
					<dim>7</dim>
					<dim>256</dim>
				</port>
				<port id="1" precision="FP32">
					<dim>1</dim>
					<dim>1</dim>
					<dim>256</dim>
				</port>
			</input>
			<output>
				<port id="2" precision="FP32" names="/mask_decoder/transformer/layers.0/norm2/LayerNormalization_output_0">
					<dim>-1</dim>
					<dim>7</dim>
					<dim>256</dim>
				</port>
			</output>
		</layer>
		<layer id="253" name="Constant_9245" type="Const" version="opset1">
			<data element_type="f32" shape="1, 1, 256" offset="5789736" size="1024" />
			<output>
				<port id="0" precision="FP32">
					<dim>1</dim>
					<dim>1</dim>
					<dim>256</dim>
				</port>
			</output>
		</layer>
		<layer id="254" name="Constant_9244" type="Const" version="opset1">
			<data element_type="f32" shape="1, 1, 2048" offset="5790760" size="8192" />
			<output>
				<port id="0" precision="FP32">
					<dim>1</dim>
					<dim>1</dim>
					<dim>2048</dim>
				</port>
			</output>
		</layer>
		<layer id="255" name="Transpose_7641" type="Const" version="opset1">
			<data element_type="f32" shape="2048, 256" offset="5798952" size="2097152" />
			<output>
				<port id="0" precision="FP32">
					<dim>2048</dim>
					<dim>256</dim>
				</port>
			</output>
		</layer>
		<layer id="256" name="/mask_decoder/transformer/layers.0/mlp/lin1/MatMul" type="MatMul" version="opset1">
			<data transpose_a="false" transpose_b="true" />
			<input>
				<port id="0" precision="FP32">
					<dim>-1</dim>
					<dim>7</dim>
					<dim>256</dim>
				</port>
				<port id="1" precision="FP32">
					<dim>2048</dim>
					<dim>256</dim>
				</port>
			</input>
			<output>
				<port id="2" precision="FP32" names="/mask_decoder/transformer/layers.0/mlp/lin1/MatMul_output_0">
					<dim>-1</dim>
					<dim>7</dim>
					<dim>2048</dim>
				</port>
			</output>
		</layer>
		<layer id="257" name="/mask_decoder/transformer/layers.0/mlp/lin1/Add" type="Add" version="opset1">
			<data auto_broadcast="numpy" />
			<input>
				<port id="0" precision="FP32">
					<dim>1</dim>
					<dim>1</dim>
					<dim>2048</dim>
				</port>
				<port id="1" precision="FP32">
					<dim>-1</dim>
					<dim>7</dim>
					<dim>2048</dim>
				</port>
			</input>
			<output>
				<port id="2" precision="FP32" names="/mask_decoder/transformer/layers.0/mlp/lin1/Add_output_0">
					<dim>-1</dim>
					<dim>7</dim>
					<dim>2048</dim>
				</port>
			</output>
		</layer>
		<layer id="258" name="/mask_decoder/transformer/layers.0/mlp/act/Relu" type="ReLU" version="opset1">
			<input>
				<port id="0" precision="FP32">
					<dim>-1</dim>
					<dim>7</dim>
					<dim>2048</dim>
				</port>
			</input>
			<output>
				<port id="1" precision="FP32" names="/mask_decoder/transformer/layers.0/mlp/act/Relu_output_0">
					<dim>-1</dim>
					<dim>7</dim>
					<dim>2048</dim>
				</port>
			</output>
		</layer>
		<layer id="259" name="Transpose_7658" type="Const" version="opset1">
			<data element_type="f32" shape="256, 2048" offset="7896104" size="2097152" />
			<output>
				<port id="0" precision="FP32">
					<dim>256</dim>
					<dim>2048</dim>
				</port>
			</output>
		</layer>
		<layer id="260" name="/mask_decoder/transformer/layers.0/mlp/lin2/MatMul" type="MatMul" version="opset1">
			<data transpose_a="false" transpose_b="true" />
			<input>
				<port id="0" precision="FP32">
					<dim>-1</dim>
					<dim>7</dim>
					<dim>2048</dim>
				</port>
				<port id="1" precision="FP32">
					<dim>256</dim>
					<dim>2048</dim>
				</port>
			</input>
			<output>
				<port id="2" precision="FP32" names="/mask_decoder/transformer/layers.0/mlp/lin2/MatMul_output_0">
					<dim>-1</dim>
					<dim>7</dim>
					<dim>256</dim>
				</port>
			</output>
		</layer>
		<layer id="261" name="/mask_decoder/transformer/layers.0/mlp/lin2/Add" type="Add" version="opset1">
			<data auto_broadcast="numpy" />
			<input>
				<port id="0" precision="FP32">
					<dim>1</dim>
					<dim>1</dim>
					<dim>256</dim>
				</port>
				<port id="1" precision="FP32">
					<dim>-1</dim>
					<dim>7</dim>
					<dim>256</dim>
				</port>
			</input>
			<output>
				<port id="2" precision="FP32" names="/mask_decoder/transformer/layers.0/mlp/lin2/Add_output_0">
					<dim>-1</dim>
					<dim>7</dim>
					<dim>256</dim>
				</port>
			</output>
		</layer>
		<layer id="262" name="/mask_decoder/transformer/layers.0/Add_3" type="Add" version="opset1">
			<data auto_broadcast="numpy" />
			<input>
				<port id="0" precision="FP32">
					<dim>-1</dim>
					<dim>7</dim>
					<dim>256</dim>
				</port>
				<port id="1" precision="FP32">
					<dim>-1</dim>
					<dim>7</dim>
					<dim>256</dim>
				</port>
			</input>
			<output>
				<port id="2" precision="FP32" names="/mask_decoder/transformer/layers.0/Add_3_output_0">
					<dim>-1</dim>
					<dim>7</dim>
					<dim>256</dim>
				</port>
			</output>
		</layer>
		<layer id="263" name="Range_651" type="Const" version="opset1">
			<data element_type="i64" shape="1" offset="7212" size="8" />
			<output>
				<port id="0" precision="I64">
					<dim>1</dim>
				</port>
			</output>
		</layer>
		<layer id="264" name="MVN_652" type="MVN" version="opset6">
			<data eps="9.9999997473787516e-06" normalize_variance="true" eps_mode="INSIDE_SQRT" />
			<input>
				<port id="0" precision="FP32">
					<dim>-1</dim>
					<dim>7</dim>
					<dim>256</dim>
				</port>
				<port id="1" precision="I64">
					<dim>1</dim>
				</port>
			</input>
			<output>
				<port id="2" precision="FP32">
					<dim>-1</dim>
					<dim>7</dim>
					<dim>256</dim>
				</port>
			</output>
		</layer>
		<layer id="265" name="Constant_9246" type="Const" version="opset1">
			<data element_type="f32" shape="1, 1, 256" offset="9993256" size="1024" />
			<output>
				<port id="0" precision="FP32">
					<dim>1</dim>
					<dim>1</dim>
					<dim>256</dim>
				</port>
			</output>
		</layer>
		<layer id="266" name="Multiply_653" type="Multiply" version="opset1">
			<data auto_broadcast="numpy" />
			<input>
				<port id="0" precision="FP32">
					<dim>-1</dim>
					<dim>7</dim>
					<dim>256</dim>
				</port>
				<port id="1" precision="FP32">
					<dim>1</dim>
					<dim>1</dim>
					<dim>256</dim>
				</port>
			</input>
			<output>
				<port id="2" precision="FP32">
					<dim>-1</dim>
					<dim>7</dim>
					<dim>256</dim>
				</port>
			</output>
		</layer>
		<layer id="267" name="Constant_9247" type="Const" version="opset1">
			<data element_type="f32" shape="1, 1, 256" offset="9994280" size="1024" />
			<output>
				<port id="0" precision="FP32">
					<dim>1</dim>
					<dim>1</dim>
					<dim>256</dim>
				</port>
			</output>
		</layer>
		<layer id="268" name="/mask_decoder/transformer/layers.0/norm3/LayerNormalization" type="Add" version="opset1">
			<data auto_broadcast="numpy" />
			<input>
				<port id="0" precision="FP32">
					<dim>-1</dim>
					<dim>7</dim>
					<dim>256</dim>
				</port>
				<port id="1" precision="FP32">
					<dim>1</dim>
					<dim>1</dim>
					<dim>256</dim>
				</port>
			</input>
			<output>
				<port id="2" precision="FP32" names="/mask_decoder/transformer/layers.0/norm3/LayerNormalization_output_0">
					<dim>-1</dim>
					<dim>7</dim>
					<dim>256</dim>
				</port>
			</output>
		</layer>
		<layer id="269" name="Constant_9252" type="Const" version="opset1">
			<data element_type="f32" shape="1, 1, 256" offset="9995304" size="1024" />
			<output>
				<port id="0" precision="FP32">
					<dim>1</dim>
					<dim>1</dim>
					<dim>256</dim>
				</port>
			</output>
		</layer>
		<layer id="270" name="Constant_9248" type="Const" version="opset1">
			<data element_type="f32" shape="1, 1, 256" offset="9996328" size="1024" />
			<output>
				<port id="0" precision="FP32">
					<dim>1</dim>
					<dim>1</dim>
					<dim>256</dim>
				</port>
			</output>
		</layer>
		<layer id="271" name="/mask_decoder/transformer/layers.0/Add_4" type="Add" version="opset1">
			<data auto_broadcast="numpy" />
			<input>
				<port id="0" precision="FP32">
					<dim>-1</dim>
					<dim>7</dim>
					<dim>256</dim>
				</port>
				<port id="1" precision="FP32">
					<dim>-1</dim>
					<dim>7</dim>
					<dim>256</dim>
				</port>
			</input>
			<output>
				<port id="2" precision="FP32" names="/mask_decoder/transformer/layers.0/Add_4_output_0">
					<dim>-1</dim>
					<dim>7</dim>
					<dim>256</dim>
				</port>
			</output>
		</layer>
		<layer id="272" name="Transpose_7701" type="Const" version="opset1">
			<data element_type="f32" shape="256, 256" offset="9997352" size="262144" />
			<output>
				<port id="0" precision="FP32">
					<dim>256</dim>
					<dim>256</dim>
				</port>
			</output>
		</layer>
		<layer id="273" name="/mask_decoder/transformer/layers.1/self_attn/q_proj/MatMul" type="MatMul" version="opset1">
			<data transpose_a="false" transpose_b="true" />
			<input>
				<port id="0" precision="FP32">
					<dim>-1</dim>
					<dim>7</dim>
					<dim>256</dim>
				</port>
				<port id="1" precision="FP32">
					<dim>256</dim>
					<dim>256</dim>
				</port>
			</input>
			<output>
				<port id="2" precision="FP32" names="/mask_decoder/transformer/layers.1/self_attn/q_proj/MatMul_output_0">
					<dim>-1</dim>
					<dim>7</dim>
					<dim>256</dim>
				</port>
			</output>
		</layer>
		<layer id="274" name="/mask_decoder/transformer/layers.1/self_attn/q_proj/Add" type="Add" version="opset1">
			<data auto_broadcast="numpy" />
			<input>
				<port id="0" precision="FP32">
					<dim>1</dim>
					<dim>1</dim>
					<dim>256</dim>
				</port>
				<port id="1" precision="FP32">
					<dim>-1</dim>
					<dim>7</dim>
					<dim>256</dim>
				</port>
			</input>
			<output>
				<port id="2" precision="FP32" names="/mask_decoder/transformer/layers.1/self_attn/q_proj/Add_output_0">
					<dim>-1</dim>
					<dim>7</dim>
					<dim>256</dim>
				</port>
			</output>
		</layer>
		<layer id="275" name="/mask_decoder/transformer/layers.1/self_attn/Concat" type="Const" version="opset1">
			<data element_type="i64" shape="4" offset="274672" size="32" />
			<output>
				<port id="0" precision="I64">
					<dim>4</dim>
				</port>
			</output>
		</layer>
		<layer id="276" name="/mask_decoder/transformer/layers.1/self_attn/Reshape" type="Reshape" version="opset1">
			<data special_zero="true" />
			<input>
				<port id="0" precision="FP32">
					<dim>-1</dim>
					<dim>7</dim>
					<dim>256</dim>
				</port>
				<port id="1" precision="I64">
					<dim>4</dim>
				</port>
			</input>
			<output>
				<port id="2" precision="FP32" names="/mask_decoder/transformer/layers.1/self_attn/Reshape_output_0">
					<dim>-1</dim>
					<dim>7</dim>
					<dim>8</dim>
					<dim>32</dim>
				</port>
			</output>
		</layer>
		<layer id="277" name="Constant_741" type="Const" version="opset1">
			<data element_type="i64" shape="4" offset="274704" size="32" />
			<output>
				<port id="0" precision="I64">
					<dim>4</dim>
				</port>
			</output>
		</layer>
		<layer id="278" name="/mask_decoder/transformer/layers.1/self_attn/Transpose" type="Transpose" version="opset1">
			<input>
				<port id="0" precision="FP32">
					<dim>-1</dim>
					<dim>7</dim>
					<dim>8</dim>
					<dim>32</dim>
				</port>
				<port id="1" precision="I64">
					<dim>4</dim>
				</port>
			</input>
			<output>
				<port id="2" precision="FP32" names="/mask_decoder/transformer/layers.1/self_attn/Transpose_output_0">
					<dim>-1</dim>
					<dim>8</dim>
					<dim>7</dim>
					<dim>32</dim>
				</port>
			</output>
		</layer>
		<layer id="279" name="Constant_9249" type="Const" version="opset1">
			<data element_type="f32" shape="1, 1, 256" offset="10259496" size="1024" />
			<output>
				<port id="0" precision="FP32">
					<dim>1</dim>
					<dim>1</dim>
					<dim>256</dim>
				</port>
			</output>
		</layer>
		<layer id="280" name="Transpose_7726" type="Const" version="opset1">
			<data element_type="f32" shape="256, 256" offset="10260520" size="262144" />
			<output>
				<port id="0" precision="FP32">
					<dim>256</dim>
					<dim>256</dim>
				</port>
			</output>
		</layer>
		<layer id="281" name="/mask_decoder/transformer/layers.1/self_attn/k_proj/MatMul" type="MatMul" version="opset1">
			<data transpose_a="false" transpose_b="true" />
			<input>
				<port id="0" precision="FP32">
					<dim>-1</dim>
					<dim>7</dim>
					<dim>256</dim>
				</port>
				<port id="1" precision="FP32">
					<dim>256</dim>
					<dim>256</dim>
				</port>
			</input>
			<output>
				<port id="2" precision="FP32" names="/mask_decoder/transformer/layers.1/self_attn/k_proj/MatMul_output_0">
					<dim>-1</dim>
					<dim>7</dim>
					<dim>256</dim>
				</port>
			</output>
		</layer>
		<layer id="282" name="/mask_decoder/transformer/layers.1/self_attn/k_proj/Add" type="Add" version="opset1">
			<data auto_broadcast="numpy" />
			<input>
				<port id="0" precision="FP32">
					<dim>1</dim>
					<dim>1</dim>
					<dim>256</dim>
				</port>
				<port id="1" precision="FP32">
					<dim>-1</dim>
					<dim>7</dim>
					<dim>256</dim>
				</port>
			</input>
			<output>
				<port id="2" precision="FP32" names="/mask_decoder/transformer/layers.1/self_attn/k_proj/Add_output_0">
					<dim>-1</dim>
					<dim>7</dim>
					<dim>256</dim>
				</port>
			</output>
		</layer>
		<layer id="283" name="/mask_decoder/transformer/layers.1/self_attn/Concat_1" type="Const" version="opset1">
			<data element_type="i64" shape="4" offset="274672" size="32" />
			<output>
				<port id="0" precision="I64">
					<dim>4</dim>
				</port>
			</output>
		</layer>
		<layer id="284" name="/mask_decoder/transformer/layers.1/self_attn/Reshape_1" type="Reshape" version="opset1">
			<data special_zero="true" />
			<input>
				<port id="0" precision="FP32">
					<dim>-1</dim>
					<dim>7</dim>
					<dim>256</dim>
				</port>
				<port id="1" precision="I64">
					<dim>4</dim>
				</port>
			</input>
			<output>
				<port id="2" precision="FP32" names="/mask_decoder/transformer/layers.1/self_attn/Reshape_1_output_0">
					<dim>-1</dim>
					<dim>7</dim>
					<dim>8</dim>
					<dim>32</dim>
				</port>
			</output>
		</layer>
		<layer id="285" name="Constant_763" type="Const" version="opset1">
			<data element_type="i64" shape="4" offset="537904" size="32" />
			<output>
				<port id="0" precision="I64">
					<dim>4</dim>
				</port>
			</output>
		</layer>
		<layer id="286" name="/mask_decoder/transformer/layers.1/self_attn/Transpose_2" type="Transpose" version="opset1">
			<input>
				<port id="0" precision="FP32">
					<dim>-1</dim>
					<dim>7</dim>
					<dim>8</dim>
					<dim>32</dim>
				</port>
				<port id="1" precision="I64">
					<dim>4</dim>
				</port>
			</input>
			<output>
				<port id="2" precision="FP32" names="/mask_decoder/transformer/layers.1/self_attn/Transpose_2_output_0">
					<dim>-1</dim>
					<dim>8</dim>
					<dim>32</dim>
					<dim>7</dim>
				</port>
			</output>
		</layer>
		<layer id="287" name="/mask_decoder/transformer/layers.1/self_attn/MatMul" type="MatMul" version="opset1">
			<data transpose_a="false" transpose_b="false" />
			<input>
				<port id="0" precision="FP32">
					<dim>-1</dim>
					<dim>8</dim>
					<dim>7</dim>
					<dim>32</dim>
				</port>
				<port id="1" precision="FP32">
					<dim>-1</dim>
					<dim>8</dim>
					<dim>32</dim>
					<dim>7</dim>
				</port>
			</input>
			<output>
				<port id="2" precision="FP32" names="/mask_decoder/transformer/layers.1/self_attn/MatMul_output_0">
					<dim>-1</dim>
					<dim>8</dim>
					<dim>7</dim>
					<dim>7</dim>
				</port>
			</output>
		</layer>
		<layer id="288" name="Constant_9250" type="Const" version="opset1">
			<data element_type="f32" shape="1, 1, 1, 1" offset="537936" size="4" />
			<output>
				<port id="0" precision="FP32">
					<dim>1</dim>
					<dim>1</dim>
					<dim>1</dim>
					<dim>1</dim>
				</port>
			</output>
		</layer>
		<layer id="289" name="/mask_decoder/transformer/layers.1/self_attn/Div_3" type="Multiply" version="opset1">
			<data auto_broadcast="numpy" />
			<input>
				<port id="0" precision="FP32">
					<dim>-1</dim>
					<dim>8</dim>
					<dim>7</dim>
					<dim>7</dim>
				</port>
				<port id="1" precision="FP32">
					<dim>1</dim>
					<dim>1</dim>
					<dim>1</dim>
					<dim>1</dim>
				</port>
			</input>
			<output>
				<port id="2" precision="FP32" names="/mask_decoder/transformer/layers.1/self_attn/Div_3_output_0">
					<dim>-1</dim>
					<dim>8</dim>
					<dim>7</dim>
					<dim>7</dim>
				</port>
			</output>
		</layer>
		<layer id="290" name="/mask_decoder/transformer/layers.1/self_attn/Softmax" type="SoftMax" version="opset8">
			<data axis="-1" />
			<input>
				<port id="0" precision="FP32">
					<dim>-1</dim>
					<dim>8</dim>
					<dim>7</dim>
					<dim>7</dim>
				</port>
			</input>
			<output>
				<port id="1" precision="FP32" names="/mask_decoder/transformer/layers.1/self_attn/Softmax_output_0">
					<dim>-1</dim>
					<dim>8</dim>
					<dim>7</dim>
					<dim>7</dim>
				</port>
			</output>
		</layer>
		<layer id="291" name="Constant_9251" type="Const" version="opset1">
			<data element_type="f32" shape="1, 1, 256" offset="10522664" size="1024" />
			<output>
				<port id="0" precision="FP32">
					<dim>1</dim>
					<dim>1</dim>
					<dim>256</dim>
				</port>
			</output>
		</layer>
		<layer id="292" name="Transpose_7763" type="Const" version="opset1">
			<data element_type="f32" shape="256, 256" offset="10523688" size="262144" />
			<output>
				<port id="0" precision="FP32">
					<dim>256</dim>
					<dim>256</dim>
				</port>
			</output>
		</layer>
		<layer id="293" name="/mask_decoder/transformer/layers.1/self_attn/v_proj/MatMul" type="MatMul" version="opset1">
			<data transpose_a="false" transpose_b="true" />
			<input>
				<port id="0" precision="FP32">
					<dim>-1</dim>
					<dim>7</dim>
					<dim>256</dim>
				</port>
				<port id="1" precision="FP32">
					<dim>256</dim>
					<dim>256</dim>
				</port>
			</input>
			<output>
				<port id="2" precision="FP32" names="/mask_decoder/transformer/layers.1/self_attn/v_proj/MatMul_output_0">
					<dim>-1</dim>
					<dim>7</dim>
					<dim>256</dim>
				</port>
			</output>
		</layer>
		<layer id="294" name="/mask_decoder/transformer/layers.1/self_attn/v_proj/Add" type="Add" version="opset1">
			<data auto_broadcast="numpy" />
			<input>
				<port id="0" precision="FP32">
					<dim>1</dim>
					<dim>1</dim>
					<dim>256</dim>
				</port>
				<port id="1" precision="FP32">
					<dim>-1</dim>
					<dim>7</dim>
					<dim>256</dim>
				</port>
			</input>
			<output>
				<port id="2" precision="FP32" names="/mask_decoder/transformer/layers.1/self_attn/v_proj/Add_output_0">
					<dim>-1</dim>
					<dim>7</dim>
					<dim>256</dim>
				</port>
			</output>
		</layer>
		<layer id="295" name="/mask_decoder/transformer/layers.1/self_attn/Concat_2" type="Const" version="opset1">
			<data element_type="i64" shape="4" offset="274672" size="32" />
			<output>
				<port id="0" precision="I64">
					<dim>4</dim>
				</port>
			</output>
		</layer>
		<layer id="296" name="/mask_decoder/transformer/layers.1/self_attn/Reshape_2" type="Reshape" version="opset1">
			<data special_zero="true" />
			<input>
				<port id="0" precision="FP32">
					<dim>-1</dim>
					<dim>7</dim>
					<dim>256</dim>
				</port>
				<port id="1" precision="I64">
					<dim>4</dim>
				</port>
			</input>
			<output>
				<port id="2" precision="FP32" names="/mask_decoder/transformer/layers.1/self_attn/Reshape_2_output_0">
					<dim>-1</dim>
					<dim>7</dim>
					<dim>8</dim>
					<dim>32</dim>
				</port>
			</output>
		</layer>
		<layer id="297" name="Constant_761" type="Const" version="opset1">
			<data element_type="i64" shape="4" offset="274704" size="32" />
			<output>
				<port id="0" precision="I64">
					<dim>4</dim>
				</port>
			</output>
		</layer>
		<layer id="298" name="/mask_decoder/transformer/layers.1/self_attn/Transpose_1" type="Transpose" version="opset1">
			<input>
				<port id="0" precision="FP32">
					<dim>-1</dim>
					<dim>7</dim>
					<dim>8</dim>
					<dim>32</dim>
				</port>
				<port id="1" precision="I64">
					<dim>4</dim>
				</port>
			</input>
			<output>
				<port id="2" precision="FP32" names="/mask_decoder/transformer/layers.1/self_attn/Transpose_1_output_0">
					<dim>-1</dim>
					<dim>8</dim>
					<dim>7</dim>
					<dim>32</dim>
				</port>
			</output>
		</layer>
		<layer id="299" name="/mask_decoder/transformer/layers.1/self_attn/MatMul_1" type="MatMul" version="opset1">
			<data transpose_a="false" transpose_b="false" />
			<input>
				<port id="0" precision="FP32">
					<dim>-1</dim>
					<dim>8</dim>
					<dim>7</dim>
					<dim>7</dim>
				</port>
				<port id="1" precision="FP32">
					<dim>-1</dim>
					<dim>8</dim>
					<dim>7</dim>
					<dim>32</dim>
				</port>
			</input>
			<output>
				<port id="2" precision="FP32" names="/mask_decoder/transformer/layers.1/self_attn/MatMul_1_output_0">
					<dim>-1</dim>
					<dim>8</dim>
					<dim>7</dim>
					<dim>32</dim>
				</port>
			</output>
		</layer>
		<layer id="300" name="Constant_778" type="Const" version="opset1">
			<data element_type="i64" shape="4" offset="274704" size="32" />
			<output>
				<port id="0" precision="I64">
					<dim>4</dim>
				</port>
			</output>
		</layer>
		<layer id="301" name="/mask_decoder/transformer/layers.1/self_attn/Transpose_3" type="Transpose" version="opset1">
			<input>
				<port id="0" precision="FP32">
					<dim>-1</dim>
					<dim>8</dim>
					<dim>7</dim>
					<dim>32</dim>
				</port>
				<port id="1" precision="I64">
					<dim>4</dim>
				</port>
			</input>
			<output>
				<port id="2" precision="FP32" names="/mask_decoder/transformer/layers.1/self_attn/Transpose_3_output_0">
					<dim>-1</dim>
					<dim>7</dim>
					<dim>8</dim>
					<dim>32</dim>
				</port>
			</output>
		</layer>
		<layer id="302" name="Constant_9855" type="Const" version="opset1">
			<data element_type="i64" shape="3" offset="801108" size="24" />
			<output>
				<port id="0" precision="I64">
					<dim>3</dim>
				</port>
			</output>
		</layer>
		<layer id="303" name="/mask_decoder/transformer/layers.1/self_attn/Reshape_3" type="Reshape" version="opset1">
			<data special_zero="true" />
			<input>
				<port id="0" precision="FP32">
					<dim>-1</dim>
					<dim>7</dim>
					<dim>8</dim>
					<dim>32</dim>
				</port>
				<port id="1" precision="I64">
					<dim>3</dim>
				</port>
			</input>
			<output>
				<port id="2" precision="FP32" names="/mask_decoder/transformer/layers.1/self_attn/Reshape_3_output_0">
					<dim>-1</dim>
					<dim>7</dim>
					<dim>256</dim>
				</port>
			</output>
		</layer>
		<layer id="304" name="Transpose_7840" type="Const" version="opset1">
			<data element_type="f32" shape="256, 256" offset="10785832" size="262144" />
			<output>
				<port id="0" precision="FP32">
					<dim>256</dim>
					<dim>256</dim>
				</port>
			</output>
		</layer>
		<layer id="305" name="/mask_decoder/transformer/layers.1/self_attn/out_proj/MatMul" type="MatMul" version="opset1">
			<data transpose_a="false" transpose_b="true" />
			<input>
				<port id="0" precision="FP32">
					<dim>-1</dim>
					<dim>7</dim>
					<dim>256</dim>
				</port>
				<port id="1" precision="FP32">
					<dim>256</dim>
					<dim>256</dim>
				</port>
			</input>
			<output>
				<port id="2" precision="FP32" names="/mask_decoder/transformer/layers.1/self_attn/out_proj/MatMul_output_0">
					<dim>-1</dim>
					<dim>7</dim>
					<dim>256</dim>
				</port>
			</output>
		</layer>
		<layer id="306" name="/mask_decoder/transformer/layers.1/self_attn/out_proj/Add" type="Add" version="opset1">
			<data auto_broadcast="numpy" />
			<input>
				<port id="0" precision="FP32">
					<dim>1</dim>
					<dim>1</dim>
					<dim>256</dim>
				</port>
				<port id="1" precision="FP32">
					<dim>-1</dim>
					<dim>7</dim>
					<dim>256</dim>
				</port>
			</input>
			<output>
				<port id="2" precision="FP32" names="/mask_decoder/transformer/layers.1/self_attn/out_proj/Add_output_0">
					<dim>-1</dim>
					<dim>7</dim>
					<dim>256</dim>
				</port>
			</output>
		</layer>
		<layer id="307" name="/mask_decoder/transformer/layers.1/Add" type="Add" version="opset1">
			<data auto_broadcast="numpy" />
			<input>
				<port id="0" precision="FP32">
					<dim>-1</dim>
					<dim>7</dim>
					<dim>256</dim>
				</port>
				<port id="1" precision="FP32">
					<dim>-1</dim>
					<dim>7</dim>
					<dim>256</dim>
				</port>
			</input>
			<output>
				<port id="2" precision="FP32" names="/mask_decoder/transformer/layers.1/Add_output_0">
					<dim>-1</dim>
					<dim>7</dim>
					<dim>256</dim>
				</port>
			</output>
		</layer>
		<layer id="308" name="Range_792" type="Const" version="opset1">
			<data element_type="i64" shape="1" offset="7212" size="8" />
			<output>
				<port id="0" precision="I64">
					<dim>1</dim>
				</port>
			</output>
		</layer>
		<layer id="309" name="MVN_793" type="MVN" version="opset6">
			<data eps="9.9999997473787516e-06" normalize_variance="true" eps_mode="INSIDE_SQRT" />
			<input>
				<port id="0" precision="FP32">
					<dim>-1</dim>
					<dim>7</dim>
					<dim>256</dim>
				</port>
				<port id="1" precision="I64">
					<dim>1</dim>
				</port>
			</input>
			<output>
				<port id="2" precision="FP32">
					<dim>-1</dim>
					<dim>7</dim>
					<dim>256</dim>
				</port>
			</output>
		</layer>
		<layer id="310" name="Constant_9253" type="Const" version="opset1">
			<data element_type="f32" shape="1, 1, 256" offset="11047976" size="1024" />
			<output>
				<port id="0" precision="FP32">
					<dim>1</dim>
					<dim>1</dim>
					<dim>256</dim>
				</port>
			</output>
		</layer>
		<layer id="311" name="Multiply_794" type="Multiply" version="opset1">
			<data auto_broadcast="numpy" />
			<input>
				<port id="0" precision="FP32">
					<dim>-1</dim>
					<dim>7</dim>
					<dim>256</dim>
				</port>
				<port id="1" precision="FP32">
					<dim>1</dim>
					<dim>1</dim>
					<dim>256</dim>
				</port>
			</input>
			<output>
				<port id="2" precision="FP32">
					<dim>-1</dim>
					<dim>7</dim>
					<dim>256</dim>
				</port>
			</output>
		</layer>
		<layer id="312" name="Constant_9254" type="Const" version="opset1">
			<data element_type="f32" shape="1, 1, 256" offset="11049000" size="1024" />
			<output>
				<port id="0" precision="FP32">
					<dim>1</dim>
					<dim>1</dim>
					<dim>256</dim>
				</port>
			</output>
		</layer>
		<layer id="313" name="/mask_decoder/transformer/layers.1/norm1/LayerNormalization" type="Add" version="opset1">
			<data auto_broadcast="numpy" />
			<input>
				<port id="0" precision="FP32">
					<dim>-1</dim>
					<dim>7</dim>
					<dim>256</dim>
				</port>
				<port id="1" precision="FP32">
					<dim>1</dim>
					<dim>1</dim>
					<dim>256</dim>
				</port>
			</input>
			<output>
				<port id="2" precision="FP32" names="/mask_decoder/transformer/layers.1/norm1/LayerNormalization_output_0">
					<dim>-1</dim>
					<dim>7</dim>
					<dim>256</dim>
				</port>
			</output>
		</layer>
		<layer id="314" name="Constant_9266" type="Const" version="opset1">
			<data element_type="f32" shape="1, 1, 256" offset="11050024" size="1024" />
			<output>
				<port id="0" precision="FP32">
					<dim>1</dim>
					<dim>1</dim>
					<dim>256</dim>
				</port>
			</output>
		</layer>
		<layer id="315" name="Constant_9255" type="Const" version="opset1">
			<data element_type="f32" shape="1, 1, 128" offset="11051048" size="512" />
			<output>
				<port id="0" precision="FP32">
					<dim>1</dim>
					<dim>1</dim>
					<dim>128</dim>
				</port>
			</output>
		</layer>
		<layer id="316" name="/mask_decoder/transformer/layers.1/Add_1" type="Add" version="opset1">
			<data auto_broadcast="numpy" />
			<input>
				<port id="0" precision="FP32">
					<dim>-1</dim>
					<dim>7</dim>
					<dim>256</dim>
				</port>
				<port id="1" precision="FP32">
					<dim>-1</dim>
					<dim>7</dim>
					<dim>256</dim>
				</port>
			</input>
			<output>
				<port id="2" precision="FP32" names="/mask_decoder/transformer/layers.1/Add_1_output_0">
					<dim>-1</dim>
					<dim>7</dim>
					<dim>256</dim>
				</port>
			</output>
		</layer>
		<layer id="317" name="Transpose_7883" type="Const" version="opset1">
			<data element_type="f32" shape="128, 256" offset="11051560" size="131072" />
			<output>
				<port id="0" precision="FP32">
					<dim>128</dim>
					<dim>256</dim>
				</port>
			</output>
		</layer>
		<layer id="318" name="/mask_decoder/transformer/layers.1/cross_attn_token_to_image/q_proj/MatMul" type="MatMul" version="opset1">
			<data transpose_a="false" transpose_b="true" />
			<input>
				<port id="0" precision="FP32">
					<dim>-1</dim>
					<dim>7</dim>
					<dim>256</dim>
				</port>
				<port id="1" precision="FP32">
					<dim>128</dim>
					<dim>256</dim>
				</port>
			</input>
			<output>
				<port id="2" precision="FP32" names="/mask_decoder/transformer/layers.1/cross_attn_token_to_image/q_proj/MatMul_output_0">
					<dim>-1</dim>
					<dim>7</dim>
					<dim>128</dim>
				</port>
			</output>
		</layer>
		<layer id="319" name="/mask_decoder/transformer/layers.1/cross_attn_token_to_image/q_proj/Add" type="Add" version="opset1">
			<data auto_broadcast="numpy" />
			<input>
				<port id="0" precision="FP32">
					<dim>1</dim>
					<dim>1</dim>
					<dim>128</dim>
				</port>
				<port id="1" precision="FP32">
					<dim>-1</dim>
					<dim>7</dim>
					<dim>128</dim>
				</port>
			</input>
			<output>
				<port id="2" precision="FP32" names="/mask_decoder/transformer/layers.1/cross_attn_token_to_image/q_proj/Add_output_0">
					<dim>-1</dim>
					<dim>7</dim>
					<dim>128</dim>
				</port>
			</output>
		</layer>
		<layer id="320" name="/mask_decoder/transformer/layers.1/cross_attn_token_to_image/Concat" type="Const" version="opset1">
			<data element_type="i64" shape="4" offset="1197932" size="32" />
			<output>
				<port id="0" precision="I64">
					<dim>4</dim>
				</port>
			</output>
		</layer>
		<layer id="321" name="/mask_decoder/transformer/layers.1/cross_attn_token_to_image/Reshape" type="Reshape" version="opset1">
			<data special_zero="true" />
			<input>
				<port id="0" precision="FP32">
					<dim>-1</dim>
					<dim>7</dim>
					<dim>128</dim>
				</port>
				<port id="1" precision="I64">
					<dim>4</dim>
				</port>
			</input>
			<output>
				<port id="2" precision="FP32" names="/mask_decoder/transformer/layers.1/cross_attn_token_to_image/Reshape_output_0">
					<dim>-1</dim>
					<dim>7</dim>
					<dim>8</dim>
					<dim>16</dim>
				</port>
			</output>
		</layer>
		<layer id="322" name="Constant_813" type="Const" version="opset1">
			<data element_type="i64" shape="4" offset="274704" size="32" />
			<output>
				<port id="0" precision="I64">
					<dim>4</dim>
				</port>
			</output>
		</layer>
		<layer id="323" name="/mask_decoder/transformer/layers.1/cross_attn_token_to_image/Transpose" type="Transpose" version="opset1">
			<input>
				<port id="0" precision="FP32">
					<dim>-1</dim>
					<dim>7</dim>
					<dim>8</dim>
					<dim>16</dim>
				</port>
				<port id="1" precision="I64">
					<dim>4</dim>
				</port>
			</input>
			<output>
				<port id="2" precision="FP32" names="/mask_decoder/transformer/layers.1/cross_attn_token_to_image/Transpose_output_0">
					<dim>-1</dim>
					<dim>8</dim>
					<dim>7</dim>
					<dim>16</dim>
				</port>
			</output>
		</layer>
		<layer id="324" name="Constant_9263" type="Const" version="opset1">
			<data element_type="f32" shape="1, 1, 128" offset="11182632" size="512" />
			<output>
				<port id="0" precision="FP32">
					<dim>1</dim>
					<dim>1</dim>
					<dim>128</dim>
				</port>
			</output>
		</layer>
		<layer id="325" name="Constant_9260" type="Const" version="opset1">
			<data element_type="f32" shape="1, 1, 256" offset="11183144" size="1024" />
			<output>
				<port id="0" precision="FP32">
					<dim>1</dim>
					<dim>1</dim>
					<dim>256</dim>
				</port>
			</output>
		</layer>
		<layer id="326" name="Constant_9256" type="Const" version="opset1">
			<data element_type="f32" shape="1, 1, 128" offset="11184168" size="512" />
			<output>
				<port id="0" precision="FP32">
					<dim>1</dim>
					<dim>1</dim>
					<dim>128</dim>
				</port>
			</output>
		</layer>
		<layer id="327" name="Transpose_7912" type="Const" version="opset1">
			<data element_type="f32" shape="128, 256" offset="11184680" size="131072" />
			<output>
				<port id="0" precision="FP32">
					<dim>128</dim>
					<dim>256</dim>
				</port>
			</output>
		</layer>
		<layer id="328" name="/mask_decoder/transformer/layers.0/cross_attn_image_to_token/q_proj/MatMul" type="MatMul" version="opset1">
			<data transpose_a="false" transpose_b="true" />
			<input>
				<port id="0" precision="FP32">
					<dim>-1</dim>
					<dim>4096</dim>
					<dim>256</dim>
				</port>
				<port id="1" precision="FP32">
					<dim>128</dim>
					<dim>256</dim>
				</port>
			</input>
			<output>
				<port id="2" precision="FP32" names="/mask_decoder/transformer/layers.0/cross_attn_image_to_token/q_proj/MatMul_output_0">
					<dim>-1</dim>
					<dim>4096</dim>
					<dim>128</dim>
				</port>
			</output>
		</layer>
		<layer id="329" name="/mask_decoder/transformer/layers.0/cross_attn_image_to_token/q_proj/Add" type="Add" version="opset1">
			<data auto_broadcast="numpy" />
			<input>
				<port id="0" precision="FP32">
					<dim>1</dim>
					<dim>1</dim>
					<dim>128</dim>
				</port>
				<port id="1" precision="FP32">
					<dim>-1</dim>
					<dim>4096</dim>
					<dim>128</dim>
				</port>
			</input>
			<output>
				<port id="2" precision="FP32" names="/mask_decoder/transformer/layers.0/cross_attn_image_to_token/q_proj/Add_output_0">
					<dim>-1</dim>
					<dim>4096</dim>
					<dim>128</dim>
				</port>
			</output>
		</layer>
		<layer id="330" name="/mask_decoder/transformer/layers.0/cross_attn_image_to_token/Concat" type="Const" version="opset1">
			<data element_type="i64" shape="4" offset="1197932" size="32" />
			<output>
				<port id="0" precision="I64">
					<dim>4</dim>
				</port>
			</output>
		</layer>
		<layer id="331" name="/mask_decoder/transformer/layers.0/cross_attn_image_to_token/Reshape" type="Reshape" version="opset1">
			<data special_zero="true" />
			<input>
				<port id="0" precision="FP32">
					<dim>-1</dim>
					<dim>4096</dim>
					<dim>128</dim>
				</port>
				<port id="1" precision="I64">
					<dim>4</dim>
				</port>
			</input>
			<output>
				<port id="2" precision="FP32" names="/mask_decoder/transformer/layers.0/cross_attn_image_to_token/Reshape_output_0">
					<dim>-1</dim>
					<dim>4096</dim>
					<dim>8</dim>
					<dim>16</dim>
				</port>
			</output>
		</layer>
		<layer id="332" name="Constant_671" type="Const" version="opset1">
			<data element_type="i64" shape="4" offset="274704" size="32" />
			<output>
				<port id="0" precision="I64">
					<dim>4</dim>
				</port>
			</output>
		</layer>
		<layer id="333" name="/mask_decoder/transformer/layers.0/cross_attn_image_to_token/Transpose" type="Transpose" version="opset1">
			<input>
				<port id="0" precision="FP32">
					<dim>-1</dim>
					<dim>4096</dim>
					<dim>8</dim>
					<dim>16</dim>
				</port>
				<port id="1" precision="I64">
					<dim>4</dim>
				</port>
			</input>
			<output>
				<port id="2" precision="FP32" names="/mask_decoder/transformer/layers.0/cross_attn_image_to_token/Transpose_output_0">
					<dim>-1</dim>
					<dim>8</dim>
					<dim>4096</dim>
					<dim>16</dim>
				</port>
			</output>
		</layer>
		<layer id="334" name="Constant_9257" type="Const" version="opset1">
			<data element_type="f32" shape="1, 1, 128" offset="11315752" size="512" />
			<output>
				<port id="0" precision="FP32">
					<dim>1</dim>
					<dim>1</dim>
					<dim>128</dim>
				</port>
			</output>
		</layer>
		<layer id="335" name="Transpose_7937" type="Const" version="opset1">
			<data element_type="f32" shape="128, 256" offset="11316264" size="131072" />
			<output>
				<port id="0" precision="FP32">
					<dim>128</dim>
					<dim>256</dim>
				</port>
			</output>
		</layer>
		<layer id="336" name="/mask_decoder/transformer/layers.0/cross_attn_image_to_token/k_proj/MatMul" type="MatMul" version="opset1">
			<data transpose_a="false" transpose_b="true" />
			<input>
				<port id="0" precision="FP32">
					<dim>-1</dim>
					<dim>7</dim>
					<dim>256</dim>
				</port>
				<port id="1" precision="FP32">
					<dim>128</dim>
					<dim>256</dim>
				</port>
			</input>
			<output>
				<port id="2" precision="FP32" names="/mask_decoder/transformer/layers.0/cross_attn_image_to_token/k_proj/MatMul_output_0">
					<dim>-1</dim>
					<dim>7</dim>
					<dim>128</dim>
				</port>
			</output>
		</layer>
		<layer id="337" name="/mask_decoder/transformer/layers.0/cross_attn_image_to_token/k_proj/Add" type="Add" version="opset1">
			<data auto_broadcast="numpy" />
			<input>
				<port id="0" precision="FP32">
					<dim>1</dim>
					<dim>1</dim>
					<dim>128</dim>
				</port>
				<port id="1" precision="FP32">
					<dim>-1</dim>
					<dim>7</dim>
					<dim>128</dim>
				</port>
			</input>
			<output>
				<port id="2" precision="FP32" names="/mask_decoder/transformer/layers.0/cross_attn_image_to_token/k_proj/Add_output_0">
					<dim>-1</dim>
					<dim>7</dim>
					<dim>128</dim>
				</port>
			</output>
		</layer>
		<layer id="338" name="/mask_decoder/transformer/layers.0/cross_attn_image_to_token/Concat_1" type="Const" version="opset1">
			<data element_type="i64" shape="4" offset="1197932" size="32" />
			<output>
				<port id="0" precision="I64">
					<dim>4</dim>
				</port>
			</output>
		</layer>
		<layer id="339" name="/mask_decoder/transformer/layers.0/cross_attn_image_to_token/Reshape_1" type="Reshape" version="opset1">
			<data special_zero="true" />
			<input>
				<port id="0" precision="FP32">
					<dim>-1</dim>
					<dim>7</dim>
					<dim>128</dim>
				</port>
				<port id="1" precision="I64">
					<dim>4</dim>
				</port>
			</input>
			<output>
				<port id="2" precision="FP32" names="/mask_decoder/transformer/layers.0/cross_attn_image_to_token/Reshape_1_output_0">
					<dim>-1</dim>
					<dim>7</dim>
					<dim>8</dim>
					<dim>16</dim>
				</port>
			</output>
		</layer>
		<layer id="340" name="Constant_693" type="Const" version="opset1">
			<data element_type="i64" shape="4" offset="537904" size="32" />
			<output>
				<port id="0" precision="I64">
					<dim>4</dim>
				</port>
			</output>
		</layer>
		<layer id="341" name="/mask_decoder/transformer/layers.0/cross_attn_image_to_token/Transpose_2" type="Transpose" version="opset1">
			<input>
				<port id="0" precision="FP32">
					<dim>-1</dim>
					<dim>7</dim>
					<dim>8</dim>
					<dim>16</dim>
				</port>
				<port id="1" precision="I64">
					<dim>4</dim>
				</port>
			</input>
			<output>
				<port id="2" precision="FP32" names="/mask_decoder/transformer/layers.0/cross_attn_image_to_token/Transpose_2_output_0">
					<dim>-1</dim>
					<dim>8</dim>
					<dim>16</dim>
					<dim>7</dim>
				</port>
			</output>
		</layer>
		<layer id="342" name="/mask_decoder/transformer/layers.0/cross_attn_image_to_token/MatMul" type="MatMul" version="opset1">
			<data transpose_a="false" transpose_b="false" />
			<input>
				<port id="0" precision="FP32">
					<dim>-1</dim>
					<dim>8</dim>
					<dim>4096</dim>
					<dim>16</dim>
				</port>
				<port id="1" precision="FP32">
					<dim>-1</dim>
					<dim>8</dim>
					<dim>16</dim>
					<dim>7</dim>
				</port>
			</input>
			<output>
				<port id="2" precision="FP32" names="/mask_decoder/transformer/layers.0/cross_attn_image_to_token/MatMul_output_0">
					<dim>-1</dim>
					<dim>8</dim>
					<dim>4096</dim>
					<dim>7</dim>
				</port>
			</output>
		</layer>
		<layer id="343" name="Constant_9258" type="Const" version="opset1">
			<data element_type="f32" shape="1, 1, 1, 1" offset="5525004" size="4" />
			<output>
				<port id="0" precision="FP32">
					<dim>1</dim>
					<dim>1</dim>
					<dim>1</dim>
					<dim>1</dim>
				</port>
			</output>
		</layer>
		<layer id="344" name="/mask_decoder/transformer/layers.0/cross_attn_image_to_token/Div_3" type="Multiply" version="opset1">
			<data auto_broadcast="numpy" />
			<input>
				<port id="0" precision="FP32">
					<dim>-1</dim>
					<dim>8</dim>
					<dim>4096</dim>
					<dim>7</dim>
				</port>
				<port id="1" precision="FP32">
					<dim>1</dim>
					<dim>1</dim>
					<dim>1</dim>
					<dim>1</dim>
				</port>
			</input>
			<output>
				<port id="2" precision="FP32" names="/mask_decoder/transformer/layers.0/cross_attn_image_to_token/Div_3_output_0">
					<dim>-1</dim>
					<dim>8</dim>
					<dim>4096</dim>
					<dim>7</dim>
				</port>
			</output>
		</layer>
		<layer id="345" name="/mask_decoder/transformer/layers.0/cross_attn_image_to_token/Softmax" type="SoftMax" version="opset8">
			<data axis="-1" />
			<input>
				<port id="0" precision="FP32">
					<dim>-1</dim>
					<dim>8</dim>
					<dim>4096</dim>
					<dim>7</dim>
				</port>
			</input>
			<output>
				<port id="1" precision="FP32" names="/mask_decoder/transformer/layers.0/cross_attn_image_to_token/Softmax_output_0">
					<dim>-1</dim>
					<dim>8</dim>
					<dim>4096</dim>
					<dim>7</dim>
				</port>
			</output>
		</layer>
		<layer id="346" name="Constant_9259" type="Const" version="opset1">
			<data element_type="f32" shape="1, 1, 128" offset="11447336" size="512" />
			<output>
				<port id="0" precision="FP32">
					<dim>1</dim>
					<dim>1</dim>
					<dim>128</dim>
				</port>
			</output>
		</layer>
		<layer id="347" name="Transpose_7974" type="Const" version="opset1">
			<data element_type="f32" shape="128, 256" offset="11447848" size="131072" />
			<output>
				<port id="0" precision="FP32">
					<dim>128</dim>
					<dim>256</dim>
				</port>
			</output>
		</layer>
		<layer id="348" name="/mask_decoder/transformer/layers.0/cross_attn_image_to_token/v_proj/MatMul" type="MatMul" version="opset1">
			<data transpose_a="false" transpose_b="true" />
			<input>
				<port id="0" precision="FP32">
					<dim>-1</dim>
					<dim>7</dim>
					<dim>256</dim>
				</port>
				<port id="1" precision="FP32">
					<dim>128</dim>
					<dim>256</dim>
				</port>
			</input>
			<output>
				<port id="2" precision="FP32" names="/mask_decoder/transformer/layers.0/cross_attn_image_to_token/v_proj/MatMul_output_0">
					<dim>-1</dim>
					<dim>7</dim>
					<dim>128</dim>
				</port>
			</output>
		</layer>
		<layer id="349" name="/mask_decoder/transformer/layers.0/cross_attn_image_to_token/v_proj/Add" type="Add" version="opset1">
			<data auto_broadcast="numpy" />
			<input>
				<port id="0" precision="FP32">
					<dim>1</dim>
					<dim>1</dim>
					<dim>128</dim>
				</port>
				<port id="1" precision="FP32">
					<dim>-1</dim>
					<dim>7</dim>
					<dim>128</dim>
				</port>
			</input>
			<output>
				<port id="2" precision="FP32" names="/mask_decoder/transformer/layers.0/cross_attn_image_to_token/v_proj/Add_output_0">
					<dim>-1</dim>
					<dim>7</dim>
					<dim>128</dim>
				</port>
			</output>
		</layer>
		<layer id="350" name="/mask_decoder/transformer/layers.0/cross_attn_image_to_token/Concat_2" type="Const" version="opset1">
			<data element_type="i64" shape="4" offset="1197932" size="32" />
			<output>
				<port id="0" precision="I64">
					<dim>4</dim>
				</port>
			</output>
		</layer>
		<layer id="351" name="/mask_decoder/transformer/layers.0/cross_attn_image_to_token/Reshape_2" type="Reshape" version="opset1">
			<data special_zero="true" />
			<input>
				<port id="0" precision="FP32">
					<dim>-1</dim>
					<dim>7</dim>
					<dim>128</dim>
				</port>
				<port id="1" precision="I64">
					<dim>4</dim>
				</port>
			</input>
			<output>
				<port id="2" precision="FP32" names="/mask_decoder/transformer/layers.0/cross_attn_image_to_token/Reshape_2_output_0">
					<dim>-1</dim>
					<dim>7</dim>
					<dim>8</dim>
					<dim>16</dim>
				</port>
			</output>
		</layer>
		<layer id="352" name="Constant_691" type="Const" version="opset1">
			<data element_type="i64" shape="4" offset="274704" size="32" />
			<output>
				<port id="0" precision="I64">
					<dim>4</dim>
				</port>
			</output>
		</layer>
		<layer id="353" name="/mask_decoder/transformer/layers.0/cross_attn_image_to_token/Transpose_1" type="Transpose" version="opset1">
			<input>
				<port id="0" precision="FP32">
					<dim>-1</dim>
					<dim>7</dim>
					<dim>8</dim>
					<dim>16</dim>
				</port>
				<port id="1" precision="I64">
					<dim>4</dim>
				</port>
			</input>
			<output>
				<port id="2" precision="FP32" names="/mask_decoder/transformer/layers.0/cross_attn_image_to_token/Transpose_1_output_0">
					<dim>-1</dim>
					<dim>8</dim>
					<dim>7</dim>
					<dim>16</dim>
				</port>
			</output>
		</layer>
		<layer id="354" name="/mask_decoder/transformer/layers.0/cross_attn_image_to_token/MatMul_1" type="MatMul" version="opset1">
			<data transpose_a="false" transpose_b="false" />
			<input>
				<port id="0" precision="FP32">
					<dim>-1</dim>
					<dim>8</dim>
					<dim>4096</dim>
					<dim>7</dim>
				</port>
				<port id="1" precision="FP32">
					<dim>-1</dim>
					<dim>8</dim>
					<dim>7</dim>
					<dim>16</dim>
				</port>
			</input>
			<output>
				<port id="2" precision="FP32" names="/mask_decoder/transformer/layers.0/cross_attn_image_to_token/MatMul_1_output_0">
					<dim>-1</dim>
					<dim>8</dim>
					<dim>4096</dim>
					<dim>16</dim>
				</port>
			</output>
		</layer>
		<layer id="355" name="Constant_708" type="Const" version="opset1">
			<data element_type="i64" shape="4" offset="274704" size="32" />
			<output>
				<port id="0" precision="I64">
					<dim>4</dim>
				</port>
			</output>
		</layer>
		<layer id="356" name="/mask_decoder/transformer/layers.0/cross_attn_image_to_token/Transpose_3" type="Transpose" version="opset1">
			<input>
				<port id="0" precision="FP32">
					<dim>-1</dim>
					<dim>8</dim>
					<dim>4096</dim>
					<dim>16</dim>
				</port>
				<port id="1" precision="I64">
					<dim>4</dim>
				</port>
			</input>
			<output>
				<port id="2" precision="FP32" names="/mask_decoder/transformer/layers.0/cross_attn_image_to_token/Transpose_3_output_0">
					<dim>-1</dim>
					<dim>4096</dim>
					<dim>8</dim>
					<dim>16</dim>
				</port>
			</output>
		</layer>
		<layer id="357" name="Constant_9856" type="Const" version="opset1">
…
			</output>
		</layer>
		<layer id="613" name="masks/sink_port_0" type="Result" version="opset1" output_names="masks">
			<input>
				<port id="0" precision="FP32">
					<dim>-1</dim>
					<dim>-1</dim>
					<dim>256</dim>
					<dim>256</dim>
				</port>
			</input>
		</layer>
	</layers>
	<edges>
		<edge from-layer="0" from-port="0" to-layer="6" to-port="0" />
		<edge from-layer="0" from-port="0" to-layer="180" to-port="0" />
		<edge from-layer="1" from-port="0" to-layer="178" to-port="0" />
		<edge from-layer="2" from-port="0" to-layer="159" to-port="0" />
		<edge from-layer="3" from-port="0" to-layer="127" to-port="0" />
		<edge from-layer="4" from-port="0" to-layer="21" to-port="0" />
		<edge from-layer="5" from-port="0" to-layer="6" to-port="1" />
		<edge from-layer="6" from-port="2" to-layer="8" to-port="0" />
		<edge from-layer="7" from-port="0" to-layer="8" to-port="1" />
		<edge from-layer="8" from-port="2" to-layer="9" to-port="0" />
		<edge from-layer="8" from-port="2" to-layer="51" to-port="0" />
		<edge from-layer="8" from-port="2" to-layer="42" to-port="0" />
		<edge from-layer="9" from-port="1" to-layer="12" to-port="0" />
		<edge from-layer="9" from-port="1" to-layer="47" to-port="0" />
		<edge from-layer="10" from-port="0" to-layer="12" to-port="1" />
		<edge from-layer="11" from-port="0" to-layer="12" to-port="2" />
		<edge from-layer="12" from-port="3" to-layer="14" to-port="0" />
		<edge from-layer="12" from-port="3" to-layer="24" to-port="1" />
		<edge from-layer="12" from-port="3" to-layer="203" to-port="2" />
		<edge from-layer="13" from-port="0" to-layer="14" to-port="1" />
		<edge from-layer="14" from-port="2" to-layer="16" to-port="0" />
		<edge from-layer="14" from-port="2" to-layer="199" to-port="1" />
		<edge from-layer="15" from-port="0" to-layer="212" to-port="0" />
		<edge from-layer="15" from-port="0" to-layer="36" to-port="1" />
		<edge from-layer="15" from-port="0" to-layer="113" to-port="1" />
		<edge from-layer="15" from-port="0" to-layer="96" to-port="1" />
		<edge from-layer="15" from-port="0" to-layer="185" to-port="1" />
		<edge from-layer="15" from-port="0" to-layer="84" to-port="1" />
		<edge from-layer="15" from-port="0" to-layer="81" to-port="1" />
		<edge from-layer="15" from-port="0" to-layer="16" to-port="2" />
		<edge from-layer="15" from-port="0" to-layer="610" to-port="1" />
		<edge from-layer="15" from-port="0" to-layer="16" to-port="1" />
		<edge from-layer="15" from-port="0" to-layer="54" to-port="1" />
		<edge from-layer="15" from-port="0" to-layer="39" to-port="1" />
		<edge from-layer="15" from-port="0" to-layer="33" to-port="1" />
		<edge from-layer="16" from-port="3" to-layer="20" to-port="2" />
		<edge from-layer="16" from-port="3" to-layer="18" to-port="0" />
		<edge from-layer="17" from-port="0" to-layer="18" to-port="1" />
		<edge from-layer="17" from-port="0" to-layer="30" to-port="1" />
		<edge from-layer="17" from-port="0" to-layer="78" to-port="1" />
		<edge from-layer="18" from-port="2" to-layer="20" to-port="0" />
		<edge from-layer="19" from-port="0" to-layer="20" to-port="1" />
		<edge from-layer="19" from-port="0" to-layer="31" to-port="1" />
		<edge from-layer="19" from-port="0" to-layer="79" to-port="1" />
		<edge from-layer="20" from-port="3" to-layer="21" to-port="1" />
		<edge from-layer="21" from-port="2" to-layer="124" to-port="0" />
		<edge from-layer="22" from-port="0" to-layer="512" to-port="1" />
		<edge from-layer="22" from-port="0" to-layer="42" to-port="1" />
		<edge from-layer="22" from-port="0" to-layer="24" to-port="0" />
		<edge from-layer="22" from-port="0" to-layer="99" to-port="1" />
		<edge from-layer="23" from-port="0" to-layer="529" to-port="1" />
		<edge from-layer="23" from-port="0" to-layer="24" to-port="2" />
		<edge from-layer="23" from-port="0" to-layer="116" to-port="1" />
		<edge from-layer="23" from-port="0" to-layer="57" to-port="1" />
		<edge from-layer="24" from-port="3" to-layer="26" to-port="0" />
		<edge from-layer="25" from-port="0" to-layer="26" to-port="1" />
		<edge from-layer="26" from-port="2" to-layer="32" to-port="0" />
		<edge from-layer="26" from-port="2" to-layer="76" to-port="0" />
		<edge from-layer="26" from-port="2" to-layer="80" to-port="0" />
		<edge from-layer="26" from-port="2" to-layer="28" to-port="0" />
		<edge from-layer="27" from-port="0" to-layer="28" to-port="1" />
		<edge from-layer="28" from-port="2" to-layer="29" to-port="0" />
		<edge from-layer="29" from-port="1" to-layer="30" to-port="0" />
		<edge from-layer="29" from-port="1" to-layer="31" to-port="2" />
		<edge from-layer="30" from-port="2" to-layer="31" to-port="0" />
		<edge from-layer="31" from-port="3" to-layer="53" to-port="1" />
		<edge from-layer="31" from-port="3" to-layer="35" to-port="1" />
		<edge from-layer="31" from-port="3" to-layer="32" to-port="1" />
		<edge from-layer="31" from-port="3" to-layer="38" to-port="1" />
		<edge from-layer="32" from-port="2" to-layer="33" to-port="0" />
		<edge from-layer="33" from-port="2" to-layer="55" to-port="0" />
		<edge from-layer="33" from-port="2" to-layer="40" to-port="0" />
		<edge from-layer="34" from-port="0" to-layer="35" to-port="0" />
		<edge from-layer="35" from-port="2" to-layer="36" to-port="0" />
		<edge from-layer="36" from-port="2" to-layer="55" to-port="1" />
		<edge from-layer="36" from-port="2" to-layer="40" to-port="1" />
		<edge from-layer="37" from-port="0" to-layer="612" to-port="1" />
		<edge from-layer="37" from-port="0" to-layer="211" to-port="4" />
		<edge from-layer="37" from-port="0" to-layer="38" to-port="0" />
		<edge from-layer="38" from-port="2" to-layer="39" to-port="0" />
		<edge from-layer="39" from-port="2" to-layer="40" to-port="2" />
		<edge from-layer="40" from-port="3" to-layer="51" to-port="1" />
		<edge from-layer="41" from-port="0" to-layer="42" to-port="2" />
		<edge from-layer="42" from-port="3" to-layer="44" to-port="0" />
		<edge from-layer="43" from-port="0" to-layer="44" to-port="1" />
		<edge from-layer="44" from-port="2" to-layer="48" to-port="0" />
		<edge from-layer="45" from-port="0" to-layer="47" to-port="1" />
		<edge from-layer="46" from-port="0" to-layer="47" to-port="2" />
		<edge from-layer="47" from-port="3" to-layer="48" to-port="1" />
		<edge from-layer="47" from-port="3" to-layer="60" to-port="1" />
		<edge from-layer="48" from-port="2" to-layer="50" to-port="0" />
		<edge from-layer="49" from-port="0" to-layer="50" to-port="1" />
		<edge from-layer="50" from-port="2" to-layer="51" to-port="2" />
		<edge from-layer="51" from-port="3" to-layer="57" to-port="0" />
		<edge from-layer="51" from-port="3" to-layer="63" to-port="0" />
		<edge from-layer="52" from-port="0" to-layer="612" to-port="4" />
		<edge from-layer="52" from-port="0" to-layer="510" to-port="1" />
		<edge from-layer="52" from-port="0" to-layer="510" to-port="3" />
		<edge from-layer="52" from-port="0" to-layer="510" to-port="4" />
		<edge from-layer="52" from-port="0" to-layer="612" to-port="3" />
		<edge from-layer="52" from-port="0" to-layer="527" to-port="1" />
		<edge from-layer="52" from-port="0" to-layer="612" to-port="2" />
		<edge from-layer="52" from-port="0" to-layer="544" to-port="1" />
		<edge from-layer="52" from-port="0" to-layer="562" to-port="1" />
		<edge from-layer="52" from-port="0" to-layer="580" to-port="1" />
		<edge from-layer="52" from-port="0" to-layer="53" to-port="0" />
		<edge from-layer="52" from-port="0" to-layer="199" to-port="0" />
		<edge from-layer="53" from-port="2" to-layer="54" to-port="0" />
		<edge from-layer="54" from-port="2" to-layer="55" to-port="2" />
		<edge from-layer="55" from-port="3" to-layer="63" to-port="1" />
		<edge from-layer="56" from-port="0" to-layer="57" to-port="2" />
		<edge from-layer="57" from-port="3" to-layer="59" to-port="0" />
		<edge from-layer="58" from-port="0" to-layer="59" to-port="1" />
		<edge from-layer="59" from-port="2" to-layer="60" to-port="0" />
		<edge from-layer="60" from-port="2" to-layer="62" to-port="0" />
		<edge from-layer="61" from-port="0" to-layer="62" to-port="1" />
		<edge from-layer="62" from-port="2" to-layer="63" to-port="2" />
		<edge from-layer="63" from-port="3" to-layer="65" to-port="0" />
		<edge from-layer="64" from-port="0" to-layer="65" to-port="1" />
		<edge from-layer="65" from-port="2" to-layer="67" to-port="0" />
		<edge from-layer="66" from-port="0" to-layer="67" to-port="1" />
		<edge from-layer="67" from-port="2" to-layer="69" to-port="0" />
		<edge from-layer="68" from-port="0" to-layer="69" to-port="1" />
		<edge from-layer="69" from-port="2" to-layer="71" to-port="0" />
		<edge from-layer="70" from-port="0" to-layer="71" to-port="1" />
		<edge from-layer="71" from-port="2" to-layer="72" to-port="0" />
		<edge from-layer="71" from-port="2" to-layer="73" to-port="0" />
		<edge from-layer="72" from-port="1" to-layer="74" to-port="0" />
		<edge from-layer="73" from-port="1" to-layer="74" to-port="1" />
		<edge from-layer="74" from-port="2" to-layer="109" to-port="0" />
		<edge from-layer="74" from-port="2" to-layer="102" to-port="0" />
		<edge from-layer="74" from-port="2" to-layer="99" to-port="0" />
		<edge from-layer="75" from-port="0" to-layer="76" to-port="1" />
		<edge from-layer="76" from-port="2" to-layer="77" to-port="0" />
		<edge from-layer="77" from-port="1" to-layer="79" to-port="2" />
		<edge from-layer="77" from-port="1" to-layer="78" to-port="0" />
		<edge from-layer="78" from-port="2" to-layer="79" to-port="0" />
		<edge from-layer="79" from-port="3" to-layer="88" to-port="0" />
		<edge from-layer="79" from-port="3" to-layer="112" to-port="1" />
		<edge from-layer="79" from-port="3" to-layer="83" to-port="1" />
		<edge from-layer="79" from-port="3" to-layer="80" to-port="1" />
		<edge from-layer="79" from-port="3" to-layer="95" to-port="1" />
		<edge from-layer="80" from-port="2" to-layer="81" to-port="0" />
		<edge from-layer="81" from-port="2" to-layer="97" to-port="0" />
		<edge from-layer="81" from-port="2" to-layer="114" to-port="0" />
		<edge from-layer="82" from-port="0" to-layer="83" to-port="0" />
		<edge from-layer="83" from-port="2" to-layer="84" to-port="0" />
		<edge from-layer="84" from-port="2" to-layer="97" to-port="1" />
		<edge from-layer="85" from-port="0" to-layer="94" to-port="0" />
		<edge from-layer="86" from-port="0" to-layer="88" to-port="1" />
		<edge from-layer="87" from-port="0" to-layer="88" to-port="2" />
		<edge from-layer="88" from-port="3" to-layer="90" to-port="0" />
		<edge from-layer="88" from-port="3" to-layer="92" to-port="2" />
		<edge from-layer="89" from-port="0" to-layer="90" to-port="1" />
		<edge from-layer="90" from-port="2" to-layer="92" to-port="0" />
		<edge from-layer="91" from-port="0" to-layer="92" to-port="1" />
		<edge from-layer="92" from-port="3" to-layer="94" to-port="1" />
		<edge from-layer="93" from-port="0" to-layer="94" to-port="2" />
		<edge from-layer="94" from-port="3" to-layer="95" to-port="0" />
		<edge from-layer="95" from-port="2" to-layer="96" to-port="0" />
		<edge from-layer="96" from-port="2" to-layer="114" to-port="2" />
		<edge from-layer="96" from-port="2" to-layer="97" to-port="2" />
		<edge from-layer="97" from-port="3" to-layer="110" to-port="1" />
		<edge from-layer="97" from-port="3" to-layer="109" to-port="1" />
		<edge from-layer="98" from-port="0" to-layer="99" to-port="2" />
		<edge from-layer="99" from-port="3" to-layer="101" to-port="0" />
		<edge from-layer="100" from-port="0" to-layer="101" to-port="1" />
		<edge from-layer="101" from-port="2" to-layer="106" to-port="0" />
		<edge from-layer="102" from-port="1" to-layer="105" to-port="0" />
		<edge from-layer="103" from-port="0" to-layer="105" to-port="1" />
		<edge from-layer="104" from-port="0" to-layer="105" to-port="2" />
		<edge from-layer="105" from-port="3" to-layer="119" to-port="1" />
		<edge from-layer="105" from-port="3" to-layer="106" to-port="1" />
		<edge from-layer="106" from-port="2" to-layer="108" to-port="0" />
		<edge from-layer="107" from-port="0" to-layer="108" to-port="1" />
		<edge from-layer="108" from-port="2" to-layer="110" to-port="2" />
		<edge from-layer="108" from-port="2" to-layer="109" to-port="2" />
		<edge from-layer="109" from-port="3" to-layer="110" to-port="0" />
		<edge from-layer="110" from-port="3" to-layer="116" to-port="0" />
		<edge from-layer="110" from-port="3" to-layer="122" to-port="0" />
		<edge from-layer="111" from-port="0" to-layer="112" to-port="0" />
		<edge from-layer="112" from-port="2" to-layer="113" to-port="0" />
		<edge from-layer="113" from-port="2" to-layer="114" to-port="1" />
		<edge from-layer="114" from-port="3" to-layer="122" to-port="1" />
		<edge from-layer="114" from-port="3" to-layer="123" to-port="1" />
		<edge from-layer="115" from-port="0" to-layer="116" to-port="2" />
		<edge from-layer="116" from-port="3" to-layer="118" to-port="0" />
		<edge from-layer="117" from-port="0" to-layer="118" to-port="1" />
		<edge from-layer="118" from-port="2" to-layer="119" to-port="0" />
		<edge from-layer="119" from-port="2" to-layer="121" to-port="0" />
		<edge from-layer="120" from-port="0" to-layer="121" to-port="1" />
		<edge from-layer="121" from-port="2" to-layer="123" to-port="2" />
		<edge from-layer="121" from-port="2" to-layer="122" to-port="2" />
		<edge from-layer="122" from-port="3" to-layer="123" to-port="0" />
		<edge from-layer="123" from-port="3" to-layer="124" to-port="1" />
		<edge from-layer="124" from-port="2" to-layer="422" to-port="1" />
		<edge from-layer="124" from-port="2" to-layer="316" to-port="1" />
		<edge from-layer="124" from-port="2" to-layer="146" to-port="0" />
		<edge from-layer="124" from-port="2" to-layer="271" to-port="1" />
		<edge from-layer="124" from-port="2" to-layer="168" to-port="1" />
		<edge from-layer="124" from-port="2" to-layer="134" to-port="0" />
		<edge from-layer="124" from-port="2" to-layer="126" to-port="0" />
		<edge from-layer="125" from-port="0" to-layer="126" to-port="1" />
		<edge from-layer="126" from-port="2" to-layer="127" to-port="1" />
		<edge from-layer="127" from-port="2" to-layer="129" to-port="0" />
		<edge from-layer="128" from-port="0" to-layer="129" to-port="1" />
		<edge from-layer="129" from-port="2" to-layer="131" to-port="0" />
		<edge from-layer="130" from-port="0" to-layer="131" to-port="1" />
		<edge from-layer="131" from-port="2" to-layer="140" to-port="0" />
		<edge from-layer="132" from-port="0" to-layer="135" to-port="0" />
		<edge from-layer="133" from-port="0" to-layer="134" to-port="1" />
		<edge from-layer="134" from-port="2" to-layer="135" to-port="1" />
		<edge from-layer="135" from-port="2" to-layer="137" to-port="0" />
		<edge from-layer="136" from-port="0" to-layer="137" to-port="1" />
		<edge from-layer="137" from-port="2" to-layer="139" to-port="0" />
		<edge from-layer="138" from-port="0" to-layer="139" to-port="1" />
		<edge from-layer="139" from-port="2" to-layer="140" to-port="1" />
		<edge from-layer="140" from-port="2" to-layer="142" to-port="0" />
		<edge from-layer="141" from-port="0" to-layer="142" to-port="1" />
		<edge from-layer="142" from-port="2" to-layer="143" to-port="0" />
		<edge from-layer="143" from-port="1" to-layer="152" to-port="0" />
		<edge from-layer="144" from-port="0" to-layer="147" to-port="0" />
		<edge from-layer="145" from-port="0" to-layer="146" to-port="1" />
		<edge from-layer="146" from-port="2" to-layer="147" to-port="1" />
		<edge from-layer="147" from-port="2" to-layer="149" to-port="0" />
		<edge from-layer="148" from-port="0" to-layer="149" to-port="1" />
		<edge from-layer="149" from-port="2" to-layer="151" to-port="0" />
		<edge from-layer="150" from-port="0" to-layer="151" to-port="1" />
		<edge from-layer="151" from-port="2" to-layer="152" to-port="1" />
		<edge from-layer="152" from-port="2" to-layer="154" to-port="0" />
		<edge from-layer="153" from-port="0" to-layer="154" to-port="1" />
		<edge from-layer="154" from-port="2" to-layer="156" to-port="0" />
		<edge from-layer="155" from-port="0" to-layer="156" to-port="1" />
		<edge from-layer="156" from-port="2" to-layer="158" to-port="0" />
		<edge from-layer="157" from-port="0" to-layer="158" to-port="1" />
		<edge from-layer="158" from-port="2" to-layer="159" to-port="1" />
		<edge from-layer="159" from-port="2" to-layer="161" to-port="0" />
		<edge from-layer="160" from-port="0" to-layer="161" to-port="1" />
		<edge from-layer="161" from-port="2" to-layer="163" to-port="0" />
		<edge from-layer="162" from-port="0" to-layer="163" to-port="1" />
		<edge from-layer="163" from-port="2" to-layer="165" to-port="0" />
		<edge from-layer="164" from-port="0" to-layer="165" to-port="1" />
		<edge from-layer="165" from-port="2" to-layer="246" to-port="0" />
		<edge from-layer="165" from-port="2" to-layer="168" to-port="0" />
		<edge from-layer="166" from-port="0" to-layer="245" to-port="0" />
		<edge from-layer="167" from-port="0" to-layer="171" to-port="0" />
		<edge from-layer="168" from-port="2" to-layer="170" to-port="0" />
		<edge from-layer="169" from-port="0" to-layer="170" to-port="1" />
		<edge from-layer="170" from-port="2" to-layer="171" to-port="1" />
		<edge from-layer="171" from-port="2" to-layer="173" to-port="0" />
		<edge from-layer="172" from-port="0" to-layer="173" to-port="1" />
		<edge from-layer="173" from-port="2" to-layer="175" to-port="0" />
		<edge from-layer="174" from-port="0" to-layer="175" to-port="1" />
		<edge from-layer="175" from-port="2" to-layer="226" to-port="0" />
		<edge from-layer="176" from-port="0" to-layer="221" to-port="0" />
		<edge from-layer="177" from-port="0" to-layer="178" to-port="1" />
		<edge from-layer="178" from-port="2" to-layer="179" to-port="0" />
		<edge from-layer="178" from-port="2" to-layer="191" to-port="0" />
		<edge from-layer="179" from-port="1" to-layer="190" to-port="0" />
		<edge from-layer="180" from-port="1" to-layer="183" to-port="0" />
		<edge from-layer="181" from-port="0" to-layer="183" to-port="1" />
		<edge from-layer="182" from-port="0" to-layer="183" to-port="2" />
		<edge from-layer="183" from-port="3" to-layer="185" to-port="0" />
		<edge from-layer="184" from-port="0" to-layer="185" to-port="2" />
		<edge from-layer="184" from-port="0" to-layer="185" to-port="3" />
		<edge from-layer="185" from-port="4" to-layer="187" to-port="0" />
		<edge from-layer="185" from-port="4" to-layer="189" to-port="2" />
		<edge from-layer="186" from-port="0" to-layer="187" to-port="1" />
		<edge from-layer="187" from-port="2" to-layer="189" to-port="0" />
		<edge from-layer="188" from-port="0" to-layer="189" to-port="1" />
		<edge from-layer="189" from-port="3" to-layer="190" to-port="1" />
		<edge from-layer="190" from-port="2" to-layer="191" to-port="1" />
		<edge from-layer="191" from-port="2" to-layer="193" to-port="0" />
		<edge from-layer="192" from-port="0" to-layer="193" to-port="1" />
		<edge from-layer="193" from-port="2" to-layer="195" to-port="0" />
		<edge from-layer="193" from-port="2" to-layer="232" to-port="0" />
		<edge from-layer="194" from-port="0" to-layer="195" to-port="1" />
		<edge from-layer="195" from-port="2" to-layer="218" to-port="0" />
		<edge from-layer="195" from-port="2" to-layer="362" to-port="0" />
		<edge from-layer="196" from-port="0" to-layer="206" to-port="0" />
		<edge from-layer="197" from-port="0" to-layer="203" to-port="0" />
		<edge from-layer="198" from-port="0" to-layer="203" to-port="1" />
		<edge from-layer="199" from-port="2" to-layer="201" to-port="0" />
		<edge from-layer="200" from-port="0" to-layer="201" to-port="1" />
		<edge from-layer="201" from-port="2" to-layer="202" to-port="0" />
		<edge from-layer="202" from-port="1" to-layer="203" to-port="3" />
		<edge from-layer="203" from-port="4" to-layer="205" to-port="0" />
		<edge from-layer="204" from-port="0" to-layer="205" to-port="1" />
		<edge from-layer="205" from-port="2" to-layer="206" to-port="1" />
		<edge from-layer="206" from-port="2" to-layer="207" to-port="0" />
		<edge from-layer="206" from-port="2" to-layer="213" to-port="0" />
		<edge from-layer="207" from-port="1" to-layer="211" to-port="0" />
		<edge from-layer="208" from-port="0" to-layer="211" to-port="1" />
		<edge from-layer="209" from-port="0" to-layer="510" to-port="2" />
		<edge from-layer="209" from-port="0" to-layer="211" to-port="2" />
		<edge from-layer="210" from-port="0" to-layer="211" to-port="3" />
		<edge from-layer="211" from-port="5" to-layer="212" to-port="1" />
		<edge from-layer="212" from-port="2" to-layer="213" to-port="1" />
		<edge from-layer="213" from-port="2" to-layer="215" to-port="0" />
		<edge from-layer="214" from-port="0" to-layer="215" to-port="1" />
		<edge from-layer="215" from-port="2" to-layer="217" to-port="0" />
		<edge from-layer="216" from-port="0" to-layer="217" to-port="1" />
		<edge from-layer="217" from-port="2" to-layer="218" to-port="1" />
		<edge from-layer="217" from-port="2" to-layer="369" to-port="1" />
		<edge from-layer="217" from-port="2" to-layer="475" to-port="1" />
		<edge from-layer="218" from-port="2" to-layer="328" to-port="0" />
		<edge from-layer="218" from-port="2" to-layer="220" to-port="0" />
		<edge from-layer="219" from-port="0" to-layer="220" to-port="1" />
		<edge from-layer="220" from-port="2" to-layer="221" to-port="1" />
		<edge from-layer="221" from-port="2" to-layer="223" to-port="0" />
		<edge from-layer="222" from-port="0" to-layer="223" to-port="1" />
		<edge from-layer="223" from-port="2" to-layer="225" to-port="0" />
		<edge from-layer="224" from-port="0" to-layer="225" to-port="1" />
		<edge from-layer="225" from-port="2" to-layer="226" to-port="1" />
		<edge from-layer="226" from-port="2" to-layer="228" to-port="0" />
		<edge from-layer="227" from-port="0" to-layer="228" to-port="1" />
		<edge from-layer="228" from-port="2" to-layer="229" to-port="0" />
		<edge from-layer="229" from-port="1" to-layer="238" to-port="0" />
		<edge from-layer="230" from-port="0" to-layer="233" to-port="0" />
		<edge from-layer="231" from-port="0" to-layer="232" to-port="1" />
		<edge from-layer="232" from-port="2" to-layer="233" to-port="1" />
		<edge from-layer="233" from-port="2" to-layer="235" to-port="0" />
		<edge from-layer="234" from-port="0" to-layer="235" to-port="1" />
		<edge from-layer="235" from-port="2" to-layer="237" to-port="0" />
		<edge from-layer="236" from-port="0" to-layer="237" to-port="1" />
		<edge from-layer="237" from-port="2" to-layer="238" to-port="1" />
		<edge from-layer="238" from-port="2" to-layer="240" to-port="0" />
		<edge from-layer="239" from-port="0" to-layer="240" to-port="1" />
		<edge from-layer="240" from-port="2" to-layer="242" to-port="0" />
		<edge from-layer="241" from-port="0" to-layer="242" to-port="1" />
		<edge from-layer="242" from-port="2" to-layer="244" to-port="0" />
		<edge from-layer="243" from-port="0" to-layer="244" to-port="1" />
		<edge from-layer="244" from-port="2" to-layer="245" to-port="1" />
		<edge from-layer="245" from-port="2" to-layer="246" to-port="1" />
		<edge from-layer="246" from-port="2" to-layer="248" to-port="0" />
		<edge from-layer="247" from-port="0" to-layer="248" to-port="1" />
		<edge from-layer="248" from-port="2" to-layer="250" to-port="0" />
		<edge from-layer="249" from-port="0" to-layer="250" to-port="1" />
		<edge from-layer="250" from-port="2" to-layer="252" to-port="0" />
		<edge from-layer="251" from-port="0" to-layer="252" to-port="1" />
		<edge from-layer="252" from-port="2" to-layer="262" to-port="0" />
		<edge from-layer="252" from-port="2" to-layer="256" to-port="0" />
		<edge from-layer="253" from-port="0" to-layer="261" to-port="0" />
		<edge from-layer="254" from-port="0" to-layer="257" to-port="0" />
		<edge from-layer="255" from-port="0" to-layer="256" to-port="1" />
		<edge from-layer="256" from-port="2" to-layer="257" to-port="1" />
		<edge from-layer="257" from-port="2" to-layer="258" to-port="0" />
		<edge from-layer="258" from-port="1" to-layer="260" to-port="0" />
		<edge from-layer="259" from-port="0" to-layer="260" to-port="1" />
		<edge from-layer="260" from-port="2" to-layer="261" to-port="1" />
		<edge from-layer="261" from-port="2" to-layer="262" to-port="1" />
		<edge from-layer="262" from-port="2" to-layer="264" to-port="0" />
		<edge from-layer="263" from-port="0" to-layer="264" to-port="1" />
		<edge from-layer="264" from-port="2" to-layer="266" to-port="0" />
		<edge from-layer="265" from-port="0" to-layer="266" to-port="1" />
		<edge from-layer="266" from-port="2" to-layer="268" to-port="0" />
		<edge from-layer="267" from-port="0" to-layer="268" to-port="1" />
		<edge from-layer="268" from-port="2" to-layer="271" to-port="0" />
		<edge from-layer="268" from-port="2" to-layer="293" to-port="0" />
		<edge from-layer="268" from-port="2" to-layer="307" to-port="0" />
		<edge from-layer="268" from-port="2" to-layer="348" to-port="0" />
		<edge from-layer="269" from-port="0" to-layer="306" to-port="0" />
		<edge from-layer="270" from-port="0" to-layer="274" to-port="0" />
		<edge from-layer="271" from-port="2" to-layer="336" to-port="0" />
		<edge from-layer="271" from-port="2" to-layer="281" to-port="0" />
		<edge from-layer="271" from-port="2" to-layer="273" to-port="0" />
		<edge from-layer="272" from-port="0" to-layer="273" to-port="1" />
		<edge from-layer="273" from-port="2" to-layer="274" to-port="1" />
		<edge from-layer="274" from-port="2" to-layer="276" to-port="0" />
		<edge from-layer="275" from-port="0" to-layer="276" to-port="1" />
		<edge from-layer="276" from-port="2" to-layer="278" to-port="0" />
		<edge from-layer="277" from-port="0" to-layer="278" to-port="1" />
		<edge from-layer="278" from-port="2" to-layer="287" to-port="0" />
		<edge from-layer="279" from-port="0" to-layer="282" to-port="0" />
		<edge from-layer="280" from-port="0" to-layer="281" to-port="1" />
		<edge from-layer="281" from-port="2" to-layer="282" to-port="1" />
		<edge from-layer="282" from-port="2" to-layer="284" to-port="0" />
		<edge from-layer="283" from-port="0" to-layer="284" to-port="1" />
		<edge from-layer="284" from-port="2" to-layer="286" to-port="0" />
		<edge from-layer="285" from-port="0" to-layer="286" to-port="1" />
		<edge from-layer="286" from-port="2" to-layer="287" to-port="1" />
		<edge from-layer="287" from-port="2" to-layer="289" to-port="0" />
		<edge from-layer="288" from-port="0" to-layer="289" to-port="1" />
		<edge from-layer="289" from-port="2" to-layer="290" to-port="0" />
		<edge from-layer="290" from-port="1" to-layer="299" to-port="0" />
		<edge from-layer="291" from-port="0" to-layer="294" to-port="0" />
		<edge from-layer="292" from-port="0" to-layer="293" to-port="1" />
		<edge from-layer="293" from-port="2" to-layer="294" to-port="1" />
		<edge from-layer="294" from-port="2" to-layer="296" to-port="0" />
		<edge from-layer="295" from-port="0" to-layer="296" to-port="1" />
		<edge from-layer="296" from-port="2" to-layer="298" to-port="0" />
		<edge from-layer="297" from-port="0" to-layer="298" to-port="1" />
		<edge from-layer="298" from-port="2" to-layer="299" to-port="1" />
		<edge from-layer="299" from-port="2" to-layer="301" to-port="0" />
		<edge from-layer="300" from-port="0" to-layer="301" to-port="1" />
		<edge from-layer="301" from-port="2" to-layer="303" to-port="0" />
		<edge from-layer="302" from-port="0" to-layer="303" to-port="1" />
		<edge from-layer="303" from-port="2" to-layer="305" to-port="0" />
		<edge from-layer="304" from-port="0" to-layer="305" to-port="1" />
		<edge from-layer="305" from-port="2" to-layer="306" to-port="1" />
		<edge from-layer="306" from-port="2" to-layer="307" to-port="1" />
		<edge from-layer="307" from-port="2" to-layer="309" to-port="0" />
		<edge from-layer="308" from-port="0" to-layer="309" to-port="1" />
		<edge from-layer="309" from-port="2" to-layer="311" to-port="0" />
		<edge from-layer="310" from-port="0" to-layer="311" to-port="1" />
		<edge from-layer="311" from-port="2" to-layer="313" to-port="0" />
		<edge from-layer="312" from-port="0" to-layer="313" to-port="1" />
		<edge from-layer="313" from-port="2" to-layer="397" to-port="0" />
		<edge from-layer="313" from-port="2" to-layer="316" to-port="0" />
		<edge from-layer="314" from-port="0" to-layer="396" to-port="0" />
		<edge from-layer="315" from-port="0" to-layer="319" to-port="0" />
		<edge from-layer="316" from-port="2" to-layer="318" to-port="0" />
		<edge from-layer="317" from-port="0" to-layer="318" to-port="1" />
		<edge from-layer="318" from-port="2" to-layer="319" to-port="1" />
		<edge from-layer="319" from-port="2" to-layer="321" to-port="0" />
		<edge from-layer="320" from-port="0" to-layer="321" to-port="1" />
		<edge from-layer="321" from-port="2" to-layer="323" to-port="0" />
		<edge from-layer="322" from-port="0" to-layer="323" to-port="1" />
		<edge from-layer="323" from-port="2" to-layer="377" to-port="0" />
		<edge from-layer="324" from-port="0" to-layer="372" to-port="0" />
		<edge from-layer="325" from-port="0" to-layer="361" to-port="0" />
		<edge from-layer="326" from-port="0" to-layer="329" to-port="0" />
		<edge from-layer="327" from-port="0" to-layer="328" to-port="1" />
		<edge from-layer="328" from-port="2" to-layer="329" to-port="1" />
		<edge from-layer="329" from-port="2" to-layer="331" to-port="0" />
		<edge from-layer="330" from-port="0" to-layer="331" to-port="1" />
		<edge from-layer="331" from-port="2" to-layer="333" to-port="0" />
		<edge from-layer="332" from-port="0" to-layer="333" to-port="1" />
		<edge from-layer="333" from-port="2" to-layer="342" to-port="0" />
		<edge from-layer="334" from-port="0" to-layer="337" to-port="0" />
		<edge from-layer="335" from-port="0" to-layer="336" to-port="1" />
		<edge from-layer="336" from-port="2" to-layer="337" to-port="1" />
		<edge from-layer="337" from-port="2" to-layer="339" to-port="0" />
		<edge from-layer="338" from-port="0" to-layer="339" to-port="1" />
		<edge from-layer="339" from-port="2" to-layer="341" to-port="0" />
		<edge from-layer="340" from-port="0" to-layer="341" to-port="1" />
		<edge from-layer="341" from-port="2" to-layer="342" to-port="1" />
		<edge from-layer="342" from-port="2" to-layer="344" to-port="0" />
		<edge from-layer="343" from-port="0" to-layer="344" to-port="1" />
		<edge from-layer="344" from-port="2" to-layer="345" to-port="0" />
		<edge from-layer="345" from-port="1" to-layer="354" to-port="0" />
		<edge from-layer="346" from-port="0" to-layer="349" to-port="0" />
		<edge from-layer="347" from-port="0" to-layer="348" to-port="1" />
		<edge from-layer="348" from-port="2" to-layer="349" to-port="1" />
		<edge from-layer="349" from-port="2" to-layer="351" to-port="0" />
		<edge from-layer="350" from-port="0" to-layer="351" to-port="1" />
		<edge from-layer="351" from-port="2" to-layer="353" to-port="0" />
		<edge from-layer="352" from-port="0" to-layer="353" to-port="1" />
		<edge from-layer="353" from-port="2" to-layer="354" to-port="1" />
		<edge from-layer="354" from-port="2" to-layer="356" to-port="0" />
		<edge from-layer="355" from-port="0" to-layer="356" to-port="1" />
		<edge from-layer="356" from-port="2" to-layer="358" to-port="0" />
		<edge from-layer="357" from-port="0" to-layer="358" to-port="1" />
		<edge from-layer="358" from-port="2" to-layer="360" to-port="0" />
		<edge from-layer="359" from-port="0" to-layer="360" to-port="1" />
		<edge from-layer="360" from-port="2" to-layer="361" to-port="1" />
		<edge from-layer="361" from-port="2" to-layer="362" to-port="1" />
		<edge from-layer="362" from-port="2" to-layer="364" to-port="0" />
		<edge from-layer="363" from-port="0" to-layer="364" to-port="1" />
		<edge from-layer="364" from-port="2" to-layer="366" to-port="0" />
		<edge from-layer="365" from-port="0" to-layer="366" to-port="1" />
		<edge from-layer="366" from-port="2" to-layer="368" to-port="0" />
		<edge from-layer="367" from-port="0" to-layer="368" to-port="1" />
		<edge from-layer="368" from-port="2" to-layer="369" to-port="0" />
		<edge from-layer="368" from-port="2" to-layer="468" to-port="0" />
		<edge from-layer="368" from-port="2" to-layer="383" to-port="0" />
		<edge from-layer="369" from-port="2" to-layer="371" to-port="0" />
		<edge from-layer="369" from-port="2" to-layer="434" to-port="0" />
		<edge from-layer="370" from-port="0" to-layer="371" to-port="1" />
		<edge from-layer="371" from-port="2" to-layer="372" to-port="1" />
		<edge from-layer="372" from-port="2" to-layer="374" to-port="0" />
		<edge from-layer="373" from-port="0" to-layer="374" to-port="1" />
		<edge from-layer="374" from-port="2" to-layer="376" to-port="0" />
		<edge from-layer="375" from-port="0" to-layer="376" to-port="1" />
		<edge from-layer="376" from-port="2" to-layer="377" to-port="1" />
		<edge from-layer="377" from-port="2" to-layer="379" to-port="0" />
		<edge from-layer="378" from-port="0" to-layer="379" to-port="1" />
		<edge from-layer="379" from-port="2" to-layer="380" to-port="0" />
		<edge from-layer="380" from-port="1" to-layer="389" to-port="0" />
		<edge from-layer="381" from-port="0" to-layer="384" to-port="0" />
		<edge from-layer="382" from-port="0" to-layer="383" to-port="1" />
		<edge from-layer="383" from-port="2" to-layer="384" to-port="1" />
		<edge from-layer="384" from-port="2" to-layer="386" to-port="0" />
		<edge from-layer="385" from-port="0" to-layer="386" to-port="1" />
		<edge from-layer="386" from-port="2" to-layer="388" to-port="0" />
		<edge from-layer="387" from-port="0" to-layer="388" to-port="1" />
		<edge from-layer="388" from-port="2" to-layer="389" to-port="1" />
		<edge from-layer="389" from-port="2" to-layer="391" to-port="0" />
		<edge from-layer="390" from-port="0" to-layer="391" to-port="1" />
		<edge from-layer="391" from-port="2" to-layer="393" to-port="0" />
		<edge from-layer="392" from-port="0" to-layer="393" to-port="1" />
		<edge from-layer="393" from-port="2" to-layer="395" to-port="0" />
		<edge from-layer="394" from-port="0" to-layer="395" to-port="1" />
		<edge from-layer="395" from-port="2" to-layer="396" to-port="1" />
		<edge from-layer="396" from-port="2" to-layer="397" to-port="1" />
		<edge from-layer="397" from-port="2" to-layer="399" to-port="0" />
		<edge from-layer="398" from-port="0" to-layer="399" to-port="1" />
		<edge from-layer="399" from-port="2" to-layer="401" to-port="0" />
		<edge from-layer="400" from-port="0" to-layer="401" to-port="1" />
		<edge from-layer="401" from-port="2" to-layer="403" to-port="0" />
		<edge from-layer="402" from-port="0" to-layer="403" to-port="1" />
		<edge from-layer="403" from-port="2" to-layer="413" to-port="0" />
		<edge from-layer="403" from-port="2" to-layer="407" to-port="0" />
		<edge from-layer="404" from-port="0" to-layer="412" to-port="0" />
		<edge from-layer="405" from-port="0" to-layer="408" to-port="0" />
		<edge from-layer="406" from-port="0" to-layer="407" to-port="1" />
		<edge from-layer="407" from-port="2" to-layer="408" to-port="1" />
		<edge from-layer="408" from-port="2" to-layer="409" to-port="0" />
		<edge from-layer="409" from-port="1" to-layer="411" to-port="0" />
		<edge from-layer="410" from-port="0" to-layer="411" to-port="1" />
		<edge from-layer="411" from-port="2" to-layer="412" to-port="1" />
		<edge from-layer="412" from-port="2" to-layer="413" to-port="1" />
		<edge from-layer="413" from-port="2" to-layer="415" to-port="0" />
		<edge from-layer="414" from-port="0" to-layer="415" to-port="1" />
		<edge from-layer="415" from-port="2" to-layer="417" to-port="0" />
		<edge from-layer="416" from-port="0" to-layer="417" to-port="1" />
		<edge from-layer="417" from-port="2" to-layer="419" to-port="0" />
		<edge from-layer="418" from-port="0" to-layer="419" to-port="1" />
		<edge from-layer="419" from-port="2" to-layer="422" to-port="0" />
		<edge from-layer="419" from-port="2" to-layer="454" to-port="0" />
		<edge from-layer="419" from-port="2" to-layer="503" to-port="0" />
		<edge from-layer="420" from-port="0" to-layer="502" to-port="0" />
		<edge from-layer="421" from-port="0" to-layer="425" to-port="0" />
		<edge from-layer="422" from-port="2" to-layer="442" to-port="0" />
		<edge from-layer="422" from-port="2" to-layer="424" to-port="0" />
		<edge from-layer="423" from-port="0" to-layer="424" to-port="1" />
		<edge from-layer="424" from-port="2" to-layer="425" to-port="1" />
		<edge from-layer="425" from-port="2" to-layer="427" to-port="0" />
		<edge from-layer="426" from-port="0" to-layer="427" to-port="1" />
		<edge from-layer="427" from-port="2" to-layer="429" to-port="0" />
		<edge from-layer="428" from-port="0" to-layer="429" to-port="1" />
		<edge from-layer="429" from-port="2" to-layer="483" to-port="0" />
		<edge from-layer="430" from-port="0" to-layer="478" to-port="0" />
		<edge from-layer="431" from-port="0" to-layer="467" to-port="0" />
		<edge from-layer="432" from-port="0" to-layer="435" to-port="0" />
		<edge from-layer="433" from-port="0" to-layer="434" to-port="1" />
		<edge from-layer="434" from-port="2" to-layer="435" to-port="1" />
		<edge from-layer="435" from-port="2" to-layer="437" to-port="0" />
		<edge from-layer="436" from-port="0" to-layer="437" to-port="1" />
		<edge from-layer="437" from-port="2" to-layer="439" to-port="0" />
		<edge from-layer="438" from-port="0" to-layer="439" to-port="1" />
		<edge from-layer="439" from-port="2" to-layer="448" to-port="0" />
		<edge from-layer="440" from-port="0" to-layer="443" to-port="0" />
		<edge from-layer="441" from-port="0" to-layer="442" to-port="1" />
		<edge from-layer="442" from-port="2" to-layer="443" to-port="1" />
		<edge from-layer="443" from-port="2" to-layer="445" to-port="0" />
		<edge from-layer="444" from-port="0" to-layer="445" to-port="1" />
		<edge from-layer="445" from-port="2" to-layer="447" to-port="0" />
		<edge from-layer="446" from-port="0" to-layer="447" to-port="1" />
		<edge from-layer="447" from-port="2" to-layer="448" to-port="1" />
		<edge from-layer="448" from-port="2" to-layer="450" to-port="0" />
		<edge from-layer="449" from-port="0" to-layer="450" to-port="1" />
		<edge from-layer="450" from-port="2" to-layer="451" to-port="0" />
		<edge from-layer="451" from-port="1" to-layer="460" to-port="0" />
		<edge from-layer="452" from-port="0" to-layer="455" to-port="0" />
		<edge from-layer="453" from-port="0" to-layer="454" to-port="1" />
		<edge from-layer="454" from-port="2" to-layer="455" to-port="1" />
		<edge from-layer="455" from-port="2" to-layer="457" to-port="0" />
		<edge from-layer="456" from-port="0" to-layer="457" to-port="1" />
		<edge from-layer="457" from-port="2" to-layer="459" to-port="0" />
		<edge from-layer="458" from-port="0" to-layer="459" to-port="1" />
		<edge from-layer="459" from-port="2" to-layer="460" to-port="1" />
		<edge from-layer="460" from-port="2" to-layer="462" to-port="0" />
		<edge from-layer="461" from-port="0" to-layer="462" to-port="1" />
		<edge from-layer="462" from-port="2" to-layer="464" to-port="0" />
		<edge from-layer="463" from-port="0" to-layer="464" to-port="1" />
		<edge from-layer="464" from-port="2" to-layer="466" to-port="0" />
		<edge from-layer="465" from-port="0" to-layer="466" to-port="1" />
		<edge from-layer="466" from-port="2" to-layer="467" to-port="1" />
		<edge from-layer="467" from-port="2" to-layer="468" to-port="1" />
		<edge from-layer="468" from-port="2" to-layer="470" to-port="0" />
		<edge from-layer="469" from-port="0" to-layer="470" to-port="1" />
		<edge from-layer="470" from-port="2" to-layer="472" to-port="0" />
		<edge from-layer="471" from-port="0" to-layer="472" to-port="1" />
		<edge from-layer="472" from-port="2" to-layer="474" to-port="0" />
		<edge from-layer="473" from-port="0" to-layer="474" to-port="1" />
		<edge from-layer="474" from-port="2" to-layer="475" to-port="0" />
		<edge from-layer="474" from-port="2" to-layer="489" to-port="0" />
		<edge from-layer="474" from-port="2" to-layer="584" to-port="0" />
		<edge from-layer="475" from-port="2" to-layer="477" to-port="0" />
		<edge from-layer="476" from-port="0" to-layer="477" to-port="1" />
		<edge from-layer="477" from-port="2" to-layer="478" to-port="1" />
		<edge from-layer="478" from-port="2" to-layer="480" to-port="0" />
		<edge from-layer="479" from-port="0" to-layer="480" to-port="1" />
		<edge from-layer="480" from-port="2" to-layer="482" to-port="0" />
		<edge from-layer="481" from-port="0" to-layer="482" to-port="1" />
		<edge from-layer="482" from-port="2" to-layer="483" to-port="1" />
		<edge from-layer="483" from-port="2" to-layer="485" to-port="0" />
		<edge from-layer="484" from-port="0" to-layer="485" to-port="1" />
		<edge from-layer="485" from-port="2" to-layer="486" to-port="0" />
		<edge from-layer="486" from-port="1" to-layer="495" to-port="0" />
		<edge from-layer="487" from-port="0" to-layer="490" to-port="0" />
		<edge from-layer="488" from-port="0" to-layer="489" to-port="1" />
		<edge from-layer="489" from-port="2" to-layer="490" to-port="1" />
		<edge from-layer="490" from-port="2" to-layer="492" to-port="0" />
		<edge from-layer="491" from-port="0" to-layer="492" to-port="1" />
		<edge from-layer="492" from-port="2" to-layer="494" to-port="0" />
		<edge from-layer="493" from-port="0" to-layer="494" to-port="1" />
		<edge from-layer="494" from-port="2" to-layer="495" to-port="1" />
		<edge from-layer="495" from-port="2" to-layer="497" to-port="0" />
		<edge from-layer="496" from-port="0" to-layer="497" to-port="1" />
		<edge from-layer="497" from-port="2" to-layer="499" to-port="0" />
		<edge from-layer="498" from-port="0" to-layer="499" to-port="1" />
		<edge from-layer="499" from-port="2" to-layer="501" to-port="0" />
		<edge from-layer="500" from-port="0" to-layer="501" to-port="1" />
		<edge from-layer="501" from-port="2" to-layer="502" to-port="1" />
		<edge from-layer="502" from-port="2" to-layer="503" to-port="1" />
		<edge from-layer="503" from-port="2" to-layer="505" to-port="0" />
		<edge from-layer="504" from-port="0" to-layer="505" to-port="1" />
		<edge from-layer="505" from-port="2" to-layer="507" to-port="0" />
		<edge from-layer="506" from-port="0" to-layer="507" to-port="1" />
		<edge from-layer="507" from-port="2" to-layer="509" to-port="0" />
		<edge from-layer="508" from-port="0" to-layer="509" to-port="1" />
		<edge from-layer="509" from-port="2" to-layer="510" to-port="0" />
		<edge from-layer="510" from-port="5" to-layer="512" to-port="0" />
		<edge from-layer="510" from-port="5" to-layer="547" to-port="0" />
		<edge from-layer="510" from-port="5" to-layer="565" to-port="0" />
		<edge from-layer="510" from-port="5" to-layer="529" to-port="0" />
		<edge from-layer="511" from-port="0" to-layer="512" to-port="2" />
		<edge from-layer="512" from-port="3" to-layer="514" to-port="0" />
		<edge from-layer="513" from-port="0" to-layer="514" to-port="1" />
		<edge from-layer="514" from-port="2" to-layer="516" to-port="0" />
		<edge from-layer="515" from-port="0" to-layer="516" to-port="1" />
		<edge from-layer="516" from-port="2" to-layer="517" to-port="0" />
		<edge from-layer="517" from-port="1" to-layer="519" to-port="0" />
		<edge from-layer="518" from-port="0" to-layer="519" to-port="1" />
		<edge from-layer="519" from-port="2" to-layer="521" to-port="0" />
		<edge from-layer="520" from-port="0" to-layer="521" to-port="1" />
		<edge from-layer="521" from-port="2" to-layer="522" to-port="0" />
		<edge from-layer="522" from-port="1" to-layer="524" to-port="0" />
		<edge from-layer="523" from-port="0" to-layer="524" to-port="1" />
		<edge from-layer="524" from-port="2" to-layer="526" to-port="0" />
		<edge from-layer="525" from-port="0" to-layer="526" to-port="1" />
		<edge from-layer="526" from-port="2" to-layer="527" to-port="0" />
		<edge from-layer="527" from-port="2" to-layer="581" to-port="0" />
		<edge from-layer="528" from-port="0" to-layer="529" to-port="2" />
		<edge from-layer="529" from-port="3" to-layer="531" to-port="0" />
		<edge from-layer="530" from-port="0" to-layer="531" to-port="1" />
		<edge from-layer="531" from-port="2" to-layer="533" to-port="0" />
		<edge from-layer="532" from-port="0" to-layer="533" to-port="1" />
		<edge from-layer="533" from-port="2" to-layer="534" to-port="0" />
		<edge from-layer="534" from-port="1" to-layer="536" to-port="0" />
		<edge from-layer="535" from-port="0" to-layer="536" to-port="1" />
		<edge from-layer="536" from-port="2" to-layer="538" to-port="0" />
		<edge from-layer="537" from-port="0" to-layer="538" to-port="1" />
		<edge from-layer="538" from-port="2" to-layer="539" to-port="0" />
		<edge from-layer="539" from-port="1" to-layer="541" to-port="0" />
		<edge from-layer="540" from-port="0" to-layer="541" to-port="1" />
		<edge from-layer="541" from-port="2" to-layer="543" to-port="0" />
		<edge from-layer="542" from-port="0" to-layer="543" to-port="1" />
		<edge from-layer="543" from-port="2" to-layer="544" to-port="0" />
		<edge from-layer="544" from-port="2" to-layer="581" to-port="1" />
		<edge from-layer="545" from-port="0" to-layer="547" to-port="1" />
		<edge from-layer="546" from-port="0" to-layer="547" to-port="2" />
		<edge from-layer="547" from-port="3" to-layer="549" to-port="0" />
		<edge from-layer="548" from-port="0" to-layer="549" to-port="1" />
		<edge from-layer="549" from-port="2" to-layer="551" to-port="0" />
		<edge from-layer="550" from-port="0" to-layer="551" to-port="1" />
		<edge from-layer="551" from-port="2" to-layer="552" to-port="0" />
		<edge from-layer="552" from-port="1" to-layer="554" to-port="0" />
		<edge from-layer="553" from-port="0" to-layer="554" to-port="1" />
		<edge from-layer="554" from-port="2" to-layer="556" to-port="0" />
		<edge from-layer="555" from-port="0" to-layer="556" to-port="1" />
		<edge from-layer="556" from-port="2" to-layer="557" to-port="0" />
		<edge from-layer="557" from-port="1" to-layer="559" to-port="0" />
		<edge from-layer="558" from-port="0" to-layer="559" to-port="1" />
		<edge from-layer="559" from-port="2" to-layer="561" to-port="0" />
		<edge from-layer="560" from-port="0" to-layer="561" to-port="1" />
		<edge from-layer="561" from-port="2" to-layer="562" to-port="0" />
		<edge from-layer="562" from-port="2" to-layer="581" to-port="2" />
		<edge from-layer="563" from-port="0" to-layer="565" to-port="1" />
		<edge from-layer="564" from-port="0" to-layer="565" to-port="2" />
		<edge from-layer="565" from-port="3" to-layer="567" to-port="0" />
		<edge from-layer="566" from-port="0" to-layer="567" to-port="1" />
		<edge from-layer="567" from-port="2" to-layer="569" to-port="0" />
		<edge from-layer="568" from-port="0" to-layer="569" to-port="1" />
		<edge from-layer="569" from-port="2" to-layer="570" to-port="0" />
		<edge from-layer="570" from-port="1" to-layer="572" to-port="0" />
		<edge from-layer="571" from-port="0" to-layer="572" to-port="1" />
		<edge from-layer="572" from-port="2" to-layer="574" to-port="0" />
		<edge from-layer="573" from-port="0" to-layer="574" to-port="1" />
		<edge from-layer="574" from-port="2" to-layer="575" to-port="0" />
		<edge from-layer="575" from-port="1" to-layer="577" to-port="0" />
		<edge from-layer="576" from-port="0" to-layer="577" to-port="1" />
		<edge from-layer="577" from-port="2" to-layer="579" to-port="0" />
		<edge from-layer="578" from-port="0" to-layer="579" to-port="1" />
		<edge from-layer="579" from-port="2" to-layer="580" to-port="0" />
		<edge from-layer="580" from-port="2" to-layer="581" to-port="3" />
		<edge from-layer="581" from-port="4" to-layer="604" to-port="0" />
		<edge from-layer="582" from-port="0" to-layer="593" to-port="0" />
		<edge from-layer="583" from-port="0" to-layer="584" to-port="1" />
		<edge from-layer="584" from-port="2" to-layer="586" to-port="0" />
		<edge from-layer="585" from-port="0" to-layer="586" to-port="1" />
		<edge from-layer="586" from-port="2" to-layer="588" to-port="0" />
		<edge from-layer="587" from-port="0" to-layer="588" to-port="1" />
		<edge from-layer="588" from-port="2" to-layer="590" to-port="0" />
		<edge from-layer="589" from-port="0" to-layer="590" to-port="1" />
		<edge from-layer="590" from-port="2" to-layer="592" to-port="0" />
		<edge from-layer="591" from-port="0" to-layer="592" to-port="1" />
		<edge from-layer="592" from-port="2" to-layer="593" to-port="1" />
		<edge from-layer="593" from-port="2" to-layer="595" to-port="0" />
		<edge from-layer="594" from-port="0" to-layer="595" to-port="1" />
		<edge from-layer="595" from-port="2" to-layer="596" to-port="0" />
		<edge from-layer="596" from-port="1" to-layer="598" to-port="0" />
		<edge from-layer="597" from-port="0" to-layer="598" to-port="1" />
		<edge from-layer="598" from-port="2" to-layer="600" to-port="0" />
		<edge from-layer="599" from-port="0" to-layer="600" to-port="1" />
		<edge from-layer="600" from-port="2" to-layer="601" to-port="0" />
		<edge from-layer="601" from-port="1" to-layer="603" to-port="0" />
		<edge from-layer="601" from-port="1" to-layer="605" to-port="0" />
		<edge from-layer="602" from-port="0" to-layer="603" to-port="1" />
		<edge from-layer="603" from-port="2" to-layer="604" to-port="1" />
		<edge from-layer="604" from-port="2" to-layer="611" to-port="0" />
		<edge from-layer="605" from-port="1" to-layer="608" to-port="0" />
		<edge from-layer="606" from-port="0" to-layer="608" to-port="1" />
		<edge from-layer="607" from-port="0" to-layer="608" to-port="2" />
		<edge from-layer="608" from-port="3" to-layer="610" to-port="0" />
		<edge from-layer="609" from-port="0" to-layer="610" to-port="2" />
		<edge from-layer="609" from-port="0" to-layer="610" to-port="3" />
		<edge from-layer="610" from-port="4" to-layer="611" to-port="1" />
		<edge from-layer="611" from-port="2" to-layer="612" to-port="0" />
		<edge from-layer="612" from-port="5" to-layer="613" to-port="0" />
	</edges>
	<rt_info>
		<Runtime_version value="2025.2.0-19140-c01cd93e24d-releases/2025/2" />
		<conversion_parameters>
			<is_python_object value="False" />
		</conversion_parameters>
	</rt_info>
</net>
