<?xml version="1.0"?>
<net name="main_graph" version="11">
	<layers>
		<layer id="1" name="image_embeddings" type="Parameter" version="opset1">
			<data shape="1,256,64,64" element_type="f32" />
			<output>
				<port id="0" precision="FP32" names="image_embeddings">
					<dim>1</dim>
					<dim>256</dim>
					<dim>64</dim>
					<dim>64</dim>
				</port>
			</output>
		</layer>
		<layer id="0" name="boxes" type="Parameter" version="opset1">
			<data shape="?,4" element_type="f32" />
			<output>
				<port id="0" precision="FP32" names="boxes">
					<dim>-1</dim>
					<dim>4</dim>
				</port>
			</output>
		</layer>
		<layer id="2" name="Constant_27981" type="Const" version="opset1">
			<data element_type="f32" shape="1, 1, 256" offset="0" size="1024" />
			<output>
				<port id="0" precision="FP32">
					<dim>1</dim>
					<dim>1</dim>
					<dim>256</dim>
				</port>
			</output>
		</layer>
		<layer id="3" name="Constant_27976" type="Const" version="opset1">
			<data element_type="f32" shape="1, 1, 256" offset="1024" size="1024" />
			<output>
				<port id="0" precision="FP32">
					<dim>1</dim>
					<dim>1</dim>
					<dim>256</dim>
				</port>
			</output>
		</layer>
		<layer id="4" name="onnx::Expand_1619" type="Const" version="opset1">
			<data element_type="f32" shape="1, 5, 256" offset="2048" size="5120" />
			<output>
				<port id="0" precision="FP32" names="onnx::Expand_1619">
					<dim>1</dim>
					<dim>5</dim>
					<dim>256</dim>
				</port>
			</output>
		</layer>
		<layer id="5" name="Constant_27962" type="Const" version="opset1">
			<data element_type="f32" shape="1, 1" offset="7168" size="4" />
			<output>
				<port id="0" precision="FP32">
					<dim>1</dim>
					<dim>1</dim>
				</port>
			</output>
		</layer>
		<layer id="6" name="/prompt_encoder/Add" type="Add" version="opset1">
			<data auto_broadcast="numpy" />
			<input>
				<port id="0" precision="FP32">
					<dim>-1</dim>
					<dim>4</dim>
				</port>
				<port id="1" precision="FP32">
					<dim>1</dim>
					<dim>1</dim>
				</port>
			</input>
			<output>
				<port id="2" precision="FP32" names="/prompt_encoder/Add_output_0">
					<dim>-1</dim>
					<dim>4</dim>
				</port>
			</output>
		</layer>
		<layer id="7" name="/prompt_encoder/Constant_6_output_0" type="Const" version="opset1">
			<data element_type="i64" shape="3" offset="7172" size="24" />
			<output>
				<port id="0" precision="I64" names="/prompt_encoder/Constant_6_output_0">
					<dim>3</dim>
				</port>
			</output>
		</layer>
		<layer id="8" name="/prompt_encoder/Reshape" type="Reshape" version="opset1">
			<data special_zero="true" />
			<input>
				<port id="0" precision="FP32">
					<dim>-1</dim>
					<dim>4</dim>
				</port>
				<port id="1" precision="I64">
					<dim>3</dim>
				</port>
			</input>
			<output>
				<port id="2" precision="FP32" names="/prompt_encoder/Reshape_output_0">
					<dim>-1</dim>
					<dim>2</dim>
					<dim>2</dim>
				</port>
			</output>
		</layer>
		<layer id="9" name="ShapeOf_28497" type="ShapeOf" version="opset3">
			<data output_type="i64" />
			<input>
				<port id="0" precision="FP32">
					<dim>-1</dim>
					<dim>2</dim>
					<dim>2</dim>
				</port>
			</input>
			<output>
				<port id="1" precision="I64" names="onnx::Gather_164,onnx::Gather_229">
					<dim>3</dim>
				</port>
			</output>
		</layer>
		<layer id="10" name="Constant_28498" type="Const" version="opset1">
			<data element_type="i64" shape="" offset="7196" size="8" />
			<output>
				<port id="0" precision="I64" />
			</output>
		</layer>
		<layer id="11" name="Constant_28499" type="Const" version="opset1">
			<data element_type="i64" shape="" offset="7196" size="8" />
			<output>
				<port id="0" precision="I64" />
			</output>
		</layer>
		<layer id="12" name="Gather_28500" type="Gather" version="opset8">
			<data batch_dims="0" />
			<input>
				<port id="0" precision="I64">
					<dim>3</dim>
				</port>
				<port id="1" precision="I64" />
				<port id="2" precision="I64" />
			</input>
			<output>
				<port id="3" precision="I64" names="onnx::Cast_166,onnx::Cast_231,onnx::Cast_306,onnx::Cast_366,onnx::Cast_427,onnx::Cast_487" />
			</output>
		</layer>
		<layer id="13" name="Constant_28535" type="Const" version="opset1">
			<data element_type="i64" shape="1" offset="7204" size="8" />
			<output>
				<port id="0" precision="I64">
					<dim>1</dim>
				</port>
			</output>
		</layer>
		<layer id="14" name="Reshape_28536" type="Reshape" version="opset1">
			<data special_zero="false" />
			<input>
				<port id="0" precision="I64" />
				<port id="1" precision="I64">
					<dim>1</dim>
				</port>
			</input>
			<output>
				<port id="2" precision="I64" names="/mask_decoder/Gather_1_output_0,/mask_decoder/Gather_output_0,/mask_decoder/Reshape_1_output_0,/mask_decoder/Unsqueeze_output_0">
					<dim>1</dim>
				</port>
			</output>
		</layer>
		<layer id="15" name="/prompt_encoder/Constant_11_output_0" type="Const" version="opset1">
			<data element_type="i64" shape="1" offset="7212" size="8" />
			<output>
				<port id="0" precision="I64" names="/prompt_encoder/Constant_11_output_0">
					<dim>1</dim>
				</port>
			</output>
		</layer>
		<layer id="16" name="/mask_decoder/Concat" type="Concat" version="opset1">
			<data axis="0" />
			<input>
				<port id="0" precision="I64">
					<dim>1</dim>
				</port>
				<port id="1" precision="I64">
					<dim>1</dim>
				</port>
				<port id="2" precision="I64">
					<dim>1</dim>
				</port>
			</input>
			<output>
				<port id="3" precision="I64" names="/mask_decoder/Concat_output_0">
					<dim>3</dim>
				</port>
			</output>
		</layer>
		<layer id="17" name="/prompt_encoder/Mul_output_0" type="Const" version="opset1">
			<data element_type="i64" shape="3" offset="7220" size="24" />
			<output>
				<port id="0" precision="I64" names="/prompt_encoder/Mul_output_0">
					<dim>3</dim>
				</port>
			</output>
		</layer>
		<layer id="18" name="/mask_decoder/Equal" type="Equal" version="opset1">
			<data auto_broadcast="numpy" />
			<input>
				<port id="0" precision="I64">
					<dim>3</dim>
				</port>
				<port id="1" precision="I64">
					<dim>3</dim>
				</port>
			</input>
			<output>
				<port id="2" precision="BOOL" names="/mask_decoder/Equal_output_0">
					<dim>3</dim>
				</port>
			</output>
		</layer>
		<layer id="19" name="/prompt_encoder/ConstantOfShape_1_output_0" type="Const" version="opset1">
			<data element_type="i64" shape="3" offset="7244" size="24" />
			<output>
				<port id="0" precision="I64" names="/prompt_encoder/ConstantOfShape_1_output_0">
					<dim>3</dim>
				</port>
			</output>
		</layer>
		<layer id="20" name="/mask_decoder/Where" type="Select" version="opset1">
			<data auto_broadcast="numpy" />
			<input>
				<port id="0" precision="BOOL">
					<dim>3</dim>
				</port>
				<port id="1" precision="I64">
					<dim>3</dim>
				</port>
				<port id="2" precision="I64">
					<dim>3</dim>
				</port>
			</input>
			<output>
				<port id="3" precision="I64" names="/mask_decoder/Where_output_0">
					<dim>3</dim>
				</port>
			</output>
		</layer>
		<layer id="21" name="/mask_decoder/Expand" type="Broadcast" version="opset3">
			<data mode="bidirectional" />
			<input>
				<port id="0" precision="FP32">
					<dim>1</dim>
					<dim>5</dim>
					<dim>256</dim>
				</port>
				<port id="1" precision="I64">
					<dim>3</dim>
				</port>
			</input>
			<output>
				<port id="2" precision="FP32" names="/mask_decoder/Expand_output_0">
					<dim>-1</dim>
					<dim>5</dim>
					<dim>256</dim>
				</port>
			</output>
		</layer>
		<layer id="22" name="/prompt_encoder/Constant_output_0" type="Const" version="opset1">
			<data element_type="i64" shape="" offset="7196" size="8" />
			<output>
				<port id="0" precision="I64" names="/prompt_encoder/Constant_output_0" />
			</output>
		</layer>
		<layer id="23" name="/prompt_encoder/Constant_4_output_0" type="Const" version="opset1">
			<data element_type="i64" shape="" offset="7204" size="8" />
			<output>
				<port id="0" precision="I64" names="/prompt_encoder/Constant_4_output_0" />
			</output>
		</layer>
		<layer id="24" name="Range_456" type="Range" version="opset4">
			<data output_type="i64" />
			<input>
				<port id="0" precision="I64" />
				<port id="1" precision="I64" />
				<port id="2" precision="I64" />
			</input>
			<output>
				<port id="3" precision="I64" names="onnx::Reshape_170,onnx::Reshape_235,onnx::Reshape_310,onnx::Reshape_370,onnx::Reshape_431,onnx::Reshape_491">
					<dim>-1</dim>
				</port>
			</output>
		</layer>
		<layer id="25" name="onnx::Reshape_179" type="Const" version="opset1">
			<data element_type="i64" shape="3" offset="7268" size="24" />
			<output>
				<port id="0" precision="I64" names="onnx::Reshape_179">
					<dim>3</dim>
				</port>
			</output>
		</layer>
		<layer id="26" name="Reshape_466" type="Reshape" version="opset1">
			<data special_zero="true" />
			<input>
				<port id="0" precision="I64">
					<dim>-1</dim>
				</port>
				<port id="1" precision="I64">
					<dim>3</dim>
				</port>
			</input>
			<output>
				<port id="2" precision="I64" names="onnx::Add_180,onnx::Add_245,onnx::Add_319,onnx::Add_379,onnx::Add_440,onnx::Add_500">
					<dim>-1</dim>
					<dim>1</dim>
					<dim>1</dim>
				</port>
			</output>
		</layer>
		<layer id="27" name="Constant_27963" type="Const" version="opset1">
			<data element_type="i64" shape="1, 2, 1" offset="7292" size="16" />
			<output>
				<port id="0" precision="I64">
					<dim>1</dim>
					<dim>2</dim>
					<dim>1</dim>
				</port>
			</output>
		</layer>
		<layer id="28" name="/prompt_encoder/Add_1" type="Add" version="opset1">
			<data auto_broadcast="numpy" />
			<input>
				<port id="0" precision="I64">
					<dim>-1</dim>
					<dim>1</dim>
					<dim>1</dim>
				</port>
				<port id="1" precision="I64">
					<dim>1</dim>
					<dim>2</dim>
					<dim>1</dim>
				</port>
			</input>
			<output>
				<port id="2" precision="I64" names="/prompt_encoder/Add_1_output_0">
					<dim>-1</dim>
					<dim>2</dim>
					<dim>1</dim>
				</port>
			</output>
		</layer>
		<layer id="29" name="/prompt_encoder/Shape_2" type="ShapeOf" version="opset3">
			<data output_type="i64" />
			<input>
				<port id="0" precision="I64">
					<dim>-1</dim>
					<dim>2</dim>
					<dim>1</dim>
				</port>
			</input>
			<output>
				<port id="1" precision="I64" names="/prompt_encoder/Shape_2_output_0,/prompt_encoder/Shape_8_output_0">
					<dim>3</dim>
				</port>
			</output>
		</layer>
		<layer id="30" name="/prompt_encoder/Equal" type="Equal" version="opset1">
			<data auto_broadcast="numpy" />
			<input>
				<port id="0" precision="I64">
					<dim>3</dim>
				</port>
				<port id="1" precision="I64">
					<dim>3</dim>
				</port>
			</input>
			<output>
				<port id="2" precision="BOOL" names="/prompt_encoder/Equal_3_output_0,/prompt_encoder/Equal_output_0">
					<dim>3</dim>
				</port>
			</output>
		</layer>
		<layer id="31" name="/prompt_encoder/Where" type="Select" version="opset1">
			<data auto_broadcast="numpy" />
			<input>
				<port id="0" precision="BOOL">
					<dim>3</dim>
				</port>
				<port id="1" precision="I64">
					<dim>3</dim>
				</port>
				<port id="2" precision="I64">
					<dim>3</dim>
				</port>
			</input>
			<output>
				<port id="3" precision="I64" names="/prompt_encoder/Where_3_output_0,/prompt_encoder/Where_output_0">
					<dim>3</dim>
				</port>
			</output>
		</layer>
		<layer id="32" name="/prompt_encoder/Expand_1" type="Broadcast" version="opset3">
			<data mode="bidirectional" />
			<input>
				<port id="0" precision="I64">
					<dim>-1</dim>
					<dim>1</dim>
					<dim>1</dim>
				</port>
				<port id="1" precision="I64">
					<dim>3</dim>
				</port>
			</input>
			<output>
				<port id="2" precision="I64" names="/prompt_encoder/Expand_1_output_0,/prompt_encoder/Expand_5_output_0">
					<dim>-1</dim>
					<dim>2</dim>
					<dim>1</dim>
				</port>
			</output>
		</layer>
		<layer id="33" name="/prompt_encoder/Unsqueeze_1" type="Unsqueeze" version="opset1">
			<input>
				<port id="0" precision="I64">
					<dim>-1</dim>
					<dim>2</dim>
					<dim>1</dim>
				</port>
				<port id="1" precision="I64">
					<dim>1</dim>
				</port>
			</input>
			<output>
				<port id="2" precision="I64" names="/prompt_encoder/Unsqueeze_1_output_0,/prompt_encoder/Unsqueeze_4_output_0">
					<dim>-1</dim>
					<dim>2</dim>
					<dim>1</dim>
					<dim>1</dim>
				</port>
			</output>
		</layer>
		<layer id="34" name="onnx::Add_182" type="Const" version="opset1">
			<data element_type="i64" shape="2, 1" offset="7292" size="16" />
			<output>
				<port id="0" precision="I64" names="onnx::Add_182">
					<dim>2</dim>
					<dim>1</dim>
				</port>
			</output>
		</layer>
		<layer id="35" name="/prompt_encoder/Expand_2" type="Broadcast" version="opset3">
			<data mode="bidirectional" />
			<input>
				<port id="0" precision="I64">
					<dim>2</dim>
					<dim>1</dim>
				</port>
				<port id="1" precision="I64">
					<dim>3</dim>
				</port>
			</input>
			<output>
				<port id="2" precision="I64" names="/prompt_encoder/Expand_2_output_0,/prompt_encoder/Expand_6_output_0">
					<dim>-1</dim>
					<dim>2</dim>
					<dim>1</dim>
				</port>
			</output>
		</layer>
		<layer id="36" name="/prompt_encoder/Unsqueeze_2" type="Unsqueeze" version="opset1">
			<input>
				<port id="0" precision="I64">
					<dim>-1</dim>
					<dim>2</dim>
					<dim>1</dim>
				</port>
				<port id="1" precision="I64">
					<dim>1</dim>
				</port>
			</input>
			<output>
				<port id="2" precision="I64" names="/prompt_encoder/Unsqueeze_2_output_0,/prompt_encoder/Unsqueeze_5_output_0">
					<dim>-1</dim>
					<dim>2</dim>
					<dim>1</dim>
					<dim>1</dim>
				</port>
			</output>
		</layer>
		<layer id="37" name="onnx::Unsqueeze_144" type="Const" version="opset1">
			<data element_type="i64" shape="1" offset="7196" size="8" />
			<output>
				<port id="0" precision="I64" names="onnx::Unsqueeze_144">
					<dim>1</dim>
				</port>
			</output>
		</layer>
		<layer id="38" name="/prompt_encoder/Expand_3" type="Broadcast" version="opset3">
			<data mode="bidirectional" />
			<input>
				<port id="0" precision="I64">
					<dim>1</dim>
				</port>
				<port id="1" precision="I64">
					<dim>3</dim>
				</port>
			</input>
			<output>
				<port id="2" precision="I64" names="/prompt_encoder/Expand_3_output_0">
					<dim>-1</dim>
					<dim>2</dim>
					<dim>1</dim>
				</port>
			</output>
		</layer>
		<layer id="39" name="/prompt_encoder/Unsqueeze_3" type="Unsqueeze" version="opset1">
			<input>
				<port id="0" precision="I64">
					<dim>-1</dim>
					<dim>2</dim>
					<dim>1</dim>
				</port>
				<port id="1" precision="I64">
					<dim>1</dim>
				</port>
			</input>
			<output>
				<port id="2" precision="I64" names="/prompt_encoder/Unsqueeze_3_output_0">
					<dim>-1</dim>
					<dim>2</dim>
					<dim>1</dim>
					<dim>1</dim>
				</port>
			</output>
		</layer>
		<layer id="40" name="/prompt_encoder/Concat_1" type="Concat" version="opset1">
			<data axis="-1" />
			<input>
				<port id="0" precision="I64">
					<dim>-1</dim>
					<dim>2</dim>
					<dim>1</dim>
					<dim>1</dim>
				</port>
				<port id="1" precision="I64">
					<dim>-1</dim>
					<dim>2</dim>
					<dim>1</dim>
					<dim>1</dim>
				</port>
				<port id="2" precision="I64">
					<dim>-1</dim>
					<dim>2</dim>
					<dim>1</dim>
					<dim>1</dim>
				</port>
			</input>
			<output>
				<port id="3" precision="I64" names="/prompt_encoder/Concat_1_output_0">
					<dim>-1</dim>
					<dim>2</dim>
					<dim>1</dim>
					<dim>3</dim>
				</port>
			</output>
		</layer>
		<layer id="41" name="Constant_11366" type="Const" version="opset1">
			<data element_type="i64" shape="" offset="7308" size="8" />
			<output>
				<port id="0" precision="I64" />
			</output>
		</layer>
		<layer id="42" name="/prompt_encoder/Gather_1" type="Gather" version="opset8">
			<data batch_dims="0" />
			<input>
				<port id="0" precision="FP32">
					<dim>-1</dim>
					<dim>2</dim>
					<dim>2</dim>
				</port>
				<port id="1" precision="I64" />
				<port id="2" precision="I64" />
			</input>
			<output>
				<port id="3" precision="FP32" names="/prompt_encoder/Gather_1_output_0">
					<dim>-1</dim>
					<dim>2</dim>
				</port>
			</output>
		</layer>
		<layer id="43" name="Constant_27964" type="Const" version="opset1">
			<data element_type="f32" shape="1, 1" offset="7316" size="4" />
			<output>
				<port id="0" precision="FP32">
					<dim>1</dim>
					<dim>1</dim>
				</port>
			</output>
		</layer>
		<layer id="44" name="/prompt_encoder/Div" type="Multiply" version="opset1">
			<data auto_broadcast="numpy" />
			<input>
				<port id="0" precision="FP32">
					<dim>-1</dim>
					<dim>2</dim>
				</port>
				<port id="1" precision="FP32">
					<dim>1</dim>
					<dim>1</dim>
				</port>
			</input>
			<output>
				<port id="2" precision="FP32" names="/prompt_encoder/Div_output_0">
					<dim>-1</dim>
					<dim>2</dim>
				</port>
			</output>
		</layer>
		<layer id="45" name="Constant_22007" type="Const" version="opset1">
			<data element_type="i64" shape="2" offset="7292" size="16" />
			<output>
				<port id="0" precision="I64">
					<dim>2</dim>
				</port>
			</output>
		</layer>
		<layer id="46" name="Constant_22005" type="Const" version="opset1">
			<data element_type="i64" shape="" offset="7196" size="8" />
			<output>
				<port id="0" precision="I64" />
			</output>
		</layer>
		<layer id="47" name="/prompt_encoder/Shape_1" type="Gather" version="opset1">
			<input>
				<port id="0" precision="I64">
					<dim>3</dim>
				</port>
				<port id="1" precision="I64">
					<dim>2</dim>
				</port>
				<port id="2" precision="I64" />
			</input>
			<output>
				<port id="3" precision="I64" names="/prompt_encoder/Shape_1_output_0,/prompt_encoder/Shape_7_output_0">
					<dim>2</dim>
				</port>
			</output>
		</layer>
		<layer id="48" name="/prompt_encoder/Expand" type="Broadcast" version="opset3">
			<data mode="bidirectional" />
			<input>
				<port id="0" precision="FP32">
					<dim>-1</dim>
					<dim>2</dim>
				</port>
				<port id="1" precision="I64">
					<dim>2</dim>
				</port>
			</input>
			<output>
				<port id="2" precision="FP32" names="/prompt_encoder/Expand_output_0">
					<dim>-1</dim>
					<dim>2</dim>
				</port>
			</output>
		</layer>
		<layer id="49" name="Constant_28626" type="Const" version="opset1">
			<data element_type="i64" shape="3" offset="7320" size="24" />
			<output>
				<port id="0" precision="I64">
					<dim>3</dim>
				</port>
			</output>
		</layer>
		<layer id="50" name="/prompt_encoder/Reshape_1" type="Reshape" version="opset1">
			<data special_zero="true" />
			<input>
				<port id="0" precision="FP32">
					<dim>-1</dim>
					<dim>2</dim>
				</port>
				<port id="1" precision="I64">
					<dim>3</dim>
				</port>
			</input>
			<output>
				<port id="2" precision="FP32" names="/prompt_encoder/Reshape_1_output_0">
					<dim>-1</dim>
					<dim>2</dim>
					<dim>1</dim>
				</port>
			</output>
		</layer>
		<layer id="51" name="/prompt_encoder/ScatterND" type="ScatterNDUpdate" version="opset4">
			<input>
				<port id="0" precision="FP32">
					<dim>-1</dim>
					<dim>2</dim>
					<dim>2</dim>
				</port>
				<port id="1" precision="I64">
					<dim>-1</dim>
					<dim>2</dim>
					<dim>1</dim>
					<dim>3</dim>
				</port>
				<port id="2" precision="FP32">
					<dim>-1</dim>
					<dim>2</dim>
					<dim>1</dim>
				</port>
			</input>
			<output>
				<port id="3" precision="FP32" names="/prompt_encoder/ScatterND_output_0">
					<dim>-1</dim>
					<dim>2</dim>
					<dim>2</dim>
				</port>
			</output>
		</layer>
		<layer id="52" name="onnx::Expand_243" type="Const" version="opset1">
			<data element_type="i64" shape="1" offset="7204" size="8" />
			<output>
				<port id="0" precision="I64" names="onnx::Expand_243">
					<dim>1</dim>
				</port>
			</output>
		</layer>
		<layer id="53" name="/prompt_encoder/Expand_7" type="Broadcast" version="opset3">
			<data mode="bidirectional" />
			<input>
				<port id="0" precision="I64">
					<dim>1</dim>
				</port>
				<port id="1" precision="I64">
					<dim>3</dim>
				</port>
			</input>
			<output>
				<port id="2" precision="I64" names="/prompt_encoder/Expand_7_output_0">
					<dim>-1</dim>
					<dim>2</dim>
					<dim>1</dim>
				</port>
			</output>
		</layer>
		<layer id="54" name="/prompt_encoder/Unsqueeze_6" type="Unsqueeze" version="opset1">
			<input>
				<port id="0" precision="I64">
					<dim>-1</dim>
					<dim>2</dim>
					<dim>1</dim>
				</port>
				<port id="1" precision="I64">
					<dim>1</dim>
				</port>
			</input>
			<output>
				<port id="2" precision="I64" names="/prompt_encoder/Unsqueeze_6_output_0">
					<dim>-1</dim>
					<dim>2</dim>
					<dim>1</dim>
					<dim>1</dim>
				</port>
			</output>
		</layer>
		<layer id="55" name="/prompt_encoder/Concat_3" type="Concat" version="opset1">
			<data axis="-1" />
			<input>
				<port id="0" precision="I64">
					<dim>-1</dim>
					<dim>2</dim>
					<dim>1</dim>
					<dim>1</dim>
				</port>
				<port id="1" precision="I64">
					<dim>-1</dim>
					<dim>2</dim>
					<dim>1</dim>
					<dim>1</dim>
				</port>
				<port id="2" precision="I64">
					<dim>-1</dim>
					<dim>2</dim>
					<dim>1</dim>
					<dim>1</dim>
				</port>
			</input>
			<output>
				<port id="3" precision="I64" names="/prompt_encoder/Concat_3_output_0">
					<dim>-1</dim>
					<dim>2</dim>
					<dim>1</dim>
					<dim>3</dim>
				</port>
			</output>
		</layer>
		<layer id="56" name="Constant_11482" type="Const" version="opset1">
			<data element_type="i64" shape="" offset="7308" size="8" />
			<output>
				<port id="0" precision="I64" />
			</output>
		</layer>
		<layer id="57" name="/prompt_encoder/Gather_3" type="Gather" version="opset8">
			<data batch_dims="0" />
			<input>
				<port id="0" precision="FP32">
					<dim>-1</dim>
					<dim>2</dim>
					<dim>2</dim>
				</port>
				<port id="1" precision="I64" />
				<port id="2" precision="I64" />
			</input>
			<output>
				<port id="3" precision="FP32" names="/prompt_encoder/Gather_3_output_0">
					<dim>-1</dim>
					<dim>2</dim>
				</port>
			</output>
		</layer>
		<layer id="58" name="Constant_27966" type="Const" version="opset1">
			<data element_type="f32" shape="1, 1" offset="7316" size="4" />
			<output>
				<port id="0" precision="FP32">
					<dim>1</dim>
					<dim>1</dim>
				</port>
			</output>
		</layer>
		<layer id="59" name="/prompt_encoder/Div_1" type="Multiply" version="opset1">
			<data auto_broadcast="numpy" />
			<input>
				<port id="0" precision="FP32">
					<dim>-1</dim>
					<dim>2</dim>
				</port>
				<port id="1" precision="FP32">
					<dim>1</dim>
					<dim>1</dim>
				</port>
			</input>
			<output>
				<port id="2" precision="FP32" names="/prompt_encoder/Div_1_output_0">
					<dim>-1</dim>
					<dim>2</dim>
				</port>
			</output>
		</layer>
		<layer id="60" name="/prompt_encoder/Expand_4" type="Broadcast" version="opset3">
			<data mode="bidirectional" />
			<input>
				<port id="0" precision="FP32">
					<dim>-1</dim>
					<dim>2</dim>
				</port>
				<port id="1" precision="I64">
					<dim>2</dim>
				</port>
			</input>
			<output>
				<port id="2" precision="FP32" names="/prompt_encoder/Expand_4_output_0">
					<dim>-1</dim>
					<dim>2</dim>
				</port>
			</output>
		</layer>
		<layer id="61" name="Constant_28627" type="Const" version="opset1">
			<data element_type="i64" shape="3" offset="7320" size="24" />
			<output>
				<port id="0" precision="I64">
					<dim>3</dim>
				</port>
			</output>
		</layer>
		<layer id="62" name="/prompt_encoder/Reshape_2" type="Reshape" version="opset1">
			<data special_zero="true" />
			<input>
				<port id="0" precision="FP32">
					<dim>-1</dim>
					<dim>2</dim>
				</port>
				<port id="1" precision="I64">
					<dim>3</dim>
				</port>
			</input>
			<output>
				<port id="2" precision="FP32" names="/prompt_encoder/Reshape_2_output_0">
					<dim>-1</dim>
					<dim>2</dim>
					<dim>1</dim>
				</port>
			</output>
		</layer>
		<layer id="63" name="/prompt_encoder/ScatterND_1" type="ScatterNDUpdate" version="opset4">
			<input>
				<port id="0" precision="FP32">
					<dim>-1</dim>
					<dim>2</dim>
					<dim>2</dim>
				</port>
				<port id="1" precision="I64">
					<dim>-1</dim>
					<dim>2</dim>
					<dim>1</dim>
					<dim>3</dim>
				</port>
				<port id="2" precision="FP32">
					<dim>-1</dim>
					<dim>2</dim>
					<dim>1</dim>
				</port>
			</input>
			<output>
				<port id="3" precision="FP32" names="/prompt_encoder/ScatterND_1_output_0">
					<dim>-1</dim>
					<dim>2</dim>
					<dim>2</dim>
				</port>
			</output>
		</layer>
		<layer id="64" name="Constant_27967" type="Const" version="opset1">
			<data element_type="f32" shape="1, 1, 1" offset="7344" size="4" />
			<output>
				<port id="0" precision="FP32">
					<dim>1</dim>
					<dim>1</dim>
					<dim>1</dim>
				</port>
			</output>
		</layer>
		<layer id="65" name="/prompt_encoder/Mul_6" type="Multiply" version="opset1">
			<data auto_broadcast="numpy" />
			<input>
				<port id="0" precision="FP32">
					<dim>-1</dim>
					<dim>2</dim>
					<dim>2</dim>
				</port>
				<port id="1" precision="FP32">
					<dim>1</dim>
					<dim>1</dim>
					<dim>1</dim>
				</port>
			</input>
			<output>
				<port id="2" precision="FP32" names="/prompt_encoder/Mul_6_output_0">
					<dim>-1</dim>
					<dim>2</dim>
					<dim>2</dim>
				</port>
			</output>
		</layer>
		<layer id="66" name="Constant_27968" type="Const" version="opset1">
			<data element_type="f32" shape="1, 1, 1" offset="7348" size="4" />
			<output>
				<port id="0" precision="FP32">
					<dim>1</dim>
					<dim>1</dim>
					<dim>1</dim>
				</port>
			</output>
		</layer>
		<layer id="67" name="/prompt_encoder/Sub" type="Add" version="opset1">
			<data auto_broadcast="numpy" />
			<input>
				<port id="0" precision="FP32">
					<dim>-1</dim>
					<dim>2</dim>
					<dim>2</dim>
				</port>
				<port id="1" precision="FP32">
					<dim>1</dim>
					<dim>1</dim>
					<dim>1</dim>
				</port>
			</input>
			<output>
				<port id="2" precision="FP32" names="/prompt_encoder/Sub_output_0">
					<dim>-1</dim>
					<dim>2</dim>
					<dim>2</dim>
				</port>
			</output>
		</layer>
		<layer id="68" name="Constant_27969" type="Const" version="opset1">
			<data element_type="f32" shape="1, 1, 1" offset="7352" size="4" />
			<output>
				<port id="0" precision="FP32">
					<dim>1</dim>
					<dim>1</dim>
					<dim>1</dim>
				</port>
			</output>
		</layer>
		<layer id="69" name="Multiply_11569" type="Multiply" version="opset1">
			<data auto_broadcast="numpy" />
			<input>
				<port id="0" precision="FP32">
					<dim>-1</dim>
					<dim>2</dim>
					<dim>2</dim>
				</port>
				<port id="1" precision="FP32">
					<dim>1</dim>
					<dim>1</dim>
					<dim>1</dim>
				</port>
			</input>
			<output>
				<port id="2" precision="FP32">
					<dim>-1</dim>
					<dim>2</dim>
					<dim>2</dim>
				</port>
			</output>
		</layer>
		<layer id="70" name="Constant_11549" type="Const" version="opset1">
			<data element_type="f32" shape="" offset="7356" size="4" />
			<output>
				<port id="0" precision="FP32" />
			</output>
		</layer>
		<layer id="71" name="Range_11545" type="Const" version="opset1">
			<data element_type="i64" shape="3" offset="7360" size="24" />
			<output>
				<port id="0" precision="I64">
					<dim>3</dim>
				</port>
			</output>
		</layer>
		<layer id="72" name="ReduceMax_11547" type="ReduceMax" version="opset1">
			<data keep_dims="false" />
			<input>
				<port id="0" precision="FP32">
					<dim>-1</dim>
					<dim>2</dim>
					<dim>2</dim>
				</port>
				<port id="1" precision="I64">
					<dim>3</dim>
				</port>
			</input>
			<output>
				<port id="2" precision="FP32" />
			</output>
		</layer>
		<layer id="73" name="Maximum_11550" type="Maximum" version="opset1">
			<data auto_broadcast="numpy" />
			<input>
				<port id="0" precision="FP32" />
				<port id="1" precision="FP32" />
			</input>
			<output>
				<port id="2" precision="FP32" />
			</output>
		</layer>
		<layer id="74" name="Constant_11560" type="Const" version="opset1">
			<data element_type="f32" shape="" offset="7356" size="4" />
			<output>
				<port id="0" precision="FP32" />
			</output>
		</layer>
		<layer id="75" name="ReduceMin_11558" type="ReduceMin" version="opset1">
			<data keep_dims="false" />
			<input>
				<port id="0" precision="FP32">
					<dim>-1</dim>
					<dim>2</dim>
					<dim>2</dim>
				</port>
				<port id="1" precision="I64">
					<dim>3</dim>
				</port>
			</input>
			<output>
				<port id="2" precision="FP32" />
			</output>
		</layer>
		<layer id="76" name="Minimum_11561" type="Minimum" version="opset1">
			<data auto_broadcast="numpy" />
			<input>
				<port id="0" precision="FP32" />
				<port id="1" precision="FP32" />
			</input>
			<output>
				<port id="2" precision="FP32" />
			</output>
		</layer>
		<layer id="77" name="Subtract_11562" type="Subtract" version="opset1">
			<data auto_broadcast="numpy" />
			<input>
				<port id="0" precision="FP32" />
				<port id="1" precision="FP32" />
			</input>
			<output>
				<port id="2" precision="FP32" />
			</output>
		</layer>
		<layer id="78" name="Divide_11570" type="Divide" version="opset1">
			<data auto_broadcast="numpy" m_pythondiv="true" />
			<input>
				<port id="0" precision="FP32">
					<dim>-1</dim>
					<dim>2</dim>
					<dim>2</dim>
				</port>
				<port id="1" precision="FP32" />
			</input>
			<output>
				<port id="2" precision="FP32">
					<dim>-1</dim>
					<dim>2</dim>
					<dim>2</dim>
				</port>
			</output>
		</layer>
		<layer id="79" name="Round_11571" type="Round" version="opset5">
			<data mode="half_to_even" />
			<input>
				<port id="0" precision="FP32">
					<dim>-1</dim>
					<dim>2</dim>
					<dim>2</dim>
				</port>
			</input>
			<output>
				<port id="1" precision="FP32">
					<dim>-1</dim>
					<dim>2</dim>
					<dim>2</dim>
				</port>
			</output>
		</layer>
		<layer id="80" name="Constant_11537" type="Const" version="opset1">
			<data element_type="f32" shape="" offset="7356" size="4" />
			<output>
				<port id="0" precision="FP32" />
			</output>
		</layer>
		<layer id="81" name="Subtract_11564" type="Subtract" version="opset1">
			<data auto_broadcast="numpy" />
			<input>
				<port id="0" precision="FP32" />
				<port id="1" precision="FP32" />
			</input>
			<output>
				<port id="2" precision="FP32" />
			</output>
		</layer>
		<layer id="82" name="Constant_15456" type="Const" version="opset1">
			<data element_type="f32" shape="" offset="7384" size="4" />
			<output>
				<port id="0" precision="FP32" />
			</output>
		</layer>
		<layer id="83" name="/prompt_encoder/Sub_output_0_QuantizeLinear_/prompt_encoder/Sub_output_0_scale" type="Multiply" version="opset1">
			<data auto_broadcast="numpy" />
			<input>
				<port id="0" precision="FP32" />
				<port id="1" precision="FP32" />
			</input>
			<output>
				<port id="2" precision="FP32" names="/prompt_encoder/Sub_output_0_scale" />
			</output>
		</layer>
		<layer id="84" name="Divide_11565" type="Divide" version="opset1">
			<data auto_broadcast="numpy" m_pythondiv="true" />
			<input>
				<port id="0" precision="FP32" />
				<port id="1" precision="FP32" />
			</input>
			<output>
				<port id="2" precision="FP32" />
			</output>
		</layer>
		<layer id="85" name="Round_11566" type="Round" version="opset5">
			<data mode="half_to_even" />
			<input>
				<port id="0" precision="FP32" />
			</input>
			<output>
				<port id="1" precision="FP32" />
			</output>
		</layer>
		<layer id="86" name="Clamp_11567" type="Clamp" version="opset1">
			<data min="0" max="255" />
			<input>
				<port id="0" precision="FP32" />
			</input>
			<output>
				<port id="1" precision="FP32" />
			</output>
		</layer>
		<layer id="87" name="/prompt_encoder/Sub_output_0_QuantizeLinear_/prompt_encoder/Sub_output_0_zero_point" type="Convert" version="opset1">
			<data destination_type="u8" />
			<input>
				<port id="0" precision="FP32" />
			</input>
			<output>
				<port id="1" precision="U8" names="/prompt_encoder/Sub_output_0_zero_point" />
			</output>
		</layer>
		<layer id="88" name="Convert_11572" type="Convert" version="opset1">
			<data destination_type="f32" />
			<input>
				<port id="0" precision="U8" />
			</input>
			<output>
				<port id="1" precision="FP32" />
			</output>
		</layer>
		<layer id="89" name="Add_11573" type="Add" version="opset1">
			<data auto_broadcast="numpy" />
			<input>
				<port id="0" precision="FP32">
					<dim>-1</dim>
					<dim>2</dim>
					<dim>2</dim>
				</port>
				<port id="1" precision="FP32" />
			</input>
			<output>
				<port id="2" precision="FP32">
					<dim>-1</dim>
					<dim>2</dim>
					<dim>2</dim>
				</port>
			</output>
		</layer>
		<layer id="90" name="Clamp_11574" type="Clamp" version="opset1">
			<data min="0" max="255" />
			<input>
				<port id="0" precision="FP32">
					<dim>-1</dim>
					<dim>2</dim>
					<dim>2</dim>
				</port>
			</input>
			<output>
				<port id="1" precision="FP32">
					<dim>-1</dim>
					<dim>2</dim>
					<dim>2</dim>
				</port>
			</output>
		</layer>
		<layer id="91" name="/prompt_encoder/Sub_output_0_QuantizeLinear_/prompt_encoder/Sub_output_0_quantized" type="Convert" version="opset1">
			<data destination_type="u8" />
			<input>
				<port id="0" precision="FP32">
					<dim>-1</dim>
					<dim>2</dim>
					<dim>2</dim>
				</port>
			</input>
			<output>
				<port id="1" precision="U8" names="/prompt_encoder/Sub_output_0_quantized">
					<dim>-1</dim>
					<dim>2</dim>
					<dim>2</dim>
				</port>
			</output>
		</layer>
		<layer id="92" name="Convert_11577" type="Convert" version="opset1">
			<data destination_type="i32" />
			<input>
				<port id="0" precision="U8">
					<dim>-1</dim>
					<dim>2</dim>
					<dim>2</dim>
				</port>
			</input>
			<output>
				<port id="1" precision="I32">
					<dim>-1</dim>
					<dim>2</dim>
					<dim>2</dim>
				</port>
			</output>
		</layer>
		<layer id="93" name="Convert_11579" type="Convert" version="opset1">
			<data destination_type="i32" />
			<input>
				<port id="0" precision="U8" />
			</input>
			<output>
				<port id="1" precision="I32" />
			</output>
		</layer>
		<layer id="94" name="Subtract_11581" type="Subtract" version="opset1">
			<data auto_broadcast="numpy" />
			<input>
				<port id="0" precision="I32">
					<dim>-1</dim>
					<dim>2</dim>
					<dim>2</dim>
				</port>
				<port id="1" precision="I32" />
			</input>
			<output>
				<port id="2" precision="I32">
					<dim>-1</dim>
					<dim>2</dim>
					<dim>2</dim>
				</port>
			</output>
		</layer>
		<layer id="95" name="Transpose_22792" type="Const" version="opset1">
			<data element_type="i32" shape="128, 2" offset="7388" size="1024" />
			<output>
				<port id="0" precision="I32">
					<dim>128</dim>
					<dim>2</dim>
				</port>
			</output>
		</layer>
		<layer id="96" name="/prompt_encoder/MatMul_quant" type="MatMul" version="opset1">
			<data transpose_a="false" transpose_b="true" />
			<input>
				<port id="0" precision="I32">
					<dim>-1</dim>
					<dim>2</dim>
					<dim>2</dim>
				</port>
				<port id="1" precision="I32">
					<dim>128</dim>
					<dim>2</dim>
				</port>
			</input>
			<output>
				<port id="2" precision="I32" names="/prompt_encoder/MatMul_output_0_output_quantized">
					<dim>-1</dim>
					<dim>2</dim>
					<dim>128</dim>
				</port>
			</output>
		</layer>
		<layer id="97" name="/prompt_encoder/MatMul_output_0_output_quantized_cast" type="Convert" version="opset1">
			<data destination_type="f32" />
			<input>
				<port id="0" precision="I32">
					<dim>-1</dim>
					<dim>2</dim>
					<dim>128</dim>
				</port>
			</input>
			<output>
				<port id="1" precision="FP32" names="/prompt_encoder/MatMul_output_0_output_quantized_cast_output">
					<dim>-1</dim>
					<dim>2</dim>
					<dim>128</dim>
				</port>
			</output>
		</layer>
		<layer id="98" name="prompt_encoder.pe_layer.positional_encoding_gaussian_matrix_scale" type="Const" version="opset1">
			<data element_type="f32" shape="" offset="8412" size="4" />
			<output>
				<port id="0" precision="FP32" names="prompt_encoder.pe_layer.positional_encoding_gaussian_matrix_scale" />
			</output>
		</layer>
		<layer id="99" name="/prompt_encoder/MatMul_quant_scales_mul" type="Multiply" version="opset1">
			<data auto_broadcast="numpy" />
			<input>
				<port id="0" precision="FP32" />
				<port id="1" precision="FP32" />
			</input>
			<output>
				<port id="2" precision="FP32" names="/prompt_encoder/MatMul_quant_scales_mul:0" />
			</output>
		</layer>
		<layer id="100" name="/prompt_encoder/MatMul_quant_output_scale_mul" type="Multiply" version="opset1">
			<data auto_broadcast="numpy" />
			<input>
				<port id="0" precision="FP32">
					<dim>-1</dim>
					<dim>2</dim>
					<dim>128</dim>
				</port>
				<port id="1" precision="FP32" />
			</input>
			<output>
				<port id="2" precision="FP32" names="/prompt_encoder/MatMul_output_0">
					<dim>-1</dim>
					<dim>2</dim>
					<dim>128</dim>
				</port>
			</output>
		</layer>
		<layer id="101" name="Constant_27970" type="Const" version="opset1">
			<data element_type="f32" shape="1, 1, 1" offset="8416" size="4" />
			<output>
				<port id="0" precision="FP32">
					<dim>1</dim>
					<dim>1</dim>
					<dim>1</dim>
				</port>
			</output>
		</layer>
		<layer id="102" name="/prompt_encoder/Mul_7" type="Multiply" version="opset1">
			<data auto_broadcast="numpy" />
			<input>
				<port id="0" precision="FP32">
					<dim>-1</dim>
					<dim>2</dim>
					<dim>128</dim>
				</port>
				<port id="1" precision="FP32">
					<dim>1</dim>
					<dim>1</dim>
					<dim>1</dim>
				</port>
			</input>
			<output>
				<port id="2" precision="FP32" names="/prompt_encoder/Mul_7_output_0">
					<dim>-1</dim>
					<dim>2</dim>
					<dim>128</dim>
				</port>
			</output>
		</layer>
		<layer id="103" name="/prompt_encoder/Sin" type="Sin" version="opset1">
			<input>
				<port id="0" precision="FP32">
					<dim>-1</dim>
					<dim>2</dim>
					<dim>128</dim>
				</port>
			</input>
			<output>
				<port id="1" precision="FP32" names="/prompt_encoder/Sin_output_0">
					<dim>-1</dim>
					<dim>2</dim>
					<dim>128</dim>
				</port>
			</output>
		</layer>
		<layer id="104" name="/prompt_encoder/Cos" type="Cos" version="opset1">
			<input>
				<port id="0" precision="FP32">
					<dim>-1</dim>
					<dim>2</dim>
					<dim>128</dim>
				</port>
			</input>
			<output>
				<port id="1" precision="FP32" names="/prompt_encoder/Cos_output_0">
					<dim>-1</dim>
					<dim>2</dim>
					<dim>128</dim>
				</port>
			</output>
		</layer>
		<layer id="105" name="/prompt_encoder/Concat_5" type="Concat" version="opset1">
			<data axis="-1" />
			<input>
				<port id="0" precision="FP32">
					<dim>-1</dim>
					<dim>2</dim>
					<dim>128</dim>
				</port>
				<port id="1" precision="FP32">
					<dim>-1</dim>
					<dim>2</dim>
					<dim>128</dim>
				</port>
			</input>
			<output>
				<port id="2" precision="FP32" names="/prompt_encoder/Concat_5_output_0">
					<dim>-1</dim>
					<dim>2</dim>
					<dim>256</dim>
				</port>
			</output>
		</layer>
		<layer id="106" name="Constant_27971" type="Const" version="opset1">
			<data element_type="i64" shape="1, 1, 256" offset="8420" size="2048" />
			<output>
				<port id="0" precision="I64">
					<dim>1</dim>
					<dim>1</dim>
					<dim>256</dim>
				</port>
			</output>
		</layer>
		<layer id="107" name="/prompt_encoder/Add_7" type="Add" version="opset1">
			<data auto_broadcast="numpy" />
			<input>
				<port id="0" precision="I64">
					<dim>-1</dim>
					<dim>1</dim>
					<dim>1</dim>
				</port>
				<port id="1" precision="I64">
					<dim>1</dim>
					<dim>1</dim>
					<dim>256</dim>
				</port>
			</input>
			<output>
				<port id="2" precision="I64" names="/prompt_encoder/Add_7_output_0">
					<dim>-1</dim>
					<dim>1</dim>
					<dim>256</dim>
				</port>
			</output>
		</layer>
		<layer id="108" name="/prompt_encoder/Shape_14" type="ShapeOf" version="opset3">
			<data output_type="i64" />
			<input>
				<port id="0" precision="I64">
					<dim>-1</dim>
					<dim>1</dim>
					<dim>256</dim>
				</port>
			</input>
			<output>
				<port id="1" precision="I64" names="/prompt_encoder/Shape_14_output_0,/prompt_encoder/Shape_20_output_0,/prompt_encoder/Shape_26_output_0,/prompt_encoder/Shape_32_output_0">
					<dim>3</dim>
				</port>
			</output>
		</layer>
		<layer id="109" name="/prompt_encoder/Equal_6" type="Equal" version="opset1">
			<data auto_broadcast="numpy" />
			<input>
				<port id="0" precision="I64">
					<dim>3</dim>
				</port>
				<port id="1" precision="I64">
					<dim>3</dim>
				</port>
			</input>
			<output>
				<port id="2" precision="BOOL" names="/prompt_encoder/Equal_12_output_0,/prompt_encoder/Equal_15_output_0,/prompt_encoder/Equal_6_output_0,/prompt_encoder/Equal_9_output_0">
					<dim>3</dim>
				</port>
			</output>
		</layer>
		<layer id="110" name="/prompt_encoder/Where_6" type="Select" version="opset1">
			<data auto_broadcast="numpy" />
			<input>
				<port id="0" precision="BOOL">
					<dim>3</dim>
				</port>
				<port id="1" precision="I64">
					<dim>3</dim>
				</port>
				<port id="2" precision="I64">
					<dim>3</dim>
				</port>
			</input>
			<output>
				<port id="3" precision="I64" names="/prompt_encoder/Where_12_output_0,/prompt_encoder/Where_15_output_0,/prompt_encoder/Where_6_output_0,/prompt_encoder/Where_9_output_0">
					<dim>3</dim>
				</port>
			</output>
		</layer>
		<layer id="111" name="/prompt_encoder/Expand_9" type="Broadcast" version="opset3">
			<data mode="bidirectional" />
			<input>
				<port id="0" precision="I64">
					<dim>-1</dim>
					<dim>1</dim>
					<dim>1</dim>
				</port>
				<port id="1" precision="I64">
					<dim>3</dim>
				</port>
			</input>
			<output>
				<port id="2" precision="I64" names="/prompt_encoder/Expand_13_output_0,/prompt_encoder/Expand_17_output_0,/prompt_encoder/Expand_21_output_0,/prompt_encoder/Expand_9_output_0">
					<dim>-1</dim>
					<dim>1</dim>
					<dim>256</dim>
				</port>
			</output>
		</layer>
		<layer id="112" name="/prompt_encoder/Unsqueeze_7" type="Unsqueeze" version="opset1">
			<input>
				<port id="0" precision="I64">
					<dim>-1</dim>
					<dim>1</dim>
					<dim>256</dim>
				</port>
				<port id="1" precision="I64">
					<dim>1</dim>
				</port>
			</input>
			<output>
				<port id="2" precision="I64" names="/prompt_encoder/Unsqueeze_10_output_0,/prompt_encoder/Unsqueeze_13_output_0,/prompt_encoder/Unsqueeze_16_output_0,/prompt_encoder/Unsqueeze_7_output_0">
					<dim>-1</dim>
					<dim>1</dim>
					<dim>256</dim>
					<dim>1</dim>
				</port>
			</output>
		</layer>
		<layer id="113" name="onnx::Expand_320" type="Const" version="opset1">
			<data element_type="i64" shape="1, 1" offset="7196" size="8" />
			<output>
				<port id="0" precision="I64" names="onnx::Expand_320">
					<dim>1</dim>
					<dim>1</dim>
				</port>
			</output>
		</layer>
		<layer id="114" name="/prompt_encoder/Expand_10" type="Broadcast" version="opset3">
			<data mode="bidirectional" />
			<input>
				<port id="0" precision="I64">
					<dim>1</dim>
					<dim>1</dim>
				</port>
				<port id="1" precision="I64">
					<dim>3</dim>
				</port>
			</input>
			<output>
				<port id="2" precision="I64" names="/prompt_encoder/Expand_10_output_0,/prompt_encoder/Expand_14_output_0">
					<dim>-1</dim>
					<dim>1</dim>
					<dim>256</dim>
				</port>
			</output>
		</layer>
		<layer id="115" name="/prompt_encoder/Unsqueeze_8" type="Unsqueeze" version="opset1">
			<input>
				<port id="0" precision="I64">
					<dim>-1</dim>
					<dim>1</dim>
					<dim>256</dim>
				</port>
				<port id="1" precision="I64">
					<dim>1</dim>
				</port>
			</input>
			<output>
				<port id="2" precision="I64" names="/prompt_encoder/Unsqueeze_11_output_0,/prompt_encoder/Unsqueeze_8_output_0">
					<dim>-1</dim>
					<dim>1</dim>
					<dim>256</dim>
					<dim>1</dim>
				</port>
			</output>
		</layer>
		<layer id="116" name="Constant_17226" type="Const" version="opset1">
			<data element_type="i64" shape="" offset="7196" size="8" />
			<output>
				<port id="0" precision="I64" />
			</output>
		</layer>
		<layer id="117" name="Constant_17222" type="Const" version="opset1">
			<data element_type="i64" shape="" offset="7212" size="8" />
			<output>
				<port id="0" precision="I64" />
			</output>
		</layer>
		<layer id="118" name="Constant_17221" type="Const" version="opset1">
			<data element_type="i32" shape="" offset="7356" size="4" />
			<output>
				<port id="0" precision="I32" />
			</output>
		</layer>
		<layer id="119" name="Gather_17223" type="Gather" version="opset8">
			<data batch_dims="0" />
			<input>
				<port id="0" precision="I64">
					<dim>3</dim>
				</port>
				<port id="1" precision="I64" />
				<port id="2" precision="I32" />
			</input>
			<output>
				<port id="3" precision="I64" />
			</output>
		</layer>
		<layer id="120" name="Constant_17224" type="Const" version="opset1">
			<data element_type="i64" shape="" offset="7204" size="8" />
			<output>
				<port id="0" precision="I64" />
			</output>
		</layer>
		<layer id="121" name="Equal_17225" type="Equal" version="opset1">
			<data auto_broadcast="numpy" />
			<input>
				<port id="0" precision="I64" />
				<port id="1" precision="I64" />
			</input>
			<output>
				<port id="2" precision="BOOL" />
			</output>
		</layer>
		<layer id="122" name="Constant_17227" type="Const" version="opset1">
			<data element_type="i64" shape="" offset="10468" size="8" />
			<output>
				<port id="0" precision="I64" />
			</output>
		</layer>
		<layer id="123" name="Select_17229" type="Select" version="opset1">
			<data auto_broadcast="numpy" />
			<input>
				<port id="0" precision="BOOL" />
				<port id="1" precision="I64" />
				<port id="2" precision="I64" />
			</input>
			<output>
				<port id="3" precision="I64" />
			</output>
		</layer>
		<layer id="124" name="Constant_17230" type="Const" version="opset1">
			<data element_type="i64" shape="" offset="7204" size="8" />
			<output>
				<port id="0" precision="I64" />
			</output>
		</layer>
		<layer id="125" name="Range_17231" type="Range" version="opset4">
			<data output_type="i64" />
			<input>
				<port id="0" precision="I64" />
				<port id="1" precision="I64" />
				<port id="2" precision="I64" />
			</input>
			<output>
				<port id="3" precision="I64">
					<dim>256</dim>
				</port>
			</output>
		</layer>
		<layer id="126" name="/prompt_encoder/Expand_11" type="Broadcast" version="opset3">
			<data mode="bidirectional" />
			<input>
				<port id="0" precision="I64">
					<dim>256</dim>
				</port>
				<port id="1" precision="I64">
					<dim>3</dim>
				</port>
			</input>
			<output>
				<port id="2" precision="I64" names="/prompt_encoder/Expand_11_output_0,/prompt_encoder/Expand_15_output_0,/prompt_encoder/Expand_19_output_0,/prompt_encoder/Expand_23_output_0">
					<dim>-1</dim>
					<dim>1</dim>
					<dim>256</dim>
				</port>
			</output>
		</layer>
		<layer id="127" name="/prompt_encoder/Unsqueeze_9" type="Unsqueeze" version="opset1">
			<input>
				<port id="0" precision="I64">
					<dim>-1</dim>
					<dim>1</dim>
					<dim>256</dim>
				</port>
				<port id="1" precision="I64">
					<dim>1</dim>
				</port>
			</input>
			<output>
				<port id="2" precision="I64" names="/prompt_encoder/Unsqueeze_12_output_0,/prompt_encoder/Unsqueeze_15_output_0,/prompt_encoder/Unsqueeze_18_output_0,/prompt_encoder/Unsqueeze_9_output_0">
					<dim>-1</dim>
					<dim>1</dim>
					<dim>256</dim>
					<dim>1</dim>
				</port>
			</output>
		</layer>
		<layer id="128" name="/prompt_encoder/Concat_6" type="Concat" version="opset1">
			<data axis="-1" />
			<input>
				<port id="0" precision="I64">
					<dim>-1</dim>
					<dim>1</dim>
					<dim>256</dim>
					<dim>1</dim>
				</port>
				<port id="1" precision="I64">
					<dim>-1</dim>
					<dim>1</dim>
					<dim>256</dim>
					<dim>1</dim>
				</port>
				<port id="2" precision="I64">
					<dim>-1</dim>
					<dim>1</dim>
					<dim>256</dim>
					<dim>1</dim>
				</port>
			</input>
			<output>
				<port id="3" precision="I64" names="/prompt_encoder/Concat_6_output_0,/prompt_encoder/Concat_8_output_0">
					<dim>-1</dim>
					<dim>1</dim>
					<dim>256</dim>
					<dim>3</dim>
				</port>
			</output>
		</layer>
		<layer id="129" name="Constant_11590" type="Const" version="opset1">
			<data element_type="i64" shape="" offset="7204" size="8" />
			<output>
				<port id="0" precision="I64" />
			</output>
		</layer>
		<layer id="130" name="/prompt_encoder/Gather_5" type="Gather" version="opset8">
			<data batch_dims="0" />
			<input>
				<port id="0" precision="FP32">
					<dim>-1</dim>
					<dim>2</dim>
					<dim>256</dim>
				</port>
				<port id="1" precision="I64" />
				<port id="2" precision="I64" />
			</input>
			<output>
				<port id="3" precision="FP32" names="/prompt_encoder/Gather_5_output_0">
					<dim>-1</dim>
					<dim>256</dim>
				</port>
			</output>
		</layer>
		<layer id="131" name="prompt_encoder.point_embeddings.2.weight" type="Const" version="opset1">
			<data element_type="f32" shape="1, 256" offset="10476" size="1024" />
			<output>
				<port id="0" precision="FP32" names="prompt_encoder.point_embeddings.2.weight">
					<dim>1</dim>
					<dim>256</dim>
				</port>
			</output>
		</layer>
		<layer id="132" name="/prompt_encoder/Add_5" type="Add" version="opset1">
			<data auto_broadcast="numpy" />
			<input>
				<port id="0" precision="FP32">
					<dim>-1</dim>
					<dim>256</dim>
				</port>
				<port id="1" precision="FP32">
					<dim>1</dim>
					<dim>256</dim>
				</port>
			</input>
			<output>
				<port id="2" precision="FP32" names="/prompt_encoder/Add_5_output_0">
					<dim>-1</dim>
					<dim>256</dim>
				</port>
			</output>
		</layer>
		<layer id="133" name="Shape_589" type="ShapeOf" version="opset3">
			<data output_type="i64" />
			<input>
				<port id="0" precision="FP32">
					<dim>-1</dim>
					<dim>2</dim>
					<dim>256</dim>
				</port>
			</input>
			<output>
				<port id="1" precision="I64" names="/mask_decoder/Shape_output_0,onnx::Gather_304,onnx::Gather_364,onnx::Gather_425,onnx::Gather_485">
					<dim>3</dim>
				</port>
			</output>
		</layer>
		<layer id="134" name="Constant_22015" type="Const" version="opset1">
			<data element_type="i64" shape="2" offset="11500" size="16" />
			<output>
				<port id="0" precision="I64">
					<dim>2</dim>
				</port>
			</output>
		</layer>
		<layer id="135" name="Constant_22013" type="Const" version="opset1">
			<data element_type="i64" shape="" offset="7196" size="8" />
			<output>
				<port id="0" precision="I64" />
			</output>
		</layer>
		<layer id="136" name="/prompt_encoder/Shape_13" type="Gather" version="opset1">
			<input>
				<port id="0" precision="I64">
					<dim>3</dim>
				</port>
				<port id="1" precision="I64">
					<dim>2</dim>
				</port>
				<port id="2" precision="I64" />
			</input>
			<output>
				<port id="3" precision="I64" names="/prompt_encoder/Shape_13_output_0,/prompt_encoder/Shape_19_output_0,/prompt_encoder/Shape_25_output_0,/prompt_encoder/Shape_31_output_0">
					<dim>2</dim>
				</port>
			</output>
		</layer>
		<layer id="137" name="/prompt_encoder/Expand_8" type="Broadcast" version="opset3">
			<data mode="bidirectional" />
			<input>
				<port id="0" precision="FP32">
					<dim>-1</dim>
					<dim>256</dim>
				</port>
				<port id="1" precision="I64">
					<dim>2</dim>
				</port>
			</input>
			<output>
				<port id="2" precision="FP32" names="/prompt_encoder/Expand_12_output_0,/prompt_encoder/Expand_8_output_0">
					<dim>-1</dim>
					<dim>256</dim>
				</port>
			</output>
		</layer>
		<layer id="138" name="Constant_28628" type="Const" version="opset1">
			<data element_type="i64" shape="3" offset="11516" size="24" />
			<output>
				<port id="0" precision="I64">
					<dim>3</dim>
				</port>
			</output>
		</layer>
		<layer id="139" name="/prompt_encoder/Reshape_3" type="Reshape" version="opset1">
			<data special_zero="true" />
			<input>
				<port id="0" precision="FP32">
					<dim>-1</dim>
					<dim>256</dim>
				</port>
				<port id="1" precision="I64">
					<dim>3</dim>
				</port>
			</input>
			<output>
				<port id="2" precision="FP32" names="/prompt_encoder/Reshape_3_output_0,/prompt_encoder/Reshape_4_output_0">
					<dim>-1</dim>
					<dim>1</dim>
					<dim>256</dim>
				</port>
			</output>
		</layer>
		<layer id="140" name="/prompt_encoder/ScatterND_2" type="ScatterNDUpdate" version="opset4">
			<input>
				<port id="0" precision="FP32">
					<dim>-1</dim>
					<dim>2</dim>
					<dim>256</dim>
				</port>
				<port id="1" precision="I64">
					<dim>-1</dim>
					<dim>1</dim>
					<dim>256</dim>
					<dim>3</dim>
				</port>
				<port id="2" precision="FP32">
					<dim>-1</dim>
					<dim>1</dim>
					<dim>256</dim>
				</port>
			</input>
			<output>
				<port id="3" precision="FP32" names="/prompt_encoder/ScatterND_2_output_0">
					<dim>-1</dim>
					<dim>2</dim>
					<dim>256</dim>
				</port>
			</output>
		</layer>
		<layer id="141" name="/prompt_encoder/ScatterND_3" type="ScatterNDUpdate" version="opset4">
			<input>
				<port id="0" precision="FP32">
					<dim>-1</dim>
					<dim>2</dim>
					<dim>256</dim>
				</port>
				<port id="1" precision="I64">
					<dim>-1</dim>
					<dim>1</dim>
					<dim>256</dim>
					<dim>3</dim>
				</port>
				<port id="2" precision="FP32">
					<dim>-1</dim>
					<dim>1</dim>
					<dim>256</dim>
				</port>
			</input>
			<output>
				<port id="3" precision="FP32" names="/prompt_encoder/ScatterND_3_output_0">
					<dim>-1</dim>
					<dim>2</dim>
					<dim>256</dim>
				</port>
			</output>
		</layer>
		<layer id="142" name="onnx::Expand_441" type="Const" version="opset1">
			<data element_type="i64" shape="1, 1" offset="7204" size="8" />
			<output>
				<port id="0" precision="I64" names="onnx::Expand_441">
					<dim>1</dim>
					<dim>1</dim>
				</port>
			</output>
		</layer>
		<layer id="143" name="/prompt_encoder/Expand_18" type="Broadcast" version="opset3">
			<data mode="bidirectional" />
			<input>
				<port id="0" precision="I64">
					<dim>1</dim>
					<dim>1</dim>
				</port>
				<port id="1" precision="I64">
					<dim>3</dim>
				</port>
			</input>
			<output>
				<port id="2" precision="I64" names="/prompt_encoder/Expand_18_output_0,/prompt_encoder/Expand_22_output_0">
					<dim>-1</dim>
					<dim>1</dim>
					<dim>256</dim>
				</port>
			</output>
		</layer>
		<layer id="144" name="/prompt_encoder/Unsqueeze_14" type="Unsqueeze" version="opset1">
			<input>
				<port id="0" precision="I64">
					<dim>-1</dim>
					<dim>1</dim>
					<dim>256</dim>
				</port>
				<port id="1" precision="I64">
					<dim>1</dim>
				</port>
			</input>
			<output>
				<port id="2" precision="I64" names="/prompt_encoder/Unsqueeze_14_output_0,/prompt_encoder/Unsqueeze_17_output_0">
					<dim>-1</dim>
					<dim>1</dim>
					<dim>256</dim>
					<dim>1</dim>
				</port>
			</output>
		</layer>
		<layer id="145" name="/prompt_encoder/Concat_10" type="Concat" version="opset1">
			<data axis="-1" />
			<input>
				<port id="0" precision="I64">
					<dim>-1</dim>
					<dim>1</dim>
					<dim>256</dim>
					<dim>1</dim>
				</port>
				<port id="1" precision="I64">
					<dim>-1</dim>
					<dim>1</dim>
					<dim>256</dim>
					<dim>1</dim>
				</port>
				<port id="2" precision="I64">
					<dim>-1</dim>
					<dim>1</dim>
					<dim>256</dim>
					<dim>1</dim>
				</port>
			</input>
			<output>
				<port id="3" precision="I64" names="/prompt_encoder/Concat_10_output_0,/prompt_encoder/Concat_12_output_0">
					<dim>-1</dim>
					<dim>1</dim>
					<dim>256</dim>
					<dim>3</dim>
				</port>
			</output>
		</layer>
		<layer id="146" name="Constant_11665" type="Const" version="opset1">
			<data element_type="i64" shape="" offset="7204" size="8" />
			<output>
				<port id="0" precision="I64" />
			</output>
		</layer>
		<layer id="147" name="/prompt_encoder/Gather_7" type="Gather" version="opset8">
			<data batch_dims="0" />
			<input>
				<port id="0" precision="FP32">
					<dim>-1</dim>
					<dim>2</dim>
					<dim>256</dim>
				</port>
				<port id="1" precision="I64" />
				<port id="2" precision="I64" />
			</input>
			<output>
				<port id="3" precision="FP32" names="/prompt_encoder/Gather_7_output_0">
					<dim>-1</dim>
					<dim>256</dim>
				</port>
			</output>
		</layer>
		<layer id="148" name="prompt_encoder.point_embeddings.3.weight" type="Const" version="opset1">
			<data element_type="f32" shape="1, 256" offset="11540" size="1024" />
			<output>
				<port id="0" precision="FP32" names="prompt_encoder.point_embeddings.3.weight">
					<dim>1</dim>
					<dim>256</dim>
				</port>
			</output>
		</layer>
		<layer id="149" name="/prompt_encoder/Add_10" type="Add" version="opset1">
			<data auto_broadcast="numpy" />
			<input>
				<port id="0" precision="FP32">
					<dim>-1</dim>
					<dim>256</dim>
				</port>
				<port id="1" precision="FP32">
					<dim>1</dim>
					<dim>256</dim>
				</port>
			</input>
			<output>
				<port id="2" precision="FP32" names="/prompt_encoder/Add_10_output_0">
					<dim>-1</dim>
					<dim>256</dim>
				</port>
			</output>
		</layer>
		<layer id="150" name="/prompt_encoder/Expand_16" type="Broadcast" version="opset3">
			<data mode="bidirectional" />
			<input>
				<port id="0" precision="FP32">
					<dim>-1</dim>
					<dim>256</dim>
				</port>
				<port id="1" precision="I64">
					<dim>2</dim>
				</port>
			</input>
			<output>
				<port id="2" precision="FP32" names="/prompt_encoder/Expand_16_output_0,/prompt_encoder/Expand_20_output_0">
					<dim>-1</dim>
					<dim>256</dim>
				</port>
			</output>
		</layer>
		<layer id="151" name="Constant_28630" type="Const" version="opset1">
			<data element_type="i64" shape="3" offset="11516" size="24" />
			<output>
				<port id="0" precision="I64">
					<dim>3</dim>
				</port>
			</output>
		</layer>
		<layer id="152" name="/prompt_encoder/Reshape_5" type="Reshape" version="opset1">
			<data special_zero="true" />
			<input>
				<port id="0" precision="FP32">
					<dim>-1</dim>
					<dim>256</dim>
				</port>
				<port id="1" precision="I64">
					<dim>3</dim>
				</port>
			</input>
			<output>
				<port id="2" precision="FP32" names="/prompt_encoder/Reshape_5_output_0,/prompt_encoder/Reshape_6_output_0">
					<dim>-1</dim>
					<dim>1</dim>
					<dim>256</dim>
				</port>
			</output>
		</layer>
		<layer id="153" name="/prompt_encoder/ScatterND_4" type="ScatterNDUpdate" version="opset4">
			<input>
				<port id="0" precision="FP32">
					<dim>-1</dim>
					<dim>2</dim>
					<dim>256</dim>
				</port>
				<port id="1" precision="I64">
					<dim>-1</dim>
					<dim>1</dim>
					<dim>256</dim>
					<dim>3</dim>
				</port>
				<port id="2" precision="FP32">
					<dim>-1</dim>
					<dim>1</dim>
					<dim>256</dim>
				</port>
			</input>
			<output>
				<port id="3" precision="FP32" names="/prompt_encoder/ScatterND_4_output_0">
					<dim>-1</dim>
					<dim>2</dim>
					<dim>256</dim>
				</port>
			</output>
		</layer>
		<layer id="154" name="/prompt_encoder/ScatterND_5" type="ScatterNDUpdate" version="opset4">
			<input>
				<port id="0" precision="FP32">
					<dim>-1</dim>
					<dim>2</dim>
					<dim>256</dim>
				</port>
				<port id="1" precision="I64">
					<dim>-1</dim>
					<dim>1</dim>
					<dim>256</dim>
					<dim>3</dim>
				</port>
				<port id="2" precision="FP32">
					<dim>-1</dim>
					<dim>1</dim>
					<dim>256</dim>
				</port>
			</input>
			<output>
				<port id="3" precision="FP32" names="/prompt_encoder/Concat_14_output_0,/prompt_encoder/ScatterND_5_output_0">
					<dim>-1</dim>
					<dim>2</dim>
					<dim>256</dim>
				</port>
			</output>
		</layer>
		<layer id="155" name="/mask_decoder/Concat_1" type="Concat" version="opset1">
			<data axis="1" />
			<input>
				<port id="0" precision="FP32">
					<dim>-1</dim>
					<dim>5</dim>
					<dim>256</dim>
				</port>
				<port id="1" precision="FP32">
					<dim>-1</dim>
					<dim>2</dim>
					<dim>256</dim>
				</port>
			</input>
			<output>
				<port id="2" precision="FP32" names="/mask_decoder/Concat_1_output_0">
					<dim>-1</dim>
					<dim>7</dim>
					<dim>256</dim>
				</port>
			</output>
		</layer>
		<layer id="156" name="Constant_27975" type="Const" version="opset1">
			<data element_type="f32" shape="1, 1, 1" offset="7352" size="4" />
			<output>
				<port id="0" precision="FP32">
					<dim>1</dim>
					<dim>1</dim>
					<dim>1</dim>
				</port>
			</output>
		</layer>
		<layer id="157" name="Multiply_11793" type="Multiply" version="opset1">
			<data auto_broadcast="numpy" />
			<input>
				<port id="0" precision="FP32">
					<dim>-1</dim>
					<dim>7</dim>
					<dim>256</dim>
				</port>
				<port id="1" precision="FP32">
					<dim>1</dim>
					<dim>1</dim>
					<dim>1</dim>
				</port>
			</input>
			<output>
				<port id="2" precision="FP32">
					<dim>-1</dim>
					<dim>7</dim>
					<dim>256</dim>
				</port>
			</output>
		</layer>
		<layer id="158" name="Constant_11773" type="Const" version="opset1">
			<data element_type="f32" shape="" offset="7356" size="4" />
			<output>
				<port id="0" precision="FP32" />
			</output>
		</layer>
		<layer id="159" name="Range_11769" type="Const" version="opset1">
			<data element_type="i64" shape="3" offset="7360" size="24" />
			<output>
				<port id="0" precision="I64">
					<dim>3</dim>
				</port>
			</output>
		</layer>
		<layer id="160" name="ReduceMax_11771" type="ReduceMax" version="opset1">
			<data keep_dims="false" />
			<input>
				<port id="0" precision="FP32">
					<dim>-1</dim>
					<dim>7</dim>
					<dim>256</dim>
				</port>
				<port id="1" precision="I64">
					<dim>3</dim>
				</port>
			</input>
			<output>
				<port id="2" precision="FP32" />
			</output>
		</layer>
		<layer id="161" name="Maximum_11774" type="Maximum" version="opset1">
			<data auto_broadcast="numpy" />
			<input>
				<port id="0" precision="FP32" />
				<port id="1" precision="FP32" />
			</input>
			<output>
				<port id="2" precision="FP32" />
			</output>
		</layer>
		<layer id="162" name="Constant_11784" type="Const" version="opset1">
			<data element_type="f32" shape="" offset="7356" size="4" />
			<output>
				<port id="0" precision="FP32" />
			</output>
		</layer>
		<layer id="163" name="ReduceMin_11782" type="ReduceMin" version="opset1">
			<data keep_dims="false" />
			<input>
				<port id="0" precision="FP32">
					<dim>-1</dim>
					<dim>7</dim>
					<dim>256</dim>
				</port>
				<port id="1" precision="I64">
					<dim>3</dim>
				</port>
			</input>
			<output>
				<port id="2" precision="FP32" />
			</output>
		</layer>
		<layer id="164" name="Minimum_11785" type="Minimum" version="opset1">
			<data auto_broadcast="numpy" />
			<input>
				<port id="0" precision="FP32" />
				<port id="1" precision="FP32" />
			</input>
			<output>
				<port id="2" precision="FP32" />
			</output>
		</layer>
		<layer id="165" name="Subtract_11786" type="Subtract" version="opset1">
			<data auto_broadcast="numpy" />
			<input>
				<port id="0" precision="FP32" />
				<port id="1" precision="FP32" />
			</input>
			<output>
				<port id="2" precision="FP32" />
			</output>
		</layer>
		<layer id="166" name="Divide_11794" type="Divide" version="opset1">
			<data auto_broadcast="numpy" m_pythondiv="true" />
			<input>
				<port id="0" precision="FP32">
					<dim>-1</dim>
					<dim>7</dim>
					<dim>256</dim>
				</port>
				<port id="1" precision="FP32" />
			</input>
			<output>
				<port id="2" precision="FP32">
					<dim>-1</dim>
					<dim>7</dim>
					<dim>256</dim>
				</port>
			</output>
		</layer>
		<layer id="167" name="Round_11795" type="Round" version="opset5">
			<data mode="half_to_even" />
			<input>
				<port id="0" precision="FP32">
					<dim>-1</dim>
					<dim>7</dim>
					<dim>256</dim>
				</port>
			</input>
			<output>
				<port id="1" precision="FP32">
					<dim>-1</dim>
					<dim>7</dim>
					<dim>256</dim>
				</port>
			</output>
		</layer>
		<layer id="168" name="Constant_11761" type="Const" version="opset1">
			<data element_type="f32" shape="" offset="7356" size="4" />
			<output>
				<port id="0" precision="FP32" />
			</output>
		</layer>
		<layer id="169" name="Subtract_11788" type="Subtract" version="opset1">
			<data auto_broadcast="numpy" />
			<input>
				<port id="0" precision="FP32" />
				<port id="1" precision="FP32" />
			</input>
			<output>
				<port id="2" precision="FP32" />
			</output>
		</layer>
		<layer id="170" name="Constant_15460" type="Const" version="opset1">
			<data element_type="f32" shape="" offset="7384" size="4" />
			<output>
				<port id="0" precision="FP32" />
			</output>
		</layer>
		<layer id="171" name="/mask_decoder/Concat_1_output_0_QuantizeLinear_/mask_decoder/Concat_1_output_0_scale" type="Multiply" version="opset1">
			<data auto_broadcast="numpy" />
			<input>
				<port id="0" precision="FP32" />
				<port id="1" precision="FP32" />
			</input>
			<output>
				<port id="2" precision="FP32" names="/mask_decoder/Concat_1_output_0_scale" />
			</output>
		</layer>
		<layer id="172" name="Divide_11789" type="Divide" version="opset1">
			<data auto_broadcast="numpy" m_pythondiv="true" />
			<input>
				<port id="0" precision="FP32" />
				<port id="1" precision="FP32" />
			</input>
			<output>
				<port id="2" precision="FP32" />
			</output>
		</layer>
		<layer id="173" name="Round_11790" type="Round" version="opset5">
			<data mode="half_to_even" />
			<input>
				<port id="0" precision="FP32" />
			</input>
			<output>
				<port id="1" precision="FP32" />
			</output>
		</layer>
		<layer id="174" name="Clamp_11791" type="Clamp" version="opset1">
			<data min="0" max="255" />
			<input>
				<port id="0" precision="FP32" />
			</input>
			<output>
				<port id="1" precision="FP32" />
			</output>
		</layer>
		<layer id="175" name="/mask_decoder/Concat_1_output_0_QuantizeLinear_/mask_decoder/Concat_1_output_0_zero_point" type="Convert" version="opset1">
			<data destination_type="u8" />
			<input>
				<port id="0" precision="FP32" />
			</input>
			<output>
				<port id="1" precision="U8" names="/mask_decoder/Concat_1_output_0_zero_point" />
			</output>
		</layer>
		<layer id="176" name="Convert_11796" type="Convert" version="opset1">
			<data destination_type="f32" />
			<input>
				<port id="0" precision="U8" />
			</input>
			<output>
				<port id="1" precision="FP32" />
			</output>
		</layer>
		<layer id="177" name="Add_11797" type="Add" version="opset1">
			<data auto_broadcast="numpy" />
			<input>
				<port id="0" precision="FP32">
					<dim>-1</dim>
					<dim>7</dim>
					<dim>256</dim>
				</port>
				<port id="1" precision="FP32" />
			</input>
			<output>
				<port id="2" precision="FP32">
					<dim>-1</dim>
					<dim>7</dim>
					<dim>256</dim>
				</port>
			</output>
		</layer>
		<layer id="178" name="Clamp_11798" type="Clamp" version="opset1">
			<data min="0" max="255" />
			<input>
				<port id="0" precision="FP32">
					<dim>-1</dim>
					<dim>7</dim>
					<dim>256</dim>
				</port>
			</input>
			<output>
				<port id="1" precision="FP32">
					<dim>-1</dim>
					<dim>7</dim>
					<dim>256</dim>
				</port>
			</output>
		</layer>
		<layer id="179" name="/mask_decoder/Concat_1_output_0_QuantizeLinear_/mask_decoder/Concat_1_output_0_quantized" type="Convert" version="opset1">
			<data destination_type="u8" />
			<input>
				<port id="0" precision="FP32">
					<dim>-1</dim>
					<dim>7</dim>
					<dim>256</dim>
				</port>
			</input>
			<output>
				<port id="1" precision="U8" names="/mask_decoder/Concat_1_output_0_quantized">
					<dim>-1</dim>
					<dim>7</dim>
					<dim>256</dim>
				</port>
			</output>
		</layer>
		<layer id="180" name="Convert_11805" type="Convert" version="opset1">
			<data destination_type="i32" />
			<input>
				<port id="0" precision="U8">
					<dim>-1</dim>
					<dim>7</dim>
					<dim>256</dim>
				</port>
			</input>
			<output>
				<port id="1" precision="I32">
					<dim>-1</dim>
					<dim>7</dim>
					<dim>256</dim>
				</port>
			</output>
		</layer>
		<layer id="181" name="Convert_11807" type="Convert" version="opset1">
			<data destination_type="i32" />
			<input>
				<port id="0" precision="U8" />
			</input>
			<output>
				<port id="1" precision="I32" />
			</output>
		</layer>
		<layer id="182" name="Subtract_11809" type="Subtract" version="opset1">
			<data auto_broadcast="numpy" />
			<input>
				<port id="0" precision="I32">
					<dim>-1</dim>
					<dim>7</dim>
					<dim>256</dim>
				</port>
				<port id="1" precision="I32" />
			</input>
			<output>
				<port id="2" precision="I32">
					<dim>-1</dim>
					<dim>7</dim>
					<dim>256</dim>
				</port>
			</output>
		</layer>
		<layer id="183" name="Transpose_23209" type="Const" version="opset1">
			<data element_type="i32" shape="256, 256" offset="12564" size="262144" />
			<output>
				<port id="0" precision="I32">
					<dim>256</dim>
					<dim>256</dim>
				</port>
			</output>
		</layer>
		<layer id="184" name="/mask_decoder/transformer/layers.0/self_attn/q_proj/MatMul_quant" type="MatMul" version="opset1">
			<data transpose_a="false" transpose_b="true" />
			<input>
				<port id="0" precision="I32">
					<dim>-1</dim>
					<dim>7</dim>
					<dim>256</dim>
				</port>
				<port id="1" precision="I32">
					<dim>256</dim>
					<dim>256</dim>
				</port>
			</input>
			<output>
				<port id="2" precision="I32" names="/mask_decoder/transformer/layers.0/self_attn/q_proj/MatMul_output_0_output_quantized">
					<dim>-1</dim>
					<dim>7</dim>
					<dim>256</dim>
				</port>
			</output>
		</layer>
		<layer id="185" name="/mask_decoder/transformer/layers.0/self_attn/q_proj/MatMul_output_0_output_quantized_cast" type="Convert" version="opset1">
			<data destination_type="f32" />
			<input>
				<port id="0" precision="I32">
					<dim>-1</dim>
					<dim>7</dim>
					<dim>256</dim>
				</port>
			</input>
			<output>
				<port id="1" precision="FP32" names="/mask_decoder/transformer/layers.0/self_attn/q_proj/MatMul_output_0_output_quantized_cast_output">
					<dim>-1</dim>
					<dim>7</dim>
					<dim>256</dim>
				</port>
			</output>
		</layer>
		<layer id="186" name="onnx::MatMul_1623_scale" type="Const" version="opset1">
			<data element_type="f32" shape="" offset="274708" size="4" />
			<output>
				<port id="0" precision="FP32" names="onnx::MatMul_1623_scale" />
			</output>
		</layer>
		<layer id="187" name="/mask_decoder/transformer/layers.0/self_attn/q_proj/MatMul_quant_scales_mul" type="Multiply" version="opset1">
			<data auto_broadcast="numpy" />
			<input>
				<port id="0" precision="FP32" />
				<port id="1" precision="FP32" />
			</input>
			<output>
				<port id="2" precision="FP32" names="/mask_decoder/transformer/layers.0/self_attn/q_proj/MatMul_quant_scales_mul:0" />
			</output>
		</layer>
		<layer id="188" name="/mask_decoder/transformer/layers.0/self_attn/q_proj/MatMul_quant_output_scale_mul" type="Multiply" version="opset1">
			<data auto_broadcast="numpy" />
			<input>
				<port id="0" precision="FP32">
					<dim>-1</dim>
					<dim>7</dim>
					<dim>256</dim>
				</port>
				<port id="1" precision="FP32" />
			</input>
			<output>
				<port id="2" precision="FP32" names="/mask_decoder/transformer/layers.0/self_attn/q_proj/MatMul_output_0">
					<dim>-1</dim>
					<dim>7</dim>
					<dim>256</dim>
				</port>
			</output>
		</layer>
		<layer id="189" name="/mask_decoder/transformer/layers.0/self_attn/q_proj/Add" type="Add" version="opset1">
			<data auto_broadcast="numpy" />
			<input>
				<port id="0" precision="FP32">
					<dim>1</dim>
					<dim>1</dim>
					<dim>256</dim>
				</port>
				<port id="1" precision="FP32">
					<dim>-1</dim>
					<dim>7</dim>
					<dim>256</dim>
				</port>
			</input>
			<output>
				<port id="2" precision="FP32" names="/mask_decoder/transformer/layers.0/self_attn/q_proj/Add_output_0">
					<dim>-1</dim>
					<dim>7</dim>
					<dim>256</dim>
				</port>
			</output>
		</layer>
		<layer id="190" name="/mask_decoder/transformer/layers.0/self_attn/Concat" type="Const" version="opset1">
			<data element_type="i64" shape="4" offset="274712" size="32" />
			<output>
				<port id="0" precision="I64">
					<dim>4</dim>
				</port>
			</output>
		</layer>
		<layer id="191" name="/mask_decoder/transformer/layers.0/self_attn/Reshape" type="Reshape" version="opset1">
			<data special_zero="true" />
			<input>
				<port id="0" precision="FP32">
					<dim>-1</dim>
					<dim>7</dim>
					<dim>256</dim>
				</port>
				<port id="1" precision="I64">
					<dim>4</dim>
				</port>
			</input>
			<output>
				<port id="2" precision="FP32" names="/mask_decoder/transformer/layers.0/self_attn/Reshape_output_0">
					<dim>-1</dim>
					<dim>7</dim>
					<dim>8</dim>
					<dim>32</dim>
				</port>
			</output>
		</layer>
		<layer id="192" name="Constant_11900" type="Const" version="opset1">
			<data element_type="i64" shape="4" offset="274744" size="32" />
			<output>
				<port id="0" precision="I64">
					<dim>4</dim>
				</port>
			</output>
		</layer>
		<layer id="193" name="/mask_decoder/transformer/layers.0/self_attn/Transpose" type="Transpose" version="opset1">
			<input>
				<port id="0" precision="FP32">
					<dim>-1</dim>
					<dim>7</dim>
					<dim>8</dim>
					<dim>32</dim>
				</port>
				<port id="1" precision="I64">
					<dim>4</dim>
				</port>
			</input>
			<output>
				<port id="2" precision="FP32" names="/mask_decoder/transformer/layers.0/self_attn/Transpose_output_0">
					<dim>-1</dim>
					<dim>8</dim>
					<dim>7</dim>
					<dim>32</dim>
				</port>
			</output>
		</layer>
		<layer id="194" name="Constant_27977" type="Const" version="opset1">
			<data element_type="f32" shape="1, 1, 256" offset="274776" size="1024" />
			<output>
				<port id="0" precision="FP32">
					<dim>1</dim>
					<dim>1</dim>
					<dim>256</dim>
				</port>
			</output>
		</layer>
		<layer id="195" name="Transpose_23246" type="Const" version="opset1">
			<data element_type="i32" shape="256, 256" offset="275800" size="262144" />
			<output>
				<port id="0" precision="I32">
					<dim>256</dim>
					<dim>256</dim>
				</port>
			</output>
		</layer>
		<layer id="196" name="/mask_decoder/transformer/layers.0/self_attn/k_proj/MatMul_quant" type="MatMul" version="opset1">
			<data transpose_a="false" transpose_b="true" />
			<input>
				<port id="0" precision="I32">
					<dim>-1</dim>
					<dim>7</dim>
					<dim>256</dim>
				</port>
				<port id="1" precision="I32">
					<dim>256</dim>
					<dim>256</dim>
				</port>
			</input>
			<output>
				<port id="2" precision="I32" names="/mask_decoder/transformer/layers.0/self_attn/k_proj/MatMul_output_0_output_quantized">
					<dim>-1</dim>
					<dim>7</dim>
					<dim>256</dim>
				</port>
			</output>
		</layer>
		<layer id="197" name="/mask_decoder/transformer/layers.0/self_attn/k_proj/MatMul_output_0_output_quantized_cast" type="Convert" version="opset1">
			<data destination_type="f32" />
			<input>
				<port id="0" precision="I32">
					<dim>-1</dim>
					<dim>7</dim>
					<dim>256</dim>
				</port>
			</input>
			<output>
				<port id="1" precision="FP32" names="/mask_decoder/transformer/layers.0/self_attn/k_proj/MatMul_output_0_output_quantized_cast_output">
					<dim>-1</dim>
					<dim>7</dim>
					<dim>256</dim>
				</port>
			</output>
		</layer>
		<layer id="198" name="onnx::MatMul_1624_scale" type="Const" version="opset1">
			<data element_type="f32" shape="" offset="537944" size="4" />
			<output>
				<port id="0" precision="FP32" names="onnx::MatMul_1624_scale" />
			</output>
		</layer>
		<layer id="199" name="/mask_decoder/transformer/layers.0/self_attn/k_proj/MatMul_quant_scales_mul" type="Multiply" version="opset1">
			<data auto_broadcast="numpy" />
			<input>
				<port id="0" precision="FP32" />
				<port id="1" precision="FP32" />
			</input>
			<output>
				<port id="2" precision="FP32" names="/mask_decoder/transformer/layers.0/self_attn/k_proj/MatMul_quant_scales_mul:0" />
			</output>
		</layer>
		<layer id="200" name="/mask_decoder/transformer/layers.0/self_attn/k_proj/MatMul_quant_output_scale_mul" type="Multiply" version="opset1">
			<data auto_broadcast="numpy" />
			<input>
				<port id="0" precision="FP32">
					<dim>-1</dim>
					<dim>7</dim>
					<dim>256</dim>
				</port>
				<port id="1" precision="FP32" />
			</input>
			<output>
				<port id="2" precision="FP32" names="/mask_decoder/transformer/layers.0/self_attn/k_proj/MatMul_output_0">
					<dim>-1</dim>
					<dim>7</dim>
					<dim>256</dim>
				</port>
			</output>
		</layer>
		<layer id="201" name="/mask_decoder/transformer/layers.0/self_attn/k_proj/Add" type="Add" version="opset1">
			<data auto_broadcast="numpy" />
			<input>
				<port id="0" precision="FP32">
					<dim>1</dim>
					<dim>1</dim>
					<dim>256</dim>
				</port>
				<port id="1" precision="FP32">
					<dim>-1</dim>
					<dim>7</dim>
					<dim>256</dim>
				</port>
			</input>
			<output>
				<port id="2" precision="FP32" names="/mask_decoder/transformer/layers.0/self_attn/k_proj/Add_output_0">
					<dim>-1</dim>
					<dim>7</dim>
					<dim>256</dim>
				</port>
			</output>
		</layer>
		<layer id="202" name="/mask_decoder/transformer/layers.0/self_attn/Concat_1" type="Const" version="opset1">
			<data element_type="i64" shape="4" offset="274712" size="32" />
			<output>
				<port id="0" precision="I64">
					<dim>4</dim>
				</port>
			</output>
		</layer>
		<layer id="203" name="/mask_decoder/transformer/layers.0/self_attn/Reshape_1" type="Reshape" version="opset1">
			<data special_zero="true" />
			<input>
				<port id="0" precision="FP32">
					<dim>-1</dim>
					<dim>7</dim>
					<dim>256</dim>
				</port>
				<port id="1" precision="I64">
					<dim>4</dim>
				</port>
			</input>
			<output>
				<port id="2" precision="FP32" names="/mask_decoder/transformer/layers.0/self_attn/Reshape_1_output_0">
					<dim>-1</dim>
					<dim>7</dim>
					<dim>8</dim>
					<dim>32</dim>
				</port>
			</output>
		</layer>
		<layer id="204" name="Constant_11902" type="Const" version="opset1">
			<data element_type="i64" shape="4" offset="537948" size="32" />
			<output>
				<port id="0" precision="I64">
					<dim>4</dim>
				</port>
			</output>
		</layer>
		<layer id="205" name="/mask_decoder/transformer/layers.0/self_attn/Transpose_2" type="Transpose" version="opset1">
			<input>
				<port id="0" precision="FP32">
					<dim>-1</dim>
					<dim>7</dim>
					<dim>8</dim>
					<dim>32</dim>
				</port>
				<port id="1" precision="I64">
					<dim>4</dim>
				</port>
			</input>
			<output>
				<port id="2" precision="FP32" names="/mask_decoder/transformer/layers.0/self_attn/Transpose_2_output_0">
					<dim>-1</dim>
					<dim>8</dim>
					<dim>32</dim>
					<dim>7</dim>
				</port>
			</output>
		</layer>
		<layer id="206" name="/mask_decoder/transformer/layers.0/self_attn/MatMul" type="MatMul" version="opset1">
			<data transpose_a="false" transpose_b="false" />
			<input>
				<port id="0" precision="FP32">
					<dim>-1</dim>
					<dim>8</dim>
					<dim>7</dim>
					<dim>32</dim>
				</port>
				<port id="1" precision="FP32">
					<dim>-1</dim>
					<dim>8</dim>
					<dim>32</dim>
					<dim>7</dim>
				</port>
			</input>
			<output>
				<port id="2" precision="FP32" names="/mask_decoder/transformer/layers.0/self_attn/MatMul_output_0">
					<dim>-1</dim>
					<dim>8</dim>
					<dim>7</dim>
					<dim>7</dim>
				</port>
			</output>
		</layer>
		<layer id="207" name="Constant_27978" type="Const" version="opset1">
			<data element_type="f32" shape="1, 1, 1, 1" offset="537980" size="4" />
			<output>
				<port id="0" precision="FP32">
					<dim>1</dim>
					<dim>1</dim>
					<dim>1</dim>
					<dim>1</dim>
				</port>
			</output>
		</layer>
		<layer id="208" name="/mask_decoder/transformer/layers.0/self_attn/Div_3" type="Multiply" version="opset1">
			<data auto_broadcast="numpy" />
			<input>
				<port id="0" precision="FP32">
					<dim>-1</dim>
					<dim>8</dim>
					<dim>7</dim>
					<dim>7</dim>
				</port>
				<port id="1" precision="FP32">
					<dim>1</dim>
					<dim>1</dim>
					<dim>1</dim>
					<dim>1</dim>
				</port>
			</input>
			<output>
				<port id="2" precision="FP32" names="/mask_decoder/transformer/layers.0/self_attn/Div_3_output_0">
					<dim>-1</dim>
					<dim>8</dim>
					<dim>7</dim>
					<dim>7</dim>
				</port>
			</output>
		</layer>
		<layer id="209" name="/mask_decoder/transformer/layers.0/self_attn/Softmax" type="SoftMax" version="opset8">
			<data axis="-1" />
			<input>
				<port id="0" precision="FP32">
					<dim>-1</dim>
					<dim>8</dim>
					<dim>7</dim>
					<dim>7</dim>
				</port>
			</input>
			<output>
				<port id="1" precision="FP32" names="/mask_decoder/transformer/layers.0/self_attn/Softmax_output_0">
					<dim>-1</dim>
					<dim>8</dim>
					<dim>7</dim>
					<dim>7</dim>
				</port>
			</output>
		</layer>
		<layer id="210" name="Constant_27979" type="Const" version="opset1">
			<data element_type="f32" shape="1, 1, 256" offset="537984" size="1024" />
			<output>
				<port id="0" precision="FP32">
					<dim>1</dim>
					<dim>1</dim>
					<dim>256</dim>
				</port>
			</output>
		</layer>
		<layer id="211" name="Transpose_23295" type="Const" version="opset1">
			<data element_type="i32" shape="256, 256" offset="539008" size="262144" />
			<output>
				<port id="0" precision="I32">
					<dim>256</dim>
					<dim>256</dim>
				</port>
			</output>
		</layer>
		<layer id="212" name="/mask_decoder/transformer/layers.0/self_attn/v_proj/MatMul_quant" type="MatMul" version="opset1">
			<data transpose_a="false" transpose_b="true" />
			<input>
				<port id="0" precision="I32">
					<dim>-1</dim>
					<dim>7</dim>
					<dim>256</dim>
				</port>
				<port id="1" precision="I32">
					<dim>256</dim>
					<dim>256</dim>
				</port>
			</input>
			<output>
				<port id="2" precision="I32" names="/mask_decoder/transformer/layers.0/self_attn/v_proj/MatMul_output_0_output_quantized">
					<dim>-1</dim>
					<dim>7</dim>
					<dim>256</dim>
				</port>
			</output>
		</layer>
		<layer id="213" name="/mask_decoder/transformer/layers.0/self_attn/v_proj/MatMul_output_0_output_quantized_cast" type="Convert" version="opset1">
			<data destination_type="f32" />
			<input>
				<port id="0" precision="I32">
					<dim>-1</dim>
					<dim>7</dim>
					<dim>256</dim>
				</port>
			</input>
			<output>
				<port id="1" precision="FP32" names="/mask_decoder/transformer/layers.0/self_attn/v_proj/MatMul_output_0_output_quantized_cast_output">
					<dim>-1</dim>
					<dim>7</dim>
					<dim>256</dim>
				</port>
			</output>
		</layer>
		<layer id="214" name="onnx::MatMul_1625_scale" type="Const" version="opset1">
			<data element_type="f32" shape="" offset="801152" size="4" />
			<output>
				<port id="0" precision="FP32" names="onnx::MatMul_1625_scale" />
			</output>
		</layer>
		<layer id="215" name="/mask_decoder/transformer/layers.0/self_attn/v_proj/MatMul_quant_scales_mul" type="Multiply" version="opset1">
			<data auto_broadcast="numpy" />
			<input>
				<port id="0" precision="FP32" />
				<port id="1" precision="FP32" />
			</input>
			<output>
				<port id="2" precision="FP32" names="/mask_decoder/transformer/layers.0/self_attn/v_proj/MatMul_quant_scales_mul:0" />
			</output>
		</layer>
		<layer id="216" name="/mask_decoder/transformer/layers.0/self_attn/v_proj/MatMul_quant_output_scale_mul" type="Multiply" version="opset1">
			<data auto_broadcast="numpy" />
			<input>
				<port id="0" precision="FP32">
					<dim>-1</dim>
					<dim>7</dim>
					<dim>256</dim>
				</port>
				<port id="1" precision="FP32" />
			</input>
			<output>
				<port id="2" precision="FP32" names="/mask_decoder/transformer/layers.0/self_attn/v_proj/MatMul_output_0">
					<dim>-1</dim>
					<dim>7</dim>
					<dim>256</dim>
				</port>
			</output>
		</layer>
		<layer id="217" name="/mask_decoder/transformer/layers.0/self_attn/v_proj/Add" type="Add" version="opset1">
			<data auto_broadcast="numpy" />
			<input>
				<port id="0" precision="FP32">
					<dim>1</dim>
					<dim>1</dim>
					<dim>256</dim>
				</port>
				<port id="1" precision="FP32">
					<dim>-1</dim>
					<dim>7</dim>
					<dim>256</dim>
				</port>
			</input>
			<output>
				<port id="2" precision="FP32" names="/mask_decoder/transformer/layers.0/self_attn/v_proj/Add_output_0">
					<dim>-1</dim>
					<dim>7</dim>
					<dim>256</dim>
				</port>
			</output>
		</layer>
		<layer id="218" name="/mask_decoder/transformer/layers.0/self_attn/Concat_2" type="Const" version="opset1">
			<data element_type="i64" shape="4" offset="274712" size="32" />
			<output>
				<port id="0" precision="I64">
					<dim>4</dim>
				</port>
			</output>
		</layer>
		<layer id="219" name="/mask_decoder/transformer/layers.0/self_attn/Reshape_2" type="Reshape" version="opset1">
			<data special_zero="true" />
			<input>
				<port id="0" precision="FP32">
					<dim>-1</dim>
					<dim>7</dim>
					<dim>256</dim>
				</port>
				<port id="1" precision="I64">
					<dim>4</dim>
				</port>
			</input>
			<output>
				<port id="2" precision="FP32" names="/mask_decoder/transformer/layers.0/self_attn/Reshape_2_output_0">
					<dim>-1</dim>
					<dim>7</dim>
					<dim>8</dim>
					<dim>32</dim>
				</port>
			</output>
		</layer>
		<layer id="220" name="Constant_11904" type="Const" version="opset1">
			<data element_type="i64" shape="4" offset="274744" size="32" />
			<output>
				<port id="0" precision="I64">
					<dim>4</dim>
				</port>
			</output>
		</layer>
		<layer id="221" name="/mask_decoder/transformer/layers.0/self_attn/Transpose_1" type="Transpose" version="opset1">
			<input>
				<port id="0" precision="FP32">
					<dim>-1</dim>
					<dim>7</dim>
					<dim>8</dim>
					<dim>32</dim>
				</port>
				<port id="1" precision="I64">
					<dim>4</dim>
				</port>
			</input>
			<output>
				<port id="2" precision="FP32" names="/mask_decoder/transformer/layers.0/self_attn/Transpose_1_output_0">
					<dim>-1</dim>
					<dim>8</dim>
					<dim>7</dim>
					<dim>32</dim>
				</port>
			</output>
		</layer>
		<layer id="222" name="/mask_decoder/transformer/layers.0/self_attn/MatMul_1" type="MatMul" version="opset1">
			<data transpose_a="false" transpose_b="false" />
			<input>
				<port id="0" precision="FP32">
					<dim>-1</dim>
					<dim>8</dim>
					<dim>7</dim>
					<dim>7</dim>
				</port>
				<port id="1" precision="FP32">
					<dim>-1</dim>
					<dim>8</dim>
					<dim>7</dim>
					<dim>32</dim>
				</port>
			</input>
			<output>
				<port id="2" precision="FP32" names="/mask_decoder/transformer/layers.0/self_attn/MatMul_1_output_0">
					<dim>-1</dim>
					<dim>8</dim>
					<dim>7</dim>
					<dim>32</dim>
				</port>
			</output>
		</layer>
		<layer id="223" name="Constant_11923" type="Const" version="opset1">
			<data element_type="i64" shape="4" offset="274744" size="32" />
			<output>
				<port id="0" precision="I64">
					<dim>4</dim>
				</port>
			</output>
		</layer>
		<layer id="224" name="/mask_decoder/transformer/layers.0/self_attn/Transpose_3" type="Transpose" version="opset1">
			<input>
				<port id="0" precision="FP32">
					<dim>-1</dim>
					<dim>8</dim>
					<dim>7</dim>
					<dim>32</dim>
				</port>
				<port id="1" precision="I64">
					<dim>4</dim>
				</port>
			</input>
			<output>
				<port id="2" precision="FP32" names="/mask_decoder/transformer/layers.0/self_attn/Transpose_3_output_0">
					<dim>-1</dim>
					<dim>7</dim>
					<dim>8</dim>
					<dim>32</dim>
				</port>
			</output>
		</layer>
		<layer id="225" name="Constant_28632" type="Const" version="opset1">
			<data element_type="i64" shape="3" offset="801156" size="24" />
			<output>
				<port id="0" precision="I64">
					<dim>3</dim>
				</port>
			</output>
		</layer>
		<layer id="226" name="/mask_decoder/transformer/layers.0/self_attn/Reshape_3" type="Reshape" version="opset1">
			<data special_zero="true" />
			<input>
				<port id="0" precision="FP32">
					<dim>-1</dim>
					<dim>7</dim>
					<dim>8</dim>
					<dim>32</dim>
				</port>
				<port id="1" precision="I64">
					<dim>3</dim>
				</port>
			</input>
			<output>
				<port id="2" precision="FP32" names="/mask_decoder/transformer/layers.0/self_attn/Reshape_3_output_0">
					<dim>-1</dim>
					<dim>7</dim>
					<dim>256</dim>
				</port>
			</output>
		</layer>
		<layer id="227" name="Constant_27980" type="Const" version="opset1">
			<data element_type="f32" shape="1, 1, 1" offset="7352" size="4" />
			<output>
				<port id="0" precision="FP32">
					<dim>1</dim>
					<dim>1</dim>
					<dim>1</dim>
				</port>
			</output>
		</layer>
		<layer id="228" name="Multiply_12033" type="Multiply" version="opset1">
			<data auto_broadcast="numpy" />
			<input>
				<port id="0" precision="FP32">
					<dim>-1</dim>
					<dim>7</dim>
					<dim>256</dim>
				</port>
				<port id="1" precision="FP32">
					<dim>1</dim>
					<dim>1</dim>
					<dim>1</dim>
				</port>
			</input>
			<output>
				<port id="2" precision="FP32">
					<dim>-1</dim>
					<dim>7</dim>
					<dim>256</dim>
				</port>
			</output>
		</layer>
		<layer id="229" name="Constant_12013" type="Const" version="opset1">
			<data element_type="f32" shape="" offset="7356" size="4" />
			<output>
				<port id="0" precision="FP32" />
			</output>
		</layer>
		<layer id="230" name="Range_12009" type="Const" version="opset1">
			<data element_type="i64" shape="3" offset="7360" size="24" />
			<output>
				<port id="0" precision="I64">
					<dim>3</dim>
				</port>
			</output>
		</layer>
		<layer id="231" name="ReduceMax_12011" type="ReduceMax" version="opset1">
			<data keep_dims="false" />
			<input>
				<port id="0" precision="FP32">
					<dim>-1</dim>
					<dim>7</dim>
					<dim>256</dim>
				</port>
				<port id="1" precision="I64">
					<dim>3</dim>
				</port>
			</input>
			<output>
				<port id="2" precision="FP32" />
			</output>
		</layer>
		<layer id="232" name="Maximum_12014" type="Maximum" version="opset1">
			<data auto_broadcast="numpy" />
			<input>
				<port id="0" precision="FP32" />
				<port id="1" precision="FP32" />
			</input>
			<output>
				<port id="2" precision="FP32" />
			</output>
		</layer>
		<layer id="233" name="Constant_12024" type="Const" version="opset1">
			<data element_type="f32" shape="" offset="7356" size="4" />
			<output>
				<port id="0" precision="FP32" />
			</output>
		</layer>
		<layer id="234" name="ReduceMin_12022" type="ReduceMin" version="opset1">
			<data keep_dims="false" />
			<input>
				<port id="0" precision="FP32">
					<dim>-1</dim>
					<dim>7</dim>
					<dim>256</dim>
				</port>
				<port id="1" precision="I64">
					<dim>3</dim>
				</port>
			</input>
			<output>
				<port id="2" precision="FP32" />
			</output>
		</layer>
		<layer id="235" name="Minimum_12025" type="Minimum" version="opset1">
			<data auto_broadcast="numpy" />
			<input>
				<port id="0" precision="FP32" />
				<port id="1" precision="FP32" />
			</input>
			<output>
				<port id="2" precision="FP32" />
			</output>
		</layer>
		<layer id="236" name="Subtract_12026" type="Subtract" version="opset1">
			<data auto_broadcast="numpy" />
			<input>
				<port id="0" precision="FP32" />
				<port id="1" precision="FP32" />
			</input>
			<output>
				<port id="2" precision="FP32" />
			</output>
		</layer>
		<layer id="237" name="Divide_12034" type="Divide" version="opset1">
			<data auto_broadcast="numpy" m_pythondiv="true" />
			<input>
				<port id="0" precision="FP32">
					<dim>-1</dim>
					<dim>7</dim>
					<dim>256</dim>
				</port>
				<port id="1" precision="FP32" />
			</input>
			<output>
				<port id="2" precision="FP32">
					<dim>-1</dim>
					<dim>7</dim>
					<dim>256</dim>
				</port>
			</output>
		</layer>
		<layer id="238" name="Round_12035" type="Round" version="opset5">
			<data mode="half_to_even" />
			<input>
				<port id="0" precision="FP32">
					<dim>-1</dim>
					<dim>7</dim>
					<dim>256</dim>
				</port>
			</input>
			<output>
				<port id="1" precision="FP32">
					<dim>-1</dim>
					<dim>7</dim>
					<dim>256</dim>
				</port>
			</output>
		</layer>
		<layer id="239" name="Constant_12001" type="Const" version="opset1">
			<data element_type="f32" shape="" offset="7356" size="4" />
			<output>
				<port id="0" precision="FP32" />
			</output>
		</layer>
		<layer id="240" name="Subtract_12028" type="Subtract" version="opset1">
			<data auto_broadcast="numpy" />
			<input>
				<port id="0" precision="FP32" />
				<port id="1" precision="FP32" />
			</input>
			<output>
				<port id="2" precision="FP32" />
			</output>
		</layer>
		<layer id="241" name="Constant_15468" type="Const" version="opset1">
			<data element_type="f32" shape="" offset="7384" size="4" />
			<output>
				<port id="0" precision="FP32" />
			</output>
		</layer>
		<layer id="242" name="/mask_decoder/transformer/layers.0/self_attn/Reshape_3_output_0_QuantizeLinear_/mask_decoder/transformer/layers.0/self_attn/Reshape_3_output_0_scale" type="Multiply" version="opset1">
			<data auto_broadcast="numpy" />
			<input>
				<port id="0" precision="FP32" />
				<port id="1" precision="FP32" />
			</input>
			<output>
				<port id="2" precision="FP32" names="/mask_decoder/transformer/layers.0/self_attn/Reshape_3_output_0_scale" />
			</output>
		</layer>
		<layer id="243" name="Divide_12029" type="Divide" version="opset1">
			<data auto_broadcast="numpy" m_pythondiv="true" />
			<input>
				<port id="0" precision="FP32" />
				<port id="1" precision="FP32" />
			</input>
			<output>
				<port id="2" precision="FP32" />
			</output>
		</layer>
		<layer id="244" name="Round_12030" type="Round" version="opset5">
			<data mode="half_to_even" />
			<input>
				<port id="0" precision="FP32" />
			</input>
			<output>
				<port id="1" precision="FP32" />
			</output>
		</layer>
		<layer id="245" name="Clamp_12031" type="Clamp" version="opset1">
			<data min="0" max="255" />
			<input>
				<port id="0" precision="FP32" />
			</input>
			<output>
				<port id="1" precision="FP32" />
			</output>
		</layer>
		<layer id="246" name="/mask_decoder/transformer/layers.0/self_attn/Reshape_3_output_0_QuantizeLinear_/mask_decoder/transformer/layers.0/self_attn/Reshape_3_output_0_zero_point" type="Convert" version="opset1">
			<data destination_type="u8" />
			<input>
				<port id="0" precision="FP32" />
			</input>
			<output>
				<port id="1" precision="U8" names="/mask_decoder/transformer/layers.0/self_attn/Reshape_3_output_0_zero_point" />
			</output>
		</layer>
		<layer id="247" name="Convert_12036" type="Convert" version="opset1">
			<data destination_type="f32" />
			<input>
				<port id="0" precision="U8" />
			</input>
			<output>
				<port id="1" precision="FP32" />
			</output>
		</layer>
		<layer id="248" name="Add_12037" type="Add" version="opset1">
			<data auto_broadcast="numpy" />
			<input>
				<port id="0" precision="FP32">
					<dim>-1</dim>
					<dim>7</dim>
					<dim>256</dim>
				</port>
				<port id="1" precision="FP32" />
			</input>
			<output>
				<port id="2" precision="FP32">
					<dim>-1</dim>
					<dim>7</dim>
					<dim>256</dim>
				</port>
			</output>
		</layer>
		<layer id="249" name="Clamp_12038" type="Clamp" version="opset1">
			<data min="0" max="255" />
			<input>
				<port id="0" precision="FP32">
					<dim>-1</dim>
					<dim>7</dim>
					<dim>256</dim>
				</port>
			</input>
			<output>
				<port id="1" precision="FP32">
					<dim>-1</dim>
					<dim>7</dim>
					<dim>256</dim>
				</port>
			</output>
		</layer>
		<layer id="250" name="/mask_decoder/transformer/layers.0/self_attn/Reshape_3_output_0_QuantizeLinear_/mask_decoder/transformer/layers.0/self_attn/Reshape_3_output_0_quantized" type="Convert" version="opset1">
			<data destination_type="u8" />
			<input>
				<port id="0" precision="FP32">
					<dim>-1</dim>
					<dim>7</dim>
					<dim>256</dim>
				</port>
			</input>
			<output>
				<port id="1" precision="U8" names="/mask_decoder/transformer/layers.0/self_attn/Reshape_3_output_0_quantized">
					<dim>-1</dim>
					<dim>7</dim>
					<dim>256</dim>
				</port>
			</output>
		</layer>
		<layer id="251" name="Convert_12043" type="Convert" version="opset1">
			<data destination_type="i32" />
			<input>
				<port id="0" precision="U8">
					<dim>-1</dim>
					<dim>7</dim>
					<dim>256</dim>
				</port>
			</input>
			<output>
				<port id="1" precision="I32">
					<dim>-1</dim>
					<dim>7</dim>
					<dim>256</dim>
				</port>
			</output>
		</layer>
		<layer id="252" name="Convert_12045" type="Convert" version="opset1">
			<data destination_type="i32" />
			<input>
				<port id="0" precision="U8" />
			</input>
			<output>
				<port id="1" precision="I32" />
			</output>
		</layer>
		<layer id="253" name="Subtract_12047" type="Subtract" version="opset1">
			<data auto_broadcast="numpy" />
			<input>
				<port id="0" precision="I32">
					<dim>-1</dim>
					<dim>7</dim>
					<dim>256</dim>
				</port>
				<port id="1" precision="I32" />
			</input>
			<output>
				<port id="2" precision="I32">
					<dim>-1</dim>
					<dim>7</dim>
					<dim>256</dim>
				</port>
			</output>
		</layer>
		<layer id="254" name="Transpose_23444" type="Const" version="opset1">
			<data element_type="i32" shape="256, 256" offset="801180" size="262144" />
			<output>
				<port id="0" precision="I32">
					<dim>256</dim>
					<dim>256</dim>
				</port>
			</output>
		</layer>
		<layer id="255" name="/mask_decoder/transformer/layers.0/self_attn/out_proj/MatMul_quant" type="MatMul" version="opset1">
			<data transpose_a="false" transpose_b="true" />
			<input>
				<port id="0" precision="I32">
					<dim>-1</dim>
					<dim>7</dim>
					<dim>256</dim>
				</port>
				<port id="1" precision="I32">
					<dim>256</dim>
					<dim>256</dim>
				</port>
			</input>
			<output>
				<port id="2" precision="I32" names="/mask_decoder/transformer/layers.0/self_attn/out_proj/MatMul_output_0_output_quantized">
					<dim>-1</dim>
					<dim>7</dim>
					<dim>256</dim>
				</port>
			</output>
		</layer>
		<layer id="256" name="/mask_decoder/transformer/layers.0/self_attn/out_proj/MatMul_output_0_output_quantized_cast" type="Convert" version="opset1">
			<data destination_type="f32" />
			<input>
				<port id="0" precision="I32">
					<dim>-1</dim>
					<dim>7</dim>
					<dim>256</dim>
				</port>
			</input>
			<output>
				<port id="1" precision="FP32" names="/mask_decoder/transformer/layers.0/self_attn/out_proj/MatMul_output_0_output_quantized_cast_output">
					<dim>-1</dim>
					<dim>7</dim>
					<dim>256</dim>
				</port>
			</output>
		</layer>
		<layer id="257" name="onnx::MatMul_1629_scale" type="Const" version="opset1">
			<data element_type="f32" shape="" offset="1063324" size="4" />
			<output>
				<port id="0" precision="FP32" names="onnx::MatMul_1629_scale" />
			</output>
		</layer>
		<layer id="258" name="/mask_decoder/transformer/layers.0/self_attn/out_proj/MatMul_quant_scales_mul" type="Multiply" version="opset1">
			<data auto_broadcast="numpy" />
			<input>
				<port id="0" precision="FP32" />
				<port id="1" precision="FP32" />
			</input>
			<output>
				<port id="2" precision="FP32" names="/mask_decoder/transformer/layers.0/self_attn/out_proj/MatMul_quant_scales_mul:0" />
			</output>
		</layer>
		<layer id="259" name="/mask_decoder/transformer/layers.0/self_attn/out_proj/MatMul_quant_output_scale_mul" type="Multiply" version="opset1">
			<data auto_broadcast="numpy" />
			<input>
				<port id="0" precision="FP32">
					<dim>-1</dim>
					<dim>7</dim>
					<dim>256</dim>
				</port>
				<port id="1" precision="FP32" />
			</input>
			<output>
				<port id="2" precision="FP32" names="/mask_decoder/transformer/layers.0/self_attn/out_proj/MatMul_output_0">
					<dim>-1</dim>
					<dim>7</dim>
					<dim>256</dim>
				</port>
			</output>
		</layer>
		<layer id="260" name="/mask_decoder/transformer/layers.0/self_attn/out_proj/Add" type="Add" version="opset1">
			<data auto_broadcast="numpy" />
			<input>
				<port id="0" precision="FP32">
					<dim>1</dim>
					<dim>1</dim>
					<dim>256</dim>
				</port>
				<port id="1" precision="FP32">
					<dim>-1</dim>
					<dim>7</dim>
					<dim>256</dim>
				</port>
			</input>
			<output>
				<port id="2" precision="FP32" names="/mask_decoder/transformer/layers.0/self_attn/out_proj/Add_output_0">
					<dim>-1</dim>
					<dim>7</dim>
					<dim>256</dim>
				</port>
			</output>
		</layer>
		<layer id="261" name="Range_12072" type="Const" version="opset1">
			<data element_type="i64" shape="1" offset="7212" size="8" />
			<output>
				<port id="0" precision="I64">
					<dim>1</dim>
				</port>
			</output>
		</layer>
		<layer id="262" name="MVN_12073" type="MVN" version="opset6">
			<data eps="9.9999997473787516e-06" normalize_variance="true" eps_mode="INSIDE_SQRT" />
			<input>
				<port id="0" precision="FP32">
					<dim>-1</dim>
					<dim>7</dim>
					<dim>256</dim>
				</port>
				<port id="1" precision="I64">
					<dim>1</dim>
				</port>
			</input>
			<output>
				<port id="2" precision="FP32">
					<dim>-1</dim>
					<dim>7</dim>
					<dim>256</dim>
				</port>
			</output>
		</layer>
		<layer id="263" name="Constant_27982" type="Const" version="opset1">
			<data element_type="f32" shape="1, 1, 256" offset="1063328" size="1024" />
			<output>
				<port id="0" precision="FP32">
					<dim>1</dim>
					<dim>1</dim>
					<dim>256</dim>
				</port>
			</output>
		</layer>
		<layer id="264" name="Multiply_12074" type="Multiply" version="opset1">
			<data auto_broadcast="numpy" />
			<input>
				<port id="0" precision="FP32">
					<dim>-1</dim>
					<dim>7</dim>
					<dim>256</dim>
				</port>
				<port id="1" precision="FP32">
					<dim>1</dim>
					<dim>1</dim>
					<dim>256</dim>
				</port>
			</input>
			<output>
				<port id="2" precision="FP32">
					<dim>-1</dim>
					<dim>7</dim>
					<dim>256</dim>
				</port>
			</output>
		</layer>
		<layer id="265" name="Constant_27983" type="Const" version="opset1">
			<data element_type="f32" shape="1, 1, 256" offset="1064352" size="1024" />
			<output>
				<port id="0" precision="FP32">
					<dim>1</dim>
					<dim>1</dim>
					<dim>256</dim>
				</port>
			</output>
		</layer>
		<layer id="266" name="/mask_decoder/transformer/layers.0/norm1/LayerNormalization" type="Add" version="opset1">
			<data auto_broadcast="numpy" />
			<input>
				<port id="0" precision="FP32">
					<dim>-1</dim>
					<dim>7</dim>
					<dim>256</dim>
				</port>
				<port id="1" precision="FP32">
					<dim>1</dim>
					<dim>1</dim>
					<dim>256</dim>
				</port>
			</input>
			<output>
				<port id="2" precision="FP32" names="/mask_decoder/transformer/layers.0/norm1/LayerNormalization_output_0">
					<dim>-1</dim>
					<dim>7</dim>
					<dim>256</dim>
				</port>
			</output>
		</layer>
		<layer id="267" name="Constant_27992" type="Const" version="opset1">
			<data element_type="f32" shape="1, 1, 256" offset="1065376" size="1024" />
			<output>
				<port id="0" precision="FP32">
					<dim>1</dim>
					<dim>1</dim>
					<dim>256</dim>
				</port>
			</output>
		</layer>
		<layer id="268" name="Constant_27985" type="Const" version="opset1">
			<data element_type="f32" shape="1, 1, 128" offset="1066400" size="512" />
			<output>
				<port id="0" precision="FP32">
					<dim>1</dim>
					<dim>1</dim>
					<dim>128</dim>
				</port>
			</output>
		</layer>
		<layer id="269" name="/mask_decoder/transformer/layers.0/Add" type="Add" version="opset1">
			<data auto_broadcast="numpy" />
			<input>
				<port id="0" precision="FP32">
					<dim>-1</dim>
					<dim>7</dim>
					<dim>256</dim>
				</port>
				<port id="1" precision="FP32">
					<dim>-1</dim>
					<dim>7</dim>
					<dim>256</dim>
				</port>
			</input>
			<output>
				<port id="2" precision="FP32" names="/mask_decoder/transformer/layers.0/Add_output_0">
					<dim>-1</dim>
					<dim>7</dim>
					<dim>256</dim>
				</port>
			</output>
		</layer>
		<layer id="270" name="Constant_27984" type="Const" version="opset1">
			<data element_type="f32" shape="1, 1, 1" offset="7352" size="4" />
			<output>
				<port id="0" precision="FP32">
					<dim>1</dim>
					<dim>1</dim>
					<dim>1</dim>
				</port>
			</output>
		</layer>
		<layer id="271" name="Multiply_12113" type="Multiply" version="opset1">
			<data auto_broadcast="numpy" />
			<input>
				<port id="0" precision="FP32">
					<dim>-1</dim>
					<dim>7</dim>
					<dim>256</dim>
				</port>
				<port id="1" precision="FP32">
					<dim>1</dim>
					<dim>1</dim>
					<dim>1</dim>
				</port>
			</input>
			<output>
				<port id="2" precision="FP32">
					<dim>-1</dim>
					<dim>7</dim>
					<dim>256</dim>
				</port>
			</output>
		</layer>
		<layer id="272" name="Constant_12093" type="Const" version="opset1">
			<data element_type="f32" shape="" offset="7356" size="4" />
			<output>
				<port id="0" precision="FP32" />
			</output>
		</layer>
		<layer id="273" name="Range_12089" type="Const" version="opset1">
			<data element_type="i64" shape="3" offset="7360" size="24" />
			<output>
				<port id="0" precision="I64">
					<dim>3</dim>
				</port>
			</output>
		</layer>
		<layer id="274" name="ReduceMax_12091" type="ReduceMax" version="opset1">
			<data keep_dims="false" />
			<input>
				<port id="0" precision="FP32">
					<dim>-1</dim>
					<dim>7</dim>
					<dim>256</dim>
				</port>
				<port id="1" precision="I64">
					<dim>3</dim>
				</port>
			</input>
			<output>
				<port id="2" precision="FP32" />
			</output>
		</layer>
		<layer id="275" name="Maximum_12094" type="Maximum" version="opset1">
			<data auto_broadcast="numpy" />
			<input>
				<port id="0" precision="FP32" />
				<port id="1" precision="FP32" />
			</input>
			<output>
				<port id="2" precision="FP32" />
			</output>
		</layer>
		<layer id="276" name="Constant_12104" type="Const" version="opset1">
			<data element_type="f32" shape="" offset="7356" size="4" />
			<output>
				<port id="0" precision="FP32" />
			</output>
		</layer>
		<layer id="277" name="ReduceMin_12102" type="ReduceMin" version="opset1">
			<data keep_dims="false" />
			<input>
				<port id="0" precision="FP32">
					<dim>-1</dim>
					<dim>7</dim>
					<dim>256</dim>
				</port>
				<port id="1" precision="I64">
					<dim>3</dim>
				</port>
			</input>
			<output>
				<port id="2" precision="FP32" />
			</output>
		</layer>
		<layer id="278" name="Minimum_12105" type="Minimum" version="opset1">
			<data auto_broadcast="numpy" />
			<input>
				<port id="0" precision="FP32" />
				<port id="1" precision="FP32" />
			</input>
			<output>
				<port id="2" precision="FP32" />
			</output>
		</layer>
		<layer id="279" name="Subtract_12106" type="Subtract" version="opset1">
			<data auto_broadcast="numpy" />
			<input>
				<port id="0" precision="FP32" />
				<port id="1" precision="FP32" />
			</input>
			<output>
				<port id="2" precision="FP32" />
			</output>
		</layer>
		<layer id="280" name="Divide_12114" type="Divide" version="opset1">
			<data auto_broadcast="numpy" m_pythondiv="true" />
			<input>
				<port id="0" precision="FP32">
					<dim>-1</dim>
					<dim>7</dim>
					<dim>256</dim>
				</port>
				<port id="1" precision="FP32" />
			</input>
			<output>
				<port id="2" precision="FP32">
					<dim>-1</dim>
					<dim>7</dim>
					<dim>256</dim>
				</port>
			</output>
		</layer>
		<layer id="281" name="Round_12115" type="Round" version="opset5">
			<data mode="half_to_even" />
			<input>
				<port id="0" precision="FP32">
					<dim>-1</dim>
					<dim>7</dim>
					<dim>256</dim>
				</port>
			</input>
			<output>
				<port id="1" precision="FP32">
					<dim>-1</dim>
					<dim>7</dim>
					<dim>256</dim>
				</port>
			</output>
		</layer>
		<layer id="282" name="Constant_12081" type="Const" version="opset1">
			<data element_type="f32" shape="" offset="7356" size="4" />
			<output>
				<port id="0" precision="FP32" />
			</output>
		</layer>
		<layer id="283" name="Subtract_12108" type="Subtract" version="opset1">
			<data auto_broadcast="numpy" />
			<input>
				<port id="0" precision="FP32" />
				<port id="1" precision="FP32" />
			</input>
			<output>
				<port id="2" precision="FP32" />
			</output>
		</layer>
		<layer id="284" name="Constant_15472" type="Const" version="opset1">
			<data element_type="f32" shape="" offset="7384" size="4" />
			<output>
				<port id="0" precision="FP32" />
			</output>
		</layer>
		<layer id="285" name="/mask_decoder/transformer/layers.0/Add_output_0_QuantizeLinear_/mask_decoder/transformer/layers.0/Add_output_0_scale" type="Multiply" version="opset1">
			<data auto_broadcast="numpy" />
			<input>
				<port id="0" precision="FP32" />
				<port id="1" precision="FP32" />
			</input>
			<output>
				<port id="2" precision="FP32" names="/mask_decoder/transformer/layers.0/Add_output_0_scale" />
			</output>
		</layer>
		<layer id="286" name="Divide_12109" type="Divide" version="opset1">
			<data auto_broadcast="numpy" m_pythondiv="true" />
			<input>
				<port id="0" precision="FP32" />
				<port id="1" precision="FP32" />
			</input>
			<output>
				<port id="2" precision="FP32" />
			</output>
		</layer>
		<layer id="287" name="Round_12110" type="Round" version="opset5">
			<data mode="half_to_even" />
			<input>
				<port id="0" precision="FP32" />
			</input>
			<output>
				<port id="1" precision="FP32" />
			</output>
		</layer>
		<layer id="288" name="Clamp_12111" type="Clamp" version="opset1">
			<data min="0" max="255" />
			<input>
				<port id="0" precision="FP32" />
			</input>
			<output>
				<port id="1" precision="FP32" />
			</output>
		</layer>
		<layer id="289" name="/mask_decoder/transformer/layers.0/Add_output_0_QuantizeLinear_/mask_decoder/transformer/layers.0/Add_output_0_zero_point" type="Convert" version="opset1">
			<data destination_type="u8" />
			<input>
				<port id="0" precision="FP32" />
			</input>
			<output>
				<port id="1" precision="U8" names="/mask_decoder/transformer/layers.0/Add_output_0_zero_point" />
			</output>
		</layer>
		<layer id="290" name="Convert_12116" type="Convert" version="opset1">
			<data destination_type="f32" />
			<input>
				<port id="0" precision="U8" />
			</input>
			<output>
				<port id="1" precision="FP32" />
			</output>
		</layer>
		<layer id="291" name="Add_12117" type="Add" version="opset1">
			<data auto_broadcast="numpy" />
			<input>
				<port id="0" precision="FP32">
					<dim>-1</dim>
					<dim>7</dim>
					<dim>256</dim>
				</port>
				<port id="1" precision="FP32" />
			</input>
			<output>
				<port id="2" precision="FP32">
					<dim>-1</dim>
					<dim>7</dim>
					<dim>256</dim>
				</port>
			</output>
		</layer>
		<layer id="292" name="Clamp_12118" type="Clamp" version="opset1">
			<data min="0" max="255" />
			<input>
				<port id="0" precision="FP32">
					<dim>-1</dim>
					<dim>7</dim>
					<dim>256</dim>
				</port>
			</input>
			<output>
				<port id="1" precision="FP32">
					<dim>-1</dim>
					<dim>7</dim>
					<dim>256</dim>
				</port>
			</output>
		</layer>
		<layer id="293" name="/mask_decoder/transformer/layers.0/Add_output_0_QuantizeLinear_/mask_decoder/transformer/layers.0/Add_output_0_quantized" type="Convert" version="opset1">
			<data destination_type="u8" />
			<input>
				<port id="0" precision="FP32">
					<dim>-1</dim>
					<dim>7</dim>
					<dim>256</dim>
				</port>
			</input>
			<output>
				<port id="1" precision="U8" names="/mask_decoder/transformer/layers.0/Add_output_0_quantized">
					<dim>-1</dim>
					<dim>7</dim>
					<dim>256</dim>
				</port>
			</output>
		</layer>
		<layer id="294" name="Convert_12121" type="Convert" version="opset1">
			<data destination_type="i32" />
			<input>
				<port id="0" precision="U8">
					<dim>-1</dim>
					<dim>7</dim>
					<dim>256</dim>
				</port>
			</input>
			<output>
				<port id="1" precision="I32">
					<dim>-1</dim>
					<dim>7</dim>
					<dim>256</dim>
				</port>
			</output>
		</layer>
		<layer id="295" name="Convert_12123" type="Convert" version="opset1">
			<data destination_type="i32" />
			<input>
				<port id="0" precision="U8" />
			</input>
			<output>
				<port id="1" precision="I32" />
			</output>
		</layer>
		<layer id="296" name="Subtract_12125" type="Subtract" version="opset1">
			<data auto_broadcast="numpy" />
			<input>
				<port id="0" precision="I32">
					<dim>-1</dim>
					<dim>7</dim>
					<dim>256</dim>
				</port>
				<port id="1" precision="I32" />
			</input>
			<output>
				<port id="2" precision="I32">
					<dim>-1</dim>
					<dim>7</dim>
					<dim>256</dim>
				</port>
			</output>
		</layer>
		<layer id="297" name="Transpose_23555" type="Const" version="opset1">
			<data element_type="i32" shape="128, 256" offset="1066912" size="131072" />
			<output>
				<port id="0" precision="I32">
					<dim>128</dim>
					<dim>256</dim>
				</port>
			</output>
		</layer>
		<layer id="298" name="/mask_decoder/transformer/layers.0/cross_attn_token_to_image/q_proj/MatMul_quant" type="MatMul" version="opset1">
			<data transpose_a="false" transpose_b="true" />
			<input>
				<port id="0" precision="I32">
					<dim>-1</dim>
					<dim>7</dim>
					<dim>256</dim>
				</port>
				<port id="1" precision="I32">
					<dim>128</dim>
					<dim>256</dim>
				</port>
			</input>
			<output>
				<port id="2" precision="I32" names="/mask_decoder/transformer/layers.0/cross_attn_token_to_image/q_proj/MatMul_output_0_output_quantized">
					<dim>-1</dim>
					<dim>7</dim>
					<dim>128</dim>
				</port>
			</output>
		</layer>
		<layer id="299" name="/mask_decoder/transformer/layers.0/cross_attn_token_to_image/q_proj/MatMul_output_0_output_quantized_cast" type="Convert" version="opset1">
			<data destination_type="f32" />
			<input>
				<port id="0" precision="I32">
					<dim>-1</dim>
					<dim>7</dim>
					<dim>128</dim>
				</port>
			</input>
			<output>
				<port id="1" precision="FP32" names="/mask_decoder/transformer/layers.0/cross_attn_token_to_image/q_proj/MatMul_output_0_output_quantized_cast_output">
					<dim>-1</dim>
					<dim>7</dim>
					<dim>128</dim>
				</port>
			</output>
		</layer>
		<layer id="300" name="onnx::MatMul_1630_scale" type="Const" version="opset1">
			<data element_type="f32" shape="" offset="1197984" size="4" />
			<output>
				<port id="0" precision="FP32" names="onnx::MatMul_1630_scale" />
			</output>
		</layer>
		<layer id="301" name="/mask_decoder/transformer/layers.0/cross_attn_token_to_image/q_proj/MatMul_quant_scales_mul" type="Multiply" version="opset1">
			<data auto_broadcast="numpy" />
			<input>
				<port id="0" precision="FP32" />
				<port id="1" precision="FP32" />
			</input>
			<output>
				<port id="2" precision="FP32" names="/mask_decoder/transformer/layers.0/cross_attn_token_to_image/q_proj/MatMul_quant_scales_mul:0" />
			</output>
		</layer>
		<layer id="302" name="/mask_decoder/transformer/layers.0/cross_attn_token_to_image/q_proj/MatMul_quant_output_scale_mul" type="Multiply" version="opset1">
			<data auto_broadcast="numpy" />
			<input>
				<port id="0" precision="FP32">
					<dim>-1</dim>
					<dim>7</dim>
					<dim>128</dim>
				</port>
				<port id="1" precision="FP32" />
			</input>
			<output>
				<port id="2" precision="FP32" names="/mask_decoder/transformer/layers.0/cross_attn_token_to_image/q_proj/MatMul_output_0">
					<dim>-1</dim>
					<dim>7</dim>
					<dim>128</dim>
				</port>
			</output>
		</layer>
		<layer id="303" name="/mask_decoder/transformer/layers.0/cross_attn_token_to_image/q_proj/Add" type="Add" version="opset1">
			<data auto_broadcast="numpy" />
			<input>
				<port id="0" precision="FP32">
					<dim>1</dim>
					<dim>1</dim>
					<dim>128</dim>
				</port>
				<port id="1" precision="FP32">
					<dim>-1</dim>
					<dim>7</dim>
					<dim>128</dim>
				</port>
			</input>
			<output>
				<port id="2" precision="FP32" names="/mask_decoder/transformer/layers.0/cross_attn_token_to_image/q_proj/Add_output_0">
					<dim>-1</dim>
					<dim>7</dim>
					<dim>128</dim>
				</port>
			</output>
		</layer>
		<layer id="304" name="/mask_decoder/transformer/layers.0/cross_attn_token_to_image/Concat" type="Const" version="opset1">
			<data element_type="i64" shape="4" offset="1197988" size="32" />
			<output>
				<port id="0" precision="I64">
					<dim>4</dim>
				</port>
			</output>
		</layer>
		<layer id="305" name="/mask_decoder/transformer/layers.0/cross_attn_token_to_image/Reshape" type="Reshape" version="opset1">
			<data special_zero="true" />
			<input>
				<port id="0" precision="FP32">
					<dim>-1</dim>
					<dim>7</dim>
					<dim>128</dim>
				</port>
				<port id="1" precision="I64">
					<dim>4</dim>
				</port>
			</input>
			<output>
				<port id="2" precision="FP32" names="/mask_decoder/transformer/layers.0/cross_attn_token_to_image/Reshape_output_0">
					<dim>-1</dim>
					<dim>7</dim>
					<dim>8</dim>
					<dim>16</dim>
				</port>
			</output>
		</layer>
		<layer id="306" name="Constant_12140" type="Const" version="opset1">
			<data element_type="i64" shape="4" offset="274744" size="32" />
			<output>
				<port id="0" precision="I64">
					<dim>4</dim>
				</port>
			</output>
		</layer>
		<layer id="307" name="/mask_decoder/transformer/layers.0/cross_attn_token_to_image/Transpose" type="Transpose" version="opset1">
			<input>
				<port id="0" precision="FP32">
					<dim>-1</dim>
					<dim>7</dim>
					<dim>8</dim>
					<dim>16</dim>
				</port>
				<port id="1" precision="I64">
					<dim>4</dim>
				</port>
			</input>
			<output>
				<port id="2" precision="FP32" names="/mask_decoder/transformer/layers.0/cross_attn_token_to_image/Transpose_output_0">
					<dim>-1</dim>
					<dim>8</dim>
					<dim>7</dim>
					<dim>16</dim>
				</port>
			</output>
		</layer>
		<layer id="308" name="Constant_27987" type="Const" version="opset1">
			<data element_type="f32" shape="1, 1, 128" offset="1198020" size="512" />
			<output>
				<port id="0" precision="FP32">
					<dim>1</dim>
					<dim>1</dim>
					<dim>128</dim>
				</port>
			</output>
		</layer>
		<layer id="309" name="onnx::Expand_1614" type="Const" version="opset1">
			<data element_type="f32" shape="1, 256, 1, 1" offset="1198532" size="1024" />
			<output>
				<port id="0" precision="FP32" names="onnx::Expand_1614">
					<dim>1</dim>
					<dim>256</dim>
					<dim>1</dim>
					<dim>1</dim>
				</port>
			</output>
		</layer>
		<layer id="310" name="Add_22271" type="Add" version="opset1">
			<data auto_broadcast="numpy" />
			<input>
				<port id="0" precision="FP32">
					<dim>1</dim>
					<dim>256</dim>
					<dim>64</dim>
					<dim>64</dim>
				</port>
				<port id="1" precision="FP32">
					<dim>1</dim>
					<dim>256</dim>
					<dim>1</dim>
					<dim>1</dim>
				</port>
			</input>
			<output>
				<port id="2" precision="FP32">
					<dim>1</dim>
					<dim>256</dim>
					<dim>64</dim>
					<dim>64</dim>
				</port>
			</output>
		</layer>
		<layer id="311" name="ShapeOf_22272" type="ShapeOf" version="opset3">
			<data output_type="i64" />
			<input>
				<port id="0" precision="FP32">
					<dim>1</dim>
					<dim>256</dim>
					<dim>64</dim>
					<dim>64</dim>
				</port>
			</input>
			<output>
				<port id="1" precision="I64">
					<dim>4</dim>
				</port>
			</output>
		</layer>
		<layer id="312" name="ShapeOf_28549" type="ShapeOf" version="opset3">
			<data output_type="i64" />
			<input>
				<port id="0" precision="FP32">
					<dim>-1</dim>
					<dim>4</dim>
				</port>
			</input>
			<output>
				<port id="1" precision="I64">
					<dim>2</dim>
				</port>
			</output>
		</layer>
		<layer id="313" name="Constant_28550" type="Const" version="opset1">
			<data element_type="i64" shape="1" offset="7196" size="8" />
			<output>
				<port id="0" precision="I64">
					<dim>1</dim>
				</port>
			</output>
		</layer>
		<layer id="314" name="Constant_28551" type="Const" version="opset1">
			<data element_type="i64" shape="" offset="7196" size="8" />
			<output>
				<port id="0" precision="I64" />
			</output>
		</layer>
		<layer id="315" name="Gather_28552" type="Gather" version="opset8">
			<data batch_dims="0" />
			<input>
				<port id="0" precision="I64">
					<dim>2</dim>
				</port>
				<port id="1" precision="I64">
					<dim>1</dim>
				</port>
				<port id="2" precision="I64" />
			</input>
			<output>
				<port id="3" precision="I64" names="/prompt_encoder/Gather_output_0,/prompt_encoder/Unsqueeze_output_0">
					<dim>1</dim>
				</port>
			</output>
		</layer>
		<layer id="316" name="/prompt_encoder/Constant_75_output_0" type="Const" version="opset1">
			<data element_type="i64" shape="1" offset="1199556" size="8" />
			<output>
				<port id="0" precision="I64" names="/prompt_encoder/Constant_75_output_0">
					<dim>1</dim>
				</port>
			</output>
		</layer>
		<layer id="317" name="/prompt_encoder/Concat_15" type="Concat" version="opset1">
			<data axis="0" />
			<input>
				<port id="0" precision="I64">
					<dim>1</dim>
				</port>
				<port id="1" precision="I64">
					<dim>1</dim>
				</port>
				<port id="2" precision="I64">
					<dim>1</dim>
				</port>
				<port id="3" precision="I64">
					<dim>1</dim>
				</port>
			</input>
			<output>
				<port id="4" precision="I64" names="/prompt_encoder/Concat_15_output_0">
					<dim>4</dim>
				</port>
			</output>
		</layer>
		<layer id="318" name="/prompt_encoder/Mul_20_output_0" type="Const" version="opset1">
			<data element_type="i64" shape="4" offset="1199564" size="32" />
			<output>
				<port id="0" precision="I64" names="/prompt_encoder/Mul_20_output_0">
					<dim>4</dim>
				</port>
			</output>
		</layer>
		<layer id="319" name="/prompt_encoder/Equal_18" type="Equal" version="opset1">
			<data auto_broadcast="numpy" />
			<input>
				<port id="0" precision="I64">
					<dim>4</dim>
				</port>
				<port id="1" precision="I64">
					<dim>4</dim>
				</port>
			</input>
			<output>
				<port id="2" precision="BOOL" names="/prompt_encoder/Equal_18_output_0">
					<dim>4</dim>
				</port>
			</output>
		</layer>
		<layer id="320" name="/prompt_encoder/ConstantOfShape_19_output_0" type="Const" version="opset1">
			<data element_type="i64" shape="4" offset="1199596" size="32" />
			<output>
				<port id="0" precision="I64" names="/prompt_encoder/ConstantOfShape_19_output_0">
					<dim>4</dim>
				</port>
			</output>
		</layer>
		<layer id="321" name="/prompt_encoder/Where_18" type="Select" version="opset1">
			<data auto_broadcast="numpy" />
			<input>
				<port id="0" precision="BOOL">
					<dim>4</dim>
				</port>
				<port id="1" precision="I64">
					<dim>4</dim>
				</port>
				<port id="2" precision="I64">
					<dim>4</dim>
				</port>
			</input>
			<output>
				<port id="3" precision="I64" names="/prompt_encoder/Where_18_output_0">
					<dim>4</dim>
				</port>
			</output>
		</layer>
		<layer id="322" name="Maximum_22273" type="Maximum" version="opset1">
			<data auto_broadcast="numpy" />
			<input>
				<port id="0" precision="I64">
					<dim>4</dim>
				</port>
				<port id="1" precision="I64">
					<dim>4</dim>
				</port>
			</input>
			<output>
				<port id="2" precision="I64">
					<dim>4</dim>
				</port>
			</output>
		</layer>
		<layer id="323" name="/mask_decoder/Add" type="Broadcast" version="opset3">
			<data mode="numpy" />
			<input>
				<port id="0" precision="FP32">
					<dim>1</dim>
					<dim>256</dim>
					<dim>64</dim>
					<dim>64</dim>
				</port>
				<port id="1" precision="I64">
					<dim>4</dim>
				</port>
			</input>
			<output>
				<port id="2" precision="FP32" names="/mask_decoder/Add_output_0">
					<dim>-1</dim>
					<dim>256</dim>
					<dim>64</dim>
					<dim>64</dim>
				</port>
			</output>
		</layer>
		<layer id="324" name="Constant_28633" type="Const" version="opset1">
			<data element_type="i64" shape="3" offset="1199628" size="24" />
			<output>
				<port id="0" precision="I64">
					<dim>3</dim>
				</port>
			</output>
		</layer>
		<layer id="325" name="/mask_decoder/transformer/Reshape" type="Reshape" version="opset1">
			<data special_zero="true" />
			<input>
				<port id="0" precision="FP32">
					<dim>-1</dim>
					<dim>256</dim>
					<dim>64</dim>
					<dim>64</dim>
				</port>
				<port id="1" precision="I64">
					<dim>3</dim>
				</port>
			</input>
			<output>
				<port id="2" precision="FP32" names="/mask_decoder/transformer/Reshape_output_0">
					<dim>-1</dim>
					<dim>256</dim>
					<dim>4096</dim>
				</port>
			</output>
		</layer>
		<layer id="326" name="Constant_11431" type="Const" version="opset1">
			<data element_type="i64" shape="3" offset="7320" size="24" />
			<output>
				<port id="0" precision="I64">
					<dim>3</dim>
				</port>
			</output>
		</layer>
		<layer id="327" name="/mask_decoder/transformer/Transpose" type="Transpose" version="opset1">
			<input>
				<port id="0" precision="FP32">
					<dim>-1</dim>
					<dim>256</dim>
					<dim>4096</dim>
				</port>
				<port id="1" precision="I64">
					<dim>3</dim>
				</port>
			</input>
			<output>
				<port id="2" precision="FP32" names="/mask_decoder/transformer/Transpose_output_0">
					<dim>-1</dim>
					<dim>4096</dim>
					<dim>256</dim>
				</port>
			</output>
		</layer>
		<layer id="328" name="/mask_decoder/Unsqueeze_1_output_0" type="Const" version="opset1">
			<data element_type="f32" shape="1, 1, 256, 64, 64" offset="1199652" size="4194304" />
			<output>
				<port id="0" precision="FP32" names="/mask_decoder/Unsqueeze_1_output_0">
					<dim>1</dim>
					<dim>1</dim>
					<dim>256</dim>
					<dim>64</dim>
					<dim>64</dim>
				</port>
			</output>
		</layer>
		<layer id="329" name="Convert_11834" type="Const" version="opset1">
			<data element_type="i64" shape="1" offset="7204" size="8" />
			<output>
				<port id="0" precision="I64">
					<dim>1</dim>
				</port>
			</output>
		</layer>
		<layer id="330" name="Convert_11835" type="Const" version="opset1">
			<data element_type="i64" shape="" offset="5393956" size="8" />
			<output>
				<port id="0" precision="I64" />
			</output>
		</layer>
		<layer id="331" name="/mask_decoder/Concat_2" type="Concat" version="opset1">
			<data axis="0" />
			<input>
				<port id="0" precision="I64">
					<dim>1</dim>
				</port>
				<port id="1" precision="I64">
					<dim>1</dim>
				</port>
			</input>
			<output>
				<port id="2" precision="I64" names="/mask_decoder/Concat_2_output_0">
					<dim>2</dim>
				</port>
			</output>
		</layer>
		<layer id="332" name="Constant_11836" type="Const" version="opset1">
			<data element_type="i64" shape="" offset="7196" size="8" />
			<output>
				<port id="0" precision="I64" />
			</output>
		</layer>
		<layer id="333" name="Split_11837" type="Split" version="opset1">
			<data num_splits="2" />
			<input>
				<port id="0" precision="I64">
					<dim>2</dim>
				</port>
				<port id="1" precision="I64" />
			</input>
			<output>
				<port id="2" precision="I64">
					<dim>1</dim>
				</port>
				<port id="3" precision="I64">
					<dim>1</dim>
				</port>
			</output>
		</layer>
		<layer id="334" name="Squeeze_28569" type="Squeeze" version="opset1">
			<input>
				<port id="0" precision="I64">
					<dim>1</dim>
				</port>
			</input>
			<output>
				<port id="1" precision="I64" />
			</output>
		</layer>
		<layer id="335" name="/mask_decoder/OneHot" type="OneHot" version="opset1">
			<data axis="1" />
			<input>
				<port id="0" precision="I64">
					<dim>1</dim>
				</port>
				<port id="1" precision="I64" />
				<port id="2" precision="I64" />
				<port id="3" precision="I64" />
			</input>
			<output>
				<port id="4" precision="I64" names="/mask_decoder/OneHot_output_0">
					<dim>1</dim>
					<dim>5</dim>
				</port>
			</output>
		</layer>
		<layer id="336" name="Constant_17000" type="Const" version="opset1">
			<data element_type="i64" shape="1" offset="7212" size="8" />
			<output>
				<port id="0" precision="I64">
					<dim>1</dim>
				</port>
			</output>
		</layer>
		<layer id="337" name="/mask_decoder/Reshape_2" type="Reshape" version="opset1">
			<data special_zero="true" />
			<input>
				<port id="0" precision="I64">
					<dim>1</dim>
					<dim>5</dim>
				</port>
				<port id="1" precision="I64">
					<dim>1</dim>
				</port>
			</input>
			<output>
				<port id="2" precision="I64" names="/mask_decoder/Reshape_2_output_0">
					<dim>5</dim>
				</port>
			</output>
		</layer>
		<layer id="338" name="/mask_decoder/Tile" type="Tile" version="opset1">
			<input>
				<port id="0" precision="FP32">
					<dim>1</dim>
					<dim>1</dim>
					<dim>256</dim>
					<dim>64</dim>
					<dim>64</dim>
				</port>
				<port id="1" precision="I64">
					<dim>5</dim>
				</port>
			</input>
			<output>
				<port id="2" precision="FP32" names="/mask_decoder/Tile_output_0">
					<dim>-1</dim>
					<dim>-1</dim>
					<dim>-1</dim>
					<dim>-1</dim>
					<dim>-1</dim>
				</port>
			</output>
		</layer>
		<layer id="339" name="/mask_decoder/Shape_4" type="ShapeOf" version="opset3">
			<data output_type="i64" />
			<input>
				<port id="0" precision="FP32">
					<dim>-1</dim>
					<dim>-1</dim>
					<dim>-1</dim>
					<dim>-1</dim>
					<dim>-1</dim>
				</port>
			</input>
			<output>
				<port id="1" precision="I64" names="/mask_decoder/Shape_4_output_0">
					<dim>5</dim>
				</port>
			</output>
		</layer>
		<layer id="340" name="/mask_decoder/Constant_20_output_0" type="Const" version="opset1">
			<data element_type="i64" shape="1" offset="7308" size="8" />
			<output>
				<port id="0" precision="I64" names="/mask_decoder/Constant_20_output_0">
					<dim>1</dim>
				</port>
			</output>
		</layer>
		<layer id="341" name="/mask_decoder/Constant_21_output_0" type="Const" version="opset1">
			<data element_type="i64" shape="1" offset="5393956" size="8" />
			<output>
				<port id="0" precision="I64" names="/mask_decoder/Constant_21_output_0">
					<dim>1</dim>
				</port>
			</output>
		</layer>
		<layer id="342" name="Broadcast_11887" type="Const" version="opset1">
			<data element_type="i64" shape="1" offset="7204" size="8" />
			<output>
				<port id="0" precision="I64">
					<dim>1</dim>
				</port>
			</output>
		</layer>
		<layer id="343" name="/mask_decoder/Slice_2" type="Slice" version="opset8">
			<input>
				<port id="0" precision="I64">
					<dim>5</dim>
				</port>
				<port id="1" precision="I64">
					<dim>1</dim>
				</port>
				<port id="2" precision="I64">
					<dim>1</dim>
				</port>
				<port id="3" precision="I64">
					<dim>1</dim>
				</port>
				<port id="4" precision="I64">
					<dim>1</dim>
				</port>
			</input>
			<output>
				<port id="5" precision="I64" names="/mask_decoder/Slice_2_output_0">
					<dim>3</dim>
				</port>
			</output>
		</layer>
		<layer id="344" name="/mask_decoder/Concat_4" type="Concat" version="opset1">
			<data axis="0" />
			<input>
				<port id="0" precision="I64">
					<dim>1</dim>
				</port>
				<port id="1" precision="I64">
					<dim>3</dim>
				</port>
			</input>
			<output>
				<port id="2" precision="I64" names="/mask_decoder/Concat_4_output_0">
					<dim>4</dim>
				</port>
			</output>
		</layer>
		<layer id="345" name="/mask_decoder/Reshape_3" type="Reshape" version="opset1">
			<data special_zero="true" />
			<input>
				<port id="0" precision="FP32">
					<dim>-1</dim>
					<dim>-1</dim>
					<dim>-1</dim>
					<dim>-1</dim>
					<dim>-1</dim>
				</port>
				<port id="1" precision="I64">
					<dim>4</dim>
				</port>
			</input>
			<output>
				<port id="2" precision="FP32" names="/mask_decoder/Reshape_3_output_0">
					<dim>-1</dim>
					<dim>-1</dim>
					<dim>-1</dim>
					<dim>-1</dim>
				</port>
			</output>
		</layer>
		<layer id="346" name="Constant_28634" type="Const" version="opset1">
			<data element_type="i64" shape="3" offset="5393964" size="24" />
			<output>
				<port id="0" precision="I64">
					<dim>3</dim>
				</port>
			</output>
		</layer>
		<layer id="347" name="/mask_decoder/transformer/Reshape_1" type="Reshape" version="opset1">
			<data special_zero="true" />
			<input>
				<port id="0" precision="FP32">
					<dim>-1</dim>
					<dim>-1</dim>
					<dim>-1</dim>
					<dim>-1</dim>
				</port>
				<port id="1" precision="I64">
					<dim>3</dim>
				</port>
			</input>
			<output>
				<port id="2" precision="FP32" names="/mask_decoder/transformer/Reshape_1_output_0">
					<dim>-1</dim>
					<dim>-1</dim>
					<dim>-1</dim>
				</port>
			</output>
		</layer>
		<layer id="348" name="Constant_11920" type="Const" version="opset1">
			<data element_type="i64" shape="3" offset="7320" size="24" />
			<output>
				<port id="0" precision="I64">
					<dim>3</dim>
				</port>
			</output>
		</layer>
		<layer id="349" name="/mask_decoder/transformer/Transpose_1" type="Transpose" version="opset1">
			<input>
				<port id="0" precision="FP32">
					<dim>-1</dim>
					<dim>-1</dim>
					<dim>-1</dim>
				</port>
				<port id="1" precision="I64">
					<dim>3</dim>
				</port>
			</input>
			<output>
				<port id="2" precision="FP32" names="/mask_decoder/transformer/Transpose_1_output_0">
					<dim>-1</dim>
					<dim>-1</dim>
					<dim>-1</dim>
				</port>
			</output>
		</layer>
		<layer id="350" name="/mask_decoder/transformer/layers.0/Add_1" type="Add" version="opset1">
			<data auto_broadcast="numpy" />
			<input>
				<port id="0" precision="FP32">
					<dim>-1</dim>
					<dim>4096</dim>
					<dim>256</dim>
				</port>
				<port id="1" precision="FP32">
					<dim>-1</dim>
					<dim>-1</dim>
					<dim>-1</dim>
				</port>
			</input>
			<output>
				<port id="2" precision="FP32" names="/mask_decoder/transformer/layers.0/Add_1_output_0">
					<dim>-1</dim>
					<dim>4096</dim>
					<dim>256</dim>
				</port>
			</output>
		</layer>
		<layer id="351" name="Constant_27986" type="Const" version="opset1">
			<data element_type="f32" shape="1, 1, 1" offset="7352" size="4" />
			<output>
				<port id="0" precision="FP32">
					<dim>1</dim>
					<dim>1</dim>
					<dim>1</dim>
				</port>
			</output>
		</layer>
		<layer id="352" name="Multiply_11966" type="Multiply" version="opset1">
			<data auto_broadcast="numpy" />
			<input>
				<port id="0" precision="FP32">
					<dim>-1</dim>
					<dim>4096</dim>
					<dim>256</dim>
				</port>
				<port id="1" precision="FP32">
					<dim>1</dim>
					<dim>1</dim>
					<dim>1</dim>
				</port>
			</input>
			<output>
				<port id="2" precision="FP32">
					<dim>-1</dim>
					<dim>4096</dim>
					<dim>256</dim>
				</port>
			</output>
		</layer>
		<layer id="353" name="Constant_11946" type="Const" version="opset1">
			<data element_type="f32" shape="" offset="7356" size="4" />
			<output>
				<port id="0" precision="FP32" />
			</output>
		</layer>
		<layer id="354" name="Range_11942" type="Const" version="opset1">
			<data element_type="i64" shape="3" offset="7360" size="24" />
			<output>
				<port id="0" precision="I64">
					<dim>3</dim>
				</port>
			</output>
		</layer>
		<layer id="355" name="ReduceMax_11944" type="ReduceMax" version="opset1">
			<data keep_dims="false" />
			<input>
				<port id="0" precision="FP32">
					<dim>-1</dim>
					<dim>4096</dim>
					<dim>256</dim>
				</port>
				<port id="1" precision="I64">
					<dim>3</dim>
				</port>
			</input>
			<output>
				<port id="2" precision="FP32" />
			</output>
		</layer>
		<layer id="356" name="Maximum_11947" type="Maximum" version="opset1">
			<data auto_broadcast="numpy" />
			<input>
				<port id="0" precision="FP32" />
				<port id="1" precision="FP32" />
			</input>
			<output>
				<port id="2" precision="FP32" />
			</output>
		</layer>
		<layer id="357" name="Constant_11957" type="Const" version="opset1">
			<data element_type="f32" shape="" offset="7356" size="4" />
			<output>
				<port id="0" precision="FP32" />
			</output>
		</layer>
		<layer id="358" name="ReduceMin_11955" type="ReduceMin" version="opset1">
			<data keep_dims="false" />
			<input>
				<port id="0" precision="FP32">
					<dim>-1</dim>
					<dim>4096</dim>
					<dim>256</dim>
				</port>
				<port id="1" precision="I64">
					<dim>3</dim>
				</port>
			</input>
			<output>
				<port id="2" precision="FP32" />
			</output>
		</layer>
		<layer id="359" name="Minimum_11958" type="Minimum" version="opset1">
			<data auto_broadcast="numpy" />
			<input>
				<port id="0" precision="FP32" />
				<port id="1" precision="FP32" />
			</input>
			<output>
				<port id="2" precision="FP32" />
			</output>
		</layer>
		<layer id="360" name="Subtract_11959" type="Subtract" version="opset1">
			<data auto_broadcast="numpy" />
			<input>
				<port id="0" precision="FP32" />
				<port id="1" precision="FP32" />
			</input>
			<output>
				<port id="2" precision="FP32" />
			</output>
		</layer>
		<layer id="361" name="Divide_11967" type="Divide" version="opset1">
			<data auto_broadcast="numpy" m_pythondiv="true" />
			<input>
				<port id="0" precision="FP32">
					<dim>-1</dim>
					<dim>4096</dim>
					<dim>256</dim>
				</port>
				<port id="1" precision="FP32" />
			</input>
			<output>
				<port id="2" precision="FP32">
					<dim>-1</dim>
					<dim>4096</dim>
					<dim>256</dim>
				</port>
			</output>
		</layer>
		<layer id="362" name="Round_11968" type="Round" version="opset5">
			<data mode="half_to_even" />
			<input>
				<port id="0" precision="FP32">
					<dim>-1</dim>
					<dim>4096</dim>
					<dim>256</dim>
				</port>
			</input>
			<output>
				<port id="1" precision="FP32">
					<dim>-1</dim>
					<dim>4096</dim>
					<dim>256</dim>
				</port>
			</output>
		</layer>
		<layer id="363" name="Constant_11934" type="Const" version="opset1">
			<data element_type="f32" shape="" offset="7356" size="4" />
			<output>
				<port id="0" precision="FP32" />
			</output>
		</layer>
		<layer id="364" name="Subtract_11961" type="Subtract" version="opset1">
			<data auto_broadcast="numpy" />
			<input>
				<port id="0" precision="FP32" />
				<port id="1" precision="FP32" />
			</input>
			<output>
				<port id="2" precision="FP32" />
			</output>
		</layer>
		<layer id="365" name="Constant_15476" type="Const" version="opset1">
			<data element_type="f32" shape="" offset="7384" size="4" />
			<output>
				<port id="0" precision="FP32" />
			</output>
		</layer>
		<layer id="366" name="/mask_decoder/transformer/layers.0/Add_1_output_0_QuantizeLinear_/mask_decoder/transformer/layers.0/Add_1_output_0_scale" type="Multiply" version="opset1">
			<data auto_broadcast="numpy" />
			<input>
				<port id="0" precision="FP32" />
				<port id="1" precision="FP32" />
			</input>
			<output>
				<port id="2" precision="FP32" names="/mask_decoder/transformer/layers.0/Add_1_output_0_scale" />
			</output>
		</layer>
		<layer id="367" name="Divide_11962" type="Divide" version="opset1">
			<data auto_broadcast="numpy" m_pythondiv="true" />
			<input>
				<port id="0" precision="FP32" />
				<port id="1" precision="FP32" />
			</input>
			<output>
				<port id="2" precision="FP32" />
			</output>
		</layer>
		<layer id="368" name="Round_11963" type="Round" version="opset5">
			<data mode="half_to_even" />
			<input>
				<port id="0" precision="FP32" />
			</input>
			<output>
				<port id="1" precision="FP32" />
			</output>
		</layer>
		<layer id="369" name="Clamp_11964" type="Clamp" version="opset1">
			<data min="0" max="255" />
			<input>
				<port id="0" precision="FP32" />
			</input>
			<output>
				<port id="1" precision="FP32" />
			</output>
		</layer>
		<layer id="370" name="/mask_decoder/transformer/layers.0/Add_1_output_0_QuantizeLinear_/mask_decoder/transformer/layers.0/Add_1_output_0_zero_point" type="Convert" version="opset1">
			<data destination_type="u8" />
			<input>
				<port id="0" precision="FP32" />
			</input>
			<output>
				<port id="1" precision="U8" names="/mask_decoder/transformer/layers.0/Add_1_output_0_zero_point" />
			</output>
		</layer>
		<layer id="371" name="Convert_11969" type="Convert" version="opset1">
			<data destination_type="f32" />
			<input>
				<port id="0" precision="U8" />
			</input>
			<output>
				<port id="1" precision="FP32" />
			</output>
		</layer>
		<layer id="372" name="Add_11970" type="Add" version="opset1">
			<data auto_broadcast="numpy" />
			<input>
				<port id="0" precision="FP32">
					<dim>-1</dim>
					<dim>4096</dim>
					<dim>256</dim>
				</port>
				<port id="1" precision="FP32" />
			</input>
			<output>
				<port id="2" precision="FP32">
					<dim>-1</dim>
					<dim>4096</dim>
					<dim>256</dim>
				</port>
			</output>
		</layer>
		<layer id="373" name="Clamp_11971" type="Clamp" version="opset1">
			<data min="0" max="255" />
			<input>
				<port id="0" precision="FP32">
					<dim>-1</dim>
					<dim>4096</dim>
					<dim>256</dim>
				</port>
			</input>
			<output>
				<port id="1" precision="FP32">
					<dim>-1</dim>
					<dim>4096</dim>
					<dim>256</dim>
				</port>
			</output>
		</layer>
		<layer id="374" name="/mask_decoder/transformer/layers.0/Add_1_output_0_QuantizeLinear_/mask_decoder/transformer/layers.0/Add_1_output_0_quantized" type="Convert" version="opset1">
			<data destination_type="u8" />
			<input>
				<port id="0" precision="FP32">
					<dim>-1</dim>
					<dim>4096</dim>
					<dim>256</dim>
				</port>
			</input>
			<output>
				<port id="1" precision="U8" names="/mask_decoder/transformer/layers.0/Add_1_output_0_quantized">
					<dim>-1</dim>
					<dim>4096</dim>
					<dim>256</dim>
				</port>
			</output>
		</layer>
		<layer id="375" name="Convert_11978" type="Convert" version="opset1">
			<data destination_type="i32" />
			<input>
				<port id="0" precision="U8">
					<dim>-1</dim>
					<dim>4096</dim>
					<dim>256</dim>
				</port>
			</input>
			<output>
				<port id="1" precision="I32">
					<dim>-1</dim>
					<dim>4096</dim>
					<dim>256</dim>
				</port>
			</output>
		</layer>
		<layer id="376" name="Convert_11980" type="Convert" version="opset1">
			<data destination_type="i32" />
			<input>
				<port id="0" precision="U8" />
			</input>
			<output>
				<port id="1" precision="I32" />
			</output>
		</layer>
		<layer id="377" name="Subtract_11982" type="Subtract" version="opset1">
			<data auto_broadcast="numpy" />
			<input>
				<port id="0" precision="I32">
					<dim>-1</dim>
					<dim>4096</dim>
					<dim>256</dim>
				</port>
				<port id="1" precision="I32" />
			</input>
			<output>
				<port id="2" precision="I32">
					<dim>-1</dim>
					<dim>4096</dim>
					<dim>256</dim>
				</port>
			</output>
		</layer>
		<layer id="378" name="Transpose_23764" type="Const" version="opset1">
			<data element_type="i32" shape="128, 256" offset="5393988" size="131072" />
			<output>
				<port id="0" precision="I32">
					<dim>128</dim>
					<dim>256</dim>
				</port>
			</output>
		</layer>
		<layer id="379" name="/mask_decoder/transformer/layers.0/cross_attn_token_to_image/k_proj/MatMul_quant" type="MatMul" version="opset1">
			<data transpose_a="false" transpose_b="true" />
			<input>
				<port id="0" precision="I32">
					<dim>-1</dim>
					<dim>4096</dim>
					<dim>256</dim>
				</port>
				<port id="1" precision="I32">
					<dim>128</dim>
					<dim>256</dim>
				</port>
			</input>
			<output>
				<port id="2" precision="I32" names="/mask_decoder/transformer/layers.0/cross_attn_token_to_image/k_proj/MatMul_output_0_output_quantized">
					<dim>-1</dim>
					<dim>4096</dim>
					<dim>128</dim>
				</port>
			</output>
		</layer>
		<layer id="380" name="/mask_decoder/transformer/layers.0/cross_attn_token_to_image/k_proj/MatMul_output_0_output_quantized_cast" type="Convert" version="opset1">
			<data destination_type="f32" />
			<input>
				<port id="0" precision="I32">
					<dim>-1</dim>
					<dim>4096</dim>
					<dim>128</dim>
				</port>
			</input>
			<output>
				<port id="1" precision="FP32" names="/mask_decoder/transformer/layers.0/cross_attn_token_to_image/k_proj/MatMul_output_0_output_quantized_cast_output">
					<dim>-1</dim>
					<dim>4096</dim>
					<dim>128</dim>
				</port>
			</output>
		</layer>
		<layer id="381" name="onnx::MatMul_1631_scale" type="Const" version="opset1">
			<data element_type="f32" shape="" offset="5525060" size="4" />
			<output>
				<port id="0" precision="FP32" names="onnx::MatMul_1631_scale" />
			</output>
		</layer>
		<layer id="382" name="/mask_decoder/transformer/layers.0/cross_attn_token_to_image/k_proj/MatMul_quant_scales_mul" type="Multiply" version="opset1">
			<data auto_broadcast="numpy" />
			<input>
				<port id="0" precision="FP32" />
				<port id="1" precision="FP32" />
			</input>
			<output>
				<port id="2" precision="FP32" names="/mask_decoder/transformer/layers.0/cross_attn_token_to_image/k_proj/MatMul_quant_scales_mul:0" />
			</output>
		</layer>
		<layer id="383" name="/mask_decoder/transformer/layers.0/cross_attn_token_to_image/k_proj/MatMul_quant_output_scale_mul" type="Multiply" version="opset1">
			<data auto_broadcast="numpy" />
			<input>
				<port id="0" precision="FP32">
					<dim>-1</dim>
					<dim>4096</dim>
					<dim>128</dim>
				</port>
				<port id="1" precision="FP32" />
			</input>
			<output>
				<port id="2" precision="FP32" names="/mask_decoder/transformer/layers.0/cross_attn_token_to_image/k_proj/MatMul_output_0">
					<dim>-1</dim>
					<dim>4096</dim>
					<dim>128</dim>
				</port>
			</output>
		</layer>
		<layer id="384" name="/mask_decoder/transformer/layers.0/cross_attn_token_to_image/k_proj/Add" type="Add" version="opset1">
			<data auto_broadcast="numpy" />
			<input>
				<port id="0" precision="FP32">
					<dim>1</dim>
					<dim>1</dim>
					<dim>128</dim>
				</port>
				<port id="1" precision="FP32">
					<dim>-1</dim>
					<dim>4096</dim>
					<dim>128</dim>
				</port>
			</input>
			<output>
				<port id="2" precision="FP32" names="/mask_decoder/transformer/layers.0/cross_attn_token_to_image/k_proj/Add_output_0">
					<dim>-1</dim>
					<dim>4096</dim>
					<dim>128</dim>
				</port>
			</output>
		</layer>
		<layer id="385" name="/mask_decoder/transformer/layers.0/cross_attn_token_to_image/Concat_1" type="Const" version="opset1">
			<data element_type="i64" shape="4" offset="1197988" size="32" />
			<output>
				<port id="0" precision="I64">
					<dim>4</dim>
				</port>
			</output>
		</layer>
		<layer id="386" name="/mask_decoder/transformer/layers.0/cross_attn_token_to_image/Reshape_1" type="Reshape" version="opset1">
			<data special_zero="true" />
			<input>
				<port id="0" precision="FP32">
					<dim>-1</dim>
					<dim>4096</dim>
					<dim>128</dim>
				</port>
				<port id="1" precision="I64">
					<dim>4</dim>
				</port>
			</input>
			<output>
				<port id="2" precision="FP32" names="/mask_decoder/transformer/layers.0/cross_attn_token_to_image/Reshape_1_output_0">
					<dim>-1</dim>
					<dim>4096</dim>
					<dim>8</dim>
					<dim>16</dim>
				</port>
			</output>
		</layer>
		<layer id="387" name="Constant_12076" type="Const" version="opset1">
			<data element_type="i64" shape="4" offset="537948" size="32" />
			<output>
				<port id="0" precision="I64">
					<dim>4</dim>
				</port>
			</output>
		</layer>
		<layer id="388" name="/mask_decoder/transformer/layers.0/cross_attn_token_to_image/Transpose_2" type="Transpose" version="opset1">
			<input>
				<port id="0" precision="FP32">
					<dim>-1</dim>
					<dim>4096</dim>
					<dim>8</dim>
					<dim>16</dim>
				</port>
				<port id="1" precision="I64">
					<dim>4</dim>
				</port>
			</input>
			<output>
				<port id="2" precision="FP32" names="/mask_decoder/transformer/layers.0/cross_attn_token_to_image/Transpose_2_output_0">
					<dim>-1</dim>
					<dim>8</dim>
					<dim>16</dim>
					<dim>4096</dim>
				</port>
			</output>
		</layer>
		<layer id="389" name="/mask_decoder/transformer/layers.0/cross_attn_token_to_image/MatMul" type="MatMul" version="opset1">
			<data transpose_a="false" transpose_b="false" />
			<input>
				<port id="0" precision="FP32">
					<dim>-1</dim>
					<dim>8</dim>
					<dim>7</dim>
					<dim>16</dim>
				</port>
				<port id="1" precision="FP32">
					<dim>-1</dim>
					<dim>8</dim>
					<dim>16</dim>
					<dim>4096</dim>
				</port>
			</input>
			<output>
				<port id="2" precision="FP32" names="/mask_decoder/transformer/layers.0/cross_attn_token_to_image/MatMul_output_0">
					<dim>-1</dim>
					<dim>8</dim>
					<dim>7</dim>
					<dim>4096</dim>
				</port>
			</output>
		</layer>
		<layer id="390" name="Constant_27988" type="Const" version="opset1">
			<data element_type="f32" shape="1, 1, 1, 1" offset="5525064" size="4" />
			<output>
				<port id="0" precision="FP32">
					<dim>1</dim>
					<dim>1</dim>
					<dim>1</dim>
					<dim>1</dim>
				</port>
			</output>
		</layer>
		<layer id="391" name="/mask_decoder/transformer/layers.0/cross_attn_token_to_image/Div_3" type="Multiply" version="opset1">
			<data auto_broadcast="numpy" />
			<input>
				<port id="0" precision="FP32">
					<dim>-1</dim>
					<dim>8</dim>
					<dim>7</dim>
					<dim>4096</dim>
				</port>
				<port id="1" precision="FP32">
					<dim>1</dim>
					<dim>1</dim>
					<dim>1</dim>
					<dim>1</dim>
				</port>
			</input>
			<output>
				<port id="2" precision="FP32" names="/mask_decoder/transformer/layers.0/cross_attn_token_to_image/Div_3_output_0">
					<dim>-1</dim>
					<dim>8</dim>
					<dim>7</dim>
					<dim>4096</dim>
				</port>
			</output>
		</layer>
		<layer id="392" name="/mask_decoder/transformer/layers.0/cross_attn_token_to_image/Softmax" type="SoftMax" version="opset8">
			<data axis="-1" />
			<input>
				<port id="0" precision="FP32">
					<dim>-1</dim>
					<dim>8</dim>
					<dim>7</dim>
					<dim>4096</dim>
				</port>
			</input>
			<output>
				<port id="1" precision="FP32" names="/mask_decoder/transformer/layers.0/cross_attn_token_to_image/Softmax_output_0">
					<dim>-1</dim>
					<dim>8</dim>
					<dim>7</dim>
					<dim>4096</dim>
				</port>
			</output>
		</layer>
		<layer id="393" name="Constant_27990" type="Const" version="opset1">
			<data element_type="f32" shape="1, 1, 128" offset="5525068" size="512" />
			<output>
				<port id="0" precision="FP32">
					<dim>1</dim>
					<dim>1</dim>
					<dim>128</dim>
				</port>
…
		<edge from-layer="1200" from-port="2" to-layer="1201" to-port="0" />
		<edge from-layer="1201" from-port="1" to-layer="1211" to-port="0" />
		<edge from-layer="1202" from-port="0" to-layer="1203" to-port="0" />
		<edge from-layer="1203" from-port="2" to-layer="1206" to-port="0" />
		<edge from-layer="1204" from-port="0" to-layer="1205" to-port="1" />
		<edge from-layer="1205" from-port="2" to-layer="1206" to-port="1" />
		<edge from-layer="1205" from-port="2" to-layer="1221" to-port="0" />
		<edge from-layer="1206" from-port="2" to-layer="1207" to-port="0" />
		<edge from-layer="1207" from-port="1" to-layer="1208" to-port="0" />
		<edge from-layer="1208" from-port="1" to-layer="1209" to-port="0" />
		<edge from-layer="1209" from-port="1" to-layer="1210" to-port="0" />
		<edge from-layer="1209" from-port="1" to-layer="1215" to-port="0" />
		<edge from-layer="1210" from-port="1" to-layer="1211" to-port="1" />
		<edge from-layer="1211" from-port="2" to-layer="1212" to-port="0" />
		<edge from-layer="1212" from-port="1" to-layer="1213" to-port="0" />
		<edge from-layer="1213" from-port="1" to-layer="1214" to-port="0" />
		<edge from-layer="1214" from-port="1" to-layer="1216" to-port="0" />
		<edge from-layer="1215" from-port="1" to-layer="1216" to-port="1" />
		<edge from-layer="1216" from-port="2" to-layer="1218" to-port="0" />
		<edge from-layer="1217" from-port="0" to-layer="1218" to-port="1" />
		<edge from-layer="1218" from-port="2" to-layer="1219" to-port="0" />
		<edge from-layer="1219" from-port="1" to-layer="1222" to-port="0" />
		<edge from-layer="1220" from-port="0" to-layer="1221" to-port="1" />
		<edge from-layer="1221" from-port="2" to-layer="1222" to-port="1" />
		<edge from-layer="1222" from-port="2" to-layer="1223" to-port="1" />
		<edge from-layer="1223" from-port="2" to-layer="1225" to-port="0" />
		<edge from-layer="1224" from-port="0" to-layer="1225" to-port="1" />
		<edge from-layer="1225" from-port="2" to-layer="1227" to-port="0" />
		<edge from-layer="1226" from-port="0" to-layer="1227" to-port="1" />
		<edge from-layer="1227" from-port="2" to-layer="1228" to-port="1" />
		<edge from-layer="1228" from-port="2" to-layer="1230" to-port="0" />
		<edge from-layer="1229" from-port="0" to-layer="1230" to-port="1" />
		<edge from-layer="1230" from-port="2" to-layer="1231" to-port="0" />
		<edge from-layer="1231" from-port="1" to-layer="1271" to-port="0" />
		<edge from-layer="1232" from-port="0" to-layer="1266" to-port="0" />
		<edge from-layer="1233" from-port="0" to-layer="1234" to-port="1" />
		<edge from-layer="1234" from-port="2" to-layer="1243" to-port="0" />
		<edge from-layer="1235" from-port="0" to-layer="1238" to-port="0" />
		<edge from-layer="1236" from-port="0" to-layer="1237" to-port="1" />
		<edge from-layer="1236" from-port="0" to-layer="1240" to-port="1" />
		<edge from-layer="1237" from-port="2" to-layer="1238" to-port="1" />
		<edge from-layer="1238" from-port="2" to-layer="1242" to-port="0" />
		<edge from-layer="1239" from-port="0" to-layer="1241" to-port="0" />
		<edge from-layer="1240" from-port="2" to-layer="1241" to-port="1" />
		<edge from-layer="1241" from-port="2" to-layer="1242" to-port="1" />
		<edge from-layer="1241" from-port="2" to-layer="1246" to-port="1" />
		<edge from-layer="1242" from-port="2" to-layer="1248" to-port="0" />
		<edge from-layer="1242" from-port="2" to-layer="1243" to-port="1" />
		<edge from-layer="1243" from-port="2" to-layer="1244" to-port="0" />
		<edge from-layer="1244" from-port="1" to-layer="1254" to-port="0" />
		<edge from-layer="1245" from-port="0" to-layer="1246" to-port="0" />
		<edge from-layer="1246" from-port="2" to-layer="1249" to-port="0" />
		<edge from-layer="1247" from-port="0" to-layer="1248" to-port="1" />
		<edge from-layer="1248" from-port="2" to-layer="1264" to-port="0" />
		<edge from-layer="1248" from-port="2" to-layer="1249" to-port="1" />
		<edge from-layer="1248" from-port="2" to-layer="1766" to-port="1" />
		<edge from-layer="1249" from-port="2" to-layer="1250" to-port="0" />
		<edge from-layer="1250" from-port="1" to-layer="1251" to-port="0" />
		<edge from-layer="1251" from-port="1" to-layer="1252" to-port="0" />
		<edge from-layer="1252" from-port="1" to-layer="1258" to-port="0" />
		<edge from-layer="1252" from-port="1" to-layer="1253" to-port="0" />
		<edge from-layer="1253" from-port="1" to-layer="1254" to-port="1" />
		<edge from-layer="1253" from-port="1" to-layer="1765" to-port="1" />
		<edge from-layer="1254" from-port="2" to-layer="1255" to-port="0" />
		<edge from-layer="1255" from-port="1" to-layer="1256" to-port="0" />
		<edge from-layer="1256" from-port="1" to-layer="1257" to-port="0" />
		<edge from-layer="1256" from-port="1" to-layer="1762" to-port="0" />
		<edge from-layer="1257" from-port="1" to-layer="1259" to-port="0" />
		<edge from-layer="1258" from-port="1" to-layer="1259" to-port="1" />
		<edge from-layer="1259" from-port="2" to-layer="1261" to-port="0" />
		<edge from-layer="1260" from-port="0" to-layer="1261" to-port="1" />
		<edge from-layer="1261" from-port="2" to-layer="1262" to-port="0" />
		<edge from-layer="1262" from-port="1" to-layer="1265" to-port="0" />
		<edge from-layer="1263" from-port="0" to-layer="1264" to-port="1" />
		<edge from-layer="1264" from-port="2" to-layer="1265" to-port="1" />
		<edge from-layer="1265" from-port="2" to-layer="1266" to-port="1" />
		<edge from-layer="1266" from-port="2" to-layer="1268" to-port="0" />
		<edge from-layer="1267" from-port="0" to-layer="1268" to-port="1" />
		<edge from-layer="1268" from-port="2" to-layer="1270" to-port="0" />
		<edge from-layer="1269" from-port="0" to-layer="1270" to-port="1" />
		<edge from-layer="1270" from-port="2" to-layer="1271" to-port="1" />
		<edge from-layer="1271" from-port="2" to-layer="1273" to-port="0" />
		<edge from-layer="1272" from-port="0" to-layer="1273" to-port="1" />
		<edge from-layer="1273" from-port="2" to-layer="1275" to-port="0" />
		<edge from-layer="1274" from-port="0" to-layer="1275" to-port="1" />
		<edge from-layer="1275" from-port="2" to-layer="1280" to-port="0" />
		<edge from-layer="1275" from-port="2" to-layer="1283" to-port="0" />
		<edge from-layer="1275" from-port="2" to-layer="1277" to-port="0" />
		<edge from-layer="1276" from-port="0" to-layer="1277" to-port="1" />
		<edge from-layer="1277" from-port="2" to-layer="1286" to-port="0" />
		<edge from-layer="1278" from-port="0" to-layer="1281" to-port="0" />
		<edge from-layer="1279" from-port="0" to-layer="1283" to-port="1" />
		<edge from-layer="1279" from-port="0" to-layer="1280" to-port="1" />
		<edge from-layer="1280" from-port="2" to-layer="1281" to-port="1" />
		<edge from-layer="1281" from-port="2" to-layer="1285" to-port="0" />
		<edge from-layer="1282" from-port="0" to-layer="1284" to-port="0" />
		<edge from-layer="1283" from-port="2" to-layer="1284" to-port="1" />
		<edge from-layer="1284" from-port="2" to-layer="1289" to-port="1" />
		<edge from-layer="1284" from-port="2" to-layer="1285" to-port="1" />
		<edge from-layer="1285" from-port="2" to-layer="1291" to-port="0" />
		<edge from-layer="1285" from-port="2" to-layer="1286" to-port="1" />
		<edge from-layer="1286" from-port="2" to-layer="1287" to-port="0" />
		<edge from-layer="1287" from-port="1" to-layer="1297" to-port="0" />
		<edge from-layer="1288" from-port="0" to-layer="1289" to-port="0" />
		<edge from-layer="1289" from-port="2" to-layer="1292" to-port="0" />
		<edge from-layer="1290" from-port="0" to-layer="1291" to-port="1" />
		<edge from-layer="1291" from-port="2" to-layer="1292" to-port="1" />
		<edge from-layer="1291" from-port="2" to-layer="1307" to-port="0" />
		<edge from-layer="1292" from-port="2" to-layer="1293" to-port="0" />
		<edge from-layer="1293" from-port="1" to-layer="1294" to-port="0" />
		<edge from-layer="1294" from-port="1" to-layer="1295" to-port="0" />
		<edge from-layer="1295" from-port="1" to-layer="1301" to-port="0" />
		<edge from-layer="1295" from-port="1" to-layer="1296" to-port="0" />
		<edge from-layer="1296" from-port="1" to-layer="1297" to-port="1" />
		<edge from-layer="1297" from-port="2" to-layer="1298" to-port="0" />
		<edge from-layer="1298" from-port="1" to-layer="1299" to-port="0" />
		<edge from-layer="1299" from-port="1" to-layer="1300" to-port="0" />
		<edge from-layer="1300" from-port="1" to-layer="1302" to-port="0" />
		<edge from-layer="1301" from-port="1" to-layer="1302" to-port="1" />
		<edge from-layer="1302" from-port="2" to-layer="1304" to-port="0" />
		<edge from-layer="1303" from-port="0" to-layer="1304" to-port="1" />
		<edge from-layer="1304" from-port="2" to-layer="1305" to-port="0" />
		<edge from-layer="1305" from-port="1" to-layer="1308" to-port="0" />
		<edge from-layer="1306" from-port="0" to-layer="1307" to-port="1" />
		<edge from-layer="1307" from-port="2" to-layer="1308" to-port="1" />
		<edge from-layer="1308" from-port="2" to-layer="1309" to-port="1" />
		<edge from-layer="1309" from-port="2" to-layer="1310" to-port="1" />
		<edge from-layer="1310" from-port="2" to-layer="1312" to-port="0" />
		<edge from-layer="1311" from-port="0" to-layer="1312" to-port="1" />
		<edge from-layer="1312" from-port="2" to-layer="1314" to-port="0" />
		<edge from-layer="1313" from-port="0" to-layer="1314" to-port="1" />
		<edge from-layer="1314" from-port="2" to-layer="1316" to-port="0" />
		<edge from-layer="1315" from-port="0" to-layer="1316" to-port="1" />
		<edge from-layer="1316" from-port="2" to-layer="1317" to-port="0" />
		<edge from-layer="1317" from-port="5" to-layer="1429" to-port="0" />
		<edge from-layer="1317" from-port="5" to-layer="1540" to-port="0" />
		<edge from-layer="1317" from-port="5" to-layer="1651" to-port="0" />
		<edge from-layer="1317" from-port="5" to-layer="1319" to-port="0" />
		<edge from-layer="1318" from-port="0" to-layer="1319" to-port="2" />
		<edge from-layer="1319" from-port="3" to-layer="1321" to-port="0" />
		<edge from-layer="1319" from-port="3" to-layer="1324" to-port="0" />
		<edge from-layer="1319" from-port="3" to-layer="1327" to-port="0" />
		<edge from-layer="1320" from-port="0" to-layer="1321" to-port="1" />
		<edge from-layer="1321" from-port="2" to-layer="1330" to-port="0" />
		<edge from-layer="1322" from-port="0" to-layer="1325" to-port="0" />
		<edge from-layer="1323" from-port="0" to-layer="1324" to-port="1" />
		<edge from-layer="1323" from-port="0" to-layer="1327" to-port="1" />
		<edge from-layer="1324" from-port="2" to-layer="1325" to-port="1" />
		<edge from-layer="1325" from-port="2" to-layer="1329" to-port="0" />
		<edge from-layer="1326" from-port="0" to-layer="1328" to-port="0" />
		<edge from-layer="1327" from-port="2" to-layer="1328" to-port="1" />
		<edge from-layer="1328" from-port="2" to-layer="1329" to-port="1" />
		<edge from-layer="1328" from-port="2" to-layer="1333" to-port="1" />
		<edge from-layer="1329" from-port="2" to-layer="1330" to-port="1" />
		<edge from-layer="1329" from-port="2" to-layer="1335" to-port="0" />
		<edge from-layer="1330" from-port="2" to-layer="1331" to-port="0" />
		<edge from-layer="1331" from-port="1" to-layer="1341" to-port="0" />
		<edge from-layer="1332" from-port="0" to-layer="1333" to-port="0" />
		<edge from-layer="1333" from-port="2" to-layer="1336" to-port="0" />
		<edge from-layer="1334" from-port="0" to-layer="1335" to-port="1" />
		<edge from-layer="1335" from-port="2" to-layer="1351" to-port="0" />
		<edge from-layer="1335" from-port="2" to-layer="1336" to-port="1" />
		<edge from-layer="1336" from-port="2" to-layer="1337" to-port="0" />
		<edge from-layer="1337" from-port="1" to-layer="1338" to-port="0" />
		<edge from-layer="1338" from-port="1" to-layer="1339" to-port="0" />
		<edge from-layer="1339" from-port="1" to-layer="1340" to-port="0" />
		<edge from-layer="1339" from-port="1" to-layer="1345" to-port="0" />
		<edge from-layer="1340" from-port="1" to-layer="1341" to-port="1" />
		<edge from-layer="1341" from-port="2" to-layer="1342" to-port="0" />
		<edge from-layer="1342" from-port="1" to-layer="1343" to-port="0" />
		<edge from-layer="1343" from-port="1" to-layer="1344" to-port="0" />
		<edge from-layer="1344" from-port="1" to-layer="1346" to-port="0" />
		<edge from-layer="1345" from-port="1" to-layer="1346" to-port="1" />
		<edge from-layer="1346" from-port="2" to-layer="1348" to-port="0" />
		<edge from-layer="1347" from-port="0" to-layer="1348" to-port="1" />
		<edge from-layer="1348" from-port="2" to-layer="1349" to-port="0" />
		<edge from-layer="1349" from-port="1" to-layer="1352" to-port="0" />
		<edge from-layer="1350" from-port="0" to-layer="1351" to-port="1" />
		<edge from-layer="1351" from-port="2" to-layer="1352" to-port="1" />
		<edge from-layer="1352" from-port="2" to-layer="1354" to-port="0" />
		<edge from-layer="1353" from-port="0" to-layer="1354" to-port="1" />
		<edge from-layer="1354" from-port="2" to-layer="1355" to-port="0" />
		<edge from-layer="1355" from-port="1" to-layer="1357" to-port="0" />
		<edge from-layer="1355" from-port="1" to-layer="1360" to-port="0" />
		<edge from-layer="1355" from-port="1" to-layer="1363" to-port="0" />
		<edge from-layer="1356" from-port="0" to-layer="1357" to-port="1" />
		<edge from-layer="1357" from-port="2" to-layer="1366" to-port="0" />
		<edge from-layer="1358" from-port="0" to-layer="1361" to-port="0" />
		<edge from-layer="1359" from-port="0" to-layer="1360" to-port="1" />
		<edge from-layer="1359" from-port="0" to-layer="1363" to-port="1" />
		<edge from-layer="1360" from-port="2" to-layer="1361" to-port="1" />
		<edge from-layer="1361" from-port="2" to-layer="1365" to-port="0" />
		<edge from-layer="1362" from-port="0" to-layer="1364" to-port="0" />
		<edge from-layer="1363" from-port="2" to-layer="1364" to-port="1" />
		<edge from-layer="1364" from-port="2" to-layer="1369" to-port="1" />
		<edge from-layer="1364" from-port="2" to-layer="1365" to-port="1" />
		<edge from-layer="1365" from-port="2" to-layer="1371" to-port="0" />
		<edge from-layer="1365" from-port="2" to-layer="1366" to-port="1" />
		<edge from-layer="1366" from-port="2" to-layer="1367" to-port="0" />
		<edge from-layer="1367" from-port="1" to-layer="1377" to-port="0" />
		<edge from-layer="1368" from-port="0" to-layer="1369" to-port="0" />
		<edge from-layer="1369" from-port="2" to-layer="1372" to-port="0" />
		<edge from-layer="1370" from-port="0" to-layer="1371" to-port="1" />
		<edge from-layer="1371" from-port="2" to-layer="1372" to-port="1" />
		<edge from-layer="1371" from-port="2" to-layer="1387" to-port="0" />
		<edge from-layer="1372" from-port="2" to-layer="1373" to-port="0" />
		<edge from-layer="1373" from-port="1" to-layer="1374" to-port="0" />
		<edge from-layer="1374" from-port="1" to-layer="1375" to-port="0" />
		<edge from-layer="1375" from-port="1" to-layer="1376" to-port="0" />
		<edge from-layer="1375" from-port="1" to-layer="1381" to-port="0" />
		<edge from-layer="1376" from-port="1" to-layer="1377" to-port="1" />
		<edge from-layer="1377" from-port="2" to-layer="1378" to-port="0" />
		<edge from-layer="1378" from-port="1" to-layer="1379" to-port="0" />
		<edge from-layer="1379" from-port="1" to-layer="1380" to-port="0" />
		<edge from-layer="1380" from-port="1" to-layer="1382" to-port="0" />
		<edge from-layer="1381" from-port="1" to-layer="1382" to-port="1" />
		<edge from-layer="1382" from-port="2" to-layer="1384" to-port="0" />
		<edge from-layer="1383" from-port="0" to-layer="1384" to-port="1" />
		<edge from-layer="1384" from-port="2" to-layer="1385" to-port="0" />
		<edge from-layer="1385" from-port="1" to-layer="1388" to-port="0" />
		<edge from-layer="1386" from-port="0" to-layer="1387" to-port="1" />
		<edge from-layer="1387" from-port="2" to-layer="1388" to-port="1" />
		<edge from-layer="1388" from-port="2" to-layer="1390" to-port="0" />
		<edge from-layer="1389" from-port="0" to-layer="1390" to-port="1" />
		<edge from-layer="1390" from-port="2" to-layer="1391" to-port="0" />
		<edge from-layer="1391" from-port="1" to-layer="1393" to-port="0" />
		<edge from-layer="1391" from-port="1" to-layer="1396" to-port="0" />
		<edge from-layer="1391" from-port="1" to-layer="1399" to-port="0" />
		<edge from-layer="1392" from-port="0" to-layer="1393" to-port="1" />
		<edge from-layer="1393" from-port="2" to-layer="1402" to-port="0" />
		<edge from-layer="1394" from-port="0" to-layer="1397" to-port="0" />
		<edge from-layer="1395" from-port="0" to-layer="1396" to-port="1" />
		<edge from-layer="1395" from-port="0" to-layer="1399" to-port="1" />
		<edge from-layer="1396" from-port="2" to-layer="1397" to-port="1" />
		<edge from-layer="1397" from-port="2" to-layer="1401" to-port="0" />
		<edge from-layer="1398" from-port="0" to-layer="1400" to-port="0" />
		<edge from-layer="1399" from-port="2" to-layer="1400" to-port="1" />
		<edge from-layer="1400" from-port="2" to-layer="1405" to-port="1" />
		<edge from-layer="1400" from-port="2" to-layer="1401" to-port="1" />
		<edge from-layer="1401" from-port="2" to-layer="1407" to-port="0" />
		<edge from-layer="1401" from-port="2" to-layer="1402" to-port="1" />
		<edge from-layer="1402" from-port="2" to-layer="1403" to-port="0" />
		<edge from-layer="1403" from-port="1" to-layer="1413" to-port="0" />
		<edge from-layer="1404" from-port="0" to-layer="1405" to-port="0" />
		<edge from-layer="1405" from-port="2" to-layer="1408" to-port="0" />
		<edge from-layer="1406" from-port="0" to-layer="1407" to-port="1" />
		<edge from-layer="1407" from-port="2" to-layer="1408" to-port="1" />
		<edge from-layer="1407" from-port="2" to-layer="1423" to-port="0" />
		<edge from-layer="1408" from-port="2" to-layer="1409" to-port="0" />
		<edge from-layer="1409" from-port="1" to-layer="1410" to-port="0" />
		<edge from-layer="1410" from-port="1" to-layer="1411" to-port="0" />
		<edge from-layer="1411" from-port="1" to-layer="1412" to-port="0" />
		<edge from-layer="1411" from-port="1" to-layer="1417" to-port="0" />
		<edge from-layer="1412" from-port="1" to-layer="1413" to-port="1" />
		<edge from-layer="1413" from-port="2" to-layer="1414" to-port="0" />
		<edge from-layer="1414" from-port="1" to-layer="1415" to-port="0" />
		<edge from-layer="1415" from-port="1" to-layer="1416" to-port="0" />
		<edge from-layer="1416" from-port="1" to-layer="1418" to-port="0" />
		<edge from-layer="1417" from-port="1" to-layer="1418" to-port="1" />
		<edge from-layer="1418" from-port="2" to-layer="1420" to-port="0" />
		<edge from-layer="1419" from-port="0" to-layer="1420" to-port="1" />
		<edge from-layer="1420" from-port="2" to-layer="1421" to-port="0" />
		<edge from-layer="1421" from-port="1" to-layer="1424" to-port="0" />
		<edge from-layer="1422" from-port="0" to-layer="1423" to-port="1" />
		<edge from-layer="1423" from-port="2" to-layer="1424" to-port="1" />
		<edge from-layer="1424" from-port="2" to-layer="1426" to-port="0" />
		<edge from-layer="1425" from-port="0" to-layer="1426" to-port="1" />
		<edge from-layer="1426" from-port="2" to-layer="1427" to-port="0" />
		<edge from-layer="1427" from-port="2" to-layer="1760" to-port="0" />
		<edge from-layer="1428" from-port="0" to-layer="1429" to-port="2" />
		<edge from-layer="1429" from-port="3" to-layer="1431" to-port="0" />
		<edge from-layer="1429" from-port="3" to-layer="1434" to-port="0" />
		<edge from-layer="1429" from-port="3" to-layer="1437" to-port="0" />
		<edge from-layer="1430" from-port="0" to-layer="1431" to-port="1" />
		<edge from-layer="1431" from-port="2" to-layer="1440" to-port="0" />
		<edge from-layer="1432" from-port="0" to-layer="1435" to-port="0" />
		<edge from-layer="1433" from-port="0" to-layer="1434" to-port="1" />
		<edge from-layer="1433" from-port="0" to-layer="1437" to-port="1" />
		<edge from-layer="1434" from-port="2" to-layer="1435" to-port="1" />
		<edge from-layer="1435" from-port="2" to-layer="1439" to-port="0" />
		<edge from-layer="1436" from-port="0" to-layer="1438" to-port="0" />
		<edge from-layer="1437" from-port="2" to-layer="1438" to-port="1" />
		<edge from-layer="1438" from-port="2" to-layer="1443" to-port="1" />
		<edge from-layer="1438" from-port="2" to-layer="1439" to-port="1" />
		<edge from-layer="1439" from-port="2" to-layer="1445" to-port="0" />
		<edge from-layer="1439" from-port="2" to-layer="1440" to-port="1" />
		<edge from-layer="1440" from-port="2" to-layer="1441" to-port="0" />
		<edge from-layer="1441" from-port="1" to-layer="1451" to-port="0" />
		<edge from-layer="1442" from-port="0" to-layer="1443" to-port="0" />
		<edge from-layer="1443" from-port="2" to-layer="1446" to-port="0" />
		<edge from-layer="1444" from-port="0" to-layer="1445" to-port="1" />
		<edge from-layer="1445" from-port="2" to-layer="1446" to-port="1" />
		<edge from-layer="1445" from-port="2" to-layer="1461" to-port="0" />
		<edge from-layer="1446" from-port="2" to-layer="1447" to-port="0" />
		<edge from-layer="1447" from-port="1" to-layer="1448" to-port="0" />
		<edge from-layer="1448" from-port="1" to-layer="1449" to-port="0" />
		<edge from-layer="1449" from-port="1" to-layer="1450" to-port="0" />
		<edge from-layer="1449" from-port="1" to-layer="1455" to-port="0" />
		<edge from-layer="1450" from-port="1" to-layer="1451" to-port="1" />
		<edge from-layer="1451" from-port="2" to-layer="1452" to-port="0" />
		<edge from-layer="1452" from-port="1" to-layer="1453" to-port="0" />
		<edge from-layer="1453" from-port="1" to-layer="1454" to-port="0" />
		<edge from-layer="1454" from-port="1" to-layer="1456" to-port="0" />
		<edge from-layer="1455" from-port="1" to-layer="1456" to-port="1" />
		<edge from-layer="1456" from-port="2" to-layer="1458" to-port="0" />
		<edge from-layer="1457" from-port="0" to-layer="1458" to-port="1" />
		<edge from-layer="1458" from-port="2" to-layer="1459" to-port="0" />
		<edge from-layer="1459" from-port="1" to-layer="1462" to-port="0" />
		<edge from-layer="1460" from-port="0" to-layer="1461" to-port="1" />
		<edge from-layer="1461" from-port="2" to-layer="1462" to-port="1" />
		<edge from-layer="1462" from-port="2" to-layer="1464" to-port="0" />
		<edge from-layer="1463" from-port="0" to-layer="1464" to-port="1" />
		<edge from-layer="1464" from-port="2" to-layer="1465" to-port="0" />
		<edge from-layer="1465" from-port="1" to-layer="1473" to-port="0" />
		<edge from-layer="1465" from-port="1" to-layer="1467" to-port="0" />
		<edge from-layer="1465" from-port="1" to-layer="1470" to-port="0" />
		<edge from-layer="1466" from-port="0" to-layer="1467" to-port="1" />
		<edge from-layer="1467" from-port="2" to-layer="1476" to-port="0" />
		<edge from-layer="1468" from-port="0" to-layer="1471" to-port="0" />
		<edge from-layer="1469" from-port="0" to-layer="1470" to-port="1" />
		<edge from-layer="1469" from-port="0" to-layer="1473" to-port="1" />
		<edge from-layer="1470" from-port="2" to-layer="1471" to-port="1" />
		<edge from-layer="1471" from-port="2" to-layer="1475" to-port="0" />
		<edge from-layer="1472" from-port="0" to-layer="1474" to-port="0" />
		<edge from-layer="1473" from-port="2" to-layer="1474" to-port="1" />
		<edge from-layer="1474" from-port="2" to-layer="1479" to-port="1" />
		<edge from-layer="1474" from-port="2" to-layer="1475" to-port="1" />
		<edge from-layer="1475" from-port="2" to-layer="1481" to-port="0" />
		<edge from-layer="1475" from-port="2" to-layer="1476" to-port="1" />
		<edge from-layer="1476" from-port="2" to-layer="1477" to-port="0" />
		<edge from-layer="1477" from-port="1" to-layer="1487" to-port="0" />
		<edge from-layer="1478" from-port="0" to-layer="1479" to-port="0" />
		<edge from-layer="1479" from-port="2" to-layer="1482" to-port="0" />
		<edge from-layer="1480" from-port="0" to-layer="1481" to-port="1" />
		<edge from-layer="1481" from-port="2" to-layer="1482" to-port="1" />
		<edge from-layer="1481" from-port="2" to-layer="1497" to-port="0" />
		<edge from-layer="1482" from-port="2" to-layer="1483" to-port="0" />
		<edge from-layer="1483" from-port="1" to-layer="1484" to-port="0" />
		<edge from-layer="1484" from-port="1" to-layer="1485" to-port="0" />
		<edge from-layer="1485" from-port="1" to-layer="1491" to-port="0" />
		<edge from-layer="1485" from-port="1" to-layer="1486" to-port="0" />
		<edge from-layer="1486" from-port="1" to-layer="1487" to-port="1" />
		<edge from-layer="1487" from-port="2" to-layer="1488" to-port="0" />
		<edge from-layer="1488" from-port="1" to-layer="1489" to-port="0" />
		<edge from-layer="1489" from-port="1" to-layer="1490" to-port="0" />
		<edge from-layer="1490" from-port="1" to-layer="1492" to-port="0" />
		<edge from-layer="1491" from-port="1" to-layer="1492" to-port="1" />
		<edge from-layer="1492" from-port="2" to-layer="1494" to-port="0" />
		<edge from-layer="1493" from-port="0" to-layer="1494" to-port="1" />
		<edge from-layer="1494" from-port="2" to-layer="1495" to-port="0" />
		<edge from-layer="1495" from-port="1" to-layer="1498" to-port="0" />
		<edge from-layer="1496" from-port="0" to-layer="1497" to-port="1" />
		<edge from-layer="1497" from-port="2" to-layer="1498" to-port="1" />
		<edge from-layer="1498" from-port="2" to-layer="1500" to-port="0" />
		<edge from-layer="1499" from-port="0" to-layer="1500" to-port="1" />
		<edge from-layer="1500" from-port="2" to-layer="1501" to-port="0" />
		<edge from-layer="1501" from-port="1" to-layer="1503" to-port="0" />
		<edge from-layer="1501" from-port="1" to-layer="1506" to-port="0" />
		<edge from-layer="1501" from-port="1" to-layer="1509" to-port="0" />
		<edge from-layer="1502" from-port="0" to-layer="1503" to-port="1" />
		<edge from-layer="1503" from-port="2" to-layer="1512" to-port="0" />
		<edge from-layer="1504" from-port="0" to-layer="1507" to-port="0" />
		<edge from-layer="1505" from-port="0" to-layer="1506" to-port="1" />
		<edge from-layer="1505" from-port="0" to-layer="1509" to-port="1" />
		<edge from-layer="1506" from-port="2" to-layer="1507" to-port="1" />
		<edge from-layer="1507" from-port="2" to-layer="1511" to-port="0" />
		<edge from-layer="1508" from-port="0" to-layer="1510" to-port="0" />
		<edge from-layer="1509" from-port="2" to-layer="1510" to-port="1" />
		<edge from-layer="1510" from-port="2" to-layer="1511" to-port="1" />
		<edge from-layer="1510" from-port="2" to-layer="1515" to-port="1" />
		<edge from-layer="1511" from-port="2" to-layer="1512" to-port="1" />
		<edge from-layer="1511" from-port="2" to-layer="1517" to-port="0" />
		<edge from-layer="1512" from-port="2" to-layer="1513" to-port="0" />
		<edge from-layer="1513" from-port="1" to-layer="1523" to-port="0" />
		<edge from-layer="1514" from-port="0" to-layer="1515" to-port="0" />
		<edge from-layer="1515" from-port="2" to-layer="1518" to-port="0" />
		<edge from-layer="1516" from-port="0" to-layer="1517" to-port="1" />
		<edge from-layer="1517" from-port="2" to-layer="1533" to-port="0" />
		<edge from-layer="1517" from-port="2" to-layer="1518" to-port="1" />
		<edge from-layer="1518" from-port="2" to-layer="1519" to-port="0" />
		<edge from-layer="1519" from-port="1" to-layer="1520" to-port="0" />
		<edge from-layer="1520" from-port="1" to-layer="1521" to-port="0" />
		<edge from-layer="1521" from-port="1" to-layer="1522" to-port="0" />
		<edge from-layer="1521" from-port="1" to-layer="1527" to-port="0" />
		<edge from-layer="1522" from-port="1" to-layer="1523" to-port="1" />
		<edge from-layer="1523" from-port="2" to-layer="1524" to-port="0" />
		<edge from-layer="1524" from-port="1" to-layer="1525" to-port="0" />
		<edge from-layer="1525" from-port="1" to-layer="1526" to-port="0" />
		<edge from-layer="1526" from-port="1" to-layer="1528" to-port="0" />
		<edge from-layer="1527" from-port="1" to-layer="1528" to-port="1" />
		<edge from-layer="1528" from-port="2" to-layer="1530" to-port="0" />
		<edge from-layer="1529" from-port="0" to-layer="1530" to-port="1" />
		<edge from-layer="1530" from-port="2" to-layer="1531" to-port="0" />
		<edge from-layer="1531" from-port="1" to-layer="1534" to-port="0" />
		<edge from-layer="1532" from-port="0" to-layer="1533" to-port="1" />
		<edge from-layer="1533" from-port="2" to-layer="1534" to-port="1" />
		<edge from-layer="1534" from-port="2" to-layer="1536" to-port="0" />
		<edge from-layer="1535" from-port="0" to-layer="1536" to-port="1" />
		<edge from-layer="1536" from-port="2" to-layer="1537" to-port="0" />
		<edge from-layer="1537" from-port="2" to-layer="1760" to-port="1" />
		<edge from-layer="1538" from-port="0" to-layer="1540" to-port="1" />
		<edge from-layer="1539" from-port="0" to-layer="1540" to-port="2" />
		<edge from-layer="1540" from-port="3" to-layer="1542" to-port="0" />
		<edge from-layer="1540" from-port="3" to-layer="1545" to-port="0" />
		<edge from-layer="1540" from-port="3" to-layer="1548" to-port="0" />
		<edge from-layer="1541" from-port="0" to-layer="1542" to-port="1" />
		<edge from-layer="1542" from-port="2" to-layer="1551" to-port="0" />
		<edge from-layer="1543" from-port="0" to-layer="1546" to-port="0" />
		<edge from-layer="1544" from-port="0" to-layer="1545" to-port="1" />
		<edge from-layer="1544" from-port="0" to-layer="1548" to-port="1" />
		<edge from-layer="1545" from-port="2" to-layer="1546" to-port="1" />
		<edge from-layer="1546" from-port="2" to-layer="1550" to-port="0" />
		<edge from-layer="1547" from-port="0" to-layer="1549" to-port="0" />
		<edge from-layer="1548" from-port="2" to-layer="1549" to-port="1" />
		<edge from-layer="1549" from-port="2" to-layer="1550" to-port="1" />
		<edge from-layer="1549" from-port="2" to-layer="1554" to-port="1" />
		<edge from-layer="1550" from-port="2" to-layer="1551" to-port="1" />
		<edge from-layer="1550" from-port="2" to-layer="1556" to-port="0" />
		<edge from-layer="1551" from-port="2" to-layer="1552" to-port="0" />
		<edge from-layer="1552" from-port="1" to-layer="1562" to-port="0" />
		<edge from-layer="1553" from-port="0" to-layer="1554" to-port="0" />
		<edge from-layer="1554" from-port="2" to-layer="1557" to-port="0" />
		<edge from-layer="1555" from-port="0" to-layer="1556" to-port="1" />
		<edge from-layer="1556" from-port="2" to-layer="1572" to-port="0" />
		<edge from-layer="1556" from-port="2" to-layer="1557" to-port="1" />
		<edge from-layer="1557" from-port="2" to-layer="1558" to-port="0" />
		<edge from-layer="1558" from-port="1" to-layer="1559" to-port="0" />
		<edge from-layer="1559" from-port="1" to-layer="1560" to-port="0" />
		<edge from-layer="1560" from-port="1" to-layer="1561" to-port="0" />
		<edge from-layer="1560" from-port="1" to-layer="1566" to-port="0" />
		<edge from-layer="1561" from-port="1" to-layer="1562" to-port="1" />
		<edge from-layer="1562" from-port="2" to-layer="1563" to-port="0" />
		<edge from-layer="1563" from-port="1" to-layer="1564" to-port="0" />
		<edge from-layer="1564" from-port="1" to-layer="1565" to-port="0" />
		<edge from-layer="1565" from-port="1" to-layer="1567" to-port="0" />
		<edge from-layer="1566" from-port="1" to-layer="1567" to-port="1" />
		<edge from-layer="1567" from-port="2" to-layer="1569" to-port="0" />
		<edge from-layer="1568" from-port="0" to-layer="1569" to-port="1" />
		<edge from-layer="1569" from-port="2" to-layer="1570" to-port="0" />
		<edge from-layer="1570" from-port="1" to-layer="1573" to-port="0" />
		<edge from-layer="1571" from-port="0" to-layer="1572" to-port="1" />
		<edge from-layer="1572" from-port="2" to-layer="1573" to-port="1" />
		<edge from-layer="1573" from-port="2" to-layer="1575" to-port="0" />
		<edge from-layer="1574" from-port="0" to-layer="1575" to-port="1" />
		<edge from-layer="1575" from-port="2" to-layer="1576" to-port="0" />
		<edge from-layer="1576" from-port="1" to-layer="1584" to-port="0" />
		<edge from-layer="1576" from-port="1" to-layer="1581" to-port="0" />
		<edge from-layer="1576" from-port="1" to-layer="1578" to-port="0" />
		<edge from-layer="1577" from-port="0" to-layer="1578" to-port="1" />
		<edge from-layer="1578" from-port="2" to-layer="1587" to-port="0" />
		<edge from-layer="1579" from-port="0" to-layer="1582" to-port="0" />
		<edge from-layer="1580" from-port="0" to-layer="1584" to-port="1" />
		<edge from-layer="1580" from-port="0" to-layer="1581" to-port="1" />
		<edge from-layer="1581" from-port="2" to-layer="1582" to-port="1" />
		<edge from-layer="1582" from-port="2" to-layer="1586" to-port="0" />
		<edge from-layer="1583" from-port="0" to-layer="1585" to-port="0" />
		<edge from-layer="1584" from-port="2" to-layer="1585" to-port="1" />
		<edge from-layer="1585" from-port="2" to-layer="1590" to-port="1" />
		<edge from-layer="1585" from-port="2" to-layer="1586" to-port="1" />
		<edge from-layer="1586" from-port="2" to-layer="1592" to-port="0" />
		<edge from-layer="1586" from-port="2" to-layer="1587" to-port="1" />
		<edge from-layer="1587" from-port="2" to-layer="1588" to-port="0" />
		<edge from-layer="1588" from-port="1" to-layer="1598" to-port="0" />
		<edge from-layer="1589" from-port="0" to-layer="1590" to-port="0" />
		<edge from-layer="1590" from-port="2" to-layer="1593" to-port="0" />
		<edge from-layer="1591" from-port="0" to-layer="1592" to-port="1" />
		<edge from-layer="1592" from-port="2" to-layer="1608" to-port="0" />
		<edge from-layer="1592" from-port="2" to-layer="1593" to-port="1" />
		<edge from-layer="1593" from-port="2" to-layer="1594" to-port="0" />
		<edge from-layer="1594" from-port="1" to-layer="1595" to-port="0" />
		<edge from-layer="1595" from-port="1" to-layer="1596" to-port="0" />
		<edge from-layer="1596" from-port="1" to-layer="1602" to-port="0" />
		<edge from-layer="1596" from-port="1" to-layer="1597" to-port="0" />
		<edge from-layer="1597" from-port="1" to-layer="1598" to-port="1" />
		<edge from-layer="1598" from-port="2" to-layer="1599" to-port="0" />
		<edge from-layer="1599" from-port="1" to-layer="1600" to-port="0" />
		<edge from-layer="1600" from-port="1" to-layer="1601" to-port="0" />
		<edge from-layer="1601" from-port="1" to-layer="1603" to-port="0" />
		<edge from-layer="1602" from-port="1" to-layer="1603" to-port="1" />
		<edge from-layer="1603" from-port="2" to-layer="1605" to-port="0" />
		<edge from-layer="1604" from-port="0" to-layer="1605" to-port="1" />
		<edge from-layer="1605" from-port="2" to-layer="1606" to-port="0" />
		<edge from-layer="1606" from-port="1" to-layer="1609" to-port="0" />
		<edge from-layer="1607" from-port="0" to-layer="1608" to-port="1" />
		<edge from-layer="1608" from-port="2" to-layer="1609" to-port="1" />
		<edge from-layer="1609" from-port="2" to-layer="1611" to-port="0" />
		<edge from-layer="1610" from-port="0" to-layer="1611" to-port="1" />
		<edge from-layer="1611" from-port="2" to-layer="1612" to-port="0" />
		<edge from-layer="1612" from-port="1" to-layer="1614" to-port="0" />
		<edge from-layer="1612" from-port="1" to-layer="1617" to-port="0" />
		<edge from-layer="1612" from-port="1" to-layer="1620" to-port="0" />
		<edge from-layer="1613" from-port="0" to-layer="1614" to-port="1" />
		<edge from-layer="1614" from-port="2" to-layer="1623" to-port="0" />
		<edge from-layer="1615" from-port="0" to-layer="1618" to-port="0" />
		<edge from-layer="1616" from-port="0" to-layer="1617" to-port="1" />
		<edge from-layer="1616" from-port="0" to-layer="1620" to-port="1" />
		<edge from-layer="1617" from-port="2" to-layer="1618" to-port="1" />
		<edge from-layer="1618" from-port="2" to-layer="1622" to-port="0" />
		<edge from-layer="1619" from-port="0" to-layer="1621" to-port="0" />
		<edge from-layer="1620" from-port="2" to-layer="1621" to-port="1" />
		<edge from-layer="1621" from-port="2" to-layer="1622" to-port="1" />
		<edge from-layer="1621" from-port="2" to-layer="1626" to-port="1" />
		<edge from-layer="1622" from-port="2" to-layer="1623" to-port="1" />
		<edge from-layer="1622" from-port="2" to-layer="1628" to-port="0" />
		<edge from-layer="1623" from-port="2" to-layer="1624" to-port="0" />
		<edge from-layer="1624" from-port="1" to-layer="1634" to-port="0" />
		<edge from-layer="1625" from-port="0" to-layer="1626" to-port="0" />
		<edge from-layer="1626" from-port="2" to-layer="1629" to-port="0" />
		<edge from-layer="1627" from-port="0" to-layer="1628" to-port="1" />
		<edge from-layer="1628" from-port="2" to-layer="1644" to-port="0" />
		<edge from-layer="1628" from-port="2" to-layer="1629" to-port="1" />
		<edge from-layer="1629" from-port="2" to-layer="1630" to-port="0" />
		<edge from-layer="1630" from-port="1" to-layer="1631" to-port="0" />
		<edge from-layer="1631" from-port="1" to-layer="1632" to-port="0" />
		<edge from-layer="1632" from-port="1" to-layer="1633" to-port="0" />
		<edge from-layer="1632" from-port="1" to-layer="1638" to-port="0" />
		<edge from-layer="1633" from-port="1" to-layer="1634" to-port="1" />
		<edge from-layer="1634" from-port="2" to-layer="1635" to-port="0" />
		<edge from-layer="1635" from-port="1" to-layer="1636" to-port="0" />
		<edge from-layer="1636" from-port="1" to-layer="1637" to-port="0" />
		<edge from-layer="1637" from-port="1" to-layer="1639" to-port="0" />
		<edge from-layer="1638" from-port="1" to-layer="1639" to-port="1" />
		<edge from-layer="1639" from-port="2" to-layer="1641" to-port="0" />
		<edge from-layer="1640" from-port="0" to-layer="1641" to-port="1" />
		<edge from-layer="1641" from-port="2" to-layer="1642" to-port="0" />
		<edge from-layer="1642" from-port="1" to-layer="1645" to-port="0" />
		<edge from-layer="1643" from-port="0" to-layer="1644" to-port="1" />
		<edge from-layer="1644" from-port="2" to-layer="1645" to-port="1" />
		<edge from-layer="1645" from-port="2" to-layer="1647" to-port="0" />
		<edge from-layer="1646" from-port="0" to-layer="1647" to-port="1" />
		<edge from-layer="1647" from-port="2" to-layer="1648" to-port="0" />
		<edge from-layer="1648" from-port="2" to-layer="1760" to-port="2" />
		<edge from-layer="1649" from-port="0" to-layer="1651" to-port="1" />
		<edge from-layer="1650" from-port="0" to-layer="1651" to-port="2" />
		<edge from-layer="1651" from-port="3" to-layer="1653" to-port="0" />
		<edge from-layer="1651" from-port="3" to-layer="1656" to-port="0" />
		<edge from-layer="1651" from-port="3" to-layer="1659" to-port="0" />
		<edge from-layer="1652" from-port="0" to-layer="1653" to-port="1" />
		<edge from-layer="1653" from-port="2" to-layer="1662" to-port="0" />
		<edge from-layer="1654" from-port="0" to-layer="1657" to-port="0" />
		<edge from-layer="1655" from-port="0" to-layer="1659" to-port="1" />
		<edge from-layer="1655" from-port="0" to-layer="1656" to-port="1" />
		<edge from-layer="1656" from-port="2" to-layer="1657" to-port="1" />
		<edge from-layer="1657" from-port="2" to-layer="1661" to-port="0" />
		<edge from-layer="1658" from-port="0" to-layer="1660" to-port="0" />
		<edge from-layer="1659" from-port="2" to-layer="1660" to-port="1" />
		<edge from-layer="1660" from-port="2" to-layer="1661" to-port="1" />
		<edge from-layer="1660" from-port="2" to-layer="1665" to-port="1" />
		<edge from-layer="1661" from-port="2" to-layer="1667" to-port="0" />
		<edge from-layer="1661" from-port="2" to-layer="1662" to-port="1" />
		<edge from-layer="1662" from-port="2" to-layer="1663" to-port="0" />
		<edge from-layer="1663" from-port="1" to-layer="1673" to-port="0" />
		<edge from-layer="1664" from-port="0" to-layer="1665" to-port="0" />
		<edge from-layer="1665" from-port="2" to-layer="1668" to-port="0" />
		<edge from-layer="1666" from-port="0" to-layer="1667" to-port="1" />
		<edge from-layer="1667" from-port="2" to-layer="1668" to-port="1" />
		<edge from-layer="1667" from-port="2" to-layer="1683" to-port="0" />
		<edge from-layer="1668" from-port="2" to-layer="1669" to-port="0" />
		<edge from-layer="1669" from-port="1" to-layer="1670" to-port="0" />
		<edge from-layer="1670" from-port="1" to-layer="1671" to-port="0" />
		<edge from-layer="1671" from-port="1" to-layer="1672" to-port="0" />
		<edge from-layer="1671" from-port="1" to-layer="1677" to-port="0" />
		<edge from-layer="1672" from-port="1" to-layer="1673" to-port="1" />
		<edge from-layer="1673" from-port="2" to-layer="1674" to-port="0" />
		<edge from-layer="1674" from-port="1" to-layer="1675" to-port="0" />
		<edge from-layer="1675" from-port="1" to-layer="1676" to-port="0" />
		<edge from-layer="1676" from-port="1" to-layer="1678" to-port="0" />
		<edge from-layer="1677" from-port="1" to-layer="1678" to-port="1" />
		<edge from-layer="1678" from-port="2" to-layer="1680" to-port="0" />
		<edge from-layer="1679" from-port="0" to-layer="1680" to-port="1" />
		<edge from-layer="1680" from-port="2" to-layer="1681" to-port="0" />
		<edge from-layer="1681" from-port="1" to-layer="1684" to-port="0" />
		<edge from-layer="1682" from-port="0" to-layer="1683" to-port="1" />
		<edge from-layer="1683" from-port="2" to-layer="1684" to-port="1" />
		<edge from-layer="1684" from-port="2" to-layer="1686" to-port="0" />
		<edge from-layer="1685" from-port="0" to-layer="1686" to-port="1" />
		<edge from-layer="1686" from-port="2" to-layer="1687" to-port="0" />
		<edge from-layer="1687" from-port="1" to-layer="1689" to-port="0" />
		<edge from-layer="1687" from-port="1" to-layer="1692" to-port="0" />
		<edge from-layer="1687" from-port="1" to-layer="1695" to-port="0" />
		<edge from-layer="1688" from-port="0" to-layer="1689" to-port="1" />
		<edge from-layer="1689" from-port="2" to-layer="1698" to-port="0" />
		<edge from-layer="1690" from-port="0" to-layer="1693" to-port="0" />
		<edge from-layer="1691" from-port="0" to-layer="1692" to-port="1" />
		<edge from-layer="1691" from-port="0" to-layer="1695" to-port="1" />
		<edge from-layer="1692" from-port="2" to-layer="1693" to-port="1" />
		<edge from-layer="1693" from-port="2" to-layer="1697" to-port="0" />
		<edge from-layer="1694" from-port="0" to-layer="1696" to-port="0" />
		<edge from-layer="1695" from-port="2" to-layer="1696" to-port="1" />
		<edge from-layer="1696" from-port="2" to-layer="1697" to-port="1" />
		<edge from-layer="1696" from-port="2" to-layer="1701" to-port="1" />
		<edge from-layer="1697" from-port="2" to-layer="1698" to-port="1" />
		<edge from-layer="1697" from-port="2" to-layer="1703" to-port="0" />
		<edge from-layer="1698" from-port="2" to-layer="1699" to-port="0" />
		<edge from-layer="1699" from-port="1" to-layer="1709" to-port="0" />
		<edge from-layer="1700" from-port="0" to-layer="1701" to-port="0" />
		<edge from-layer="1701" from-port="2" to-layer="1704" to-port="0" />
		<edge from-layer="1702" from-port="0" to-layer="1703" to-port="1" />
		<edge from-layer="1703" from-port="2" to-layer="1719" to-port="0" />
		<edge from-layer="1703" from-port="2" to-layer="1704" to-port="1" />
		<edge from-layer="1704" from-port="2" to-layer="1705" to-port="0" />
		<edge from-layer="1705" from-port="1" to-layer="1706" to-port="0" />
		<edge from-layer="1706" from-port="1" to-layer="1707" to-port="0" />
		<edge from-layer="1707" from-port="1" to-layer="1713" to-port="0" />
		<edge from-layer="1707" from-port="1" to-layer="1708" to-port="0" />
		<edge from-layer="1708" from-port="1" to-layer="1709" to-port="1" />
		<edge from-layer="1709" from-port="2" to-layer="1710" to-port="0" />
		<edge from-layer="1710" from-port="1" to-layer="1711" to-port="0" />
		<edge from-layer="1711" from-port="1" to-layer="1712" to-port="0" />
		<edge from-layer="1712" from-port="1" to-layer="1714" to-port="0" />
		<edge from-layer="1713" from-port="1" to-layer="1714" to-port="1" />
		<edge from-layer="1714" from-port="2" to-layer="1716" to-port="0" />
		<edge from-layer="1715" from-port="0" to-layer="1716" to-port="1" />
		<edge from-layer="1716" from-port="2" to-layer="1717" to-port="0" />
		<edge from-layer="1717" from-port="1" to-layer="1720" to-port="0" />
		<edge from-layer="1718" from-port="0" to-layer="1719" to-port="1" />
		<edge from-layer="1719" from-port="2" to-layer="1720" to-port="1" />
		<edge from-layer="1720" from-port="2" to-layer="1722" to-port="0" />
		<edge from-layer="1721" from-port="0" to-layer="1722" to-port="1" />
		<edge from-layer="1722" from-port="2" to-layer="1723" to-port="0" />
		<edge from-layer="1723" from-port="1" to-layer="1725" to-port="0" />
		<edge from-layer="1723" from-port="1" to-layer="1728" to-port="0" />
		<edge from-layer="1723" from-port="1" to-layer="1731" to-port="0" />
		<edge from-layer="1724" from-port="0" to-layer="1725" to-port="1" />
		<edge from-layer="1725" from-port="2" to-layer="1734" to-port="0" />
		<edge from-layer="1726" from-port="0" to-layer="1729" to-port="0" />
		<edge from-layer="1727" from-port="0" to-layer="1728" to-port="1" />
		<edge from-layer="1727" from-port="0" to-layer="1731" to-port="1" />
		<edge from-layer="1728" from-port="2" to-layer="1729" to-port="1" />
		<edge from-layer="1729" from-port="2" to-layer="1733" to-port="0" />
		<edge from-layer="1730" from-port="0" to-layer="1732" to-port="0" />
		<edge from-layer="1731" from-port="2" to-layer="1732" to-port="1" />
		<edge from-layer="1732" from-port="2" to-layer="1733" to-port="1" />
		<edge from-layer="1732" from-port="2" to-layer="1737" to-port="1" />
		<edge from-layer="1733" from-port="2" to-layer="1734" to-port="1" />
		<edge from-layer="1733" from-port="2" to-layer="1739" to-port="0" />
		<edge from-layer="1734" from-port="2" to-layer="1735" to-port="0" />
		<edge from-layer="1735" from-port="1" to-layer="1745" to-port="0" />
		<edge from-layer="1736" from-port="0" to-layer="1737" to-port="0" />
		<edge from-layer="1737" from-port="2" to-layer="1740" to-port="0" />
		<edge from-layer="1738" from-port="0" to-layer="1739" to-port="1" />
		<edge from-layer="1739" from-port="2" to-layer="1755" to-port="0" />
		<edge from-layer="1739" from-port="2" to-layer="1740" to-port="1" />
		<edge from-layer="1740" from-port="2" to-layer="1741" to-port="0" />
		<edge from-layer="1741" from-port="1" to-layer="1742" to-port="0" />
		<edge from-layer="1742" from-port="1" to-layer="1743" to-port="0" />
		<edge from-layer="1743" from-port="1" to-layer="1744" to-port="0" />
		<edge from-layer="1743" from-port="1" to-layer="1749" to-port="0" />
		<edge from-layer="1744" from-port="1" to-layer="1745" to-port="1" />
		<edge from-layer="1745" from-port="2" to-layer="1746" to-port="0" />
		<edge from-layer="1746" from-port="1" to-layer="1747" to-port="0" />
		<edge from-layer="1747" from-port="1" to-layer="1748" to-port="0" />
		<edge from-layer="1748" from-port="1" to-layer="1750" to-port="0" />
		<edge from-layer="1749" from-port="1" to-layer="1750" to-port="1" />
		<edge from-layer="1750" from-port="2" to-layer="1752" to-port="0" />
		<edge from-layer="1751" from-port="0" to-layer="1752" to-port="1" />
		<edge from-layer="1752" from-port="2" to-layer="1753" to-port="0" />
		<edge from-layer="1753" from-port="1" to-layer="1756" to-port="0" />
		<edge from-layer="1754" from-port="0" to-layer="1755" to-port="1" />
		<edge from-layer="1755" from-port="2" to-layer="1756" to-port="1" />
		<edge from-layer="1756" from-port="2" to-layer="1758" to-port="0" />
		<edge from-layer="1757" from-port="0" to-layer="1758" to-port="1" />
		<edge from-layer="1758" from-port="2" to-layer="1759" to-port="0" />
		<edge from-layer="1759" from-port="2" to-layer="1760" to-port="3" />
		<edge from-layer="1760" from-port="4" to-layer="1786" to-port="0" />
		<edge from-layer="1761" from-port="0" to-layer="1775" to-port="0" />
		<edge from-layer="1762" from-port="1" to-layer="1764" to-port="0" />
		<edge from-layer="1763" from-port="0" to-layer="1764" to-port="1" />
		<edge from-layer="1764" from-port="2" to-layer="1765" to-port="0" />
		<edge from-layer="1765" from-port="2" to-layer="1766" to-port="0" />
		<edge from-layer="1766" from-port="2" to-layer="1768" to-port="0" />
		<edge from-layer="1767" from-port="0" to-layer="1768" to-port="1" />
		<edge from-layer="1768" from-port="2" to-layer="1770" to-port="0" />
		<edge from-layer="1769" from-port="0" to-layer="1770" to-port="1" />
		<edge from-layer="1770" from-port="2" to-layer="1772" to-port="0" />
		<edge from-layer="1771" from-port="0" to-layer="1772" to-port="1" />
		<edge from-layer="1772" from-port="2" to-layer="1774" to-port="0" />
		<edge from-layer="1773" from-port="0" to-layer="1774" to-port="1" />
		<edge from-layer="1774" from-port="2" to-layer="1775" to-port="1" />
		<edge from-layer="1775" from-port="2" to-layer="1777" to-port="0" />
		<edge from-layer="1776" from-port="0" to-layer="1777" to-port="1" />
		<edge from-layer="1777" from-port="2" to-layer="1778" to-port="0" />
		<edge from-layer="1778" from-port="1" to-layer="1780" to-port="0" />
		<edge from-layer="1779" from-port="0" to-layer="1780" to-port="1" />
		<edge from-layer="1780" from-port="2" to-layer="1782" to-port="0" />
		<edge from-layer="1781" from-port="0" to-layer="1782" to-port="1" />
		<edge from-layer="1782" from-port="2" to-layer="1783" to-port="0" />
		<edge from-layer="1783" from-port="1" to-layer="1787" to-port="0" />
		<edge from-layer="1783" from-port="1" to-layer="1785" to-port="0" />
		<edge from-layer="1784" from-port="0" to-layer="1785" to-port="1" />
		<edge from-layer="1785" from-port="2" to-layer="1786" to-port="1" />
		<edge from-layer="1786" from-port="2" to-layer="1793" to-port="0" />
		<edge from-layer="1787" from-port="1" to-layer="1790" to-port="0" />
		<edge from-layer="1788" from-port="0" to-layer="1790" to-port="1" />
		<edge from-layer="1789" from-port="0" to-layer="1790" to-port="2" />
		<edge from-layer="1790" from-port="3" to-layer="1792" to-port="0" />
		<edge from-layer="1791" from-port="0" to-layer="1792" to-port="2" />
		<edge from-layer="1791" from-port="0" to-layer="1792" to-port="3" />
		<edge from-layer="1792" from-port="4" to-layer="1793" to-port="1" />
		<edge from-layer="1793" from-port="2" to-layer="1794" to-port="0" />
		<edge from-layer="1794" from-port="5" to-layer="1795" to-port="0" />
	</edges>
	<rt_info>
		<Runtime_version value="2025.2.0-19140-c01cd93e24d-releases/2025/2" />
		<conversion_parameters>
			<is_python_object value="False" />
		</conversion_parameters>
		<framework>
			<onnx.infer value="onnxruntime.quant" />
		</framework>
	</rt_info>
</net>
