<?xml version="1.0"?>
<net name="main_graph" version="11">
	<layers>
		<layer id="0" name="image" type="Parameter" version="opset1">
			<data shape="1,3,256,256" element_type="f32" />
			<output>
				<port id="0" precision="FP32" names="image">
					<dim>1</dim>
					<dim>3</dim>
					<dim>256</dim>
					<dim>256</dim>
				</port>
			</output>
		</layer>
		<layer id="1" name="Constant_8518" type="Const" version="opset1">
			<data element_type="f32" shape="1, 256, 1, 1" offset="0" size="1024" />
			<output>
				<port id="0" precision="FP32">
					<dim>1</dim>
					<dim>256</dim>
					<dim>1</dim>
					<dim>1</dim>
				</port>
			</output>
		</layer>
		<layer id="2" name="Constant_8516" type="Const" version="opset1">
			<data element_type="f32" shape="1, 256, 1, 1" offset="1024" size="1024" />
			<output>
				<port id="0" precision="FP32">
					<dim>1</dim>
					<dim>256</dim>
					<dim>1</dim>
					<dim>1</dim>
				</port>
			</output>
		</layer>
		<layer id="3" name="onnx::Conv_2448" type="Const" version="opset1">
			<data element_type="f32" shape="32, 3, 1, 1" offset="2048" size="384" />
			<output>
				<port id="0" precision="FP32" names="onnx::Conv_2448">
					<dim>32</dim>
					<dim>3</dim>
					<dim>1</dim>
					<dim>1</dim>
				</port>
			</output>
		</layer>
		<layer id="4" name="/patch_embed/seq/seq.0/c/Conv/WithoutBiases" type="Convolution" version="opset1">
			<data strides="1, 1" dilations="1, 1" pads_begin="0, 0" pads_end="0, 0" auto_pad="explicit" />
			<input>
				<port id="0" precision="FP32">
					<dim>1</dim>
					<dim>3</dim>
					<dim>256</dim>
					<dim>256</dim>
				</port>
				<port id="1" precision="FP32">
					<dim>32</dim>
					<dim>3</dim>
					<dim>1</dim>
					<dim>1</dim>
				</port>
			</input>
			<output>
				<port id="2" precision="FP32">
					<dim>1</dim>
					<dim>32</dim>
					<dim>256</dim>
					<dim>256</dim>
				</port>
			</output>
		</layer>
		<layer id="5" name="Reshape_248" type="Const" version="opset1">
			<data element_type="f32" shape="1, 32, 1, 1" offset="2432" size="128" />
			<output>
				<port id="0" precision="FP32">
					<dim>1</dim>
					<dim>32</dim>
					<dim>1</dim>
					<dim>1</dim>
				</port>
			</output>
		</layer>
		<layer id="6" name="/patch_embed/seq/seq.0/c/Conv" type="Add" version="opset1">
			<data auto_broadcast="numpy" />
			<input>
				<port id="0" precision="FP32">
					<dim>1</dim>
					<dim>32</dim>
					<dim>256</dim>
					<dim>256</dim>
				</port>
				<port id="1" precision="FP32">
					<dim>1</dim>
					<dim>32</dim>
					<dim>1</dim>
					<dim>1</dim>
				</port>
			</input>
			<output>
				<port id="2" precision="FP32" names="/patch_embed/seq/seq.0/c/Conv_output_0">
					<dim>1</dim>
					<dim>32</dim>
					<dim>256</dim>
					<dim>256</dim>
				</port>
			</output>
		</layer>
		<layer id="7" name="/patch_embed/seq/seq.1/Mul_1" type="Gelu" version="opset7">
			<data approximation_mode="ERF" />
			<input>
				<port id="0" precision="FP32">
					<dim>1</dim>
					<dim>32</dim>
					<dim>256</dim>
					<dim>256</dim>
				</port>
			</input>
			<output>
				<port id="1" precision="FP32" names="/patch_embed/seq/seq.1/Mul_1_output_0">
					<dim>1</dim>
					<dim>32</dim>
					<dim>256</dim>
					<dim>256</dim>
				</port>
			</output>
		</layer>
		<layer id="8" name="onnx::Conv_2451" type="Const" version="opset1">
			<data element_type="f32" shape="64, 32, 1, 1" offset="2560" size="8192" />
			<output>
				<port id="0" precision="FP32" names="onnx::Conv_2451">
					<dim>64</dim>
					<dim>32</dim>
					<dim>1</dim>
					<dim>1</dim>
				</port>
			</output>
		</layer>
		<layer id="9" name="/patch_embed/seq/seq.2/c/Conv/WithoutBiases" type="Convolution" version="opset1">
			<data strides="1, 1" dilations="1, 1" pads_begin="0, 0" pads_end="0, 0" auto_pad="explicit" />
			<input>
				<port id="0" precision="FP32">
					<dim>1</dim>
					<dim>32</dim>
					<dim>256</dim>
					<dim>256</dim>
				</port>
				<port id="1" precision="FP32">
					<dim>64</dim>
					<dim>32</dim>
					<dim>1</dim>
					<dim>1</dim>
				</port>
			</input>
			<output>
				<port id="2" precision="FP32">
					<dim>1</dim>
					<dim>64</dim>
					<dim>256</dim>
					<dim>256</dim>
				</port>
			</output>
		</layer>
		<layer id="10" name="Reshape_266" type="Const" version="opset1">
			<data element_type="f32" shape="1, 64, 1, 1" offset="10752" size="256" />
			<output>
				<port id="0" precision="FP32">
					<dim>1</dim>
					<dim>64</dim>
					<dim>1</dim>
					<dim>1</dim>
				</port>
			</output>
		</layer>
		<layer id="11" name="/patch_embed/seq/seq.2/c/Conv" type="Add" version="opset1">
			<data auto_broadcast="numpy" />
			<input>
				<port id="0" precision="FP32">
					<dim>1</dim>
					<dim>64</dim>
					<dim>256</dim>
					<dim>256</dim>
				</port>
				<port id="1" precision="FP32">
					<dim>1</dim>
					<dim>64</dim>
					<dim>1</dim>
					<dim>1</dim>
				</port>
			</input>
			<output>
				<port id="2" precision="FP32" names="/patch_embed/seq/seq.2/c/Conv_output_0">
					<dim>1</dim>
					<dim>64</dim>
					<dim>256</dim>
					<dim>256</dim>
				</port>
			</output>
		</layer>
		<layer id="12" name="onnx::Conv_2454" type="Const" version="opset1">
			<data element_type="f32" shape="256, 64, 1, 1" offset="11008" size="65536" />
			<output>
				<port id="0" precision="FP32" names="onnx::Conv_2454">
					<dim>256</dim>
					<dim>64</dim>
					<dim>1</dim>
					<dim>1</dim>
				</port>
			</output>
		</layer>
		<layer id="13" name="/layers.0/blocks.0/conv1/c/Conv/WithoutBiases" type="Convolution" version="opset1">
			<data strides="1, 1" dilations="1, 1" pads_begin="0, 0" pads_end="0, 0" auto_pad="explicit" />
			<input>
				<port id="0" precision="FP32">
					<dim>1</dim>
					<dim>64</dim>
					<dim>256</dim>
					<dim>256</dim>
				</port>
				<port id="1" precision="FP32">
					<dim>256</dim>
					<dim>64</dim>
					<dim>1</dim>
					<dim>1</dim>
				</port>
			</input>
			<output>
				<port id="2" precision="FP32">
					<dim>1</dim>
					<dim>256</dim>
					<dim>256</dim>
					<dim>256</dim>
				</port>
			</output>
		</layer>
		<layer id="14" name="Reshape_279" type="Const" version="opset1">
			<data element_type="f32" shape="1, 256, 1, 1" offset="76544" size="1024" />
			<output>
				<port id="0" precision="FP32">
					<dim>1</dim>
					<dim>256</dim>
					<dim>1</dim>
					<dim>1</dim>
				</port>
			</output>
		</layer>
		<layer id="15" name="/layers.0/blocks.0/conv1/c/Conv" type="Add" version="opset1">
			<data auto_broadcast="numpy" />
			<input>
				<port id="0" precision="FP32">
					<dim>1</dim>
					<dim>256</dim>
					<dim>256</dim>
					<dim>256</dim>
				</port>
				<port id="1" precision="FP32">
					<dim>1</dim>
					<dim>256</dim>
					<dim>1</dim>
					<dim>1</dim>
				</port>
			</input>
			<output>
				<port id="2" precision="FP32" names="/layers.0/blocks.0/conv1/c/Conv_output_0">
					<dim>1</dim>
					<dim>256</dim>
					<dim>256</dim>
					<dim>256</dim>
				</port>
			</output>
		</layer>
		<layer id="16" name="/layers.0/blocks.0/act1/Mul_1" type="Gelu" version="opset7">
			<data approximation_mode="ERF" />
			<input>
				<port id="0" precision="FP32">
					<dim>1</dim>
					<dim>256</dim>
					<dim>256</dim>
					<dim>256</dim>
				</port>
			</input>
			<output>
				<port id="1" precision="FP32" names="/layers.0/blocks.0/act1/Mul_1_output_0">
					<dim>1</dim>
					<dim>256</dim>
					<dim>256</dim>
					<dim>256</dim>
				</port>
			</output>
		</layer>
		<layer id="17" name="Reshape_293" type="Const" version="opset1">
			<data element_type="f32" shape="256, 1, 1, 3, 3" offset="77568" size="9216" />
			<output>
				<port id="0" precision="FP32">
					<dim>256</dim>
					<dim>1</dim>
					<dim>1</dim>
					<dim>3</dim>
					<dim>3</dim>
				</port>
			</output>
		</layer>
		<layer id="18" name="/layers.0/blocks.0/conv2/c/Conv/WithoutBiases" type="GroupConvolution" version="opset1">
			<data strides="1, 1" pads_begin="1, 1" pads_end="1, 1" dilations="1, 1" auto_pad="explicit" />
			<input>
				<port id="0" precision="FP32">
					<dim>1</dim>
					<dim>256</dim>
					<dim>256</dim>
					<dim>256</dim>
				</port>
				<port id="1" precision="FP32">
					<dim>256</dim>
					<dim>1</dim>
					<dim>1</dim>
					<dim>3</dim>
					<dim>3</dim>
				</port>
			</input>
			<output>
				<port id="2" precision="FP32">
					<dim>1</dim>
					<dim>256</dim>
					<dim>256</dim>
					<dim>256</dim>
				</port>
			</output>
		</layer>
		<layer id="19" name="Reshape_343" type="Const" version="opset1">
			<data element_type="f32" shape="1, 256, 1, 1" offset="86784" size="1024" />
			<output>
				<port id="0" precision="FP32">
					<dim>1</dim>
					<dim>256</dim>
					<dim>1</dim>
					<dim>1</dim>
				</port>
			</output>
		</layer>
		<layer id="20" name="/layers.0/blocks.0/conv2/c/Conv" type="Add" version="opset1">
			<data auto_broadcast="numpy" />
			<input>
				<port id="0" precision="FP32">
					<dim>1</dim>
					<dim>256</dim>
					<dim>256</dim>
					<dim>256</dim>
				</port>
				<port id="1" precision="FP32">
					<dim>1</dim>
					<dim>256</dim>
					<dim>1</dim>
					<dim>1</dim>
				</port>
			</input>
			<output>
				<port id="2" precision="FP32" names="/layers.0/blocks.0/conv2/c/Conv_output_0">
					<dim>1</dim>
					<dim>256</dim>
					<dim>256</dim>
					<dim>256</dim>
				</port>
			</output>
		</layer>
		<layer id="21" name="/layers.0/blocks.0/act2/Mul_1" type="Gelu" version="opset7">
			<data approximation_mode="ERF" />
			<input>
				<port id="0" precision="FP32">
					<dim>1</dim>
					<dim>256</dim>
					<dim>256</dim>
					<dim>256</dim>
				</port>
			</input>
			<output>
				<port id="1" precision="FP32" names="/layers.0/blocks.0/act2/Mul_1_output_0">
					<dim>1</dim>
					<dim>256</dim>
					<dim>256</dim>
					<dim>256</dim>
				</port>
			</output>
		</layer>
		<layer id="22" name="onnx::Conv_2460" type="Const" version="opset1">
			<data element_type="f32" shape="64, 256, 1, 1" offset="87808" size="65536" />
			<output>
				<port id="0" precision="FP32" names="onnx::Conv_2460">
					<dim>64</dim>
					<dim>256</dim>
					<dim>1</dim>
					<dim>1</dim>
				</port>
			</output>
		</layer>
		<layer id="23" name="/layers.0/blocks.0/conv3/c/Conv/WithoutBiases" type="Convolution" version="opset1">
			<data strides="1, 1" dilations="1, 1" pads_begin="0, 0" pads_end="0, 0" auto_pad="explicit" />
			<input>
				<port id="0" precision="FP32">
					<dim>1</dim>
					<dim>256</dim>
					<dim>256</dim>
					<dim>256</dim>
				</port>
				<port id="1" precision="FP32">
					<dim>64</dim>
					<dim>256</dim>
					<dim>1</dim>
					<dim>1</dim>
				</port>
			</input>
			<output>
				<port id="2" precision="FP32">
					<dim>1</dim>
					<dim>64</dim>
					<dim>256</dim>
					<dim>256</dim>
				</port>
			</output>
		</layer>
		<layer id="24" name="Reshape_361" type="Const" version="opset1">
			<data element_type="f32" shape="1, 64, 1, 1" offset="153344" size="256" />
			<output>
				<port id="0" precision="FP32">
					<dim>1</dim>
					<dim>64</dim>
					<dim>1</dim>
					<dim>1</dim>
				</port>
			</output>
		</layer>
		<layer id="25" name="/layers.0/blocks.0/conv3/c/Conv" type="Add" version="opset1">
			<data auto_broadcast="numpy" />
			<input>
				<port id="0" precision="FP32">
					<dim>1</dim>
					<dim>64</dim>
					<dim>256</dim>
					<dim>256</dim>
				</port>
				<port id="1" precision="FP32">
					<dim>1</dim>
					<dim>64</dim>
					<dim>1</dim>
					<dim>1</dim>
				</port>
			</input>
			<output>
				<port id="2" precision="FP32" names="/layers.0/blocks.0/conv3/c/Conv_output_0">
					<dim>1</dim>
					<dim>64</dim>
					<dim>256</dim>
					<dim>256</dim>
				</port>
			</output>
		</layer>
		<layer id="26" name="/layers.0/blocks.0/Add" type="Add" version="opset1">
			<data auto_broadcast="numpy" />
			<input>
				<port id="0" precision="FP32">
					<dim>1</dim>
					<dim>64</dim>
					<dim>256</dim>
					<dim>256</dim>
				</port>
				<port id="1" precision="FP32">
					<dim>1</dim>
					<dim>64</dim>
					<dim>256</dim>
					<dim>256</dim>
				</port>
			</input>
			<output>
				<port id="2" precision="FP32" names="/layers.0/blocks.0/Add_output_0">
					<dim>1</dim>
					<dim>64</dim>
					<dim>256</dim>
					<dim>256</dim>
				</port>
			</output>
		</layer>
		<layer id="27" name="/layers.0/blocks.0/act3/Mul_1" type="Gelu" version="opset7">
			<data approximation_mode="ERF" />
			<input>
				<port id="0" precision="FP32">
					<dim>1</dim>
					<dim>64</dim>
					<dim>256</dim>
					<dim>256</dim>
				</port>
			</input>
			<output>
				<port id="1" precision="FP32" names="/layers.0/blocks.0/act3/Mul_1_output_0">
					<dim>1</dim>
					<dim>64</dim>
					<dim>256</dim>
					<dim>256</dim>
				</port>
			</output>
		</layer>
		<layer id="28" name="onnx::Conv_2463" type="Const" version="opset1">
			<data element_type="f32" shape="256, 64, 1, 1" offset="153600" size="65536" />
			<output>
				<port id="0" precision="FP32" names="onnx::Conv_2463">
					<dim>256</dim>
					<dim>64</dim>
					<dim>1</dim>
					<dim>1</dim>
				</port>
			</output>
		</layer>
		<layer id="29" name="/layers.0/blocks.1/conv1/c/Conv/WithoutBiases" type="Convolution" version="opset1">
			<data strides="1, 1" dilations="1, 1" pads_begin="0, 0" pads_end="0, 0" auto_pad="explicit" />
			<input>
				<port id="0" precision="FP32">
					<dim>1</dim>
					<dim>64</dim>
					<dim>256</dim>
					<dim>256</dim>
				</port>
				<port id="1" precision="FP32">
					<dim>256</dim>
					<dim>64</dim>
					<dim>1</dim>
					<dim>1</dim>
				</port>
			</input>
			<output>
				<port id="2" precision="FP32">
					<dim>1</dim>
					<dim>256</dim>
					<dim>256</dim>
					<dim>256</dim>
				</port>
			</output>
		</layer>
		<layer id="30" name="Reshape_380" type="Const" version="opset1">
			<data element_type="f32" shape="1, 256, 1, 1" offset="219136" size="1024" />
			<output>
				<port id="0" precision="FP32">
					<dim>1</dim>
					<dim>256</dim>
					<dim>1</dim>
					<dim>1</dim>
				</port>
			</output>
		</layer>
		<layer id="31" name="/layers.0/blocks.1/conv1/c/Conv" type="Add" version="opset1">
			<data auto_broadcast="numpy" />
			<input>
				<port id="0" precision="FP32">
					<dim>1</dim>
					<dim>256</dim>
					<dim>256</dim>
					<dim>256</dim>
				</port>
				<port id="1" precision="FP32">
					<dim>1</dim>
					<dim>256</dim>
					<dim>1</dim>
					<dim>1</dim>
				</port>
			</input>
			<output>
				<port id="2" precision="FP32" names="/layers.0/blocks.1/conv1/c/Conv_output_0">
					<dim>1</dim>
					<dim>256</dim>
					<dim>256</dim>
					<dim>256</dim>
				</port>
			</output>
		</layer>
		<layer id="32" name="/layers.0/blocks.1/act1/Mul_1" type="Gelu" version="opset7">
			<data approximation_mode="ERF" />
			<input>
				<port id="0" precision="FP32">
					<dim>1</dim>
					<dim>256</dim>
					<dim>256</dim>
					<dim>256</dim>
				</port>
			</input>
			<output>
				<port id="1" precision="FP32" names="/layers.0/blocks.1/act1/Mul_1_output_0">
					<dim>1</dim>
					<dim>256</dim>
					<dim>256</dim>
					<dim>256</dim>
				</port>
			</output>
		</layer>
		<layer id="33" name="Reshape_394" type="Const" version="opset1">
			<data element_type="f32" shape="256, 1, 1, 3, 3" offset="220160" size="9216" />
			<output>
				<port id="0" precision="FP32">
					<dim>256</dim>
					<dim>1</dim>
					<dim>1</dim>
					<dim>3</dim>
					<dim>3</dim>
				</port>
			</output>
		</layer>
		<layer id="34" name="/layers.0/blocks.1/conv2/c/Conv/WithoutBiases" type="GroupConvolution" version="opset1">
			<data strides="1, 1" pads_begin="1, 1" pads_end="1, 1" dilations="1, 1" auto_pad="explicit" />
			<input>
				<port id="0" precision="FP32">
					<dim>1</dim>
					<dim>256</dim>
					<dim>256</dim>
					<dim>256</dim>
				</port>
				<port id="1" precision="FP32">
					<dim>256</dim>
					<dim>1</dim>
					<dim>1</dim>
					<dim>3</dim>
					<dim>3</dim>
				</port>
			</input>
			<output>
				<port id="2" precision="FP32">
					<dim>1</dim>
					<dim>256</dim>
					<dim>256</dim>
					<dim>256</dim>
				</port>
			</output>
		</layer>
		<layer id="35" name="Reshape_444" type="Const" version="opset1">
			<data element_type="f32" shape="1, 256, 1, 1" offset="229376" size="1024" />
			<output>
				<port id="0" precision="FP32">
					<dim>1</dim>
					<dim>256</dim>
					<dim>1</dim>
					<dim>1</dim>
				</port>
			</output>
		</layer>
		<layer id="36" name="/layers.0/blocks.1/conv2/c/Conv" type="Add" version="opset1">
			<data auto_broadcast="numpy" />
			<input>
				<port id="0" precision="FP32">
					<dim>1</dim>
					<dim>256</dim>
					<dim>256</dim>
					<dim>256</dim>
				</port>
				<port id="1" precision="FP32">
					<dim>1</dim>
					<dim>256</dim>
					<dim>1</dim>
					<dim>1</dim>
				</port>
			</input>
			<output>
				<port id="2" precision="FP32" names="/layers.0/blocks.1/conv2/c/Conv_output_0">
					<dim>1</dim>
					<dim>256</dim>
					<dim>256</dim>
					<dim>256</dim>
				</port>
			</output>
		</layer>
		<layer id="37" name="/layers.0/blocks.1/act2/Mul_1" type="Gelu" version="opset7">
			<data approximation_mode="ERF" />
			<input>
				<port id="0" precision="FP32">
					<dim>1</dim>
					<dim>256</dim>
					<dim>256</dim>
					<dim>256</dim>
				</port>
			</input>
			<output>
				<port id="1" precision="FP32" names="/layers.0/blocks.1/act2/Mul_1_output_0">
					<dim>1</dim>
					<dim>256</dim>
					<dim>256</dim>
					<dim>256</dim>
				</port>
			</output>
		</layer>
		<layer id="38" name="onnx::Conv_2469" type="Const" version="opset1">
			<data element_type="f32" shape="64, 256, 1, 1" offset="230400" size="65536" />
			<output>
				<port id="0" precision="FP32" names="onnx::Conv_2469">
					<dim>64</dim>
					<dim>256</dim>
					<dim>1</dim>
					<dim>1</dim>
				</port>
			</output>
		</layer>
		<layer id="39" name="/layers.0/blocks.1/conv3/c/Conv/WithoutBiases" type="Convolution" version="opset1">
			<data strides="1, 1" dilations="1, 1" pads_begin="0, 0" pads_end="0, 0" auto_pad="explicit" />
			<input>
				<port id="0" precision="FP32">
					<dim>1</dim>
					<dim>256</dim>
					<dim>256</dim>
					<dim>256</dim>
				</port>
				<port id="1" precision="FP32">
					<dim>64</dim>
					<dim>256</dim>
					<dim>1</dim>
					<dim>1</dim>
				</port>
			</input>
			<output>
				<port id="2" precision="FP32">
					<dim>1</dim>
					<dim>64</dim>
					<dim>256</dim>
					<dim>256</dim>
				</port>
			</output>
		</layer>
		<layer id="40" name="Reshape_462" type="Const" version="opset1">
			<data element_type="f32" shape="1, 64, 1, 1" offset="295936" size="256" />
			<output>
				<port id="0" precision="FP32">
					<dim>1</dim>
					<dim>64</dim>
					<dim>1</dim>
					<dim>1</dim>
				</port>
			</output>
		</layer>
		<layer id="41" name="/layers.0/blocks.1/conv3/c/Conv" type="Add" version="opset1">
			<data auto_broadcast="numpy" />
			<input>
				<port id="0" precision="FP32">
					<dim>1</dim>
					<dim>64</dim>
					<dim>256</dim>
					<dim>256</dim>
				</port>
				<port id="1" precision="FP32">
					<dim>1</dim>
					<dim>64</dim>
					<dim>1</dim>
					<dim>1</dim>
				</port>
			</input>
			<output>
				<port id="2" precision="FP32" names="/layers.0/blocks.1/conv3/c/Conv_output_0">
					<dim>1</dim>
					<dim>64</dim>
					<dim>256</dim>
					<dim>256</dim>
				</port>
			</output>
		</layer>
		<layer id="42" name="/layers.0/blocks.1/Add" type="Add" version="opset1">
			<data auto_broadcast="numpy" />
			<input>
				<port id="0" precision="FP32">
					<dim>1</dim>
					<dim>64</dim>
					<dim>256</dim>
					<dim>256</dim>
				</port>
				<port id="1" precision="FP32">
					<dim>1</dim>
					<dim>64</dim>
					<dim>256</dim>
					<dim>256</dim>
				</port>
			</input>
			<output>
				<port id="2" precision="FP32" names="/layers.0/blocks.1/Add_output_0">
					<dim>1</dim>
					<dim>64</dim>
					<dim>256</dim>
					<dim>256</dim>
				</port>
			</output>
		</layer>
		<layer id="43" name="/layers.0/blocks.1/act3/Mul_1" type="Gelu" version="opset7">
			<data approximation_mode="ERF" />
			<input>
				<port id="0" precision="FP32">
					<dim>1</dim>
					<dim>64</dim>
					<dim>256</dim>
					<dim>256</dim>
				</port>
			</input>
			<output>
				<port id="1" precision="FP32" names="/layers.0/blocks.1/act3/Mul_1_output_0">
					<dim>1</dim>
					<dim>64</dim>
					<dim>256</dim>
					<dim>256</dim>
				</port>
			</output>
		</layer>
		<layer id="44" name="onnx::Conv_2472" type="Const" version="opset1">
			<data element_type="f32" shape="128, 64, 1, 1" offset="296192" size="32768" />
			<output>
				<port id="0" precision="FP32" names="onnx::Conv_2472">
					<dim>128</dim>
					<dim>64</dim>
					<dim>1</dim>
					<dim>1</dim>
				</port>
			</output>
		</layer>
		<layer id="45" name="/layers.0/downsample/conv1/c/Conv/WithoutBiases" type="Convolution" version="opset1">
			<data strides="1, 1" dilations="1, 1" pads_begin="0, 0" pads_end="0, 0" auto_pad="explicit" />
			<input>
				<port id="0" precision="FP32">
					<dim>1</dim>
					<dim>64</dim>
					<dim>256</dim>
					<dim>256</dim>
				</port>
				<port id="1" precision="FP32">
					<dim>128</dim>
					<dim>64</dim>
					<dim>1</dim>
					<dim>1</dim>
				</port>
			</input>
			<output>
				<port id="2" precision="FP32">
					<dim>1</dim>
					<dim>128</dim>
					<dim>256</dim>
					<dim>256</dim>
				</port>
			</output>
		</layer>
		<layer id="46" name="Reshape_481" type="Const" version="opset1">
			<data element_type="f32" shape="1, 128, 1, 1" offset="328960" size="512" />
			<output>
				<port id="0" precision="FP32">
					<dim>1</dim>
					<dim>128</dim>
					<dim>1</dim>
					<dim>1</dim>
				</port>
			</output>
		</layer>
		<layer id="47" name="/layers.0/downsample/conv1/c/Conv" type="Add" version="opset1">
			<data auto_broadcast="numpy" />
			<input>
				<port id="0" precision="FP32">
					<dim>1</dim>
					<dim>128</dim>
					<dim>256</dim>
					<dim>256</dim>
				</port>
				<port id="1" precision="FP32">
					<dim>1</dim>
					<dim>128</dim>
					<dim>1</dim>
					<dim>1</dim>
				</port>
			</input>
			<output>
				<port id="2" precision="FP32" names="/layers.0/downsample/conv1/c/Conv_output_0">
					<dim>1</dim>
					<dim>128</dim>
					<dim>256</dim>
					<dim>256</dim>
				</port>
			</output>
		</layer>
		<layer id="48" name="/layers.0/downsample/act/Mul_1" type="Gelu" version="opset7">
			<data approximation_mode="ERF" />
			<input>
				<port id="0" precision="FP32">
					<dim>1</dim>
					<dim>128</dim>
					<dim>256</dim>
					<dim>256</dim>
				</port>
			</input>
			<output>
				<port id="1" precision="FP32" names="/layers.0/downsample/act/Mul_1_output_0">
					<dim>1</dim>
					<dim>128</dim>
					<dim>256</dim>
					<dim>256</dim>
				</port>
			</output>
		</layer>
		<layer id="49" name="Reshape_495" type="Const" version="opset1">
			<data element_type="f32" shape="128, 1, 1, 3, 3" offset="329472" size="4608" />
			<output>
				<port id="0" precision="FP32">
					<dim>128</dim>
					<dim>1</dim>
					<dim>1</dim>
					<dim>3</dim>
					<dim>3</dim>
				</port>
			</output>
		</layer>
		<layer id="50" name="/layers.0/downsample/conv2/c/Conv/WithoutBiases" type="GroupConvolution" version="opset1">
			<data strides="2, 2" pads_begin="1, 1" pads_end="1, 1" dilations="1, 1" auto_pad="explicit" />
			<input>
				<port id="0" precision="FP32">
					<dim>1</dim>
					<dim>128</dim>
					<dim>256</dim>
					<dim>256</dim>
				</port>
				<port id="1" precision="FP32">
					<dim>128</dim>
					<dim>1</dim>
					<dim>1</dim>
					<dim>3</dim>
					<dim>3</dim>
				</port>
			</input>
			<output>
				<port id="2" precision="FP32">
					<dim>1</dim>
					<dim>128</dim>
					<dim>128</dim>
					<dim>128</dim>
				</port>
			</output>
		</layer>
		<layer id="51" name="Reshape_545" type="Const" version="opset1">
			<data element_type="f32" shape="1, 128, 1, 1" offset="334080" size="512" />
			<output>
				<port id="0" precision="FP32">
					<dim>1</dim>
					<dim>128</dim>
					<dim>1</dim>
					<dim>1</dim>
				</port>
			</output>
		</layer>
		<layer id="52" name="/layers.0/downsample/conv2/c/Conv" type="Add" version="opset1">
			<data auto_broadcast="numpy" />
			<input>
				<port id="0" precision="FP32">
					<dim>1</dim>
					<dim>128</dim>
					<dim>128</dim>
					<dim>128</dim>
				</port>
				<port id="1" precision="FP32">
					<dim>1</dim>
					<dim>128</dim>
					<dim>1</dim>
					<dim>1</dim>
				</port>
			</input>
			<output>
				<port id="2" precision="FP32" names="/layers.0/downsample/conv2/c/Conv_output_0">
					<dim>1</dim>
					<dim>128</dim>
					<dim>128</dim>
					<dim>128</dim>
				</port>
			</output>
		</layer>
		<layer id="53" name="/layers.0/downsample/act_1/Mul_1" type="Gelu" version="opset7">
			<data approximation_mode="ERF" />
			<input>
				<port id="0" precision="FP32">
					<dim>1</dim>
					<dim>128</dim>
					<dim>128</dim>
					<dim>128</dim>
				</port>
			</input>
			<output>
				<port id="1" precision="FP32" names="/layers.0/downsample/act_1/Mul_1_output_0">
					<dim>1</dim>
					<dim>128</dim>
					<dim>128</dim>
					<dim>128</dim>
				</port>
			</output>
		</layer>
		<layer id="54" name="onnx::Conv_2478" type="Const" version="opset1">
			<data element_type="f32" shape="128, 128, 1, 1" offset="334592" size="65536" />
			<output>
				<port id="0" precision="FP32" names="onnx::Conv_2478">
					<dim>128</dim>
					<dim>128</dim>
					<dim>1</dim>
					<dim>1</dim>
				</port>
			</output>
		</layer>
		<layer id="55" name="/layers.0/downsample/conv3/c/Conv/WithoutBiases" type="Convolution" version="opset1">
			<data strides="1, 1" dilations="1, 1" pads_begin="0, 0" pads_end="0, 0" auto_pad="explicit" />
			<input>
				<port id="0" precision="FP32">
					<dim>1</dim>
					<dim>128</dim>
					<dim>128</dim>
					<dim>128</dim>
				</port>
				<port id="1" precision="FP32">
					<dim>128</dim>
					<dim>128</dim>
					<dim>1</dim>
					<dim>1</dim>
				</port>
			</input>
			<output>
				<port id="2" precision="FP32">
					<dim>1</dim>
					<dim>128</dim>
					<dim>128</dim>
					<dim>128</dim>
				</port>
			</output>
		</layer>
		<layer id="56" name="Reshape_563" type="Const" version="opset1">
			<data element_type="f32" shape="1, 128, 1, 1" offset="400128" size="512" />
			<output>
				<port id="0" precision="FP32">
					<dim>1</dim>
					<dim>128</dim>
					<dim>1</dim>
					<dim>1</dim>
				</port>
			</output>
		</layer>
		<layer id="57" name="/layers.0/downsample/conv3/c/Conv" type="Add" version="opset1">
			<data auto_broadcast="numpy" />
			<input>
				<port id="0" precision="FP32">
					<dim>1</dim>
					<dim>128</dim>
					<dim>128</dim>
					<dim>128</dim>
				</port>
				<port id="1" precision="FP32">
					<dim>1</dim>
					<dim>128</dim>
					<dim>1</dim>
					<dim>1</dim>
				</port>
			</input>
			<output>
				<port id="2" precision="FP32" names="/layers.0/downsample/conv3/c/Conv_output_0">
					<dim>1</dim>
					<dim>128</dim>
					<dim>128</dim>
					<dim>128</dim>
				</port>
			</output>
		</layer>
		<layer id="58" name="_v_1961" type="Const" version="opset1">
			<data element_type="i64" shape="3" offset="400640" size="24" />
			<output>
				<port id="0" precision="I64" names="_v_1961">
					<dim>3</dim>
				</port>
			</output>
		</layer>
		<layer id="59" name="/layers.0/downsample/Reshape" type="Reshape" version="opset1">
			<data special_zero="true" />
			<input>
				<port id="0" precision="FP32">
					<dim>1</dim>
					<dim>128</dim>
					<dim>128</dim>
					<dim>128</dim>
				</port>
				<port id="1" precision="I64">
					<dim>3</dim>
				</port>
			</input>
			<output>
				<port id="2" precision="FP32" names="/layers.0/downsample/Reshape_output_0">
					<dim>1</dim>
					<dim>128</dim>
					<dim>16384</dim>
				</port>
			</output>
		</layer>
		<layer id="60" name="Constant_566" type="Const" version="opset1">
			<data element_type="i64" shape="3" offset="400664" size="24" />
			<output>
				<port id="0" precision="I64">
					<dim>3</dim>
				</port>
			</output>
		</layer>
		<layer id="61" name="/layers.0/downsample/Transpose" type="Transpose" version="opset1">
			<input>
				<port id="0" precision="FP32">
					<dim>1</dim>
					<dim>128</dim>
					<dim>16384</dim>
				</port>
				<port id="1" precision="I64">
					<dim>3</dim>
				</port>
			</input>
			<output>
				<port id="2" precision="FP32" names="/layers.0/downsample/Transpose_output_0">
					<dim>1</dim>
					<dim>16384</dim>
					<dim>128</dim>
				</port>
			</output>
		</layer>
		<layer id="62" name="Constant_8421" type="Const" version="opset1">
			<data element_type="f32" shape="1, 1, 128" offset="400688" size="512" />
			<output>
				<port id="0" precision="FP32">
					<dim>1</dim>
					<dim>1</dim>
					<dim>128</dim>
				</port>
			</output>
		</layer>
		<layer id="63" name="Constant_8418" type="Const" version="opset1">
			<data element_type="f32" shape="1, 1, 384" offset="401200" size="1536" />
			<output>
				<port id="0" precision="FP32">
					<dim>1</dim>
					<dim>1</dim>
					<dim>384</dim>
				</port>
			</output>
		</layer>
		<layer id="64" name="/layers.1/blocks.0/Constant_output_0" type="Const" version="opset1">
			<data element_type="i64" shape="4" offset="402736" size="32" />
			<output>
				<port id="0" precision="I64" names="/layers.1/blocks.0/Constant_output_0">
					<dim>4</dim>
				</port>
			</output>
		</layer>
		<layer id="65" name="/layers.1/blocks.0/Reshape" type="Reshape" version="opset1">
			<data special_zero="true" />
			<input>
				<port id="0" precision="FP32">
					<dim>1</dim>
					<dim>16384</dim>
					<dim>128</dim>
				</port>
				<port id="1" precision="I64">
					<dim>4</dim>
				</port>
			</input>
			<output>
				<port id="2" precision="FP32" names="/layers.1/blocks.0/Reshape_output_0">
					<dim>1</dim>
					<dim>128</dim>
					<dim>128</dim>
					<dim>128</dim>
				</port>
			</output>
		</layer>
		<layer id="66" name="Constant_571" type="Const" version="opset1">
			<data element_type="i64" shape="4" offset="402768" size="32" />
			<output>
				<port id="0" precision="I64">
					<dim>4</dim>
				</port>
			</output>
		</layer>
		<layer id="67" name="Constant_572" type="Const" version="opset1">
			<data element_type="i64" shape="4" offset="402800" size="32" />
			<output>
				<port id="0" precision="I64">
					<dim>4</dim>
				</port>
			</output>
		</layer>
		<layer id="68" name="Constant_570" type="Const" version="opset1">
			<data element_type="f32" shape="" offset="402832" size="4" />
			<output>
				<port id="0" precision="FP32" />
			</output>
		</layer>
		<layer id="69" name="/layers.1/blocks.0/Pad" type="Pad" version="opset12">
			<data pad_mode="constant" />
			<input>
				<port id="0" precision="FP32">
					<dim>1</dim>
					<dim>128</dim>
					<dim>128</dim>
					<dim>128</dim>
				</port>
				<port id="1" precision="I64">
					<dim>4</dim>
				</port>
				<port id="2" precision="I64">
					<dim>4</dim>
				</port>
				<port id="3" precision="FP32" />
			</input>
			<output>
				<port id="4" precision="FP32" names="/layers.1/blocks.0/Pad_output_0">
					<dim>1</dim>
					<dim>133</dim>
					<dim>133</dim>
					<dim>128</dim>
				</port>
			</output>
		</layer>
		<layer id="70" name="/layers.1/blocks.0/Constant_9_output_0" type="Const" version="opset1">
			<data element_type="i64" shape="6" offset="402836" size="48" />
			<output>
				<port id="0" precision="I64" names="/layers.1/blocks.0/Constant_9_output_0">
					<dim>6</dim>
				</port>
			</output>
		</layer>
		<layer id="71" name="/layers.1/blocks.0/Reshape_3" type="Reshape" version="opset1">
			<data special_zero="true" />
			<input>
				<port id="0" precision="FP32">
					<dim>1</dim>
					<dim>133</dim>
					<dim>133</dim>
					<dim>128</dim>
				</port>
				<port id="1" precision="I64">
					<dim>6</dim>
				</port>
			</input>
			<output>
				<port id="2" precision="FP32" names="/layers.1/blocks.0/Reshape_3_output_0">
					<dim>1</dim>
					<dim>19</dim>
					<dim>7</dim>
					<dim>19</dim>
					<dim>7</dim>
					<dim>128</dim>
				</port>
			</output>
		</layer>
		<layer id="72" name="Constant_575" type="Const" version="opset1">
			<data element_type="i64" shape="6" offset="402884" size="48" />
			<output>
				<port id="0" precision="I64">
					<dim>6</dim>
				</port>
			</output>
		</layer>
		<layer id="73" name="/layers.1/blocks.0/Transpose_1" type="Transpose" version="opset1">
			<input>
				<port id="0" precision="FP32">
					<dim>1</dim>
					<dim>19</dim>
					<dim>7</dim>
					<dim>19</dim>
					<dim>7</dim>
					<dim>128</dim>
				</port>
				<port id="1" precision="I64">
					<dim>6</dim>
				</port>
			</input>
			<output>
				<port id="2" precision="FP32" names="/layers.1/blocks.0/Transpose_1_output_0">
					<dim>1</dim>
					<dim>19</dim>
					<dim>19</dim>
					<dim>7</dim>
					<dim>7</dim>
					<dim>128</dim>
				</port>
			</output>
		</layer>
		<layer id="74" name="/layers.1/blocks.0/Constant_10_output_0" type="Const" version="opset1">
			<data element_type="i64" shape="3" offset="402932" size="24" />
			<output>
				<port id="0" precision="I64" names="/layers.1/blocks.0/Constant_10_output_0">
					<dim>3</dim>
				</port>
			</output>
		</layer>
		<layer id="75" name="/layers.1/blocks.0/Reshape_4" type="Reshape" version="opset1">
			<data special_zero="true" />
			<input>
				<port id="0" precision="FP32">
					<dim>1</dim>
					<dim>19</dim>
					<dim>19</dim>
					<dim>7</dim>
					<dim>7</dim>
					<dim>128</dim>
				</port>
				<port id="1" precision="I64">
					<dim>3</dim>
				</port>
			</input>
			<output>
				<port id="2" precision="FP32" names="/layers.1/blocks.0/Reshape_4_output_0">
					<dim>361</dim>
					<dim>49</dim>
					<dim>128</dim>
				</port>
			</output>
		</layer>
		<layer id="76" name="Range_581" type="Const" version="opset1">
			<data element_type="i64" shape="1" offset="402956" size="8" />
			<output>
				<port id="0" precision="I64">
					<dim>1</dim>
				</port>
			</output>
		</layer>
		<layer id="77" name="MVN_582" type="MVN" version="opset6">
			<data eps="9.9999997473787516e-06" normalize_variance="true" eps_mode="INSIDE_SQRT" />
			<input>
				<port id="0" precision="FP32">
					<dim>361</dim>
					<dim>49</dim>
					<dim>128</dim>
				</port>
				<port id="1" precision="I64">
					<dim>1</dim>
				</port>
			</input>
			<output>
				<port id="2" precision="FP32">
					<dim>361</dim>
					<dim>49</dim>
					<dim>128</dim>
				</port>
			</output>
		</layer>
		<layer id="78" name="Constant_8416" type="Const" version="opset1">
			<data element_type="f32" shape="1, 1, 128" offset="402964" size="512" />
			<output>
				<port id="0" precision="FP32">
					<dim>1</dim>
					<dim>1</dim>
					<dim>128</dim>
				</port>
			</output>
		</layer>
		<layer id="79" name="Multiply_583" type="Multiply" version="opset1">
			<data auto_broadcast="numpy" />
			<input>
				<port id="0" precision="FP32">
					<dim>361</dim>
					<dim>49</dim>
					<dim>128</dim>
				</port>
				<port id="1" precision="FP32">
					<dim>1</dim>
					<dim>1</dim>
					<dim>128</dim>
				</port>
			</input>
			<output>
				<port id="2" precision="FP32">
					<dim>361</dim>
					<dim>49</dim>
					<dim>128</dim>
				</port>
			</output>
		</layer>
		<layer id="80" name="Constant_8417" type="Const" version="opset1">
			<data element_type="f32" shape="1, 1, 128" offset="403476" size="512" />
			<output>
				<port id="0" precision="FP32">
					<dim>1</dim>
					<dim>1</dim>
					<dim>128</dim>
				</port>
			</output>
		</layer>
		<layer id="81" name="/layers.1/blocks.0/attn/norm/LayerNormalization" type="Add" version="opset1">
			<data auto_broadcast="numpy" />
			<input>
				<port id="0" precision="FP32">
					<dim>361</dim>
					<dim>49</dim>
					<dim>128</dim>
				</port>
				<port id="1" precision="FP32">
					<dim>1</dim>
					<dim>1</dim>
					<dim>128</dim>
				</port>
			</input>
			<output>
				<port id="2" precision="FP32" names="/layers.1/blocks.0/attn/norm/LayerNormalization_output_0">
					<dim>361</dim>
					<dim>49</dim>
					<dim>128</dim>
				</port>
			</output>
		</layer>
		<layer id="82" name="Transpose_5741" type="Const" version="opset1">
			<data element_type="f32" shape="384, 128" offset="403988" size="196608" />
			<output>
				<port id="0" precision="FP32">
					<dim>384</dim>
					<dim>128</dim>
				</port>
			</output>
		</layer>
		<layer id="83" name="/layers.1/blocks.0/attn/qkv/MatMul" type="MatMul" version="opset1">
			<data transpose_a="false" transpose_b="true" />
			<input>
				<port id="0" precision="FP32">
					<dim>361</dim>
					<dim>49</dim>
					<dim>128</dim>
				</port>
				<port id="1" precision="FP32">
					<dim>384</dim>
					<dim>128</dim>
				</port>
			</input>
			<output>
				<port id="2" precision="FP32" names="/layers.1/blocks.0/attn/qkv/MatMul_output_0">
					<dim>361</dim>
					<dim>49</dim>
					<dim>384</dim>
				</port>
			</output>
		</layer>
		<layer id="84" name="/layers.1/blocks.0/attn/qkv/Add" type="Add" version="opset1">
			<data auto_broadcast="numpy" />
			<input>
				<port id="0" precision="FP32">
					<dim>1</dim>
					<dim>1</dim>
					<dim>384</dim>
				</port>
				<port id="1" precision="FP32">
					<dim>361</dim>
					<dim>49</dim>
					<dim>384</dim>
				</port>
			</input>
			<output>
				<port id="2" precision="FP32" names="/layers.1/blocks.0/attn/qkv/Add_output_0">
					<dim>361</dim>
					<dim>49</dim>
					<dim>384</dim>
				</port>
			</output>
		</layer>
		<layer id="85" name="/layers.1/blocks.0/attn/Constant_output_0" type="Const" version="opset1">
			<data element_type="i64" shape="4" offset="600596" size="32" />
			<output>
				<port id="0" precision="I64" names="/layers.1/blocks.0/attn/Constant_output_0">
					<dim>4</dim>
				</port>
			</output>
		</layer>
		<layer id="86" name="/layers.1/blocks.0/attn/Reshape" type="Reshape" version="opset1">
			<data special_zero="true" />
			<input>
				<port id="0" precision="FP32">
					<dim>361</dim>
					<dim>49</dim>
					<dim>384</dim>
				</port>
				<port id="1" precision="I64">
					<dim>4</dim>
				</port>
			</input>
			<output>
				<port id="2" precision="FP32" names="/layers.1/blocks.0/attn/Reshape_output_0">
					<dim>361</dim>
					<dim>49</dim>
					<dim>4</dim>
					<dim>96</dim>
				</port>
			</output>
		</layer>
		<layer id="87" name="Constant_588" type="Const" version="opset1">
			<data element_type="i64" shape="" offset="600628" size="8" />
			<output>
				<port id="0" precision="I64" />
			</output>
		</layer>
		<layer id="88" name="onnx::Split_490" type="Const" version="opset1">
			<data element_type="i64" shape="3" offset="600636" size="24" />
			<output>
				<port id="0" precision="I64" names="onnx::Split_490">
					<dim>3</dim>
				</port>
			</output>
		</layer>
		<layer id="89" name="/layers.1/blocks.0/attn/Split" type="VariadicSplit" version="opset1">
			<input>
				<port id="0" precision="FP32">
					<dim>361</dim>
					<dim>49</dim>
					<dim>4</dim>
					<dim>96</dim>
				</port>
				<port id="1" precision="I64" />
				<port id="2" precision="I64">
					<dim>3</dim>
				</port>
			</input>
			<output>
				<port id="3" precision="FP32" names="/layers.1/blocks.0/attn/Split_output_0">
					<dim>361</dim>
					<dim>49</dim>
					<dim>4</dim>
					<dim>32</dim>
				</port>
				<port id="4" precision="FP32" names="/layers.1/blocks.0/attn/Split_output_1">
					<dim>361</dim>
					<dim>49</dim>
					<dim>4</dim>
					<dim>32</dim>
				</port>
				<port id="5" precision="FP32" names="/layers.1/blocks.0/attn/Split_output_2">
					<dim>361</dim>
					<dim>49</dim>
					<dim>4</dim>
					<dim>32</dim>
				</port>
			</output>
		</layer>
		<layer id="90" name="Constant_590" type="Const" version="opset1">
			<data element_type="i64" shape="4" offset="600660" size="32" />
			<output>
				<port id="0" precision="I64">
					<dim>4</dim>
				</port>
			</output>
		</layer>
		<layer id="91" name="/layers.1/blocks.0/attn/Transpose" type="Transpose" version="opset1">
			<input>
				<port id="0" precision="FP32">
					<dim>361</dim>
					<dim>49</dim>
					<dim>4</dim>
					<dim>32</dim>
				</port>
				<port id="1" precision="I64">
					<dim>4</dim>
				</port>
			</input>
			<output>
				<port id="2" precision="FP32" names="/layers.1/blocks.0/attn/Transpose_output_0">
					<dim>361</dim>
					<dim>4</dim>
					<dim>49</dim>
					<dim>32</dim>
				</port>
			</output>
		</layer>
		<layer id="92" name="Constant_594" type="Const" version="opset1">
			<data element_type="i64" shape="4" offset="600692" size="32" />
			<output>
				<port id="0" precision="I64">
					<dim>4</dim>
				</port>
			</output>
		</layer>
		<layer id="93" name="/layers.1/blocks.0/attn/Transpose_2" type="Transpose" version="opset1">
			<input>
				<port id="0" precision="FP32">
					<dim>361</dim>
					<dim>49</dim>
					<dim>4</dim>
					<dim>32</dim>
				</port>
				<port id="1" precision="I64">
					<dim>4</dim>
				</port>
			</input>
			<output>
				<port id="2" precision="FP32" names="/layers.1/blocks.0/attn/Transpose_2_output_0">
					<dim>361</dim>
					<dim>4</dim>
					<dim>32</dim>
					<dim>49</dim>
				</port>
			</output>
		</layer>
		<layer id="94" name="/layers.1/blocks.0/attn/MatMul" type="MatMul" version="opset1">
			<data transpose_a="false" transpose_b="false" />
			<input>
				<port id="0" precision="FP32">
					<dim>361</dim>
					<dim>4</dim>
					<dim>49</dim>
					<dim>32</dim>
				</port>
				<port id="1" precision="FP32">
					<dim>361</dim>
					<dim>4</dim>
					<dim>32</dim>
					<dim>49</dim>
				</port>
			</input>
			<output>
				<port id="2" precision="FP32" names="/layers.1/blocks.0/attn/MatMul_output_0">
					<dim>361</dim>
					<dim>4</dim>
					<dim>49</dim>
					<dim>49</dim>
				</port>
			</output>
		</layer>
		<layer id="95" name="Constant_8419" type="Const" version="opset1">
			<data element_type="f32" shape="1, 1, 1, 1" offset="600724" size="4" />
			<output>
				<port id="0" precision="FP32">
					<dim>1</dim>
					<dim>1</dim>
					<dim>1</dim>
					<dim>1</dim>
				</port>
			</output>
		</layer>
		<layer id="96" name="/layers.1/blocks.0/attn/Mul" type="Multiply" version="opset1">
			<data auto_broadcast="numpy" />
			<input>
				<port id="0" precision="FP32">
					<dim>361</dim>
					<dim>4</dim>
					<dim>49</dim>
					<dim>49</dim>
				</port>
				<port id="1" precision="FP32">
					<dim>1</dim>
					<dim>1</dim>
					<dim>1</dim>
					<dim>1</dim>
				</port>
			</input>
			<output>
				<port id="2" precision="FP32" names="/layers.1/blocks.0/attn/Mul_output_0">
					<dim>361</dim>
					<dim>4</dim>
					<dim>49</dim>
					<dim>49</dim>
				</port>
			</output>
		</layer>
		<layer id="97" name="Constant_8420" type="Const" version="opset1">
			<data element_type="f32" shape="1, 4, 49, 49" offset="600728" size="38416" />
			<output>
				<port id="0" precision="FP32">
					<dim>1</dim>
					<dim>4</dim>
					<dim>49</dim>
					<dim>49</dim>
				</port>
			</output>
		</layer>
		<layer id="98" name="/layers.1/blocks.0/attn/Add" type="Add" version="opset1">
			<data auto_broadcast="numpy" />
			<input>
				<port id="0" precision="FP32">
					<dim>361</dim>
					<dim>4</dim>
					<dim>49</dim>
					<dim>49</dim>
				</port>
				<port id="1" precision="FP32">
					<dim>1</dim>
					<dim>4</dim>
					<dim>49</dim>
					<dim>49</dim>
				</port>
			</input>
			<output>
				<port id="2" precision="FP32" names="/layers.1/blocks.0/attn/Add_output_0">
					<dim>361</dim>
					<dim>4</dim>
					<dim>49</dim>
					<dim>49</dim>
				</port>
			</output>
		</layer>
		<layer id="99" name="/layers.1/blocks.0/attn/Softmax" type="SoftMax" version="opset8">
			<data axis="-1" />
			<input>
				<port id="0" precision="FP32">
					<dim>361</dim>
					<dim>4</dim>
					<dim>49</dim>
					<dim>49</dim>
				</port>
			</input>
			<output>
				<port id="1" precision="FP32" names="/layers.1/blocks.0/attn/Softmax_output_0">
					<dim>361</dim>
					<dim>4</dim>
					<dim>49</dim>
					<dim>49</dim>
				</port>
			</output>
		</layer>
		<layer id="100" name="Constant_592" type="Const" version="opset1">
			<data element_type="i64" shape="4" offset="600660" size="32" />
			<output>
				<port id="0" precision="I64">
					<dim>4</dim>
				</port>
			</output>
		</layer>
		<layer id="101" name="/layers.1/blocks.0/attn/Transpose_1" type="Transpose" version="opset1">
			<input>
				<port id="0" precision="FP32">
					<dim>361</dim>
					<dim>49</dim>
					<dim>4</dim>
					<dim>32</dim>
				</port>
				<port id="1" precision="I64">
					<dim>4</dim>
				</port>
			</input>
			<output>
				<port id="2" precision="FP32" names="/layers.1/blocks.0/attn/Transpose_1_output_0">
					<dim>361</dim>
					<dim>4</dim>
					<dim>49</dim>
					<dim>32</dim>
				</port>
			</output>
		</layer>
		<layer id="102" name="/layers.1/blocks.0/attn/MatMul_1" type="MatMul" version="opset1">
			<data transpose_a="false" transpose_b="false" />
			<input>
				<port id="0" precision="FP32">
					<dim>361</dim>
					<dim>4</dim>
					<dim>49</dim>
					<dim>49</dim>
				</port>
				<port id="1" precision="FP32">
					<dim>361</dim>
					<dim>4</dim>
					<dim>49</dim>
					<dim>32</dim>
				</port>
			</input>
			<output>
				<port id="2" precision="FP32" names="/layers.1/blocks.0/attn/MatMul_1_output_0">
					<dim>361</dim>
					<dim>4</dim>
					<dim>49</dim>
					<dim>32</dim>
				</port>
			</output>
		</layer>
		<layer id="103" name="Constant_601" type="Const" version="opset1">
			<data element_type="i64" shape="4" offset="600660" size="32" />
			<output>
				<port id="0" precision="I64">
					<dim>4</dim>
				</port>
			</output>
		</layer>
		<layer id="104" name="/layers.1/blocks.0/attn/Transpose_3" type="Transpose" version="opset1">
			<input>
				<port id="0" precision="FP32">
					<dim>361</dim>
					<dim>4</dim>
					<dim>49</dim>
					<dim>32</dim>
				</port>
				<port id="1" precision="I64">
					<dim>4</dim>
				</port>
			</input>
			<output>
				<port id="2" precision="FP32" names="/layers.1/blocks.0/attn/Transpose_3_output_0">
					<dim>361</dim>
					<dim>49</dim>
					<dim>4</dim>
					<dim>32</dim>
				</port>
			</output>
		</layer>
		<layer id="105" name="/layers.1/blocks.0/attn/Reshape_1" type="Reshape" version="opset1">
			<data special_zero="true" />
			<input>
				<port id="0" precision="FP32">
					<dim>361</dim>
					<dim>49</dim>
					<dim>4</dim>
					<dim>32</dim>
				</port>
				<port id="1" precision="I64">
					<dim>3</dim>
				</port>
			</input>
			<output>
				<port id="2" precision="FP32" names="/layers.1/blocks.0/attn/Reshape_1_output_0">
					<dim>361</dim>
					<dim>49</dim>
					<dim>128</dim>
				</port>
			</output>
		</layer>
		<layer id="106" name="Transpose_5828" type="Const" version="opset1">
			<data element_type="f32" shape="128, 128" offset="639144" size="65536" />
			<output>
				<port id="0" precision="FP32">
					<dim>128</dim>
					<dim>128</dim>
				</port>
			</output>
		</layer>
		<layer id="107" name="/layers.1/blocks.0/attn/proj/MatMul" type="MatMul" version="opset1">
			<data transpose_a="false" transpose_b="true" />
			<input>
				<port id="0" precision="FP32">
					<dim>361</dim>
					<dim>49</dim>
					<dim>128</dim>
				</port>
				<port id="1" precision="FP32">
					<dim>128</dim>
					<dim>128</dim>
				</port>
			</input>
			<output>
				<port id="2" precision="FP32" names="/layers.1/blocks.0/attn/proj/MatMul_output_0">
					<dim>361</dim>
					<dim>49</dim>
					<dim>128</dim>
				</port>
			</output>
		</layer>
		<layer id="108" name="/layers.1/blocks.0/attn/proj/Add" type="Add" version="opset1">
			<data auto_broadcast="numpy" />
			<input>
				<port id="0" precision="FP32">
					<dim>1</dim>
					<dim>1</dim>
					<dim>128</dim>
				</port>
				<port id="1" precision="FP32">
					<dim>361</dim>
					<dim>49</dim>
					<dim>128</dim>
				</port>
			</input>
			<output>
				<port id="2" precision="FP32" names="/layers.1/blocks.0/attn/proj/Add_output_0">
					<dim>361</dim>
					<dim>49</dim>
					<dim>128</dim>
				</port>
			</output>
		</layer>
		<layer id="109" name="/layers.1/blocks.0/Constant_11_output_0" type="Const" version="opset1">
			<data element_type="i64" shape="6" offset="704680" size="48" />
			<output>
				<port id="0" precision="I64" names="/layers.1/blocks.0/Constant_11_output_0">
					<dim>6</dim>
				</port>
			</output>
		</layer>
		<layer id="110" name="/layers.1/blocks.0/Reshape_5" type="Reshape" version="opset1">
			<data special_zero="true" />
			<input>
				<port id="0" precision="FP32">
					<dim>361</dim>
					<dim>49</dim>
					<dim>128</dim>
				</port>
				<port id="1" precision="I64">
					<dim>6</dim>
				</port>
			</input>
			<output>
				<port id="2" precision="FP32" names="/layers.1/blocks.0/Reshape_5_output_0">
					<dim>1</dim>
					<dim>19</dim>
					<dim>19</dim>
					<dim>7</dim>
					<dim>7</dim>
					<dim>128</dim>
				</port>
			</output>
		</layer>
		<layer id="111" name="Constant_607" type="Const" version="opset1">
			<data element_type="i64" shape="6" offset="402884" size="48" />
			<output>
				<port id="0" precision="I64">
					<dim>6</dim>
				</port>
			</output>
		</layer>
		<layer id="112" name="/layers.1/blocks.0/Transpose_2" type="Transpose" version="opset1">
			<input>
				<port id="0" precision="FP32">
					<dim>1</dim>
					<dim>19</dim>
					<dim>19</dim>
					<dim>7</dim>
					<dim>7</dim>
					<dim>128</dim>
				</port>
				<port id="1" precision="I64">
					<dim>6</dim>
				</port>
			</input>
			<output>
				<port id="2" precision="FP32" names="/layers.1/blocks.0/Transpose_2_output_0">
					<dim>1</dim>
					<dim>19</dim>
					<dim>7</dim>
					<dim>19</dim>
					<dim>7</dim>
					<dim>128</dim>
				</port>
			</output>
		</layer>
		<layer id="113" name="/layers.1/blocks.0/Constant_12_output_0" type="Const" version="opset1">
			<data element_type="i64" shape="4" offset="704728" size="32" />
			<output>
				<port id="0" precision="I64" names="/layers.1/blocks.0/Constant_12_output_0">
					<dim>4</dim>
				</port>
			</output>
		</layer>
		<layer id="114" name="/layers.1/blocks.0/Reshape_6" type="Reshape" version="opset1">
			<data special_zero="true" />
			<input>
				<port id="0" precision="FP32">
					<dim>1</dim>
					<dim>19</dim>
					<dim>7</dim>
					<dim>19</dim>
					<dim>7</dim>
					<dim>128</dim>
				</port>
				<port id="1" precision="I64">
					<dim>4</dim>
				</port>
			</input>
			<output>
				<port id="2" precision="FP32" names="/layers.1/blocks.0/Reshape_6_output_0">
					<dim>1</dim>
					<dim>133</dim>
					<dim>133</dim>
					<dim>128</dim>
				</port>
			</output>
		</layer>
		<layer id="115" name="_v_1967" type="Const" version="opset1">
			<data element_type="i64" shape="2" offset="704760" size="16" />
			<output>
				<port id="0" precision="I64" names="_v_1967">
					<dim>2</dim>
				</port>
			</output>
		</layer>
		<layer id="116" name="_v_1968" type="Const" version="opset1">
			<data element_type="i64" shape="2" offset="704776" size="16" />
			<output>
				<port id="0" precision="I64" names="_v_1968">
					<dim>2</dim>
				</port>
			</output>
		</layer>
		<layer id="117" name="_v_1970" type="Const" version="opset1">
			<data element_type="i64" shape="2" offset="704792" size="16" />
			<output>
				<port id="0" precision="I64" names="_v_1970">
					<dim>2</dim>
				</port>
			</output>
		</layer>
		<layer id="118" name="_v_1969" type="Const" version="opset1">
			<data element_type="i64" shape="2" offset="704808" size="16" />
			<output>
				<port id="0" precision="I64" names="_v_1969">
					<dim>2</dim>
				</port>
			</output>
		</layer>
		<layer id="119" name="_v_1971" type="Slice" version="opset8">
			<input>
				<port id="0" precision="FP32">
					<dim>1</dim>
					<dim>133</dim>
					<dim>133</dim>
					<dim>128</dim>
				</port>
				<port id="1" precision="I64">
					<dim>2</dim>
				</port>
				<port id="2" precision="I64">
					<dim>2</dim>
				</port>
				<port id="3" precision="I64">
					<dim>2</dim>
				</port>
				<port id="4" precision="I64">
					<dim>2</dim>
				</port>
			</input>
			<output>
				<port id="5" precision="FP32" names="_v_1971">
					<dim>1</dim>
					<dim>128</dim>
					<dim>128</dim>
					<dim>128</dim>
				</port>
			</output>
		</layer>
		<layer id="120" name="/layers.1/blocks.0/Constant_21_output_0" type="Const" version="opset1">
			<data element_type="i64" shape="3" offset="704824" size="24" />
			<output>
				<port id="0" precision="I64" names="/layers.1/blocks.0/Constant_21_output_0">
					<dim>3</dim>
				</port>
			</output>
		</layer>
		<layer id="121" name="/layers.1/blocks.0/Reshape_7" type="Reshape" version="opset1">
			<data special_zero="true" />
			<input>
				<port id="0" precision="FP32">
					<dim>1</dim>
					<dim>128</dim>
					<dim>128</dim>
					<dim>128</dim>
				</port>
				<port id="1" precision="I64">
					<dim>3</dim>
				</port>
			</input>
			<output>
				<port id="2" precision="FP32" names="/layers.1/blocks.0/Reshape_7_output_0">
					<dim>1</dim>
					<dim>16384</dim>
					<dim>128</dim>
				</port>
			</output>
		</layer>
		<layer id="122" name="/layers.1/blocks.0/Add" type="Add" version="opset1">
			<data auto_broadcast="numpy" />
			<input>
				<port id="0" precision="FP32">
					<dim>1</dim>
					<dim>16384</dim>
					<dim>128</dim>
				</port>
				<port id="1" precision="FP32">
					<dim>1</dim>
					<dim>16384</dim>
					<dim>128</dim>
				</port>
			</input>
			<output>
				<port id="2" precision="FP32" names="/layers.1/blocks.0/Add_output_0">
					<dim>1</dim>
					<dim>16384</dim>
					<dim>128</dim>
				</port>
			</output>
		</layer>
		<layer id="123" name="Constant_613" type="Const" version="opset1">
			<data element_type="i64" shape="3" offset="400664" size="24" />
			<output>
				<port id="0" precision="I64">
					<dim>3</dim>
				</port>
			</output>
		</layer>
		<layer id="124" name="/layers.1/blocks.0/Transpose_3" type="Transpose" version="opset1">
			<input>
				<port id="0" precision="FP32">
					<dim>1</dim>
					<dim>16384</dim>
					<dim>128</dim>
				</port>
				<port id="1" precision="I64">
					<dim>3</dim>
				</port>
			</input>
			<output>
				<port id="2" precision="FP32" names="/layers.1/blocks.0/Transpose_3_output_0">
					<dim>1</dim>
					<dim>128</dim>
					<dim>16384</dim>
				</port>
			</output>
		</layer>
		<layer id="125" name="/layers.1/blocks.0/Reshape_8" type="Reshape" version="opset1">
			<data special_zero="true" />
			<input>
				<port id="0" precision="FP32">
					<dim>1</dim>
					<dim>128</dim>
					<dim>16384</dim>
				</port>
				<port id="1" precision="I64">
					<dim>4</dim>
				</port>
			</input>
			<output>
				<port id="2" precision="FP32" names="/layers.1/blocks.0/Reshape_8_output_0">
					<dim>1</dim>
					<dim>128</dim>
					<dim>128</dim>
					<dim>128</dim>
				</port>
			</output>
		</layer>
		<layer id="126" name="Reshape_623" type="Const" version="opset1">
			<data element_type="f32" shape="128, 1, 1, 3, 3" offset="704848" size="4608" />
			<output>
				<port id="0" precision="FP32">
					<dim>128</dim>
					<dim>1</dim>
					<dim>1</dim>
					<dim>3</dim>
					<dim>3</dim>
				</port>
			</output>
		</layer>
		<layer id="127" name="/layers.1/blocks.0/local_conv/c/Conv/WithoutBiases" type="GroupConvolution" version="opset1">
			<data strides="1, 1" pads_begin="1, 1" pads_end="1, 1" dilations="1, 1" auto_pad="explicit" />
			<input>
				<port id="0" precision="FP32">
					<dim>1</dim>
					<dim>128</dim>
					<dim>128</dim>
					<dim>128</dim>
				</port>
				<port id="1" precision="FP32">
					<dim>128</dim>
					<dim>1</dim>
					<dim>1</dim>
					<dim>3</dim>
					<dim>3</dim>
				</port>
			</input>
			<output>
				<port id="2" precision="FP32">
					<dim>1</dim>
					<dim>128</dim>
					<dim>128</dim>
					<dim>128</dim>
				</port>
			</output>
		</layer>
		<layer id="128" name="Reshape_673" type="Const" version="opset1">
			<data element_type="f32" shape="1, 128, 1, 1" offset="709456" size="512" />
			<output>
				<port id="0" precision="FP32">
					<dim>1</dim>
					<dim>128</dim>
					<dim>1</dim>
					<dim>1</dim>
				</port>
			</output>
		</layer>
		<layer id="129" name="/layers.1/blocks.0/local_conv/c/Conv" type="Add" version="opset1">
			<data auto_broadcast="numpy" />
			<input>
				<port id="0" precision="FP32">
					<dim>1</dim>
					<dim>128</dim>
					<dim>128</dim>
					<dim>128</dim>
				</port>
				<port id="1" precision="FP32">
					<dim>1</dim>
					<dim>128</dim>
					<dim>1</dim>
					<dim>1</dim>
				</port>
			</input>
			<output>
				<port id="2" precision="FP32" names="/layers.1/blocks.0/local_conv/c/Conv_output_0">
					<dim>1</dim>
					<dim>128</dim>
					<dim>128</dim>
					<dim>128</dim>
				</port>
			</output>
		</layer>
		<layer id="130" name="/layers.1/blocks.0/Constant_23_output_0" type="Const" version="opset1">
			<data element_type="i64" shape="3" offset="709968" size="24" />
			<output>
				<port id="0" precision="I64" names="/layers.1/blocks.0/Constant_23_output_0">
					<dim>3</dim>
				</port>
			</output>
		</layer>
		<layer id="131" name="/layers.1/blocks.0/Reshape_9" type="Reshape" version="opset1">
			<data special_zero="true" />
			<input>
				<port id="0" precision="FP32">
					<dim>1</dim>
					<dim>128</dim>
					<dim>128</dim>
					<dim>128</dim>
				</port>
				<port id="1" precision="I64">
					<dim>3</dim>
				</port>
			</input>
			<output>
				<port id="2" precision="FP32" names="/layers.1/blocks.0/Reshape_9_output_0">
					<dim>1</dim>
					<dim>128</dim>
					<dim>16384</dim>
				</port>
			</output>
		</layer>
		<layer id="132" name="Constant_676" type="Const" version="opset1">
			<data element_type="i64" shape="3" offset="400664" size="24" />
			<output>
				<port id="0" precision="I64">
					<dim>3</dim>
				</port>
			</output>
		</layer>
		<layer id="133" name="/layers.1/blocks.0/Transpose_4" type="Transpose" version="opset1">
			<input>
				<port id="0" precision="FP32">
					<dim>1</dim>
					<dim>128</dim>
					<dim>16384</dim>
				</port>
				<port id="1" precision="I64">
					<dim>3</dim>
				</port>
			</input>
			<output>
				<port id="2" precision="FP32" names="/layers.1/blocks.0/Transpose_4_output_0">
					<dim>1</dim>
					<dim>16384</dim>
					<dim>128</dim>
				</port>
			</output>
		</layer>
		<layer id="134" name="Constant_8425" type="Const" version="opset1">
			<data element_type="f32" shape="1, 1, 128" offset="709992" size="512" />
			<output>
				<port id="0" precision="FP32">
					<dim>1</dim>
					<dim>1</dim>
					<dim>128</dim>
				</port>
			</output>
		</layer>
		<layer id="135" name="Constant_8424" type="Const" version="opset1">
			<data element_type="f32" shape="1, 1, 512" offset="710504" size="2048" />
			<output>
				<port id="0" precision="FP32">
					<dim>1</dim>
					<dim>1</dim>
					<dim>512</dim>
				</port>
			</output>
		</layer>
		<layer id="136" name="Range_681" type="Const" version="opset1">
			<data element_type="i64" shape="1" offset="402956" size="8" />
			<output>
				<port id="0" precision="I64">
					<dim>1</dim>
				</port>
			</output>
		</layer>
		<layer id="137" name="MVN_682" type="MVN" version="opset6">
			<data eps="9.9999997473787516e-06" normalize_variance="true" eps_mode="INSIDE_SQRT" />
			<input>
				<port id="0" precision="FP32">
					<dim>1</dim>
					<dim>16384</dim>
					<dim>128</dim>
				</port>
				<port id="1" precision="I64">
					<dim>1</dim>
				</port>
			</input>
			<output>
				<port id="2" precision="FP32">
					<dim>1</dim>
					<dim>16384</dim>
					<dim>128</dim>
				</port>
			</output>
		</layer>
		<layer id="138" name="Constant_8422" type="Const" version="opset1">
			<data element_type="f32" shape="1, 1, 128" offset="712552" size="512" />
			<output>
				<port id="0" precision="FP32">
					<dim>1</dim>
					<dim>1</dim>
					<dim>128</dim>
				</port>
			</output>
		</layer>
		<layer id="139" name="Multiply_683" type="Multiply" version="opset1">
			<data auto_broadcast="numpy" />
			<input>
				<port id="0" precision="FP32">
					<dim>1</dim>
					<dim>16384</dim>
					<dim>128</dim>
				</port>
				<port id="1" precision="FP32">
					<dim>1</dim>
					<dim>1</dim>
					<dim>128</dim>
				</port>
			</input>
			<output>
				<port id="2" precision="FP32">
					<dim>1</dim>
					<dim>16384</dim>
					<dim>128</dim>
				</port>
			</output>
		</layer>
		<layer id="140" name="Constant_8423" type="Const" version="opset1">
			<data element_type="f32" shape="1, 1, 128" offset="713064" size="512" />
			<output>
				<port id="0" precision="FP32">
					<dim>1</dim>
					<dim>1</dim>
					<dim>128</dim>
				</port>
			</output>
		</layer>
		<layer id="141" name="/layers.1/blocks.0/mlp/norm/LayerNormalization" type="Add" version="opset1">
			<data auto_broadcast="numpy" />
			<input>
				<port id="0" precision="FP32">
					<dim>1</dim>
					<dim>16384</dim>
					<dim>128</dim>
				</port>
				<port id="1" precision="FP32">
					<dim>1</dim>
					<dim>1</dim>
					<dim>128</dim>
				</port>
			</input>
			<output>
				<port id="2" precision="FP32" names="/layers.1/blocks.0/mlp/norm/LayerNormalization_output_0">
					<dim>1</dim>
					<dim>16384</dim>
					<dim>128</dim>
				</port>
			</output>
		</layer>
		<layer id="142" name="Transpose_5917" type="Const" version="opset1">
			<data element_type="f32" shape="512, 128" offset="713576" size="262144" />
			<output>
				<port id="0" precision="FP32">
					<dim>512</dim>
					<dim>128</dim>
				</port>
			</output>
		</layer>
		<layer id="143" name="/layers.1/blocks.0/mlp/fc1/MatMul" type="MatMul" version="opset1">
			<data transpose_a="false" transpose_b="true" />
			<input>
				<port id="0" precision="FP32">
					<dim>1</dim>
					<dim>16384</dim>
					<dim>128</dim>
				</port>
				<port id="1" precision="FP32">
					<dim>512</dim>
					<dim>128</dim>
				</port>
			</input>
			<output>
				<port id="2" precision="FP32" names="/layers.1/blocks.0/mlp/fc1/MatMul_output_0">
					<dim>1</dim>
					<dim>16384</dim>
					<dim>512</dim>
				</port>
			</output>
		</layer>
		<layer id="144" name="/layers.1/blocks.0/mlp/fc1/Add" type="Add" version="opset1">
			<data auto_broadcast="numpy" />
			<input>
				<port id="0" precision="FP32">
					<dim>1</dim>
					<dim>1</dim>
					<dim>512</dim>
				</port>
				<port id="1" precision="FP32">
					<dim>1</dim>
					<dim>16384</dim>
					<dim>512</dim>
				</port>
			</input>
			<output>
				<port id="2" precision="FP32" names="/layers.1/blocks.0/mlp/fc1/Add_output_0">
					<dim>1</dim>
					<dim>16384</dim>
					<dim>512</dim>
				</port>
			</output>
		</layer>
		<layer id="145" name="/layers.1/blocks.0/mlp/act/Mul_1" type="Gelu" version="opset7">
			<data approximation_mode="ERF" />
			<input>
				<port id="0" precision="FP32">
					<dim>1</dim>
					<dim>16384</dim>
					<dim>512</dim>
				</port>
			</input>
			<output>
				<port id="1" precision="FP32" names="/layers.1/blocks.0/mlp/act/Mul_1_output_0">
					<dim>1</dim>
					<dim>16384</dim>
					<dim>512</dim>
				</port>
			</output>
		</layer>
		<layer id="146" name="Transpose_5934" type="Const" version="opset1">
			<data element_type="f32" shape="128, 512" offset="975720" size="262144" />
			<output>
				<port id="0" precision="FP32">
					<dim>128</dim>
					<dim>512</dim>
				</port>
			</output>
		</layer>
		<layer id="147" name="/layers.1/blocks.0/mlp/fc2/MatMul" type="MatMul" version="opset1">
			<data transpose_a="false" transpose_b="true" />
			<input>
				<port id="0" precision="FP32">
					<dim>1</dim>
					<dim>16384</dim>
					<dim>512</dim>
				</port>
				<port id="1" precision="FP32">
					<dim>128</dim>
					<dim>512</dim>
				</port>
			</input>
			<output>
				<port id="2" precision="FP32" names="/layers.1/blocks.0/mlp/fc2/MatMul_output_0">
					<dim>1</dim>
					<dim>16384</dim>
					<dim>128</dim>
				</port>
			</output>
		</layer>
		<layer id="148" name="/layers.1/blocks.0/mlp/fc2/Add" type="Add" version="opset1">
			<data auto_broadcast="numpy" />
			<input>
				<port id="0" precision="FP32">
					<dim>1</dim>
					<dim>1</dim>
					<dim>128</dim>
				</port>
				<port id="1" precision="FP32">
					<dim>1</dim>
					<dim>16384</dim>
					<dim>128</dim>
				</port>
			</input>
			<output>
				<port id="2" precision="FP32" names="/layers.1/blocks.0/mlp/fc2/Add_output_0">
					<dim>1</dim>
					<dim>16384</dim>
					<dim>128</dim>
				</port>
			</output>
		</layer>
		<layer id="149" name="/layers.1/blocks.0/Add_1" type="Add" version="opset1">
			<data auto_broadcast="numpy" />
			<input>
				<port id="0" precision="FP32">
					<dim>1</dim>
					<dim>16384</dim>
					<dim>128</dim>
				</port>
				<port id="1" precision="FP32">
					<dim>1</dim>
					<dim>16384</dim>
					<dim>128</dim>
				</port>
			</input>
			<output>
				<port id="2" precision="FP32" names="/layers.1/blocks.0/Add_1_output_0">
					<dim>1</dim>
					<dim>16384</dim>
					<dim>128</dim>
				</port>
			</output>
		</layer>
		<layer id="150" name="Constant_8431" type="Const" version="opset1">
			<data element_type="f32" shape="1, 1, 128" offset="1237864" size="512" />
			<output>
				<port id="0" precision="FP32">
					<dim>1</dim>
					<dim>1</dim>
					<dim>128</dim>
				</port>
			</output>
		</layer>
		<layer id="151" name="Constant_8428" type="Const" version="opset1">
			<data element_type="f32" shape="1, 1, 384" offset="1238376" size="1536" />
			<output>
				<port id="0" precision="FP32">
					<dim>1</dim>
					<dim>1</dim>
					<dim>384</dim>
				</port>
			</output>
		</layer>
		<layer id="152" name="/layers.1/blocks.1/Reshape" type="Reshape" version="opset1">
			<data special_zero="true" />
			<input>
				<port id="0" precision="FP32">
					<dim>1</dim>
					<dim>16384</dim>
					<dim>128</dim>
				</port>
				<port id="1" precision="I64">
					<dim>4</dim>
				</port>
			</input>
			<output>
				<port id="2" precision="FP32" names="/layers.1/blocks.1/Reshape_output_0">
					<dim>1</dim>
					<dim>128</dim>
					<dim>128</dim>
					<dim>128</dim>
				</port>
			</output>
		</layer>
		<layer id="153" name="Constant_698" type="Const" version="opset1">
			<data element_type="i64" shape="4" offset="402768" size="32" />
			<output>
				<port id="0" precision="I64">
					<dim>4</dim>
				</port>
			</output>
		</layer>
		<layer id="154" name="Constant_699" type="Const" version="opset1">
			<data element_type="i64" shape="4" offset="402800" size="32" />
			<output>
				<port id="0" precision="I64">
					<dim>4</dim>
				</port>
			</output>
		</layer>
		<layer id="155" name="Constant_697" type="Const" version="opset1">
			<data element_type="f32" shape="" offset="402832" size="4" />
			<output>
				<port id="0" precision="FP32" />
			</output>
		</layer>
		<layer id="156" name="/layers.1/blocks.1/Pad" type="Pad" version="opset12">
			<data pad_mode="constant" />
			<input>
				<port id="0" precision="FP32">
					<dim>1</dim>
					<dim>128</dim>
					<dim>128</dim>
					<dim>128</dim>
				</port>
				<port id="1" precision="I64">
					<dim>4</dim>
				</port>
				<port id="2" precision="I64">
					<dim>4</dim>
				</port>
				<port id="3" precision="FP32" />
			</input>
			<output>
				<port id="4" precision="FP32" names="/layers.1/blocks.1/Pad_output_0">
					<dim>1</dim>
					<dim>133</dim>
					<dim>133</dim>
					<dim>128</dim>
				</port>
			</output>
		</layer>
		<layer id="157" name="/layers.1/blocks.1/Reshape_3" type="Reshape" version="opset1">
			<data special_zero="true" />
			<input>
				<port id="0" precision="FP32">
					<dim>1</dim>
					<dim>133</dim>
					<dim>133</dim>
					<dim>128</dim>
				</port>
				<port id="1" precision="I64">
					<dim>6</dim>
				</port>
			</input>
			<output>
				<port id="2" precision="FP32" names="/layers.1/blocks.1/Reshape_3_output_0">
					<dim>1</dim>
					<dim>19</dim>
					<dim>7</dim>
					<dim>19</dim>
					<dim>7</dim>
					<dim>128</dim>
				</port>
			</output>
		</layer>
		<layer id="158" name="Constant_702" type="Const" version="opset1">
			<data element_type="i64" shape="6" offset="402884" size="48" />
			<output>
				<port id="0" precision="I64">
					<dim>6</dim>
				</port>
			</output>
		</layer>
		<layer id="159" name="/layers.1/blocks.1/Transpose_1" type="Transpose" version="opset1">
			<input>
				<port id="0" precision="FP32">
					<dim>1</dim>
					<dim>19</dim>
					<dim>7</dim>
					<dim>19</dim>
					<dim>7</dim>
					<dim>128</dim>
				</port>
				<port id="1" precision="I64">
					<dim>6</dim>
				</port>
			</input>
			<output>
				<port id="2" precision="FP32" names="/layers.1/blocks.1/Transpose_1_output_0">
					<dim>1</dim>
					<dim>19</dim>
					<dim>19</dim>
					<dim>7</dim>
					<dim>7</dim>
					<dim>128</dim>
				</port>
			</output>
		</layer>
		<layer id="160" name="/layers.1/blocks.1/Reshape_4" type="Reshape" version="opset1">
			<data special_zero="true" />
			<input>
				<port id="0" precision="FP32">
					<dim>1</dim>
					<dim>19</dim>
					<dim>19</dim>
					<dim>7</dim>
					<dim>7</dim>
					<dim>128</dim>
				</port>
				<port id="1" precision="I64">
					<dim>3</dim>
				</port>
			</input>
			<output>
				<port id="2" precision="FP32" names="/layers.1/blocks.1/Reshape_4_output_0">
					<dim>361</dim>
					<dim>49</dim>
					<dim>128</dim>
				</port>
			</output>
		</layer>
		<layer id="161" name="Range_708" type="Const" version="opset1">
			<data element_type="i64" shape="1" offset="402956" size="8" />
			<output>
				<port id="0" precision="I64">
					<dim>1</dim>
				</port>
			</output>
		</layer>
		<layer id="162" name="MVN_709" type="MVN" version="opset6">
			<data eps="9.9999997473787516e-06" normalize_variance="true" eps_mode="INSIDE_SQRT" />
			<input>
				<port id="0" precision="FP32">
					<dim>361</dim>
					<dim>49</dim>
					<dim>128</dim>
				</port>
				<port id="1" precision="I64">
					<dim>1</dim>
				</port>
			</input>
			<output>
				<port id="2" precision="FP32">
					<dim>361</dim>
					<dim>49</dim>
					<dim>128</dim>
				</port>
			</output>
		</layer>
		<layer id="163" name="Constant_8426" type="Const" version="opset1">
			<data element_type="f32" shape="1, 1, 128" offset="1239912" size="512" />
			<output>
				<port id="0" precision="FP32">
					<dim>1</dim>
					<dim>1</dim>
					<dim>128</dim>
				</port>
			</output>
		</layer>
		<layer id="164" name="Multiply_710" type="Multiply" version="opset1">
			<data auto_broadcast="numpy" />
			<input>
				<port id="0" precision="FP32">
					<dim>361</dim>
					<dim>49</dim>
					<dim>128</dim>
				</port>
				<port id="1" precision="FP32">
					<dim>1</dim>
					<dim>1</dim>
					<dim>128</dim>
				</port>
			</input>
			<output>
				<port id="2" precision="FP32">
					<dim>361</dim>
					<dim>49</dim>
					<dim>128</dim>
				</port>
			</output>
		</layer>
		<layer id="165" name="Constant_8427" type="Const" version="opset1">
			<data element_type="f32" shape="1, 1, 128" offset="1240424" size="512" />
			<output>
				<port id="0" precision="FP32">
					<dim>1</dim>
					<dim>1</dim>
					<dim>128</dim>
				</port>
			</output>
		</layer>
		<layer id="166" name="/layers.1/blocks.1/attn/norm/LayerNormalization" type="Add" version="opset1">
			<data auto_broadcast="numpy" />
			<input>
				<port id="0" precision="FP32">
					<dim>361</dim>
					<dim>49</dim>
					<dim>128</dim>
				</port>
				<port id="1" precision="FP32">
					<dim>1</dim>
					<dim>1</dim>
					<dim>128</dim>
				</port>
			</input>
			<output>
				<port id="2" precision="FP32" names="/layers.1/blocks.1/attn/norm/LayerNormalization_output_0">
					<dim>361</dim>
					<dim>49</dim>
					<dim>128</dim>
				</port>
			</output>
		</layer>
		<layer id="167" name="Transpose_5991" type="Const" version="opset1">
			<data element_type="f32" shape="384, 128" offset="1240936" size="196608" />
			<output>
				<port id="0" precision="FP32">
					<dim>384</dim>
					<dim>128</dim>
				</port>
			</output>
		</layer>
		<layer id="168" name="/layers.1/blocks.1/attn/qkv/MatMul" type="MatMul" version="opset1">
			<data transpose_a="false" transpose_b="true" />
			<input>
				<port id="0" precision="FP32">
					<dim>361</dim>
					<dim>49</dim>
					<dim>128</dim>
				</port>
				<port id="1" precision="FP32">
					<dim>384</dim>
					<dim>128</dim>
				</port>
			</input>
			<output>
				<port id="2" precision="FP32" names="/layers.1/blocks.1/attn/qkv/MatMul_output_0">
					<dim>361</dim>
					<dim>49</dim>
					<dim>384</dim>
				</port>
			</output>
		</layer>
		<layer id="169" name="/layers.1/blocks.1/attn/qkv/Add" type="Add" version="opset1">
			<data auto_broadcast="numpy" />
			<input>
				<port id="0" precision="FP32">
					<dim>1</dim>
					<dim>1</dim>
					<dim>384</dim>
				</port>
				<port id="1" precision="FP32">
					<dim>361</dim>
					<dim>49</dim>
					<dim>384</dim>
				</port>
			</input>
			<output>
				<port id="2" precision="FP32" names="/layers.1/blocks.1/attn/qkv/Add_output_0">
					<dim>361</dim>
					<dim>49</dim>
					<dim>384</dim>
				</port>
			</output>
		</layer>
		<layer id="170" name="/layers.1/blocks.1/attn/Reshape" type="Reshape" version="opset1">
			<data special_zero="true" />
			<input>
				<port id="0" precision="FP32">
					<dim>361</dim>
					<dim>49</dim>
					<dim>384</dim>
				</port>
				<port id="1" precision="I64">
					<dim>4</dim>
				</port>
			</input>
			<output>
				<port id="2" precision="FP32" names="/layers.1/blocks.1/attn/Reshape_output_0">
					<dim>361</dim>
					<dim>49</dim>
					<dim>4</dim>
					<dim>96</dim>
				</port>
			</output>
		</layer>
		<layer id="171" name="Constant_715" type="Const" version="opset1">
			<data element_type="i64" shape="" offset="600628" size="8" />
			<output>
				<port id="0" precision="I64" />
			</output>
		</layer>
		<layer id="172" name="/layers.1/blocks.1/attn/Split" type="VariadicSplit" version="opset1">
			<input>
				<port id="0" precision="FP32">
					<dim>361</dim>
					<dim>49</dim>
					<dim>4</dim>
					<dim>96</dim>
				</port>
				<port id="1" precision="I64" />
				<port id="2" precision="I64">
					<dim>3</dim>
				</port>
			</input>
			<output>
				<port id="3" precision="FP32" names="/layers.1/blocks.1/attn/Split_output_0">
					<dim>361</dim>
					<dim>49</dim>
					<dim>4</dim>
					<dim>32</dim>
				</port>
				<port id="4" precision="FP32" names="/layers.1/blocks.1/attn/Split_output_1">
					<dim>361</dim>
					<dim>49</dim>
					<dim>4</dim>
					<dim>32</dim>
				</port>
				<port id="5" precision="FP32" names="/layers.1/blocks.1/attn/Split_output_2">
					<dim>361</dim>
					<dim>49</dim>
					<dim>4</dim>
					<dim>32</dim>
				</port>
			</output>
		</layer>
		<layer id="173" name="Constant_717" type="Const" version="opset1">
			<data element_type="i64" shape="4" offset="600660" size="32" />
			<output>
				<port id="0" precision="I64">
					<dim>4</dim>
				</port>
			</output>
		</layer>
		<layer id="174" name="/layers.1/blocks.1/attn/Transpose" type="Transpose" version="opset1">
			<input>
				<port id="0" precision="FP32">
					<dim>361</dim>
					<dim>49</dim>
					<dim>4</dim>
					<dim>32</dim>
				</port>
				<port id="1" precision="I64">
					<dim>4</dim>
				</port>
			</input>
			<output>
				<port id="2" precision="FP32" names="/layers.1/blocks.1/attn/Transpose_output_0">
					<dim>361</dim>
					<dim>4</dim>
					<dim>49</dim>
					<dim>32</dim>
				</port>
			</output>
		</layer>
		<layer id="175" name="Constant_721" type="Const" version="opset1">
			<data element_type="i64" shape="4" offset="600692" size="32" />
			<output>
				<port id="0" precision="I64">
					<dim>4</dim>
				</port>
			</output>
		</layer>
		<layer id="176" name="/layers.1/blocks.1/attn/Transpose_2" type="Transpose" version="opset1">
			<input>
				<port id="0" precision="FP32">
					<dim>361</dim>
					<dim>49</dim>
					<dim>4</dim>
					<dim>32</dim>
				</port>
				<port id="1" precision="I64">
					<dim>4</dim>
				</port>
			</input>
			<output>
				<port id="2" precision="FP32" names="/layers.1/blocks.1/attn/Transpose_2_output_0">
					<dim>361</dim>
					<dim>4</dim>
					<dim>32</dim>
					<dim>49</dim>
				</port>
			</output>
		</layer>
		<layer id="177" name="/layers.1/blocks.1/attn/MatMul" type="MatMul" version="opset1">
			<data transpose_a="false" transpose_b="false" />
			<input>
				<port id="0" precision="FP32">
					<dim>361</dim>
					<dim>4</dim>
					<dim>49</dim>
					<dim>32</dim>
				</port>
				<port id="1" precision="FP32">
					<dim>361</dim>
					<dim>4</dim>
					<dim>32</dim>
					<dim>49</dim>
				</port>
			</input>
			<output>
				<port id="2" precision="FP32" names="/layers.1/blocks.1/attn/MatMul_output_0">
					<dim>361</dim>
					<dim>4</dim>
					<dim>49</dim>
					<dim>49</dim>
				</port>
			</output>
		</layer>
		<layer id="178" name="Constant_8429" type="Const" version="opset1">
			<data element_type="f32" shape="1, 1, 1, 1" offset="600724" size="4" />
			<output>
				<port id="0" precision="FP32">
					<dim>1</dim>
					<dim>1</dim>
					<dim>1</dim>
					<dim>1</dim>
				</port>
			</output>
		</layer>
		<layer id="179" name="/layers.1/blocks.1/attn/Mul" type="Multiply" version="opset1">
			<data auto_broadcast="numpy" />
			<input>
				<port id="0" precision="FP32">
					<dim>361</dim>
					<dim>4</dim>
					<dim>49</dim>
					<dim>49</dim>
				</port>
				<port id="1" precision="FP32">
					<dim>1</dim>
					<dim>1</dim>
					<dim>1</dim>
					<dim>1</dim>
				</port>
			</input>
			<output>
				<port id="2" precision="FP32" names="/layers.1/blocks.1/attn/Mul_output_0">
					<dim>361</dim>
					<dim>4</dim>
					<dim>49</dim>
					<dim>49</dim>
				</port>
			</output>
		</layer>
		<layer id="180" name="Constant_8430" type="Const" version="opset1">
			<data element_type="f32" shape="1, 4, 49, 49" offset="1437544" size="38416" />
			<output>
				<port id="0" precision="FP32">
					<dim>1</dim>
					<dim>4</dim>
					<dim>49</dim>
					<dim>49</dim>
				</port>
			</output>
		</layer>
		<layer id="181" name="/layers.1/blocks.1/attn/Add" type="Add" version="opset1">
			<data auto_broadcast="numpy" />
			<input>
				<port id="0" precision="FP32">
					<dim>361</dim>
					<dim>4</dim>
					<dim>49</dim>
					<dim>49</dim>
				</port>
				<port id="1" precision="FP32">
					<dim>1</dim>
					<dim>4</dim>
					<dim>49</dim>
					<dim>49</dim>
				</port>
			</input>
			<output>
				<port id="2" precision="FP32" names="/layers.1/blocks.1/attn/Add_output_0">
					<dim>361</dim>
					<dim>4</dim>
					<dim>49</dim>
					<dim>49</dim>
				</port>
			</output>
		</layer>
		<layer id="182" name="/layers.1/blocks.1/attn/Softmax" type="SoftMax" version="opset8">
			<data axis="-1" />
			<input>
				<port id="0" precision="FP32">
					<dim>361</dim>
					<dim>4</dim>
					<dim>49</dim>
					<dim>49</dim>
				</port>
			</input>
			<output>
				<port id="1" precision="FP32" names="/layers.1/blocks.1/attn/Softmax_output_0">
					<dim>361</dim>
					<dim>4</dim>
					<dim>49</dim>
					<dim>49</dim>
				</port>
			</output>
		</layer>
		<layer id="183" name="Constant_719" type="Const" version="opset1">
			<data element_type="i64" shape="4" offset="600660" size="32" />
			<output>
				<port id="0" precision="I64">
					<dim>4</dim>
				</port>
			</output>
		</layer>
		<layer id="184" name="/layers.1/blocks.1/attn/Transpose_1" type="Transpose" version="opset1">
			<input>
				<port id="0" precision="FP32">
					<dim>361</dim>
					<dim>49</dim>
					<dim>4</dim>
					<dim>32</dim>
				</port>
				<port id="1" precision="I64">
					<dim>4</dim>
				</port>
			</input>
			<output>
				<port id="2" precision="FP32" names="/layers.1/blocks.1/attn/Transpose_1_output_0">
					<dim>361</dim>
					<dim>4</dim>
					<dim>49</dim>
					<dim>32</dim>
				</port>
			</output>
		</layer>
		<layer id="185" name="/layers.1/blocks.1/attn/MatMul_1" type="MatMul" version="opset1">
			<data transpose_a="false" transpose_b="false" />
			<input>
				<port id="0" precision="FP32">
					<dim>361</dim>
					<dim>4</dim>
					<dim>49</dim>
					<dim>49</dim>
				</port>
				<port id="1" precision="FP32">
					<dim>361</dim>
					<dim>4</dim>
					<dim>49</dim>
					<dim>32</dim>
				</port>
			</input>
			<output>
				<port id="2" precision="FP32" names="/layers.1/blocks.1/attn/MatMul_1_output_0">
					<dim>361</dim>
					<dim>4</dim>
					<dim>49</dim>
					<dim>32</dim>
				</port>
			</output>
		</layer>
		<layer id="186" name="Constant_728" type="Const" version="opset1">
			<data element_type="i64" shape="4" offset="600660" size="32" />
			<output>
				<port id="0" precision="I64">
					<dim>4</dim>
				</port>
			</output>
		</layer>
		<layer id="187" name="/layers.1/blocks.1/attn/Transpose_3" type="Transpose" version="opset1">
			<input>
				<port id="0" precision="FP32">
					<dim>361</dim>
					<dim>4</dim>
					<dim>49</dim>
					<dim>32</dim>
				</port>
				<port id="1" precision="I64">
					<dim>4</dim>
				</port>
			</input>
			<output>
				<port id="2" precision="FP32" names="/layers.1/blocks.1/attn/Transpose_3_output_0">
					<dim>361</dim>
					<dim>49</dim>
					<dim>4</dim>
					<dim>32</dim>
				</port>
			</output>
		</layer>
		<layer id="188" name="/layers.1/blocks.1/attn/Reshape_1" type="Reshape" version="opset1">
			<data special_zero="true" />
			<input>
				<port id="0" precision="FP32">
					<dim>361</dim>
					<dim>49</dim>
					<dim>4</dim>
					<dim>32</dim>
				</port>
				<port id="1" precision="I64">
					<dim>3</dim>
				</port>
			</input>
			<output>
				<port id="2" precision="FP32" names="/layers.1/blocks.1/attn/Reshape_1_output_0">
					<dim>361</dim>
					<dim>49</dim>
					<dim>128</dim>
				</port>
			</output>
		</layer>
		<layer id="189" name="Transpose_6072" type="Const" version="opset1">
			<data element_type="f32" shape="128, 128" offset="1475960" size="65536" />
			<output>
				<port id="0" precision="FP32">
					<dim>128</dim>
					<dim>128</dim>
				</port>
			</output>
		</layer>
		<layer id="190" name="/layers.1/blocks.1/attn/proj/MatMul" type="MatMul" version="opset1">
			<data transpose_a="false" transpose_b="true" />
			<input>
				<port id="0" precision="FP32">
					<dim>361</dim>
					<dim>49</dim>
					<dim>128</dim>
				</port>
				<port id="1" precision="FP32">
					<dim>128</dim>
					<dim>128</dim>
				</port>
			</input>
			<output>
				<port id="2" precision="FP32" names="/layers.1/blocks.1/attn/proj/MatMul_output_0">
					<dim>361</dim>
					<dim>49</dim>
					<dim>128</dim>
				</port>
			</output>
		</layer>
		<layer id="191" name="/layers.1/blocks.1/attn/proj/Add" type="Add" version="opset1">
			<data auto_broadcast="numpy" />
			<input>
				<port id="0" precision="FP32">
					<dim>1</dim>
					<dim>1</dim>
					<dim>128</dim>
				</port>
				<port id="1" precision="FP32">
					<dim>361</dim>
					<dim>49</dim>
					<dim>128</dim>
				</port>
			</input>
			<output>
				<port id="2" precision="FP32" names="/layers.1/blocks.1/attn/proj/Add_output_0">
					<dim>361</dim>
					<dim>49</dim>
					<dim>128</dim>
				</port>
			</output>
		</layer>
		<layer id="192" name="/layers.1/blocks.1/Reshape_5" type="Reshape" version="opset1">
			<data special_zero="true" />
			<input>
				<port id="0" precision="FP32">
					<dim>361</dim>
					<dim>49</dim>
					<dim>128</dim>
				</port>
				<port id="1" precision="I64">
					<dim>6</dim>
				</port>
			</input>
			<output>
				<port id="2" precision="FP32" names="/layers.1/blocks.1/Reshape_5_output_0">
					<dim>1</dim>
					<dim>19</dim>
					<dim>19</dim>
					<dim>7</dim>
					<dim>7</dim>
					<dim>128</dim>
				</port>
			</output>
		</layer>
		<layer id="193" name="Constant_734" type="Const" version="opset1">
			<data element_type="i64" shape="6" offset="402884" size="48" />
			<output>
				<port id="0" precision="I64">
					<dim>6</dim>
				</port>
			</output>
		</layer>
		<layer id="194" name="/layers.1/blocks.1/Transpose_2" type="Transpose" version="opset1">
			<input>
				<port id="0" precision="FP32">
					<dim>1</dim>
					<dim>19</dim>
					<dim>19</dim>
					<dim>7</dim>
					<dim>7</dim>
					<dim>128</dim>
				</port>
				<port id="1" precision="I64">
					<dim>6</dim>
				</port>
			</input>
			<output>
				<port id="2" precision="FP32" names="/layers.1/blocks.1/Transpose_2_output_0">
					<dim>1</dim>
					<dim>19</dim>
					<dim>7</dim>
					<dim>19</dim>
					<dim>7</dim>
					<dim>128</dim>
				</port>
			</output>
		</layer>
		<layer id="195" name="/layers.1/blocks.1/Reshape_6" type="Reshape" version="opset1">
			<data special_zero="true" />
			<input>
				<port id="0" precision="FP32">
					<dim>1</dim>
					<dim>19</dim>
					<dim>7</dim>
					<dim>19</dim>
					<dim>7</dim>
					<dim>128</dim>
				</port>
				<port id="1" precision="I64">
					<dim>4</dim>
				</port>
			</input>
			<output>
				<port id="2" precision="FP32" names="/layers.1/blocks.1/Reshape_6_output_0">
					<dim>1</dim>
					<dim>133</dim>
					<dim>133</dim>
					<dim>128</dim>
				</port>
			</output>
		</layer>
		<layer id="196" name="_v_1976" type="Slice" version="opset8">
			<input>
				<port id="0" precision="FP32">
					<dim>1</dim>
					<dim>133</dim>
					<dim>133</dim>
					<dim>128</dim>
				</port>
				<port id="1" precision="I64">
					<dim>2</dim>
				</port>
				<port id="2" precision="I64">
					<dim>2</dim>
				</port>
				<port id="3" precision="I64">
					<dim>2</dim>
				</port>
				<port id="4" precision="I64">
					<dim>2</dim>
				</port>
			</input>
			<output>
				<port id="5" precision="FP32" names="_v_1976">
					<dim>1</dim>
					<dim>128</dim>
					<dim>128</dim>
					<dim>128</dim>
				</port>
			</output>
		</layer>
		<layer id="197" name="/layers.1/blocks.1/Reshape_7" type="Reshape" version="opset1">
			<data special_zero="true" />
			<input>
				<port id="0" precision="FP32">
					<dim>1</dim>
					<dim>128</dim>
					<dim>128</dim>
					<dim>128</dim>
				</port>
				<port id="1" precision="I64">
					<dim>3</dim>
				</port>
			</input>
			<output>
				<port id="2" precision="FP32" names="/layers.1/blocks.1/Reshape_7_output_0">
					<dim>1</dim>
					<dim>16384</dim>
					<dim>128</dim>
				</port>
			</output>
		</layer>
		<layer id="198" name="/layers.1/blocks.1/Add" type="Add" version="opset1">
			<data auto_broadcast="numpy" />
			<input>
				<port id="0" precision="FP32">
					<dim>1</dim>
					<dim>16384</dim>
					<dim>128</dim>
				</port>
				<port id="1" precision="FP32">
					<dim>1</dim>
					<dim>16384</dim>
					<dim>128</dim>
				</port>
			</input>
			<output>
				<port id="2" precision="FP32" names="/layers.1/blocks.1/Add_output_0">
					<dim>1</dim>
					<dim>16384</dim>
					<dim>128</dim>
				</port>
			</output>
		</layer>
		<layer id="199" name="Constant_740" type="Const" version="opset1">
			<data element_type="i64" shape="3" offset="400664" size="24" />
			<output>
				<port id="0" precision="I64">
					<dim>3</dim>
				</port>
			</output>
		</layer>
		<layer id="200" name="/layers.1/blocks.1/Transpose_3" type="Transpose" version="opset1">
			<input>
				<port id="0" precision="FP32">
					<dim>1</dim>
					<dim>16384</dim>
					<dim>128</dim>
				</port>
				<port id="1" precision="I64">
					<dim>3</dim>
				</port>
			</input>
			<output>
				<port id="2" precision="FP32" names="/layers.1/blocks.1/Transpose_3_output_0">
					<dim>1</dim>
					<dim>128</dim>
					<dim>16384</dim>
				</port>
			</output>
		</layer>
		<layer id="201" name="/layers.1/blocks.1/Reshape_8" type="Reshape" version="opset1">
			<data special_zero="true" />
			<input>
				<port id="0" precision="FP32">
					<dim>1</dim>
					<dim>128</dim>
					<dim>16384</dim>
				</port>
				<port id="1" precision="I64">
					<dim>4</dim>
				</port>
			</input>
			<output>
				<port id="2" precision="FP32" names="/layers.1/blocks.1/Reshape_8_output_0">
					<dim>1</dim>
					<dim>128</dim>
					<dim>128</dim>
					<dim>128</dim>
				</port>
			</output>
		</layer>
		<layer id="202" name="Reshape_750" type="Const" version="opset1">
			<data element_type="f32" shape="128, 1, 1, 3, 3" offset="1541496" size="4608" />
			<output>
				<port id="0" precision="FP32">
					<dim>128</dim>
					<dim>1</dim>
					<dim>1</dim>
					<dim>3</dim>
					<dim>3</dim>
				</port>
			</output>
		</layer>
		<layer id="203" name="/layers.1/blocks.1/local_conv/c/Conv/WithoutBiases" type="GroupConvolution" version="opset1">
			<data strides="1, 1" pads_begin="1, 1" pads_end="1, 1" dilations="1, 1" auto_pad="explicit" />
			<input>
				<port id="0" precision="FP32">
					<dim>1</dim>
					<dim>128</dim>
					<dim>128</dim>
					<dim>128</dim>
				</port>
				<port id="1" precision="FP32">
					<dim>128</dim>
					<dim>1</dim>
					<dim>1</dim>
					<dim>3</dim>
					<dim>3</dim>
				</port>
			</input>
			<output>
				<port id="2" precision="FP32">
					<dim>1</dim>
					<dim>128</dim>
					<dim>128</dim>
					<dim>128</dim>
				</port>
			</output>
		</layer>
		<layer id="204" name="Reshape_800" type="Const" version="opset1">
			<data element_type="f32" shape="1, 128, 1, 1" offset="1546104" size="512" />
			<output>
				<port id="0" precision="FP32">
					<dim>1</dim>
					<dim>128</dim>
					<dim>1</dim>
					<dim>1</dim>
				</port>
			</output>
		</layer>
		<layer id="205" name="/layers.1/blocks.1/local_conv/c/Conv" type="Add" version="opset1">
			<data auto_broadcast="numpy" />
			<input>
				<port id="0" precision="FP32">
					<dim>1</dim>
					<dim>128</dim>
					<dim>128</dim>
					<dim>128</dim>
				</port>
				<port id="1" precision="FP32">
					<dim>1</dim>
					<dim>128</dim>
					<dim>1</dim>
					<dim>1</dim>
				</port>
			</input>
			<output>
				<port id="2" precision="FP32" names="/layers.1/blocks.1/local_conv/c/Conv_output_0">
					<dim>1</dim>
					<dim>128</dim>
					<dim>128</dim>
					<dim>128</dim>
				</port>
			</output>
		</layer>
		<layer id="206" name="/layers.1/blocks.1/Reshape_9" type="Reshape" version="opset1">
			<data special_zero="true" />
			<input>
				<port id="0" precision="FP32">
					<dim>1</dim>
					<dim>128</dim>
					<dim>128</dim>
					<dim>128</dim>
				</port>
				<port id="1" precision="I64">
					<dim>3</dim>
				</port>
			</input>
			<output>
				<port id="2" precision="FP32" names="/layers.1/blocks.1/Reshape_9_output_0">
					<dim>1</dim>
					<dim>128</dim>
					<dim>16384</dim>
				</port>
			</output>
		</layer>
		<layer id="207" name="Constant_803" type="Const" version="opset1">
			<data element_type="i64" shape="3" offset="400664" size="24" />
			<output>
				<port id="0" precision="I64">
					<dim>3</dim>
				</port>
			</output>
		</layer>
		<layer id="208" name="/layers.1/blocks.1/Transpose_4" type="Transpose" version="opset1">
			<input>
				<port id="0" precision="FP32">
					<dim>1</dim>
					<dim>128</dim>
					<dim>16384</dim>
				</port>
				<port id="1" precision="I64">
					<dim>3</dim>
				</port>
			</input>
			<output>
				<port id="2" precision="FP32" names="/layers.1/blocks.1/Transpose_4_output_0">
					<dim>1</dim>
					<dim>16384</dim>
					<dim>128</dim>
				</port>
			</output>
		</layer>
		<layer id="209" name="Constant_8435" type="Const" version="opset1">
			<data element_type="f32" shape="1, 1, 128" offset="1546616" size="512" />
			<output>
				<port id="0" precision="FP32">
					<dim>1</dim>
					<dim>1</dim>
					<dim>128</dim>
				</port>
			</output>
		</layer>
		<layer id="210" name="Constant_8434" type="Const" version="opset1">
			<data element_type="f32" shape="1, 1, 512" offset="1547128" size="2048" />
			<output>
				<port id="0" precision="FP32">
					<dim>1</dim>
					<dim>1</dim>
					<dim>512</dim>
				</port>
			</output>
		</layer>
		<layer id="211" name="Range_808" type="Const" version="opset1">
			<data element_type="i64" shape="1" offset="402956" size="8" />
			<output>
				<port id="0" precision="I64">
					<dim>1</dim>
				</port>
			</output>
		</layer>
		<layer id="212" name="MVN_809" type="MVN" version="opset6">
			<data eps="9.9999997473787516e-06" normalize_variance="true" eps_mode="INSIDE_SQRT" />
			<input>
				<port id="0" precision="FP32">
					<dim>1</dim>
					<dim>16384</dim>
					<dim>128</dim>
				</port>
				<port id="1" precision="I64">
					<dim>1</dim>
				</port>
			</input>
			<output>
				<port id="2" precision="FP32">
					<dim>1</dim>
					<dim>16384</dim>
					<dim>128</dim>
				</port>
			</output>
		</layer>
		<layer id="213" name="Constant_8432" type="Const" version="opset1">
			<data element_type="f32" shape="1, 1, 128" offset="1549176" size="512" />
			<output>
				<port id="0" precision="FP32">
					<dim>1</dim>
					<dim>1</dim>
					<dim>128</dim>
				</port>
			</output>
		</layer>
		<layer id="214" name="Multiply_810" type="Multiply" version="opset1">
			<data auto_broadcast="numpy" />
			<input>
				<port id="0" precision="FP32">
					<dim>1</dim>
					<dim>16384</dim>
					<dim>128</dim>
				</port>
				<port id="1" precision="FP32">
					<dim>1</dim>
					<dim>1</dim>
					<dim>128</dim>
				</port>
			</input>
			<output>
				<port id="2" precision="FP32">
					<dim>1</dim>
					<dim>16384</dim>
					<dim>128</dim>
				</port>
			</output>
		</layer>
		<layer id="215" name="Constant_8433" type="Const" version="opset1">
			<data element_type="f32" shape="1, 1, 128" offset="1549688" size="512" />
			<output>
				<port id="0" precision="FP32">
					<dim>1</dim>
					<dim>1</dim>
					<dim>128</dim>
				</port>
			</output>
		</layer>
		<layer id="216" name="/layers.1/blocks.1/mlp/norm/LayerNormalization" type="Add" version="opset1">
			<data auto_broadcast="numpy" />
			<input>
				<port id="0" precision="FP32">
					<dim>1</dim>
					<dim>16384</dim>
					<dim>128</dim>
				</port>
				<port id="1" precision="FP32">
					<dim>1</dim>
					<dim>1</dim>
					<dim>128</dim>
				</port>
			</input>
			<output>
				<port id="2" precision="FP32" names="/layers.1/blocks.1/mlp/norm/LayerNormalization_output_0">
					<dim>1</dim>
					<dim>16384</dim>
					<dim>128</dim>
				</port>
			</output>
		</layer>
		<layer id="217" name="Transpose_6145" type="Const" version="opset1">
			<data element_type="f32" shape="512, 128" offset="1550200" size="262144" />
			<output>
				<port id="0" precision="FP32">
					<dim>512</dim>
					<dim>128</dim>
				</port>
			</output>
		</layer>
		<layer id="218" name="/layers.1/blocks.1/mlp/fc1/MatMul" type="MatMul" version="opset1">
			<data transpose_a="false" transpose_b="true" />
			<input>
				<port id="0" precision="FP32">
					<dim>1</dim>
					<dim>16384</dim>
					<dim>128</dim>
				</port>
				<port id="1" precision="FP32">
					<dim>512</dim>
					<dim>128</dim>
				</port>
			</input>
			<output>
				<port id="2" precision="FP32" names="/layers.1/blocks.1/mlp/fc1/MatMul_output_0">
					<dim>1</dim>
					<dim>16384</dim>
					<dim>512</dim>
				</port>
			</output>
		</layer>
		<layer id="219" name="/layers.1/blocks.1/mlp/fc1/Add" type="Add" version="opset1">
			<data auto_broadcast="numpy" />
			<input>
				<port id="0" precision="FP32">
					<dim>1</dim>
					<dim>1</dim>
					<dim>512</dim>
				</port>
				<port id="1" precision="FP32">
					<dim>1</dim>
					<dim>16384</dim>
					<dim>512</dim>
				</port>
			</input>
			<output>
				<port id="2" precision="FP32" names="/layers.1/blocks.1/mlp/fc1/Add_output_0">
					<dim>1</dim>
					<dim>16384</dim>
					<dim>512</dim>
				</port>
			</output>
		</layer>
		<layer id="220" name="/layers.1/blocks.1/mlp/act/Mul_1" type="Gelu" version="opset7">
			<data approximation_mode="ERF" />
			<input>
				<port id="0" precision="FP32">
					<dim>1</dim>
					<dim>16384</dim>
					<dim>512</dim>
				</port>
			</input>
			<output>
				<port id="1" precision="FP32" names="/layers.1/blocks.1/mlp/act/Mul_1_output_0">
					<dim>1</dim>
					<dim>16384</dim>
					<dim>512</dim>
				</port>
			</output>
		</layer>
		<layer id="221" name="Transpose_6162" type="Const" version="opset1">
			<data element_type="f32" shape="128, 512" offset="1812344" size="262144" />
			<output>
				<port id="0" precision="FP32">
					<dim>128</dim>
					<dim>512</dim>
				</port>
			</output>
		</layer>
		<layer id="222" name="/layers.1/blocks.1/mlp/fc2/MatMul" type="MatMul" version="opset1">
			<data transpose_a="false" transpose_b="true" />
			<input>
				<port id="0" precision="FP32">
					<dim>1</dim>
					<dim>16384</dim>
					<dim>512</dim>
				</port>
				<port id="1" precision="FP32">
					<dim>128</dim>
					<dim>512</dim>
				</port>
			</input>
			<output>
				<port id="2" precision="FP32" names="/layers.1/blocks.1/mlp/fc2/MatMul_output_0">
					<dim>1</dim>
					<dim>16384</dim>
					<dim>128</dim>
				</port>
			</output>
		</layer>
		<layer id="223" name="/layers.1/blocks.1/mlp/fc2/Add" type="Add" version="opset1">
			<data auto_broadcast="numpy" />
			<input>
				<port id="0" precision="FP32">
					<dim>1</dim>
					<dim>1</dim>
					<dim>128</dim>
				</port>
				<port id="1" precision="FP32">
					<dim>1</dim>
					<dim>16384</dim>
					<dim>128</dim>
				</port>
			</input>
			<output>
				<port id="2" precision="FP32" names="/layers.1/blocks.1/mlp/fc2/Add_output_0">
					<dim>1</dim>
					<dim>16384</dim>
					<dim>128</dim>
				</port>
			</output>
		</layer>
		<layer id="224" name="/layers.1/blocks.1/Add_1" type="Add" version="opset1">
			<data auto_broadcast="numpy" />
			<input>
				<port id="0" precision="FP32">
					<dim>1</dim>
					<dim>16384</dim>
					<dim>128</dim>
				</port>
				<port id="1" precision="FP32">
					<dim>1</dim>
					<dim>16384</dim>
					<dim>128</dim>
				</port>
			</input>
			<output>
				<port id="2" precision="FP32" names="/layers.1/blocks.1/Add_1_output_0">
					<dim>1</dim>
					<dim>16384</dim>
					<dim>128</dim>
				</port>
			</output>
		</layer>
		<layer id="225" name="/layers.1/downsample/Constant_output_0" type="Const" version="opset1">
			<data element_type="i64" shape="4" offset="2074488" size="32" />
			<output>
				<port id="0" precision="I64" names="/layers.1/downsample/Constant_output_0">
					<dim>4</dim>
				</port>
			</output>
		</layer>
		<layer id="226" name="/layers.1/downsample/Reshape" type="Reshape" version="opset1">
			<data special_zero="true" />
			<input>
				<port id="0" precision="FP32">
					<dim>1</dim>
					<dim>16384</dim>
					<dim>128</dim>
				</port>
				<port id="1" precision="I64">
					<dim>4</dim>
				</port>
			</input>
			<output>
				<port id="2" precision="FP32" names="/layers.1/downsample/Reshape_output_0">
					<dim>1</dim>
					<dim>128</dim>
					<dim>128</dim>
					<dim>128</dim>
				</port>
			</output>
		</layer>
		<layer id="227" name="Constant_823" type="Const" version="opset1">
			<data element_type="i64" shape="4" offset="2074520" size="32" />
			<output>
				<port id="0" precision="I64">
					<dim>4</dim>
				</port>
			</output>
		</layer>
		<layer id="228" name="/layers.1/downsample/Transpose" type="Transpose" version="opset1">
			<input>
				<port id="0" precision="FP32">
					<dim>1</dim>
					<dim>128</dim>
					<dim>128</dim>
					<dim>128</dim>
				</port>
				<port id="1" precision="I64">
					<dim>4</dim>
				</port>
			</input>
			<output>
				<port id="2" precision="FP32" names="/layers.1/downsample/Transpose_output_0">
					<dim>1</dim>
					<dim>128</dim>
					<dim>128</dim>
					<dim>128</dim>
				</port>
			</output>
		</layer>
		<layer id="229" name="onnx::Conv_2487" type="Const" version="opset1">
			<data element_type="f32" shape="160, 128, 1, 1" offset="2074552" size="81920" />
			<output>
				<port id="0" precision="FP32" names="onnx::Conv_2487">
					<dim>160</dim>
					<dim>128</dim>
					<dim>1</dim>
					<dim>1</dim>
				</port>
			</output>
		</layer>
		<layer id="230" name="/layers.1/downsample/conv1/c/Conv/WithoutBiases" type="Convolution" version="opset1">
			<data strides="1, 1" dilations="1, 1" pads_begin="0, 0" pads_end="0, 0" auto_pad="explicit" />
			<input>
				<port id="0" precision="FP32">
					<dim>1</dim>
					<dim>128</dim>
					<dim>128</dim>
					<dim>128</dim>
				</port>
				<port id="1" precision="FP32">
					<dim>160</dim>
					<dim>128</dim>
					<dim>1</dim>
					<dim>1</dim>
				</port>
			</input>
			<output>
				<port id="2" precision="FP32">
					<dim>1</dim>
					<dim>160</dim>
					<dim>128</dim>
					<dim>128</dim>
				</port>
			</output>
		</layer>
		<layer id="231" name="Reshape_836" type="Const" version="opset1">
			<data element_type="f32" shape="1, 160, 1, 1" offset="2156472" size="640" />
			<output>
				<port id="0" precision="FP32">
					<dim>1</dim>
					<dim>160</dim>
					<dim>1</dim>
					<dim>1</dim>
				</port>
			</output>
		</layer>
		<layer id="232" name="/layers.1/downsample/conv1/c/Conv" type="Add" version="opset1">
			<data auto_broadcast="numpy" />
			<input>
				<port id="0" precision="FP32">
					<dim>1</dim>
					<dim>160</dim>
					<dim>128</dim>
					<dim>128</dim>
				</port>
				<port id="1" precision="FP32">
					<dim>1</dim>
					<dim>160</dim>
					<dim>1</dim>
					<dim>1</dim>
				</port>
			</input>
			<output>
				<port id="2" precision="FP32" names="/layers.1/downsample/conv1/c/Conv_output_0">
					<dim>1</dim>
					<dim>160</dim>
					<dim>128</dim>
					<dim>128</dim>
				</port>
			</output>
		</layer>
		<layer id="233" name="/layers.1/downsample/act/Mul_1" type="Gelu" version="opset7">
			<data approximation_mode="ERF" />
			<input>
				<port id="0" precision="FP32">
					<dim>1</dim>
					<dim>160</dim>
					<dim>128</dim>
					<dim>128</dim>
				</port>
			</input>
			<output>
				<port id="1" precision="FP32" names="/layers.1/downsample/act/Mul_1_output_0">
					<dim>1</dim>
					<dim>160</dim>
					<dim>128</dim>
					<dim>128</dim>
				</port>
			</output>
		</layer>
		<layer id="234" name="Reshape_850" type="Const" version="opset1">
			<data element_type="f32" shape="160, 1, 1, 3, 3" offset="2157112" size="5760" />
			<output>
				<port id="0" precision="FP32">
					<dim>160</dim>
					<dim>1</dim>
					<dim>1</dim>
					<dim>3</dim>
					<dim>3</dim>
				</port>
			</output>
		</layer>
		<layer id="235" name="/layers.1/downsample/conv2/c/Conv/WithoutBiases" type="GroupConvolution" version="opset1">
			<data strides="2, 2" pads_begin="1, 1" pads_end="1, 1" dilations="1, 1" auto_pad="explicit" />
			<input>
				<port id="0" precision="FP32">
					<dim>1</dim>
					<dim>160</dim>
					<dim>128</dim>
					<dim>128</dim>
				</port>
				<port id="1" precision="FP32">
					<dim>160</dim>
					<dim>1</dim>
					<dim>1</dim>
					<dim>3</dim>
					<dim>3</dim>
				</port>
			</input>
			<output>
				<port id="2" precision="FP32">
					<dim>1</dim>
					<dim>160</dim>
					<dim>64</dim>
					<dim>64</dim>
				</port>
			</output>
		</layer>
		<layer id="236" name="Reshape_900" type="Const" version="opset1">
			<data element_type="f32" shape="1, 160, 1, 1" offset="2162872" size="640" />
			<output>
				<port id="0" precision="FP32">
					<dim>1</dim>
					<dim>160</dim>
					<dim>1</dim>
					<dim>1</dim>
				</port>
			</output>
		</layer>
		<layer id="237" name="/layers.1/downsample/conv2/c/Conv" type="Add" version="opset1">
			<data auto_broadcast="numpy" />
			<input>
				<port id="0" precision="FP32">
					<dim>1</dim>
					<dim>160</dim>
					<dim>64</dim>
					<dim>64</dim>
				</port>
				<port id="1" precision="FP32">
					<dim>1</dim>
					<dim>160</dim>
					<dim>1</dim>
					<dim>1</dim>
				</port>
			</input>
			<output>
				<port id="2" precision="FP32" names="/layers.1/downsample/conv2/c/Conv_output_0">
					<dim>1</dim>
					<dim>160</dim>
					<dim>64</dim>
					<dim>64</dim>
				</port>
			</output>
		</layer>
		<layer id="238" name="/layers.1/downsample/act_1/Mul_1" type="Gelu" version="opset7">
			<data approximation_mode="ERF" />
			<input>
				<port id="0" precision="FP32">
					<dim>1</dim>
					<dim>160</dim>
					<dim>64</dim>
					<dim>64</dim>
				</port>
			</input>
			<output>
				<port id="1" precision="FP32" names="/layers.1/downsample/act_1/Mul_1_output_0">
					<dim>1</dim>
					<dim>160</dim>
					<dim>64</dim>
					<dim>64</dim>
				</port>
			</output>
		</layer>
		<layer id="239" name="onnx::Conv_2493" type="Const" version="opset1">
			<data element_type="f32" shape="160, 160, 1, 1" offset="2163512" size="102400" />
			<output>
				<port id="0" precision="FP32" names="onnx::Conv_2493">
					<dim>160</dim>
					<dim>160</dim>
					<dim>1</dim>
					<dim>1</dim>
				</port>
			</output>
		</layer>
		<layer id="240" name="/layers.1/downsample/conv3/c/Conv/WithoutBiases" type="Convolution" version="opset1">
			<data strides="1, 1" dilations="1, 1" pads_begin="0, 0" pads_end="0, 0" auto_pad="explicit" />
			<input>
				<port id="0" precision="FP32">
					<dim>1</dim>
					<dim>160</dim>
					<dim>64</dim>
					<dim>64</dim>
				</port>
				<port id="1" precision="FP32">
					<dim>160</dim>
					<dim>160</dim>
					<dim>1</dim>
					<dim>1</dim>
				</port>
			</input>
			<output>
				<port id="2" precision="FP32">
					<dim>1</dim>
					<dim>160</dim>
					<dim>64</dim>
					<dim>64</dim>
				</port>
			</output>
		</layer>
		<layer id="241" name="Reshape_918" type="Const" version="opset1">
			<data element_type="f32" shape="1, 160, 1, 1" offset="2265912" size="640" />
			<output>
				<port id="0" precision="FP32">
					<dim>1</dim>
					<dim>160</dim>
					<dim>1</dim>
					<dim>1</dim>
				</port>
			</output>
		</layer>
		<layer id="242" name="/layers.1/downsample/conv3/c/Conv" type="Add" version="opset1">
			<data auto_broadcast="numpy" />
			<input>
				<port id="0" precision="FP32">
					<dim>1</dim>
					<dim>160</dim>
					<dim>64</dim>
					<dim>64</dim>
				</port>
				<port id="1" precision="FP32">
					<dim>1</dim>
					<dim>160</dim>
					<dim>1</dim>
					<dim>1</dim>
				</port>
			</input>
			<output>
				<port id="2" precision="FP32" names="/layers.1/downsample/conv3/c/Conv_output_0">
					<dim>1</dim>
					<dim>160</dim>
					<dim>64</dim>
					<dim>64</dim>
				</port>
			</output>
		</layer>
		<layer id="243" name="_v_1963" type="Const" version="opset1">
			<data element_type="i64" shape="3" offset="2266552" size="24" />
			<output>
				<port id="0" precision="I64" names="_v_1963">
					<dim>3</dim>
				</port>
			</output>
		</layer>
		<layer id="244" name="/layers.1/downsample/Reshape_1" type="Reshape" version="opset1">
			<data special_zero="true" />
			<input>
				<port id="0" precision="FP32">
					<dim>1</dim>
					<dim>160</dim>
					<dim>64</dim>
					<dim>64</dim>
				</port>
				<port id="1" precision="I64">
					<dim>3</dim>
				</port>
			</input>
			<output>
				<port id="2" precision="FP32" names="/layers.1/downsample/Reshape_1_output_0">
					<dim>1</dim>
					<dim>160</dim>
					<dim>4096</dim>
				</port>
			</output>
		</layer>
		<layer id="245" name="Constant_921" type="Const" version="opset1">
			<data element_type="i64" shape="3" offset="400664" size="24" />
			<output>
				<port id="0" precision="I64">
					<dim>3</dim>
				</port>
			</output>
		</layer>
		<layer id="246" name="/layers.1/downsample/Transpose_1" type="Transpose" version="opset1">
			<input>
				<port id="0" precision="FP32">
					<dim>1</dim>
					<dim>160</dim>
					<dim>4096</dim>
				</port>
				<port id="1" precision="I64">
					<dim>3</dim>
				</port>
			</input>
			<output>
				<port id="2" precision="FP32" names="/layers.1/downsample/Transpose_1_output_0">
					<dim>1</dim>
					<dim>4096</dim>
					<dim>160</dim>
				</port>
			</output>
		</layer>
		<layer id="247" name="Constant_8441" type="Const" version="opset1">
			<data element_type="f32" shape="1, 1, 160" offset="2266576" size="640" />
			<output>
				<port id="0" precision="FP32">
					<dim>1</dim>
					<dim>1</dim>
					<dim>160</dim>
				</port>
			</output>
		</layer>
		<layer id="248" name="Constant_8438" type="Const" version="opset1">
			<data element_type="f32" shape="1, 1, 480" offset="2267216" size="1920" />
			<output>
				<port id="0" precision="FP32">
					<dim>1</dim>
					<dim>1</dim>
					<dim>480</dim>
				</port>
			</output>
		</layer>
		<layer id="249" name="/layers.2/blocks.0/Constant_output_0" type="Const" version="opset1">
			<data element_type="i64" shape="4" offset="2269136" size="32" />
			<output>
				<port id="0" precision="I64" names="/layers.2/blocks.0/Constant_output_0">
					<dim>4</dim>
				</port>
			</output>
		</layer>
		<layer id="250" name="/layers.2/blocks.0/Reshape" type="Reshape" version="opset1">
			<data special_zero="true" />
			<input>
				<port id="0" precision="FP32">
					<dim>1</dim>
					<dim>4096</dim>
					<dim>160</dim>
				</port>
				<port id="1" precision="I64">
					<dim>4</dim>
				</port>
			</input>
			<output>
				<port id="2" precision="FP32" names="/layers.2/blocks.0/Reshape_output_0">
					<dim>1</dim>
					<dim>64</dim>
					<dim>64</dim>
					<dim>160</dim>
				</port>
			</output>
		</layer>
		<layer id="251" name="Constant_926" type="Const" version="opset1">
			<data element_type="i64" shape="4" offset="402768" size="32" />
			<output>
				<port id="0" precision="I64">
					<dim>4</dim>
				</port>
			</output>
		</layer>
		<layer id="252" name="Constant_927" type="Const" version="opset1">
			<data element_type="i64" shape="4" offset="2269168" size="32" />
			<output>
				<port id="0" precision="I64">
					<dim>4</dim>
				</port>
			</output>
		</layer>
		<layer id="253" name="Constant_925" type="Const" version="opset1">
			<data element_type="f32" shape="" offset="402832" size="4" />
			<output>
				<port id="0" precision="FP32" />
			</output>
		</layer>
		<layer id="254" name="/layers.2/blocks.0/Pad" type="Pad" version="opset12">
			<data pad_mode="constant" />
			<input>
				<port id="0" precision="FP32">
					<dim>1</dim>
					<dim>64</dim>
					<dim>64</dim>
					<dim>160</dim>
				</port>
				<port id="1" precision="I64">
					<dim>4</dim>
				</port>
				<port id="2" precision="I64">
					<dim>4</dim>
				</port>
				<port id="3" precision="FP32" />
			</input>
			<output>
				<port id="4" precision="FP32" names="/layers.2/blocks.0/Pad_output_0">
					<dim>1</dim>
					<dim>70</dim>
					<dim>70</dim>
					<dim>160</dim>
				</port>
			</output>
		</layer>
		<layer id="255" name="/layers.2/blocks.0/Constant_9_output_0" type="Const" version="opset1">
			<data element_type="i64" shape="6" offset="2269200" size="48" />
			<output>
				<port id="0" precision="I64" names="/layers.2/blocks.0/Constant_9_output_0">
					<dim>6</dim>
				</port>
			</output>
		</layer>
		<layer id="256" name="/layers.2/blocks.0/Reshape_3" type="Reshape" version="opset1">
			<data special_zero="true" />
			<input>
				<port id="0" precision="FP32">
					<dim>1</dim>
					<dim>70</dim>
					<dim>70</dim>
					<dim>160</dim>
				</port>
				<port id="1" precision="I64">
					<dim>6</dim>
				</port>
			</input>
			<output>
				<port id="2" precision="FP32" names="/layers.2/blocks.0/Reshape_3_output_0">
					<dim>1</dim>
					<dim>5</dim>
					<dim>14</dim>
					<dim>5</dim>
					<dim>14</dim>
					<dim>160</dim>
				</port>
			</output>
		</layer>
		<layer id="257" name="Constant_930" type="Const" version="opset1">
			<data element_type="i64" shape="6" offset="402884" size="48" />
			<output>
				<port id="0" precision="I64">
					<dim>6</dim>
				</port>
			</output>
		</layer>
		<layer id="258" name="/layers.2/blocks.0/Transpose_1" type="Transpose" version="opset1">
			<input>
				<port id="0" precision="FP32">
					<dim>1</dim>
					<dim>5</dim>
					<dim>14</dim>
					<dim>5</dim>
					<dim>14</dim>
					<dim>160</dim>
				</port>
				<port id="1" precision="I64">
					<dim>6</dim>
				</port>
			</input>
			<output>
				<port id="2" precision="FP32" names="/layers.2/blocks.0/Transpose_1_output_0">
					<dim>1</dim>
					<dim>5</dim>
					<dim>5</dim>
					<dim>14</dim>
					<dim>14</dim>
					<dim>160</dim>
				</port>
			</output>
		</layer>
		<layer id="259" name="/layers.2/blocks.0/Constant_10_output_0" type="Const" version="opset1">
			<data element_type="i64" shape="3" offset="2269248" size="24" />
			<output>
				<port id="0" precision="I64" names="/layers.2/blocks.0/Constant_10_output_0">
					<dim>3</dim>
				</port>
			</output>
		</layer>
		<layer id="260" name="/layers.2/blocks.0/Reshape_4" type="Reshape" version="opset1">
			<data special_zero="true" />
			<input>
				<port id="0" precision="FP32">
					<dim>1</dim>
					<dim>5</dim>
					<dim>5</dim>
					<dim>14</dim>
					<dim>14</dim>
					<dim>160</dim>
				</port>
				<port id="1" precision="I64">
					<dim>3</dim>
				</port>
			</input>
			<output>
				<port id="2" precision="FP32" names="/layers.2/blocks.0/Reshape_4_output_0">
					<dim>25</dim>
					<dim>196</dim>
					<dim>160</dim>
				</port>
			</output>
		</layer>
		<layer id="261" name="Range_936" type="Const" version="opset1">
			<data element_type="i64" shape="1" offset="402956" size="8" />
			<output>
				<port id="0" precision="I64">
					<dim>1</dim>
				</port>
			</output>
		</layer>
		<layer id="262" name="MVN_937" type="MVN" version="opset6">
			<data eps="9.9999997473787516e-06" normalize_variance="true" eps_mode="INSIDE_SQRT" />
			<input>
				<port id="0" precision="FP32">
					<dim>25</dim>
					<dim>196</dim>
					<dim>160</dim>
				</port>
				<port id="1" precision="I64">
					<dim>1</dim>
				</port>
			</input>
			<output>
				<port id="2" precision="FP32">
					<dim>25</dim>
					<dim>196</dim>
					<dim>160</dim>
				</port>
			</output>
		</layer>
		<layer id="263" name="Constant_8436" type="Const" version="opset1">
			<data element_type="f32" shape="1, 1, 160" offset="2269272" size="640" />
			<output>
				<port id="0" precision="FP32">
					<dim>1</dim>
					<dim>1</dim>
					<dim>160</dim>
				</port>
			</output>
		</layer>
		<layer id="264" name="Multiply_938" type="Multiply" version="opset1">
			<data auto_broadcast="numpy" />
			<input>
				<port id="0" precision="FP32">
					<dim>25</dim>
					<dim>196</dim>
					<dim>160</dim>
				</port>
				<port id="1" precision="FP32">
					<dim>1</dim>
					<dim>1</dim>
					<dim>160</dim>
				</port>
			</input>
			<output>
				<port id="2" precision="FP32">
					<dim>25</dim>
					<dim>196</dim>
					<dim>160</dim>
				</port>
			</output>
		</layer>
		<layer id="265" name="Constant_8437" type="Const" version="opset1">
			<data element_type="f32" shape="1, 1, 160" offset="2269912" size="640" />
			<output>
				<port id="0" precision="FP32">
					<dim>1</dim>
					<dim>1</dim>
					<dim>160</dim>
				</port>
			</output>
		</layer>
		<layer id="266" name="/layers.2/blocks.0/attn/norm/LayerNormalization" type="Add" version="opset1">
			<data auto_broadcast="numpy" />
			<input>
				<port id="0" precision="FP32">
					<dim>25</dim>
					<dim>196</dim>
					<dim>160</dim>
				</port>
				<port id="1" precision="FP32">
					<dim>1</dim>
					<dim>1</dim>
					<dim>160</dim>
				</port>
			</input>
			<output>
				<port id="2" precision="FP32" names="/layers.2/blocks.0/attn/norm/LayerNormalization_output_0">
					<dim>25</dim>
					<dim>196</dim>
					<dim>160</dim>
				</port>
			</output>
		</layer>
		<layer id="267" name="Transpose_6275" type="Const" version="opset1">
			<data element_type="f32" shape="480, 160" offset="2270552" size="307200" />
			<output>
				<port id="0" precision="FP32">
					<dim>480</dim>
					<dim>160</dim>
				</port>
			</output>
		</layer>
		<layer id="268" name="/layers.2/blocks.0/attn/qkv/MatMul" type="MatMul" version="opset1">
			<data transpose_a="false" transpose_b="true" />
			<input>
				<port id="0" precision="FP32">
					<dim>25</dim>
					<dim>196</dim>
					<dim>160</dim>
				</port>
				<port id="1" precision="FP32">
					<dim>480</dim>
					<dim>160</dim>
				</port>
			</input>
			<output>
				<port id="2" precision="FP32" names="/layers.2/blocks.0/attn/qkv/MatMul_output_0">
					<dim>25</dim>
					<dim>196</dim>
					<dim>480</dim>
				</port>
			</output>
		</layer>
		<layer id="269" name="/layers.2/blocks.0/attn/qkv/Add" type="Add" version="opset1">
			<data auto_broadcast="numpy" />
			<input>
				<port id="0" precision="FP32">
					<dim>1</dim>
					<dim>1</dim>
					<dim>480</dim>
				</port>
				<port id="1" precision="FP32">
					<dim>25</dim>
					<dim>196</dim>
					<dim>480</dim>
				</port>
			</input>
			<output>
				<port id="2" precision="FP32" names="/layers.2/blocks.0/attn/qkv/Add_output_0">
					<dim>25</dim>
					<dim>196</dim>
					<dim>480</dim>
				</port>
			</output>
		</layer>
		<layer id="270" name="/layers.2/blocks.0/attn/Constant_output_0" type="Const" version="opset1">
			<data element_type="i64" shape="4" offset="2577752" size="32" />
			<output>
				<port id="0" precision="I64" names="/layers.2/blocks.0/attn/Constant_output_0">
					<dim>4</dim>
				</port>
			</output>
		</layer>
		<layer id="271" name="/layers.2/blocks.0/attn/Reshape" type="Reshape" version="opset1">
			<data special_zero="true" />
			<input>
				<port id="0" precision="FP32">
					<dim>25</dim>
					<dim>196</dim>
					<dim>480</dim>
				</port>
				<port id="1" precision="I64">
					<dim>4</dim>
				</port>
			</input>
			<output>
				<port id="2" precision="FP32" names="/layers.2/blocks.0/attn/Reshape_output_0">
					<dim>25</dim>
					<dim>196</dim>
					<dim>5</dim>
					<dim>96</dim>
				</port>
			</output>
		</layer>
		<layer id="272" name="Constant_943" type="Const" version="opset1">
			<data element_type="i64" shape="" offset="600628" size="8" />
			<output>
				<port id="0" precision="I64" />
			</output>
		</layer>
		<layer id="273" name="/layers.2/blocks.0/attn/Split" type="VariadicSplit" version="opset1">
			<input>
				<port id="0" precision="FP32">
					<dim>25</dim>
					<dim>196</dim>
					<dim>5</dim>
					<dim>96</dim>
				</port>
				<port id="1" precision="I64" />
				<port id="2" precision="I64">
					<dim>3</dim>
				</port>
			</input>
			<output>
				<port id="3" precision="FP32" names="/layers.2/blocks.0/attn/Split_output_0">
					<dim>25</dim>
					<dim>196</dim>
					<dim>5</dim>
					<dim>32</dim>
				</port>
				<port id="4" precision="FP32" names="/layers.2/blocks.0/attn/Split_output_1">
					<dim>25</dim>
					<dim>196</dim>
					<dim>5</dim>
					<dim>32</dim>
				</port>
				<port id="5" precision="FP32" names="/layers.2/blocks.0/attn/Split_output_2">
					<dim>25</dim>
					<dim>196</dim>
					<dim>5</dim>
					<dim>32</dim>
				</port>
			</output>
		</layer>
		<layer id="274" name="Constant_945" type="Const" version="opset1">
			<data element_type="i64" shape="4" offset="600660" size="32" />
			<output>
				<port id="0" precision="I64">
					<dim>4</dim>
				</port>
			</output>
		</layer>
		<layer id="275" name="/layers.2/blocks.0/attn/Transpose" type="Transpose" version="opset1">
			<input>
				<port id="0" precision="FP32">
					<dim>25</dim>
					<dim>196</dim>
					<dim>5</dim>
					<dim>32</dim>
				</port>
				<port id="1" precision="I64">
					<dim>4</dim>
				</port>
			</input>
			<output>
				<port id="2" precision="FP32" names="/layers.2/blocks.0/attn/Transpose_output_0">
					<dim>25</dim>
					<dim>5</dim>
					<dim>196</dim>
					<dim>32</dim>
				</port>
			</output>
		</layer>
		<layer id="276" name="Constant_949" type="Const" version="opset1">
			<data element_type="i64" shape="4" offset="600692" size="32" />
			<output>
				<port id="0" precision="I64">
					<dim>4</dim>
				</port>
			</output>
		</layer>
		<layer id="277" name="/layers.2/blocks.0/attn/Transpose_2" type="Transpose" version="opset1">
			<input>
				<port id="0" precision="FP32">
					<dim>25</dim>
					<dim>196</dim>
					<dim>5</dim>
					<dim>32</dim>
				</port>
				<port id="1" precision="I64">
					<dim>4</dim>
				</port>
			</input>
			<output>
				<port id="2" precision="FP32" names="/layers.2/blocks.0/attn/Transpose_2_output_0">
					<dim>25</dim>
					<dim>5</dim>
					<dim>32</dim>
					<dim>196</dim>
				</port>
			</output>
		</layer>
		<layer id="278" name="/layers.2/blocks.0/attn/MatMul" type="MatMul" version="opset1">
			<data transpose_a="false" transpose_b="false" />
			<input>
				<port id="0" precision="FP32">
					<dim>25</dim>
					<dim>5</dim>
					<dim>196</dim>
					<dim>32</dim>
				</port>
				<port id="1" precision="FP32">
					<dim>25</dim>
					<dim>5</dim>
					<dim>32</dim>
					<dim>196</dim>
				</port>
			</input>
			<output>
				<port id="2" precision="FP32" names="/layers.2/blocks.0/attn/MatMul_output_0">
					<dim>25</dim>
					<dim>5</dim>
					<dim>196</dim>
					<dim>196</dim>
				</port>
			</output>
		</layer>
		<layer id="279" name="Constant_8439" type="Const" version="opset1">
			<data element_type="f32" shape="1, 1, 1, 1" offset="600724" size="4" />
			<output>
				<port id="0" precision="FP32">
					<dim>1</dim>
					<dim>1</dim>
					<dim>1</dim>
					<dim>1</dim>
				</port>
			</output>
		</layer>
		<layer id="280" name="/layers.2/blocks.0/attn/Mul" type="Multiply" version="opset1">
			<data auto_broadcast="numpy" />
			<input>
				<port id="0" precision="FP32">
					<dim>25</dim>
					<dim>5</dim>
					<dim>196</dim>
					<dim>196</dim>
				</port>
				<port id="1" precision="FP32">
					<dim>1</dim>
					<dim>1</dim>
					<dim>1</dim>
					<dim>1</dim>
				</port>
			</input>
			<output>
				<port id="2" precision="FP32" names="/layers.2/blocks.0/attn/Mul_output_0">
					<dim>25</dim>
					<dim>5</dim>
					<dim>196</dim>
					<dim>196</dim>
				</port>
			</output>
		</layer>
		<layer id="281" name="Constant_8440" type="Const" version="opset1">
			<data element_type="f32" shape="1, 5, 196, 196" offset="2577784" size="768320" />
			<output>
				<port id="0" precision="FP32">
					<dim>1</dim>
					<dim>5</dim>
					<dim>196</dim>
					<dim>196</dim>
				</port>
			</output>
		</layer>
		<layer id="282" name="/layers.2/blocks.0/attn/Add" type="Add" version="opset1">
			<data auto_broadcast="numpy" />
			<input>
				<port id="0" precision="FP32">
					<dim>25</dim>
					<dim>5</dim>
					<dim>196</dim>
					<dim>196</dim>
				</port>
				<port id="1" precision="FP32">
					<dim>1</dim>
					<dim>5</dim>
					<dim>196</dim>
					<dim>196</dim>
				</port>
			</input>
			<output>
				<port id="2" precision="FP32" names="/layers.2/blocks.0/attn/Add_output_0">
					<dim>25</dim>
					<dim>5</dim>
					<dim>196</dim>
					<dim>196</dim>
				</port>
			</output>
		</layer>
		<layer id="283" name="/layers.2/blocks.0/attn/Softmax" type="SoftMax" version="opset8">
			<data axis="-1" />
			<input>
				<port id="0" precision="FP32">
					<dim>25</dim>
					<dim>5</dim>
					<dim>196</dim>
					<dim>196</dim>
				</port>
			</input>
			<output>
				<port id="1" precision="FP32" names="/layers.2/blocks.0/attn/Softmax_output_0">
					<dim>25</dim>
					<dim>5</dim>
					<dim>196</dim>
					<dim>196</dim>
				</port>
			</output>
		</layer>
		<layer id="284" name="Constant_947" type="Const" version="opset1">
			<data element_type="i64" shape="4" offset="600660" size="32" />
			<output>
				<port id="0" precision="I64">
					<dim>4</dim>
				</port>
			</output>
		</layer>
		<layer id="285" name="/layers.2/blocks.0/attn/Transpose_1" type="Transpose" version="opset1">
			<input>
				<port id="0" precision="FP32">
					<dim>25</dim>
					<dim>196</dim>
					<dim>5</dim>
					<dim>32</dim>
				</port>
				<port id="1" precision="I64">
					<dim>4</dim>
				</port>
			</input>
			<output>
				<port id="2" precision="FP32" names="/layers.2/blocks.0/attn/Transpose_1_output_0">
					<dim>25</dim>
					<dim>5</dim>
					<dim>196</dim>
					<dim>32</dim>
				</port>
			</output>
		</layer>
		<layer id="286" name="/layers.2/blocks.0/attn/MatMul_1" type="MatMul" version="opset1">
			<data transpose_a="false" transpose_b="false" />
			<input>
				<port id="0" precision="FP32">
					<dim>25</dim>
					<dim>5</dim>
					<dim>196</dim>
					<dim>196</dim>
				</port>
				<port id="1" precision="FP32">
					<dim>25</dim>
					<dim>5</dim>
					<dim>196</dim>
					<dim>32</dim>
				</port>
			</input>
			<output>
				<port id="2" precision="FP32" names="/layers.2/blocks.0/attn/MatMul_1_output_0">
					<dim>25</dim>
					<dim>5</dim>
					<dim>196</dim>
					<dim>32</dim>
				</port>
			</output>
		</layer>
		<layer id="287" name="Constant_956" type="Const" version="opset1">
			<data element_type="i64" shape="4" offset="600660" size="32" />
			<output>
				<port id="0" precision="I64">
					<dim>4</dim>
				</port>
			</output>
		</layer>
		<layer id="288" name="/layers.2/blocks.0/attn/Transpose_3" type="Transpose" version="opset1">
			<input>
				<port id="0" precision="FP32">
					<dim>25</dim>
					<dim>5</dim>
					<dim>196</dim>
					<dim>32</dim>
				</port>
				<port id="1" precision="I64">
					<dim>4</dim>
				</port>
			</input>
			<output>
				<port id="2" precision="FP32" names="/layers.2/blocks.0/attn/Transpose_3_output_0">
					<dim>25</dim>
					<dim>196</dim>
					<dim>5</dim>
					<dim>32</dim>
				</port>
			</output>
		</layer>
		<layer id="289" name="/layers.2/blocks.0/attn/Reshape_1" type="Reshape" version="opset1">
			<data special_zero="true" />
			<input>
				<port id="0" precision="FP32">
					<dim>25</dim>
					<dim>196</dim>
					<dim>5</dim>
					<dim>32</dim>
				</port>
				<port id="1" precision="I64">
					<dim>3</dim>
				</port>
			</input>
			<output>
				<port id="2" precision="FP32" names="/layers.2/blocks.0/attn/Reshape_1_output_0">
					<dim>25</dim>
					<dim>196</dim>
					<dim>160</dim>
				</port>
			</output>
		</layer>
		<layer id="290" name="Transpose_6358" type="Const" version="opset1">
			<data element_type="f32" shape="160, 160" offset="3346104" size="102400" />
			<output>
				<port id="0" precision="FP32">
					<dim>160</dim>
					<dim>160</dim>
				</port>
			</output>
		</layer>
		<layer id="291" name="/layers.2/blocks.0/attn/proj/MatMul" type="MatMul" version="opset1">
			<data transpose_a="false" transpose_b="true" />
			<input>
				<port id="0" precision="FP32">
					<dim>25</dim>
					<dim>196</dim>
					<dim>160</dim>
				</port>
				<port id="1" precision="FP32">
					<dim>160</dim>
					<dim>160</dim>
				</port>
			</input>
			<output>
				<port id="2" precision="FP32" names="/layers.2/blocks.0/attn/proj/MatMul_output_0">
					<dim>25</dim>
					<dim>196</dim>
					<dim>160</dim>
				</port>
			</output>
		</layer>
		<layer id="292" name="/layers.2/blocks.0/attn/proj/Add" type="Add" version="opset1">
			<data auto_broadcast="numpy" />
			<input>
				<port id="0" precision="FP32">
					<dim>1</dim>
					<dim>1</dim>
					<dim>160</dim>
				</port>
				<port id="1" precision="FP32">
					<dim>25</dim>
					<dim>196</dim>
					<dim>160</dim>
				</port>
			</input>
			<output>
				<port id="2" precision="FP32" names="/layers.2/blocks.0/attn/proj/Add_output_0">
					<dim>25</dim>
					<dim>196</dim>
					<dim>160</dim>
				</port>
			</output>
		</layer>
		<layer id="293" name="/layers.2/blocks.0/Constant_11_output_0" type="Const" version="opset1">
			<data element_type="i64" shape="6" offset="3448504" size="48" />
			<output>
				<port id="0" precision="I64" names="/layers.2/blocks.0/Constant_11_output_0">
					<dim>6</dim>
				</port>
			</output>
		</layer>
		<layer id="294" name="/layers.2/blocks.0/Reshape_5" type="Reshape" version="opset1">
			<data special_zero="true" />
			<input>
				<port id="0" precision="FP32">
					<dim>25</dim>
					<dim>196</dim>
					<dim>160</dim>
				</port>
				<port id="1" precision="I64">
					<dim>6</dim>
				</port>
			</input>
			<output>
				<port id="2" precision="FP32" names="/layers.2/blocks.0/Reshape_5_output_0">
					<dim>1</dim>
					<dim>5</dim>
					<dim>5</dim>
					<dim>14</dim>
					<dim>14</dim>
					<dim>160</dim>
				</port>
			</output>
		</layer>
		<layer id="295" name="Constant_962" type="Const" version="opset1">
			<data element_type="i64" shape="6" offset="402884" size="48" />
			<output>
				<port id="0" precision="I64">
					<dim>6</dim>
				</port>
			</output>
		</layer>
		<layer id="296" name="/layers.2/blocks.0/Transpose_2" type="Transpose" version="opset1">
			<input>
				<port id="0" precision="FP32">
					<dim>1</dim>
					<dim>5</dim>
					<dim>5</dim>
					<dim>14</dim>
					<dim>14</dim>
					<dim>160</dim>
				</port>
				<port id="1" precision="I64">
					<dim>6</dim>
				</port>
			</input>
			<output>
				<port id="2" precision="FP32" names="/layers.2/blocks.0/Transpose_2_output_0">
					<dim>1</dim>
					<dim>5</dim>
					<dim>14</dim>
					<dim>5</dim>
					<dim>14</dim>
					<dim>160</dim>
				</port>
			</output>
		</layer>
		<layer id="297" name="/layers.2/blocks.0/Constant_12_output_0" type="Const" version="opset1">
			<data element_type="i64" shape="4" offset="3448552" size="32" />
			<output>
				<port id="0" precision="I64" names="/layers.2/blocks.0/Constant_12_output_0">
					<dim>4</dim>
				</port>
			</output>
		</layer>
		<layer id="298" name="/layers.2/blocks.0/Reshape_6" type="Reshape" version="opset1">
			<data special_zero="true" />
			<input>
				<port id="0" precision="FP32">
					<dim>1</dim>
					<dim>5</dim>
					<dim>14</dim>
					<dim>5</dim>
					<dim>14</dim>
					<dim>160</dim>
				</port>
				<port id="1" precision="I64">
					<dim>4</dim>
				</port>
			</input>
			<output>
				<port id="2" precision="FP32" names="/layers.2/blocks.0/Reshape_6_output_0">
					<dim>1</dim>
					<dim>70</dim>
					<dim>70</dim>
					<dim>160</dim>
				</port>
			</output>
		</layer>
		<layer id="299" name="_v_1978" type="Const" version="opset1">
			<data element_type="i64" shape="2" offset="3448584" size="16" />
			<output>
				<port id="0" precision="I64" names="_v_1978">
					<dim>2</dim>
				</port>
			</output>
		</layer>
		<layer id="300" name="_v_1981" type="Slice" version="opset8">
			<input>
				<port id="0" precision="FP32">
					<dim>1</dim>
					<dim>70</dim>
					<dim>70</dim>
					<dim>160</dim>
				</port>
				<port id="1" precision="I64">
					<dim>2</dim>
				</port>
				<port id="2" precision="I64">
					<dim>2</dim>
				</port>
				<port id="3" precision="I64">
					<dim>2</dim>
				</port>
				<port id="4" precision="I64">
					<dim>2</dim>
				</port>
			</input>
			<output>
				<port id="5" precision="FP32" names="_v_1981">
					<dim>1</dim>
					<dim>64</dim>
					<dim>64</dim>
					<dim>160</dim>
				</port>
			</output>
		</layer>
		<layer id="301" name="/layers.2/blocks.0/Constant_21_output_0" type="Const" version="opset1">
			<data element_type="i64" shape="3" offset="3448600" size="24" />
			<output>
				<port id="0" precision="I64" names="/layers.2/blocks.0/Constant_21_output_0">
					<dim>3</dim>
				</port>
			</output>
		</layer>
		<layer id="302" name="/layers.2/blocks.0/Reshape_7" type="Reshape" version="opset1">
			<data special_zero="true" />
			<input>
				<port id="0" precision="FP32">
					<dim>1</dim>
					<dim>64</dim>
					<dim>64</dim>
					<dim>160</dim>
				</port>
				<port id="1" precision="I64">
					<dim>3</dim>
				</port>
			</input>
			<output>
				<port id="2" precision="FP32" names="/layers.2/blocks.0/Reshape_7_output_0">
					<dim>1</dim>
					<dim>4096</dim>
					<dim>160</dim>
				</port>
			</output>
		</layer>
		<layer id="303" name="/layers.2/blocks.0/Add" type="Add" version="opset1">
			<data auto_broadcast="numpy" />
			<input>
				<port id="0" precision="FP32">
					<dim>1</dim>
					<dim>4096</dim>
					<dim>160</dim>
				</port>
				<port id="1" precision="FP32">
					<dim>1</dim>
					<dim>4096</dim>
					<dim>160</dim>
				</port>
			</input>
			<output>
				<port id="2" precision="FP32" names="/layers.2/blocks.0/Add_output_0">
					<dim>1</dim>
					<dim>4096</dim>
					<dim>160</dim>
				</port>
			</output>
		</layer>
		<layer id="304" name="Constant_968" type="Const" version="opset1">
			<data element_type="i64" shape="3" offset="400664" size="24" />
			<output>
				<port id="0" precision="I64">
					<dim>3</dim>
				</port>
			</output>
		</layer>
		<layer id="305" name="/layers.2/blocks.0/Transpose_3" type="Transpose" version="opset1">
			<input>
				<port id="0" precision="FP32">
					<dim>1</dim>
					<dim>4096</dim>
					<dim>160</dim>
				</port>
				<port id="1" precision="I64">
					<dim>3</dim>
				</port>
			</input>
			<output>
				<port id="2" precision="FP32" names="/layers.2/blocks.0/Transpose_3_output_0">
					<dim>1</dim>
					<dim>160</dim>
					<dim>4096</dim>
				</port>
			</output>
		</layer>
		<layer id="306" name="/layers.2/blocks.0/Constant_22_output_0" type="Const" version="opset1">
			<data element_type="i64" shape="4" offset="3448624" size="32" />
			<output>
				<port id="0" precision="I64" names="/layers.2/blocks.0/Constant_22_output_0">
					<dim>4</dim>
				</port>
			</output>
		</layer>
		<layer id="307" name="/layers.2/blocks.0/Reshape_8" type="Reshape" version="opset1">
			<data special_zero="true" />
			<input>
				<port id="0" precision="FP32">
					<dim>1</dim>
					<dim>160</dim>
					<dim>4096</dim>
				</port>
				<port id="1" precision="I64">
					<dim>4</dim>
				</port>
			</input>
			<output>
				<port id="2" precision="FP32" names="/layers.2/blocks.0/Reshape_8_output_0">
					<dim>1</dim>
					<dim>160</dim>
					<dim>64</dim>
					<dim>64</dim>
				</port>
			</output>
		</layer>
		<layer id="308" name="Reshape_978" type="Const" version="opset1">
			<data element_type="f32" shape="160, 1, 1, 3, 3" offset="3448656" size="5760" />
			<output>
				<port id="0" precision="FP32">
					<dim>160</dim>
					<dim>1</dim>
					<dim>1</dim>
					<dim>3</dim>
					<dim>3</dim>
				</port>
			</output>
		</layer>
		<layer id="309" name="/layers.2/blocks.0/local_conv/c/Conv/WithoutBiases" type="GroupConvolution" version="opset1">
			<data strides="1, 1" pads_begin="1, 1" pads_end="1, 1" dilations="1, 1" auto_pad="explicit" />
			<input>
				<port id="0" precision="FP32">
					<dim>1</dim>
					<dim>160</dim>
					<dim>64</dim>
					<dim>64</dim>
				</port>
				<port id="1" precision="FP32">
					<dim>160</dim>
					<dim>1</dim>
					<dim>1</dim>
					<dim>3</dim>
					<dim>3</dim>
				</port>
			</input>
			<output>
				<port id="2" precision="FP32">
					<dim>1</dim>
					<dim>160</dim>
					<dim>64</dim>
					<dim>64</dim>
				</port>
			</output>
		</layer>
		<layer id="310" name="Reshape_1028" type="Const" version="opset1">
			<data element_type="f32" shape="1, 160, 1, 1" offset="3454416" size="640" />
			<output>
				<port id="0" precision="FP32">
					<dim>1</dim>
					<dim>160</dim>
					<dim>1</dim>
					<dim>1</dim>
				</port>
			</output>
		</layer>
		<layer id="311" name="/layers.2/blocks.0/local_conv/c/Conv" type="Add" version="opset1">
			<data auto_broadcast="numpy" />
			<input>
				<port id="0" precision="FP32">
					<dim>1</dim>
					<dim>160</dim>
					<dim>64</dim>
					<dim>64</dim>
				</port>
				<port id="1" precision="FP32">
					<dim>1</dim>
					<dim>160</dim>
					<dim>1</dim>
					<dim>1</dim>
				</port>
			</input>
			<output>
				<port id="2" precision="FP32" names="/layers.2/blocks.0/local_conv/c/Conv_output_0">
					<dim>1</dim>
					<dim>160</dim>
					<dim>64</dim>
					<dim>64</dim>
				</port>
			</output>
		</layer>
		<layer id="312" name="/layers.2/blocks.0/Constant_23_output_0" type="Const" version="opset1">
			<data element_type="i64" shape="3" offset="3455056" size="24" />
			<output>
				<port id="0" precision="I64" names="/layers.2/blocks.0/Constant_23_output_0">
					<dim>3</dim>
				</port>
			</output>
		</layer>
		<layer id="313" name="/layers.2/blocks.0/Reshape_9" type="Reshape" version="opset1">
			<data special_zero="true" />
			<input>
				<port id="0" precision="FP32">
					<dim>1</dim>
					<dim>160</dim>
					<dim>64</dim>
					<dim>64</dim>
				</port>
				<port id="1" precision="I64">
					<dim>3</dim>
				</port>
			</input>
			<output>
				<port id="2" precision="FP32" names="/layers.2/blocks.0/Reshape_9_output_0">
					<dim>1</dim>
					<dim>160</dim>
					<dim>4096</dim>
				</port>
			</output>
		</layer>
		<layer id="314" name="Constant_1031" type="Const" version="opset1">
			<data element_type="i64" shape="3" offset="400664" size="24" />
			<output>
				<port id="0" precision="I64">
					<dim>3</dim>
				</port>
			</output>
		</layer>
		<layer id="315" name="/layers.2/blocks.0/Transpose_4" type="Transpose" version="opset1">
			<input>
				<port id="0" precision="FP32">
					<dim>1</dim>
					<dim>160</dim>
					<dim>4096</dim>
				</port>
				<port id="1" precision="I64">
					<dim>3</dim>
				</port>
			</input>
			<output>
				<port id="2" precision="FP32" names="/layers.2/blocks.0/Transpose_4_output_0">
					<dim>1</dim>
					<dim>4096</dim>
					<dim>160</dim>
				</port>
			</output>
		</layer>
		<layer id="316" name="Constant_8445" type="Const" version="opset1">
			<data element_type="f32" shape="1, 1, 160" offset="3455080" size="640" />
			<output>
				<port id="0" precision="FP32">
					<dim>1</dim>
					<dim>1</dim>
					<dim>160</dim>
				</port>
			</output>
		</layer>
		<layer id="317" name="Constant_8444" type="Const" version="opset1">
			<data element_type="f32" shape="1, 1, 640" offset="3455720" size="2560" />
			<output>
				<port id="0" precision="FP32">
					<dim>1</dim>
					<dim>1</dim>
					<dim>640</dim>
				</port>
			</output>
		</layer>
		<layer id="318" name="Range_1036" type="Const" version="opset1">
			<data element_type="i64" shape="1" offset="402956" size="8" />
			<output>
				<port id="0" precision="I64">
					<dim>1</dim>
				</port>
			</output>
		</layer>
		<layer id="319" name="MVN_1037" type="MVN" version="opset6">
			<data eps="9.9999997473787516e-06" normalize_variance="true" eps_mode="INSIDE_SQRT" />
			<input>
				<port id="0" precision="FP32">
					<dim>1</dim>
					<dim>4096</dim>
					<dim>160</dim>
				</port>
				<port id="1" precision="I64">
					<dim>1</dim>
				</port>
			</input>
			<output>
				<port id="2" precision="FP32">
					<dim>1</dim>
					<dim>4096</dim>
					<dim>160</dim>
				</port>
			</output>
		</layer>
		<layer id="320" name="Constant_8442" type="Const" version="opset1">
			<data element_type="f32" shape="1, 1, 160" offset="3458280" size="640" />
			<output>
				<port id="0" precision="FP32">
					<dim>1</dim>
					<dim>1</dim>
					<dim>160</dim>
				</port>
			</output>
		</layer>
		<layer id="321" name="Multiply_1038" type="Multiply" version="opset1">
			<data auto_broadcast="numpy" />
			<input>
				<port id="0" precision="FP32">
					<dim>1</dim>
					<dim>4096</dim>
					<dim>160</dim>
				</port>
				<port id="1" precision="FP32">
					<dim>1</dim>
					<dim>1</dim>
					<dim>160</dim>
				</port>
			</input>
			<output>
				<port id="2" precision="FP32">
					<dim>1</dim>
					<dim>4096</dim>
					<dim>160</dim>
				</port>
			</output>
		</layer>
		<layer id="322" name="Constant_8443" type="Const" version="opset1">
			<data element_type="f32" shape="1, 1, 160" offset="3458920" size="640" />
			<output>
				<port id="0" precision="FP32">
					<dim>1</dim>
					<dim>1</dim>
					<dim>160</dim>
				</port>
			</output>
		</layer>
		<layer id="323" name="/layers.2/blocks.0/mlp/norm/LayerNormalization" type="Add" version="opset1">
			<data auto_broadcast="numpy" />
			<input>
				<port id="0" precision="FP32">
					<dim>1</dim>
					<dim>4096</dim>
					<dim>160</dim>
				</port>
				<port id="1" precision="FP32">
					<dim>1</dim>
					<dim>1</dim>
					<dim>160</dim>
				</port>
			</input>
			<output>
				<port id="2" precision="FP32" names="/layers.2/blocks.0/mlp/norm/LayerNormalization_output_0">
					<dim>1</dim>
					<dim>4096</dim>
					<dim>160</dim>
				</port>
			</output>
		</layer>
		<layer id="324" name="Transpose_6443" type="Const" version="opset1">
			<data element_type="f32" shape="640, 160" offset="3459560" size="409600" />
			<output>
				<port id="0" precision="FP32">
					<dim>640</dim>
					<dim>160</dim>
				</port>
			</output>
		</layer>
		<layer id="325" name="/layers.2/blocks.0/mlp/fc1/MatMul" type="MatMul" version="opset1">
			<data transpose_a="false" transpose_b="true" />
			<input>
				<port id="0" precision="FP32">
					<dim>1</dim>
					<dim>4096</dim>
					<dim>160</dim>
				</port>
				<port id="1" precision="FP32">
					<dim>640</dim>
					<dim>160</dim>
				</port>
			</input>
			<output>
				<port id="2" precision="FP32" names="/layers.2/blocks.0/mlp/fc1/MatMul_output_0">
					<dim>1</dim>
					<dim>4096</dim>
					<dim>640</dim>
				</port>
			</output>
		</layer>
		<layer id="326" name="/layers.2/blocks.0/mlp/fc1/Add" type="Add" version="opset1">
			<data auto_broadcast="numpy" />
			<input>
				<port id="0" precision="FP32">
					<dim>1</dim>
					<dim>1</dim>
					<dim>640</dim>
				</port>
				<port id="1" precision="FP32">
					<dim>1</dim>
					<dim>4096</dim>
					<dim>640</dim>
				</port>
			</input>
			<output>
				<port id="2" precision="FP32" names="/layers.2/blocks.0/mlp/fc1/Add_output_0">
					<dim>1</dim>
					<dim>4096</dim>
					<dim>640</dim>
				</port>
			</output>
		</layer>
		<layer id="327" name="/layers.2/blocks.0/mlp/act/Mul_1" type="Gelu" version="opset7">
			<data approximation_mode="ERF" />
			<input>
				<port id="0" precision="FP32">
					<dim>1</dim>
					<dim>4096</dim>
					<dim>640</dim>
				</port>
			</input>
			<output>
				<port id="1" precision="FP32" names="/layers.2/blocks.0/mlp/act/Mul_1_output_0">
					<dim>1</dim>
					<dim>4096</dim>
					<dim>640</dim>
				</port>
			</output>
		</layer>
		<layer id="328" name="Transpose_6460" type="Const" version="opset1">
			<data element_type="f32" shape="160, 640" offset="3869160" size="409600" />
			<output>
				<port id="0" precision="FP32">
					<dim>160</dim>
					<dim>640</dim>
				</port>
			</output>
		</layer>
		<layer id="329" name="/layers.2/blocks.0/mlp/fc2/MatMul" type="MatMul" version="opset1">
			<data transpose_a="false" transpose_b="true" />
			<input>
				<port id="0" precision="FP32">
					<dim>1</dim>
					<dim>4096</dim>
					<dim>640</dim>
				</port>
				<port id="1" precision="FP32">
					<dim>160</dim>
					<dim>640</dim>
				</port>
			</input>
			<output>
				<port id="2" precision="FP32" names="/layers.2/blocks.0/mlp/fc2/MatMul_output_0">
					<dim>1</dim>
					<dim>4096</dim>
					<dim>160</dim>
				</port>
			</output>
		</layer>
		<layer id="330" name="/layers.2/blocks.0/mlp/fc2/Add" type="Add" version="opset1">
			<data auto_broadcast="numpy" />
			<input>
				<port id="0" precision="FP32">
					<dim>1</dim>
					<dim>1</dim>
					<dim>160</dim>
				</port>
				<port id="1" precision="FP32">
					<dim>1</dim>
					<dim>4096</dim>
					<dim>160</dim>
				</port>
			</input>
			<output>
				<port id="2" precision="FP32" names="/layers.2/blocks.0/mlp/fc2/Add_output_0">
					<dim>1</dim>
					<dim>4096</dim>
					<dim>160</dim>
				</port>
			</output>
		</layer>
		<layer id="331" name="/layers.2/blocks.0/Add_1" type="Add" version="opset1">
			<data auto_broadcast="numpy" />
			<input>
				<port id="0" precision="FP32">
					<dim>1</dim>
					<dim>4096</dim>
					<dim>160</dim>
				</port>
				<port id="1" precision="FP32">
					<dim>1</dim>
					<dim>4096</dim>
					<dim>160</dim>
				</port>
			</input>
			<output>
				<port id="2" precision="FP32" names="/layers.2/blocks.0/Add_1_output_0">
					<dim>1</dim>
					<dim>4096</dim>
					<dim>160</dim>
				</port>
			</output>
		</layer>
		<layer id="332" name="Constant_8451" type="Const" version="opset1">
			<data element_type="f32" shape="1, 1, 160" offset="4278760" size="640" />
			<output>
				<port id="0" precision="FP32">
					<dim>1</dim>
					<dim>1</dim>
					<dim>160</dim>
				</port>
			</output>
		</layer>
		<layer id="333" name="Constant_8448" type="Const" version="opset1">
			<data element_type="f32" shape="1, 1, 480" offset="4279400" size="1920" />
			<output>
				<port id="0" precision="FP32">
					<dim>1</dim>
					<dim>1</dim>
					<dim>480</dim>
				</port>
			</output>
		</layer>
		<layer id="334" name="/layers.2/blocks.1/Reshape" type="Reshape" version="opset1">
			<data special_zero="true" />
			<input>
				<port id="0" precision="FP32">
					<dim>1</dim>
					<dim>4096</dim>
					<dim>160</dim>
				</port>
				<port id="1" precision="I64">
					<dim>4</dim>
				</port>
			</input>
			<output>
				<port id="2" precision="FP32" names="/layers.2/blocks.1/Reshape_output_0">
					<dim>1</dim>
					<dim>64</dim>
					<dim>64</dim>
					<dim>160</dim>
				</port>
			</output>
		</layer>
		<layer id="335" name="Constant_1053" type="Const" version="opset1">
			<data element_type="i64" shape="4" offset="402768" size="32" />
			<output>
				<port id="0" precision="I64">
					<dim>4</dim>
				</port>
			</output>
		</layer>
		<layer id="336" name="Constant_1054" type="Const" version="opset1">
			<data element_type="i64" shape="4" offset="2269168" size="32" />
			<output>
				<port id="0" precision="I64">
					<dim>4</dim>
				</port>
			</output>
		</layer>
		<layer id="337" name="Constant_1052" type="Const" version="opset1">
			<data element_type="f32" shape="" offset="402832" size="4" />
			<output>
				<port id="0" precision="FP32" />
			</output>
		</layer>
		<layer id="338" name="/layers.2/blocks.1/Pad" type="Pad" version="opset12">
			<data pad_mode="constant" />
			<input>
				<port id="0" precision="FP32">
					<dim>1</dim>
					<dim>64</dim>
					<dim>64</dim>
					<dim>160</dim>
				</port>
				<port id="1" precision="I64">
					<dim>4</dim>
				</port>
				<port id="2" precision="I64">
					<dim>4</dim>
				</port>
				<port id="3" precision="FP32" />
			</input>
			<output>
				<port id="4" precision="FP32" names="/layers.2/blocks.1/Pad_output_0">
					<dim>1</dim>
					<dim>70</dim>
					<dim>70</dim>
					<dim>160</dim>
				</port>
			</output>
		</layer>
		<layer id="339" name="/layers.2/blocks.1/Reshape_3" type="Reshape" version="opset1">
			<data special_zero="true" />
			<input>
				<port id="0" precision="FP32">
					<dim>1</dim>
					<dim>70</dim>
					<dim>70</dim>
					<dim>160</dim>
				</port>
				<port id="1" precision="I64">
					<dim>6</dim>
				</port>
			</input>
			<output>
				<port id="2" precision="FP32" names="/layers.2/blocks.1/Reshape_3_output_0">
					<dim>1</dim>
					<dim>5</dim>
					<dim>14</dim>
					<dim>5</dim>
					<dim>14</dim>
					<dim>160</dim>
				</port>
			</output>
		</layer>
		<layer id="340" name="Constant_1057" type="Const" version="opset1">
			<data element_type="i64" shape="6" offset="402884" size="48" />
			<output>
				<port id="0" precision="I64">
					<dim>6</dim>
				</port>
			</output>
		</layer>
		<layer id="341" name="/layers.2/blocks.1/Transpose_1" type="Transpose" version="opset1">
			<input>
				<port id="0" precision="FP32">
					<dim>1</dim>
					<dim>5</dim>
					<dim>14</dim>
					<dim>5</dim>
					<dim>14</dim>
					<dim>160</dim>
				</port>
				<port id="1" precision="I64">
					<dim>6</dim>
				</port>
			</input>
			<output>
				<port id="2" precision="FP32" names="/layers.2/blocks.1/Transpose_1_output_0">
					<dim>1</dim>
					<dim>5</dim>
					<dim>5</dim>
					<dim>14</dim>
					<dim>14</dim>
					<dim>160</dim>
				</port>
			</output>
		</layer>
		<layer id="342" name="/layers.2/blocks.1/Reshape_4" type="Reshape" version="opset1">
			<data special_zero="true" />
			<input>
				<port id="0" precision="FP32">
					<dim>1</dim>
					<dim>5</dim>
					<dim>5</dim>
					<dim>14</dim>
					<dim>14</dim>
					<dim>160</dim>
				</port>
				<port id="1" precision="I64">
					<dim>3</dim>
				</port>
			</input>
			<output>
				<port id="2" precision="FP32" names="/layers.2/blocks.1/Reshape_4_output_0">
					<dim>25</dim>
					<dim>196</dim>
					<dim>160</dim>
				</port>
			</output>
		</layer>
		<layer id="343" name="Range_1063" type="Const" version="opset1">
			<data element_type="i64" shape="1" offset="402956" size="8" />
			<output>
				<port id="0" precision="I64">
					<dim>1</dim>
				</port>
			</output>
		</layer>
		<layer id="344" name="MVN_1064" type="MVN" version="opset6">
			<data eps="9.9999997473787516e-06" normalize_variance="true" eps_mode="INSIDE_SQRT" />
			<input>
				<port id="0" precision="FP32">
					<dim>25</dim>
					<dim>196</dim>
					<dim>160</dim>
				</port>
				<port id="1" precision="I64">
					<dim>1</dim>
				</port>
			</input>
			<output>
				<port id="2" precision="FP32">
					<dim>25</dim>
					<dim>196</dim>
					<dim>160</dim>
				</port>
			</output>
		</layer>
		<layer id="345" name="Constant_8446" type="Const" version="opset1">
			<data element_type="f32" shape="1, 1, 160" offset="4281320" size="640" />
			<output>
				<port id="0" precision="FP32">
					<dim>1</dim>
					<dim>1</dim>
					<dim>160</dim>
				</port>
			</output>
		</layer>
		<layer id="346" name="Multiply_1065" type="Multiply" version="opset1">
			<data auto_broadcast="numpy" />
			<input>
				<port id="0" precision="FP32">
					<dim>25</dim>
					<dim>196</dim>
					<dim>160</dim>
				</port>
				<port id="1" precision="FP32">
					<dim>1</dim>
					<dim>1</dim>
					<dim>160</dim>
				</port>
			</input>
			<output>
				<port id="2" precision="FP32">
					<dim>25</dim>
					<dim>196</dim>
					<dim>160</dim>
				</port>
			</output>
		</layer>
		<layer id="347" name="Constant_8447" type="Const" version="opset1">
			<data element_type="f32" shape="1, 1, 160" offset="4281960" size="640" />
			<output>
				<port id="0" precision="FP32">
					<dim>1</dim>
					<dim>1</dim>
					<dim>160</dim>
				</port>
			</output>
		</layer>
		<layer id="348" name="/layers.2/blocks.1/attn/norm/LayerNormalization" type="Add" version="opset1">
			<data auto_broadcast="numpy" />
			<input>
				<port id="0" precision="FP32">
					<dim>25</dim>
					<dim>196</dim>
					<dim>160</dim>
				</port>
				<port id="1" precision="FP32">
					<dim>1</dim>
					<dim>1</dim>
					<dim>160</dim>
				</port>
			</input>
			<output>
				<port id="2" precision="FP32" names="/layers.2/blocks.1/attn/norm/LayerNormalization_output_0">
					<dim>25</dim>
					<dim>196</dim>
					<dim>160</dim>
				</port>
			</output>
		</layer>
		<layer id="349" name="Transpose_6517" type="Const" version="opset1">
			<data element_type="f32" shape="480, 160" offset="4282600" size="307200" />
			<output>
				<port id="0" precision="FP32">
					<dim>480</dim>
					<dim>160</dim>
				</port>
			</output>
		</layer>
…
		<edge from-layer="263" from-port="0" to-layer="264" to-port="1" />
		<edge from-layer="264" from-port="2" to-layer="266" to-port="0" />
		<edge from-layer="265" from-port="0" to-layer="266" to-port="1" />
		<edge from-layer="266" from-port="2" to-layer="268" to-port="0" />
		<edge from-layer="267" from-port="0" to-layer="268" to-port="1" />
		<edge from-layer="268" from-port="2" to-layer="269" to-port="1" />
		<edge from-layer="269" from-port="2" to-layer="271" to-port="0" />
		<edge from-layer="270" from-port="0" to-layer="502" to-port="1" />
		<edge from-layer="270" from-port="0" to-layer="577" to-port="1" />
		<edge from-layer="270" from-port="0" to-layer="427" to-port="1" />
		<edge from-layer="270" from-port="0" to-layer="352" to-port="1" />
		<edge from-layer="270" from-port="0" to-layer="652" to-port="1" />
		<edge from-layer="270" from-port="0" to-layer="271" to-port="1" />
		<edge from-layer="271" from-port="2" to-layer="273" to-port="0" />
		<edge from-layer="272" from-port="0" to-layer="273" to-port="1" />
		<edge from-layer="273" from-port="5" to-layer="285" to-port="0" />
		<edge from-layer="273" from-port="3" to-layer="275" to-port="0" />
		<edge from-layer="273" from-port="4" to-layer="277" to-port="0" />
		<edge from-layer="274" from-port="0" to-layer="275" to-port="1" />
		<edge from-layer="275" from-port="2" to-layer="278" to-port="0" />
		<edge from-layer="276" from-port="0" to-layer="277" to-port="1" />
		<edge from-layer="277" from-port="2" to-layer="278" to-port="1" />
		<edge from-layer="278" from-port="2" to-layer="280" to-port="0" />
		<edge from-layer="279" from-port="0" to-layer="280" to-port="1" />
		<edge from-layer="280" from-port="2" to-layer="282" to-port="0" />
		<edge from-layer="281" from-port="0" to-layer="282" to-port="1" />
		<edge from-layer="282" from-port="2" to-layer="283" to-port="0" />
		<edge from-layer="283" from-port="1" to-layer="286" to-port="0" />
		<edge from-layer="284" from-port="0" to-layer="285" to-port="1" />
		<edge from-layer="285" from-port="2" to-layer="286" to-port="1" />
		<edge from-layer="286" from-port="2" to-layer="288" to-port="0" />
		<edge from-layer="287" from-port="0" to-layer="288" to-port="1" />
		<edge from-layer="288" from-port="2" to-layer="289" to-port="0" />
		<edge from-layer="289" from-port="2" to-layer="291" to-port="0" />
		<edge from-layer="290" from-port="0" to-layer="291" to-port="1" />
		<edge from-layer="291" from-port="2" to-layer="292" to-port="1" />
		<edge from-layer="292" from-port="2" to-layer="294" to-port="0" />
		<edge from-layer="293" from-port="0" to-layer="449" to-port="1" />
		<edge from-layer="293" from-port="0" to-layer="524" to-port="1" />
		<edge from-layer="293" from-port="0" to-layer="599" to-port="1" />
		<edge from-layer="293" from-port="0" to-layer="674" to-port="1" />
		<edge from-layer="293" from-port="0" to-layer="294" to-port="1" />
		<edge from-layer="293" from-port="0" to-layer="374" to-port="1" />
		<edge from-layer="294" from-port="2" to-layer="296" to-port="0" />
		<edge from-layer="295" from-port="0" to-layer="296" to-port="1" />
		<edge from-layer="296" from-port="2" to-layer="298" to-port="0" />
		<edge from-layer="297" from-port="0" to-layer="452" to-port="1" />
		<edge from-layer="297" from-port="0" to-layer="527" to-port="1" />
		<edge from-layer="297" from-port="0" to-layer="602" to-port="1" />
		<edge from-layer="297" from-port="0" to-layer="298" to-port="1" />
		<edge from-layer="297" from-port="0" to-layer="677" to-port="1" />
		<edge from-layer="297" from-port="0" to-layer="377" to-port="1" />
		<edge from-layer="298" from-port="2" to-layer="300" to-port="0" />
		<edge from-layer="299" from-port="0" to-layer="678" to-port="2" />
		<edge from-layer="299" from-port="0" to-layer="603" to-port="2" />
		<edge from-layer="299" from-port="0" to-layer="453" to-port="2" />
		<edge from-layer="299" from-port="0" to-layer="781" to-port="2" />
		<edge from-layer="299" from-port="0" to-layer="859" to-port="2" />
		<edge from-layer="299" from-port="0" to-layer="300" to-port="2" />
		<edge from-layer="299" from-port="0" to-layer="528" to-port="2" />
		<edge from-layer="299" from-port="0" to-layer="378" to-port="2" />
		<edge from-layer="300" from-port="5" to-layer="302" to-port="0" />
		<edge from-layer="301" from-port="0" to-layer="454" to-port="1" />
		<edge from-layer="301" from-port="0" to-layer="604" to-port="1" />
		<edge from-layer="301" from-port="0" to-layer="379" to-port="1" />
		<edge from-layer="301" from-port="0" to-layer="302" to-port="1" />
		<edge from-layer="301" from-port="0" to-layer="529" to-port="1" />
		<edge from-layer="301" from-port="0" to-layer="679" to-port="1" />
		<edge from-layer="302" from-port="2" to-layer="303" to-port="1" />
		<edge from-layer="303" from-port="2" to-layer="305" to-port="0" />
		<edge from-layer="304" from-port="0" to-layer="305" to-port="1" />
		<edge from-layer="305" from-port="2" to-layer="307" to-port="0" />
		<edge from-layer="306" from-port="0" to-layer="458" to-port="1" />
		<edge from-layer="306" from-port="0" to-layer="608" to-port="1" />
		<edge from-layer="306" from-port="0" to-layer="383" to-port="1" />
		<edge from-layer="306" from-port="0" to-layer="307" to-port="1" />
		<edge from-layer="306" from-port="0" to-layer="533" to-port="1" />
		<edge from-layer="306" from-port="0" to-layer="683" to-port="1" />
		<edge from-layer="307" from-port="2" to-layer="309" to-port="0" />
		<edge from-layer="308" from-port="0" to-layer="309" to-port="1" />
		<edge from-layer="309" from-port="2" to-layer="311" to-port="0" />
		<edge from-layer="310" from-port="0" to-layer="311" to-port="1" />
		<edge from-layer="311" from-port="2" to-layer="313" to-port="0" />
		<edge from-layer="312" from-port="0" to-layer="313" to-port="1" />
		<edge from-layer="312" from-port="0" to-layer="613" to-port="1" />
		<edge from-layer="312" from-port="0" to-layer="688" to-port="1" />
		<edge from-layer="312" from-port="0" to-layer="538" to-port="1" />
		<edge from-layer="312" from-port="0" to-layer="388" to-port="1" />
		<edge from-layer="312" from-port="0" to-layer="463" to-port="1" />
		<edge from-layer="313" from-port="2" to-layer="315" to-port="0" />
		<edge from-layer="314" from-port="0" to-layer="315" to-port="1" />
		<edge from-layer="315" from-port="2" to-layer="319" to-port="0" />
		<edge from-layer="315" from-port="2" to-layer="331" to-port="0" />
		<edge from-layer="316" from-port="0" to-layer="330" to-port="0" />
		<edge from-layer="317" from-port="0" to-layer="326" to-port="0" />
		<edge from-layer="318" from-port="0" to-layer="319" to-port="1" />
		<edge from-layer="319" from-port="2" to-layer="321" to-port="0" />
		<edge from-layer="320" from-port="0" to-layer="321" to-port="1" />
		<edge from-layer="321" from-port="2" to-layer="323" to-port="0" />
		<edge from-layer="322" from-port="0" to-layer="323" to-port="1" />
		<edge from-layer="323" from-port="2" to-layer="325" to-port="0" />
		<edge from-layer="324" from-port="0" to-layer="325" to-port="1" />
		<edge from-layer="325" from-port="2" to-layer="326" to-port="1" />
		<edge from-layer="326" from-port="2" to-layer="327" to-port="0" />
		<edge from-layer="327" from-port="1" to-layer="329" to-port="0" />
		<edge from-layer="328" from-port="0" to-layer="329" to-port="1" />
		<edge from-layer="329" from-port="2" to-layer="330" to-port="1" />
		<edge from-layer="330" from-port="2" to-layer="331" to-port="1" />
		<edge from-layer="331" from-port="2" to-layer="380" to-port="0" />
		<edge from-layer="331" from-port="2" to-layer="334" to-port="0" />
		<edge from-layer="332" from-port="0" to-layer="373" to-port="0" />
		<edge from-layer="333" from-port="0" to-layer="351" to-port="0" />
		<edge from-layer="334" from-port="2" to-layer="338" to-port="0" />
		<edge from-layer="335" from-port="0" to-layer="338" to-port="1" />
		<edge from-layer="336" from-port="0" to-layer="338" to-port="2" />
		<edge from-layer="337" from-port="0" to-layer="338" to-port="3" />
		<edge from-layer="338" from-port="4" to-layer="339" to-port="0" />
		<edge from-layer="339" from-port="2" to-layer="341" to-port="0" />
		<edge from-layer="340" from-port="0" to-layer="341" to-port="1" />
		<edge from-layer="341" from-port="2" to-layer="342" to-port="0" />
		<edge from-layer="342" from-port="2" to-layer="344" to-port="0" />
		<edge from-layer="343" from-port="0" to-layer="344" to-port="1" />
		<edge from-layer="344" from-port="2" to-layer="346" to-port="0" />
		<edge from-layer="345" from-port="0" to-layer="346" to-port="1" />
		<edge from-layer="346" from-port="2" to-layer="348" to-port="0" />
		<edge from-layer="347" from-port="0" to-layer="348" to-port="1" />
		<edge from-layer="348" from-port="2" to-layer="350" to-port="0" />
		<edge from-layer="349" from-port="0" to-layer="350" to-port="1" />
		<edge from-layer="350" from-port="2" to-layer="351" to-port="1" />
		<edge from-layer="351" from-port="2" to-layer="352" to-port="0" />
		<edge from-layer="352" from-port="2" to-layer="354" to-port="0" />
		<edge from-layer="353" from-port="0" to-layer="354" to-port="1" />
		<edge from-layer="354" from-port="5" to-layer="366" to-port="0" />
		<edge from-layer="354" from-port="4" to-layer="358" to-port="0" />
		<edge from-layer="354" from-port="3" to-layer="356" to-port="0" />
		<edge from-layer="355" from-port="0" to-layer="356" to-port="1" />
		<edge from-layer="356" from-port="2" to-layer="359" to-port="0" />
		<edge from-layer="357" from-port="0" to-layer="358" to-port="1" />
		<edge from-layer="358" from-port="2" to-layer="359" to-port="1" />
		<edge from-layer="359" from-port="2" to-layer="361" to-port="0" />
		<edge from-layer="360" from-port="0" to-layer="361" to-port="1" />
		<edge from-layer="361" from-port="2" to-layer="363" to-port="0" />
		<edge from-layer="362" from-port="0" to-layer="363" to-port="1" />
		<edge from-layer="363" from-port="2" to-layer="364" to-port="0" />
		<edge from-layer="364" from-port="1" to-layer="367" to-port="0" />
		<edge from-layer="365" from-port="0" to-layer="366" to-port="1" />
		<edge from-layer="366" from-port="2" to-layer="367" to-port="1" />
		<edge from-layer="367" from-port="2" to-layer="369" to-port="0" />
		<edge from-layer="368" from-port="0" to-layer="369" to-port="1" />
		<edge from-layer="369" from-port="2" to-layer="370" to-port="0" />
		<edge from-layer="370" from-port="2" to-layer="372" to-port="0" />
		<edge from-layer="371" from-port="0" to-layer="372" to-port="1" />
		<edge from-layer="372" from-port="2" to-layer="373" to-port="1" />
		<edge from-layer="373" from-port="2" to-layer="374" to-port="0" />
		<edge from-layer="374" from-port="2" to-layer="376" to-port="0" />
		<edge from-layer="375" from-port="0" to-layer="376" to-port="1" />
		<edge from-layer="376" from-port="2" to-layer="377" to-port="0" />
		<edge from-layer="377" from-port="2" to-layer="378" to-port="0" />
		<edge from-layer="378" from-port="5" to-layer="379" to-port="0" />
		<edge from-layer="379" from-port="2" to-layer="380" to-port="1" />
		<edge from-layer="380" from-port="2" to-layer="382" to-port="0" />
		<edge from-layer="381" from-port="0" to-layer="382" to-port="1" />
		<edge from-layer="382" from-port="2" to-layer="383" to-port="0" />
		<edge from-layer="383" from-port="2" to-layer="385" to-port="0" />
		<edge from-layer="384" from-port="0" to-layer="385" to-port="1" />
		<edge from-layer="385" from-port="2" to-layer="387" to-port="0" />
		<edge from-layer="386" from-port="0" to-layer="387" to-port="1" />
		<edge from-layer="387" from-port="2" to-layer="388" to-port="0" />
		<edge from-layer="388" from-port="2" to-layer="390" to-port="0" />
		<edge from-layer="389" from-port="0" to-layer="390" to-port="1" />
		<edge from-layer="390" from-port="2" to-layer="394" to-port="0" />
		<edge from-layer="390" from-port="2" to-layer="406" to-port="0" />
		<edge from-layer="391" from-port="0" to-layer="405" to-port="0" />
		<edge from-layer="392" from-port="0" to-layer="401" to-port="0" />
		<edge from-layer="393" from-port="0" to-layer="394" to-port="1" />
		<edge from-layer="394" from-port="2" to-layer="396" to-port="0" />
		<edge from-layer="395" from-port="0" to-layer="396" to-port="1" />
		<edge from-layer="396" from-port="2" to-layer="398" to-port="0" />
		<edge from-layer="397" from-port="0" to-layer="398" to-port="1" />
		<edge from-layer="398" from-port="2" to-layer="400" to-port="0" />
		<edge from-layer="399" from-port="0" to-layer="400" to-port="1" />
		<edge from-layer="400" from-port="2" to-layer="401" to-port="1" />
		<edge from-layer="401" from-port="2" to-layer="402" to-port="0" />
		<edge from-layer="402" from-port="1" to-layer="404" to-port="0" />
		<edge from-layer="403" from-port="0" to-layer="404" to-port="1" />
		<edge from-layer="404" from-port="2" to-layer="405" to-port="1" />
		<edge from-layer="405" from-port="2" to-layer="406" to-port="1" />
		<edge from-layer="406" from-port="2" to-layer="409" to-port="0" />
		<edge from-layer="406" from-port="2" to-layer="455" to-port="0" />
		<edge from-layer="407" from-port="0" to-layer="448" to-port="0" />
		<edge from-layer="408" from-port="0" to-layer="426" to-port="0" />
		<edge from-layer="409" from-port="2" to-layer="413" to-port="0" />
		<edge from-layer="410" from-port="0" to-layer="413" to-port="1" />
		<edge from-layer="411" from-port="0" to-layer="413" to-port="2" />
		<edge from-layer="412" from-port="0" to-layer="413" to-port="3" />
		<edge from-layer="413" from-port="4" to-layer="414" to-port="0" />
		<edge from-layer="414" from-port="2" to-layer="416" to-port="0" />
		<edge from-layer="415" from-port="0" to-layer="416" to-port="1" />
		<edge from-layer="416" from-port="2" to-layer="417" to-port="0" />
		<edge from-layer="417" from-port="2" to-layer="419" to-port="0" />
		<edge from-layer="418" from-port="0" to-layer="419" to-port="1" />
		<edge from-layer="419" from-port="2" to-layer="421" to-port="0" />
		<edge from-layer="420" from-port="0" to-layer="421" to-port="1" />
		<edge from-layer="421" from-port="2" to-layer="423" to-port="0" />
		<edge from-layer="422" from-port="0" to-layer="423" to-port="1" />
		<edge from-layer="423" from-port="2" to-layer="425" to-port="0" />
		<edge from-layer="424" from-port="0" to-layer="425" to-port="1" />
		<edge from-layer="425" from-port="2" to-layer="426" to-port="1" />
		<edge from-layer="426" from-port="2" to-layer="427" to-port="0" />
		<edge from-layer="427" from-port="2" to-layer="429" to-port="0" />
		<edge from-layer="428" from-port="0" to-layer="429" to-port="1" />
		<edge from-layer="429" from-port="4" to-layer="433" to-port="0" />
		<edge from-layer="429" from-port="5" to-layer="441" to-port="0" />
		<edge from-layer="429" from-port="3" to-layer="431" to-port="0" />
		<edge from-layer="430" from-port="0" to-layer="431" to-port="1" />
		<edge from-layer="431" from-port="2" to-layer="434" to-port="0" />
		<edge from-layer="432" from-port="0" to-layer="433" to-port="1" />
		<edge from-layer="433" from-port="2" to-layer="434" to-port="1" />
		<edge from-layer="434" from-port="2" to-layer="436" to-port="0" />
		<edge from-layer="435" from-port="0" to-layer="436" to-port="1" />
		<edge from-layer="436" from-port="2" to-layer="438" to-port="0" />
		<edge from-layer="437" from-port="0" to-layer="438" to-port="1" />
		<edge from-layer="438" from-port="2" to-layer="439" to-port="0" />
		<edge from-layer="439" from-port="1" to-layer="442" to-port="0" />
		<edge from-layer="440" from-port="0" to-layer="441" to-port="1" />
		<edge from-layer="441" from-port="2" to-layer="442" to-port="1" />
		<edge from-layer="442" from-port="2" to-layer="444" to-port="0" />
		<edge from-layer="443" from-port="0" to-layer="444" to-port="1" />
		<edge from-layer="444" from-port="2" to-layer="445" to-port="0" />
		<edge from-layer="445" from-port="2" to-layer="447" to-port="0" />
		<edge from-layer="446" from-port="0" to-layer="447" to-port="1" />
		<edge from-layer="447" from-port="2" to-layer="448" to-port="1" />
		<edge from-layer="448" from-port="2" to-layer="449" to-port="0" />
		<edge from-layer="449" from-port="2" to-layer="451" to-port="0" />
		<edge from-layer="450" from-port="0" to-layer="451" to-port="1" />
		<edge from-layer="451" from-port="2" to-layer="452" to-port="0" />
		<edge from-layer="452" from-port="2" to-layer="453" to-port="0" />
		<edge from-layer="453" from-port="5" to-layer="454" to-port="0" />
		<edge from-layer="454" from-port="2" to-layer="455" to-port="1" />
		<edge from-layer="455" from-port="2" to-layer="457" to-port="0" />
		<edge from-layer="456" from-port="0" to-layer="457" to-port="1" />
		<edge from-layer="457" from-port="2" to-layer="458" to-port="0" />
		<edge from-layer="458" from-port="2" to-layer="460" to-port="0" />
		<edge from-layer="459" from-port="0" to-layer="460" to-port="1" />
		<edge from-layer="460" from-port="2" to-layer="462" to-port="0" />
		<edge from-layer="461" from-port="0" to-layer="462" to-port="1" />
		<edge from-layer="462" from-port="2" to-layer="463" to-port="0" />
		<edge from-layer="463" from-port="2" to-layer="465" to-port="0" />
		<edge from-layer="464" from-port="0" to-layer="465" to-port="1" />
		<edge from-layer="465" from-port="2" to-layer="469" to-port="0" />
		<edge from-layer="465" from-port="2" to-layer="481" to-port="0" />
		<edge from-layer="466" from-port="0" to-layer="480" to-port="0" />
		<edge from-layer="467" from-port="0" to-layer="476" to-port="0" />
		<edge from-layer="468" from-port="0" to-layer="469" to-port="1" />
		<edge from-layer="469" from-port="2" to-layer="471" to-port="0" />
		<edge from-layer="470" from-port="0" to-layer="471" to-port="1" />
		<edge from-layer="471" from-port="2" to-layer="473" to-port="0" />
		<edge from-layer="472" from-port="0" to-layer="473" to-port="1" />
		<edge from-layer="473" from-port="2" to-layer="475" to-port="0" />
		<edge from-layer="474" from-port="0" to-layer="475" to-port="1" />
		<edge from-layer="475" from-port="2" to-layer="476" to-port="1" />
		<edge from-layer="476" from-port="2" to-layer="477" to-port="0" />
		<edge from-layer="477" from-port="1" to-layer="479" to-port="0" />
		<edge from-layer="478" from-port="0" to-layer="479" to-port="1" />
		<edge from-layer="479" from-port="2" to-layer="480" to-port="1" />
		<edge from-layer="480" from-port="2" to-layer="481" to-port="1" />
		<edge from-layer="481" from-port="2" to-layer="530" to-port="0" />
		<edge from-layer="481" from-port="2" to-layer="484" to-port="0" />
		<edge from-layer="482" from-port="0" to-layer="523" to-port="0" />
		<edge from-layer="483" from-port="0" to-layer="501" to-port="0" />
		<edge from-layer="484" from-port="2" to-layer="488" to-port="0" />
		<edge from-layer="485" from-port="0" to-layer="488" to-port="1" />
		<edge from-layer="486" from-port="0" to-layer="488" to-port="2" />
		<edge from-layer="487" from-port="0" to-layer="488" to-port="3" />
		<edge from-layer="488" from-port="4" to-layer="489" to-port="0" />
		<edge from-layer="489" from-port="2" to-layer="491" to-port="0" />
		<edge from-layer="490" from-port="0" to-layer="491" to-port="1" />
		<edge from-layer="491" from-port="2" to-layer="492" to-port="0" />
		<edge from-layer="492" from-port="2" to-layer="494" to-port="0" />
		<edge from-layer="493" from-port="0" to-layer="494" to-port="1" />
		<edge from-layer="494" from-port="2" to-layer="496" to-port="0" />
		<edge from-layer="495" from-port="0" to-layer="496" to-port="1" />
		<edge from-layer="496" from-port="2" to-layer="498" to-port="0" />
		<edge from-layer="497" from-port="0" to-layer="498" to-port="1" />
		<edge from-layer="498" from-port="2" to-layer="500" to-port="0" />
		<edge from-layer="499" from-port="0" to-layer="500" to-port="1" />
		<edge from-layer="500" from-port="2" to-layer="501" to-port="1" />
		<edge from-layer="501" from-port="2" to-layer="502" to-port="0" />
		<edge from-layer="502" from-port="2" to-layer="504" to-port="0" />
		<edge from-layer="503" from-port="0" to-layer="504" to-port="1" />
		<edge from-layer="504" from-port="4" to-layer="508" to-port="0" />
		<edge from-layer="504" from-port="5" to-layer="516" to-port="0" />
		<edge from-layer="504" from-port="3" to-layer="506" to-port="0" />
		<edge from-layer="505" from-port="0" to-layer="506" to-port="1" />
		<edge from-layer="506" from-port="2" to-layer="509" to-port="0" />
		<edge from-layer="507" from-port="0" to-layer="508" to-port="1" />
		<edge from-layer="508" from-port="2" to-layer="509" to-port="1" />
		<edge from-layer="509" from-port="2" to-layer="511" to-port="0" />
		<edge from-layer="510" from-port="0" to-layer="511" to-port="1" />
		<edge from-layer="511" from-port="2" to-layer="513" to-port="0" />
		<edge from-layer="512" from-port="0" to-layer="513" to-port="1" />
		<edge from-layer="513" from-port="2" to-layer="514" to-port="0" />
		<edge from-layer="514" from-port="1" to-layer="517" to-port="0" />
		<edge from-layer="515" from-port="0" to-layer="516" to-port="1" />
		<edge from-layer="516" from-port="2" to-layer="517" to-port="1" />
		<edge from-layer="517" from-port="2" to-layer="519" to-port="0" />
		<edge from-layer="518" from-port="0" to-layer="519" to-port="1" />
		<edge from-layer="519" from-port="2" to-layer="520" to-port="0" />
		<edge from-layer="520" from-port="2" to-layer="522" to-port="0" />
		<edge from-layer="521" from-port="0" to-layer="522" to-port="1" />
		<edge from-layer="522" from-port="2" to-layer="523" to-port="1" />
		<edge from-layer="523" from-port="2" to-layer="524" to-port="0" />
		<edge from-layer="524" from-port="2" to-layer="526" to-port="0" />
		<edge from-layer="525" from-port="0" to-layer="526" to-port="1" />
		<edge from-layer="526" from-port="2" to-layer="527" to-port="0" />
		<edge from-layer="527" from-port="2" to-layer="528" to-port="0" />
		<edge from-layer="528" from-port="5" to-layer="529" to-port="0" />
		<edge from-layer="529" from-port="2" to-layer="530" to-port="1" />
		<edge from-layer="530" from-port="2" to-layer="532" to-port="0" />
		<edge from-layer="531" from-port="0" to-layer="532" to-port="1" />
		<edge from-layer="532" from-port="2" to-layer="533" to-port="0" />
		<edge from-layer="533" from-port="2" to-layer="535" to-port="0" />
		<edge from-layer="534" from-port="0" to-layer="535" to-port="1" />
		<edge from-layer="535" from-port="2" to-layer="537" to-port="0" />
		<edge from-layer="536" from-port="0" to-layer="537" to-port="1" />
		<edge from-layer="537" from-port="2" to-layer="538" to-port="0" />
		<edge from-layer="538" from-port="2" to-layer="540" to-port="0" />
		<edge from-layer="539" from-port="0" to-layer="540" to-port="1" />
		<edge from-layer="540" from-port="2" to-layer="556" to-port="0" />
		<edge from-layer="540" from-port="2" to-layer="544" to-port="0" />
		<edge from-layer="541" from-port="0" to-layer="555" to-port="0" />
		<edge from-layer="542" from-port="0" to-layer="551" to-port="0" />
		<edge from-layer="543" from-port="0" to-layer="544" to-port="1" />
		<edge from-layer="544" from-port="2" to-layer="546" to-port="0" />
		<edge from-layer="545" from-port="0" to-layer="546" to-port="1" />
		<edge from-layer="546" from-port="2" to-layer="548" to-port="0" />
		<edge from-layer="547" from-port="0" to-layer="548" to-port="1" />
		<edge from-layer="548" from-port="2" to-layer="550" to-port="0" />
		<edge from-layer="549" from-port="0" to-layer="550" to-port="1" />
		<edge from-layer="550" from-port="2" to-layer="551" to-port="1" />
		<edge from-layer="551" from-port="2" to-layer="552" to-port="0" />
		<edge from-layer="552" from-port="1" to-layer="554" to-port="0" />
		<edge from-layer="553" from-port="0" to-layer="554" to-port="1" />
		<edge from-layer="554" from-port="2" to-layer="555" to-port="1" />
		<edge from-layer="555" from-port="2" to-layer="556" to-port="1" />
		<edge from-layer="556" from-port="2" to-layer="559" to-port="0" />
		<edge from-layer="556" from-port="2" to-layer="605" to-port="0" />
		<edge from-layer="557" from-port="0" to-layer="598" to-port="0" />
		<edge from-layer="558" from-port="0" to-layer="576" to-port="0" />
		<edge from-layer="559" from-port="2" to-layer="563" to-port="0" />
		<edge from-layer="560" from-port="0" to-layer="563" to-port="1" />
		<edge from-layer="561" from-port="0" to-layer="563" to-port="2" />
		<edge from-layer="562" from-port="0" to-layer="563" to-port="3" />
		<edge from-layer="563" from-port="4" to-layer="564" to-port="0" />
		<edge from-layer="564" from-port="2" to-layer="566" to-port="0" />
		<edge from-layer="565" from-port="0" to-layer="566" to-port="1" />
		<edge from-layer="566" from-port="2" to-layer="567" to-port="0" />
		<edge from-layer="567" from-port="2" to-layer="569" to-port="0" />
		<edge from-layer="568" from-port="0" to-layer="569" to-port="1" />
		<edge from-layer="569" from-port="2" to-layer="571" to-port="0" />
		<edge from-layer="570" from-port="0" to-layer="571" to-port="1" />
		<edge from-layer="571" from-port="2" to-layer="573" to-port="0" />
		<edge from-layer="572" from-port="0" to-layer="573" to-port="1" />
		<edge from-layer="573" from-port="2" to-layer="575" to-port="0" />
		<edge from-layer="574" from-port="0" to-layer="575" to-port="1" />
		<edge from-layer="575" from-port="2" to-layer="576" to-port="1" />
		<edge from-layer="576" from-port="2" to-layer="577" to-port="0" />
		<edge from-layer="577" from-port="2" to-layer="579" to-port="0" />
		<edge from-layer="578" from-port="0" to-layer="579" to-port="1" />
		<edge from-layer="579" from-port="4" to-layer="583" to-port="0" />
		<edge from-layer="579" from-port="5" to-layer="591" to-port="0" />
		<edge from-layer="579" from-port="3" to-layer="581" to-port="0" />
		<edge from-layer="580" from-port="0" to-layer="581" to-port="1" />
		<edge from-layer="581" from-port="2" to-layer="584" to-port="0" />
		<edge from-layer="582" from-port="0" to-layer="583" to-port="1" />
		<edge from-layer="583" from-port="2" to-layer="584" to-port="1" />
		<edge from-layer="584" from-port="2" to-layer="586" to-port="0" />
		<edge from-layer="585" from-port="0" to-layer="586" to-port="1" />
		<edge from-layer="586" from-port="2" to-layer="588" to-port="0" />
		<edge from-layer="587" from-port="0" to-layer="588" to-port="1" />
		<edge from-layer="588" from-port="2" to-layer="589" to-port="0" />
		<edge from-layer="589" from-port="1" to-layer="592" to-port="0" />
		<edge from-layer="590" from-port="0" to-layer="591" to-port="1" />
		<edge from-layer="591" from-port="2" to-layer="592" to-port="1" />
		<edge from-layer="592" from-port="2" to-layer="594" to-port="0" />
		<edge from-layer="593" from-port="0" to-layer="594" to-port="1" />
		<edge from-layer="594" from-port="2" to-layer="595" to-port="0" />
		<edge from-layer="595" from-port="2" to-layer="597" to-port="0" />
		<edge from-layer="596" from-port="0" to-layer="597" to-port="1" />
		<edge from-layer="597" from-port="2" to-layer="598" to-port="1" />
		<edge from-layer="598" from-port="2" to-layer="599" to-port="0" />
		<edge from-layer="599" from-port="2" to-layer="601" to-port="0" />
		<edge from-layer="600" from-port="0" to-layer="601" to-port="1" />
		<edge from-layer="601" from-port="2" to-layer="602" to-port="0" />
		<edge from-layer="602" from-port="2" to-layer="603" to-port="0" />
		<edge from-layer="603" from-port="5" to-layer="604" to-port="0" />
		<edge from-layer="604" from-port="2" to-layer="605" to-port="1" />
		<edge from-layer="605" from-port="2" to-layer="607" to-port="0" />
		<edge from-layer="606" from-port="0" to-layer="607" to-port="1" />
		<edge from-layer="607" from-port="2" to-layer="608" to-port="0" />
		<edge from-layer="608" from-port="2" to-layer="610" to-port="0" />
		<edge from-layer="609" from-port="0" to-layer="610" to-port="1" />
		<edge from-layer="610" from-port="2" to-layer="612" to-port="0" />
		<edge from-layer="611" from-port="0" to-layer="612" to-port="1" />
		<edge from-layer="612" from-port="2" to-layer="613" to-port="0" />
		<edge from-layer="613" from-port="2" to-layer="615" to-port="0" />
		<edge from-layer="614" from-port="0" to-layer="615" to-port="1" />
		<edge from-layer="615" from-port="2" to-layer="631" to-port="0" />
		<edge from-layer="615" from-port="2" to-layer="619" to-port="0" />
		<edge from-layer="616" from-port="0" to-layer="630" to-port="0" />
		<edge from-layer="617" from-port="0" to-layer="626" to-port="0" />
		<edge from-layer="618" from-port="0" to-layer="619" to-port="1" />
		<edge from-layer="619" from-port="2" to-layer="621" to-port="0" />
		<edge from-layer="620" from-port="0" to-layer="621" to-port="1" />
		<edge from-layer="621" from-port="2" to-layer="623" to-port="0" />
		<edge from-layer="622" from-port="0" to-layer="623" to-port="1" />
		<edge from-layer="623" from-port="2" to-layer="625" to-port="0" />
		<edge from-layer="624" from-port="0" to-layer="625" to-port="1" />
		<edge from-layer="625" from-port="2" to-layer="626" to-port="1" />
		<edge from-layer="626" from-port="2" to-layer="627" to-port="0" />
		<edge from-layer="627" from-port="1" to-layer="629" to-port="0" />
		<edge from-layer="628" from-port="0" to-layer="629" to-port="1" />
		<edge from-layer="629" from-port="2" to-layer="630" to-port="1" />
		<edge from-layer="630" from-port="2" to-layer="631" to-port="1" />
		<edge from-layer="631" from-port="2" to-layer="680" to-port="0" />
		<edge from-layer="631" from-port="2" to-layer="634" to-port="0" />
		<edge from-layer="632" from-port="0" to-layer="673" to-port="0" />
		<edge from-layer="633" from-port="0" to-layer="651" to-port="0" />
		<edge from-layer="634" from-port="2" to-layer="638" to-port="0" />
		<edge from-layer="635" from-port="0" to-layer="638" to-port="1" />
		<edge from-layer="636" from-port="0" to-layer="638" to-port="2" />
		<edge from-layer="637" from-port="0" to-layer="638" to-port="3" />
		<edge from-layer="638" from-port="4" to-layer="639" to-port="0" />
		<edge from-layer="639" from-port="2" to-layer="641" to-port="0" />
		<edge from-layer="640" from-port="0" to-layer="641" to-port="1" />
		<edge from-layer="641" from-port="2" to-layer="642" to-port="0" />
		<edge from-layer="642" from-port="2" to-layer="644" to-port="0" />
		<edge from-layer="643" from-port="0" to-layer="644" to-port="1" />
		<edge from-layer="644" from-port="2" to-layer="646" to-port="0" />
		<edge from-layer="645" from-port="0" to-layer="646" to-port="1" />
		<edge from-layer="646" from-port="2" to-layer="648" to-port="0" />
		<edge from-layer="647" from-port="0" to-layer="648" to-port="1" />
		<edge from-layer="648" from-port="2" to-layer="650" to-port="0" />
		<edge from-layer="649" from-port="0" to-layer="650" to-port="1" />
		<edge from-layer="650" from-port="2" to-layer="651" to-port="1" />
		<edge from-layer="651" from-port="2" to-layer="652" to-port="0" />
		<edge from-layer="652" from-port="2" to-layer="654" to-port="0" />
		<edge from-layer="653" from-port="0" to-layer="654" to-port="1" />
		<edge from-layer="654" from-port="3" to-layer="656" to-port="0" />
		<edge from-layer="654" from-port="5" to-layer="666" to-port="0" />
		<edge from-layer="654" from-port="4" to-layer="658" to-port="0" />
		<edge from-layer="655" from-port="0" to-layer="656" to-port="1" />
		<edge from-layer="656" from-port="2" to-layer="659" to-port="0" />
		<edge from-layer="657" from-port="0" to-layer="658" to-port="1" />
		<edge from-layer="658" from-port="2" to-layer="659" to-port="1" />
		<edge from-layer="659" from-port="2" to-layer="661" to-port="0" />
		<edge from-layer="660" from-port="0" to-layer="661" to-port="1" />
		<edge from-layer="661" from-port="2" to-layer="663" to-port="0" />
		<edge from-layer="662" from-port="0" to-layer="663" to-port="1" />
		<edge from-layer="663" from-port="2" to-layer="664" to-port="0" />
		<edge from-layer="664" from-port="1" to-layer="667" to-port="0" />
		<edge from-layer="665" from-port="0" to-layer="666" to-port="1" />
		<edge from-layer="666" from-port="2" to-layer="667" to-port="1" />
		<edge from-layer="667" from-port="2" to-layer="669" to-port="0" />
		<edge from-layer="668" from-port="0" to-layer="669" to-port="1" />
		<edge from-layer="669" from-port="2" to-layer="670" to-port="0" />
		<edge from-layer="670" from-port="2" to-layer="672" to-port="0" />
		<edge from-layer="671" from-port="0" to-layer="672" to-port="1" />
		<edge from-layer="672" from-port="2" to-layer="673" to-port="1" />
		<edge from-layer="673" from-port="2" to-layer="674" to-port="0" />
		<edge from-layer="674" from-port="2" to-layer="676" to-port="0" />
		<edge from-layer="675" from-port="0" to-layer="676" to-port="1" />
		<edge from-layer="676" from-port="2" to-layer="677" to-port="0" />
		<edge from-layer="677" from-port="2" to-layer="678" to-port="0" />
		<edge from-layer="678" from-port="5" to-layer="679" to-port="0" />
		<edge from-layer="679" from-port="2" to-layer="680" to-port="1" />
		<edge from-layer="680" from-port="2" to-layer="682" to-port="0" />
		<edge from-layer="681" from-port="0" to-layer="682" to-port="1" />
		<edge from-layer="682" from-port="2" to-layer="683" to-port="0" />
		<edge from-layer="683" from-port="2" to-layer="685" to-port="0" />
		<edge from-layer="684" from-port="0" to-layer="685" to-port="1" />
		<edge from-layer="685" from-port="2" to-layer="687" to-port="0" />
		<edge from-layer="686" from-port="0" to-layer="687" to-port="1" />
		<edge from-layer="687" from-port="2" to-layer="688" to-port="0" />
		<edge from-layer="688" from-port="2" to-layer="690" to-port="0" />
		<edge from-layer="689" from-port="0" to-layer="690" to-port="1" />
		<edge from-layer="690" from-port="2" to-layer="706" to-port="0" />
		<edge from-layer="690" from-port="2" to-layer="694" to-port="0" />
		<edge from-layer="691" from-port="0" to-layer="705" to-port="0" />
		<edge from-layer="692" from-port="0" to-layer="701" to-port="0" />
		<edge from-layer="693" from-port="0" to-layer="694" to-port="1" />
		<edge from-layer="694" from-port="2" to-layer="696" to-port="0" />
		<edge from-layer="695" from-port="0" to-layer="696" to-port="1" />
		<edge from-layer="696" from-port="2" to-layer="698" to-port="0" />
		<edge from-layer="697" from-port="0" to-layer="698" to-port="1" />
		<edge from-layer="698" from-port="2" to-layer="700" to-port="0" />
		<edge from-layer="699" from-port="0" to-layer="700" to-port="1" />
		<edge from-layer="700" from-port="2" to-layer="701" to-port="1" />
		<edge from-layer="701" from-port="2" to-layer="702" to-port="0" />
		<edge from-layer="702" from-port="1" to-layer="704" to-port="0" />
		<edge from-layer="703" from-port="0" to-layer="704" to-port="1" />
		<edge from-layer="704" from-port="2" to-layer="705" to-port="1" />
		<edge from-layer="705" from-port="2" to-layer="706" to-port="1" />
		<edge from-layer="706" from-port="2" to-layer="708" to-port="0" />
		<edge from-layer="707" from-port="0" to-layer="708" to-port="1" />
		<edge from-layer="708" from-port="2" to-layer="710" to-port="0" />
		<edge from-layer="709" from-port="0" to-layer="710" to-port="1" />
		<edge from-layer="710" from-port="2" to-layer="712" to-port="0" />
		<edge from-layer="711" from-port="0" to-layer="712" to-port="1" />
		<edge from-layer="712" from-port="2" to-layer="714" to-port="0" />
		<edge from-layer="713" from-port="0" to-layer="714" to-port="1" />
		<edge from-layer="714" from-port="2" to-layer="715" to-port="0" />
		<edge from-layer="715" from-port="1" to-layer="717" to-port="0" />
		<edge from-layer="716" from-port="0" to-layer="717" to-port="1" />
		<edge from-layer="717" from-port="2" to-layer="719" to-port="0" />
		<edge from-layer="718" from-port="0" to-layer="719" to-port="1" />
		<edge from-layer="719" from-port="2" to-layer="720" to-port="0" />
		<edge from-layer="720" from-port="1" to-layer="722" to-port="0" />
		<edge from-layer="721" from-port="0" to-layer="722" to-port="1" />
		<edge from-layer="722" from-port="2" to-layer="724" to-port="0" />
		<edge from-layer="723" from-port="0" to-layer="724" to-port="1" />
		<edge from-layer="724" from-port="2" to-layer="726" to-port="0" />
		<edge from-layer="725" from-port="0" to-layer="726" to-port="1" />
		<edge from-layer="726" from-port="2" to-layer="728" to-port="0" />
		<edge from-layer="727" from-port="0" to-layer="728" to-port="1" />
		<edge from-layer="728" from-port="2" to-layer="732" to-port="0" />
		<edge from-layer="728" from-port="2" to-layer="784" to-port="0" />
		<edge from-layer="729" from-port="0" to-layer="774" to-port="0" />
		<edge from-layer="730" from-port="0" to-layer="751" to-port="0" />
		<edge from-layer="731" from-port="0" to-layer="732" to-port="1" />
		<edge from-layer="731" from-port="0" to-layer="888" to-port="1" />
		<edge from-layer="731" from-port="0" to-layer="815" to-port="1" />
		<edge from-layer="732" from-port="2" to-layer="736" to-port="0" />
		<edge from-layer="733" from-port="0" to-layer="736" to-port="1" />
		<edge from-layer="734" from-port="0" to-layer="736" to-port="2" />
		<edge from-layer="735" from-port="0" to-layer="736" to-port="3" />
		<edge from-layer="736" from-port="4" to-layer="738" to-port="0" />
		<edge from-layer="737" from-port="0" to-layer="738" to-port="1" />
		<edge from-layer="737" from-port="0" to-layer="820" to-port="1" />
		<edge from-layer="738" from-port="2" to-layer="740" to-port="0" />
		<edge from-layer="739" from-port="0" to-layer="740" to-port="1" />
		<edge from-layer="740" from-port="2" to-layer="742" to-port="0" />
		<edge from-layer="741" from-port="0" to-layer="771" to-port="1" />
		<edge from-layer="741" from-port="0" to-layer="742" to-port="1" />
		<edge from-layer="741" from-port="0" to-layer="851" to-port="1" />
		<edge from-layer="741" from-port="0" to-layer="823" to-port="1" />
		<edge from-layer="742" from-port="2" to-layer="744" to-port="0" />
		<edge from-layer="743" from-port="0" to-layer="744" to-port="1" />
		<edge from-layer="744" from-port="2" to-layer="746" to-port="0" />
		<edge from-layer="745" from-port="0" to-layer="746" to-port="1" />
		<edge from-layer="746" from-port="2" to-layer="748" to-port="0" />
		<edge from-layer="747" from-port="0" to-layer="748" to-port="1" />
		<edge from-layer="748" from-port="2" to-layer="750" to-port="0" />
		<edge from-layer="749" from-port="0" to-layer="750" to-port="1" />
		<edge from-layer="750" from-port="2" to-layer="751" to-port="1" />
		<edge from-layer="751" from-port="2" to-layer="753" to-port="0" />
		<edge from-layer="752" from-port="0" to-layer="833" to-port="1" />
		<edge from-layer="752" from-port="0" to-layer="753" to-port="1" />
		<edge from-layer="753" from-port="2" to-layer="755" to-port="0" />
		<edge from-layer="754" from-port="0" to-layer="755" to-port="1" />
		<edge from-layer="755" from-port="3" to-layer="757" to-port="0" />
		<edge from-layer="755" from-port="5" to-layer="767" to-port="0" />
		<edge from-layer="755" from-port="4" to-layer="759" to-port="0" />
		<edge from-layer="756" from-port="0" to-layer="757" to-port="1" />
		<edge from-layer="757" from-port="2" to-layer="760" to-port="0" />
		<edge from-layer="758" from-port="0" to-layer="759" to-port="1" />
		<edge from-layer="759" from-port="2" to-layer="760" to-port="1" />
		<edge from-layer="760" from-port="2" to-layer="762" to-port="0" />
		<edge from-layer="761" from-port="0" to-layer="762" to-port="1" />
		<edge from-layer="762" from-port="2" to-layer="764" to-port="0" />
		<edge from-layer="763" from-port="0" to-layer="764" to-port="1" />
		<edge from-layer="764" from-port="2" to-layer="765" to-port="0" />
		<edge from-layer="765" from-port="1" to-layer="768" to-port="0" />
		<edge from-layer="766" from-port="0" to-layer="767" to-port="1" />
		<edge from-layer="767" from-port="2" to-layer="768" to-port="1" />
		<edge from-layer="768" from-port="2" to-layer="770" to-port="0" />
		<edge from-layer="769" from-port="0" to-layer="770" to-port="1" />
		<edge from-layer="770" from-port="2" to-layer="771" to-port="0" />
		<edge from-layer="771" from-port="2" to-layer="773" to-port="0" />
		<edge from-layer="772" from-port="0" to-layer="773" to-port="1" />
		<edge from-layer="773" from-port="2" to-layer="774" to-port="1" />
		<edge from-layer="774" from-port="2" to-layer="776" to-port="0" />
		<edge from-layer="775" from-port="0" to-layer="776" to-port="1" />
		<edge from-layer="775" from-port="0" to-layer="855" to-port="1" />
		<edge from-layer="776" from-port="2" to-layer="778" to-port="0" />
		<edge from-layer="777" from-port="0" to-layer="778" to-port="1" />
		<edge from-layer="778" from-port="2" to-layer="780" to-port="0" />
		<edge from-layer="779" from-port="0" to-layer="858" to-port="1" />
		<edge from-layer="779" from-port="0" to-layer="780" to-port="1" />
		<edge from-layer="780" from-port="2" to-layer="781" to-port="0" />
		<edge from-layer="781" from-port="5" to-layer="783" to-port="0" />
		<edge from-layer="782" from-port="0" to-layer="783" to-port="1" />
		<edge from-layer="782" from-port="0" to-layer="860" to-port="1" />
		<edge from-layer="783" from-port="2" to-layer="784" to-port="1" />
		<edge from-layer="784" from-port="2" to-layer="786" to-port="0" />
		<edge from-layer="785" from-port="0" to-layer="786" to-port="1" />
		<edge from-layer="786" from-port="2" to-layer="788" to-port="0" />
		<edge from-layer="787" from-port="0" to-layer="788" to-port="1" />
		<edge from-layer="787" from-port="0" to-layer="864" to-port="1" />
		<edge from-layer="788" from-port="2" to-layer="790" to-port="0" />
		<edge from-layer="789" from-port="0" to-layer="790" to-port="1" />
		<edge from-layer="790" from-port="2" to-layer="792" to-port="0" />
		<edge from-layer="791" from-port="0" to-layer="792" to-port="1" />
		<edge from-layer="792" from-port="2" to-layer="794" to-port="0" />
		<edge from-layer="793" from-port="0" to-layer="794" to-port="1" />
		<edge from-layer="793" from-port="0" to-layer="869" to-port="1" />
		<edge from-layer="794" from-port="2" to-layer="796" to-port="0" />
		<edge from-layer="795" from-port="0" to-layer="796" to-port="1" />
		<edge from-layer="796" from-port="2" to-layer="800" to-port="0" />
		<edge from-layer="796" from-port="2" to-layer="812" to-port="0" />
		<edge from-layer="797" from-port="0" to-layer="811" to-port="0" />
		<edge from-layer="798" from-port="0" to-layer="807" to-port="0" />
		<edge from-layer="799" from-port="0" to-layer="800" to-port="1" />
		<edge from-layer="800" from-port="2" to-layer="802" to-port="0" />
		<edge from-layer="801" from-port="0" to-layer="802" to-port="1" />
		<edge from-layer="802" from-port="2" to-layer="804" to-port="0" />
		<edge from-layer="803" from-port="0" to-layer="804" to-port="1" />
		<edge from-layer="804" from-port="2" to-layer="806" to-port="0" />
		<edge from-layer="805" from-port="0" to-layer="806" to-port="1" />
		<edge from-layer="806" from-port="2" to-layer="807" to-port="1" />
		<edge from-layer="807" from-port="2" to-layer="808" to-port="0" />
		<edge from-layer="808" from-port="1" to-layer="810" to-port="0" />
		<edge from-layer="809" from-port="0" to-layer="810" to-port="1" />
		<edge from-layer="810" from-port="2" to-layer="811" to-port="1" />
		<edge from-layer="811" from-port="2" to-layer="812" to-port="1" />
		<edge from-layer="812" from-port="2" to-layer="815" to-port="0" />
		<edge from-layer="812" from-port="2" to-layer="861" to-port="0" />
		<edge from-layer="813" from-port="0" to-layer="854" to-port="0" />
		<edge from-layer="814" from-port="0" to-layer="832" to-port="0" />
		<edge from-layer="815" from-port="2" to-layer="819" to-port="0" />
		<edge from-layer="816" from-port="0" to-layer="819" to-port="1" />
		<edge from-layer="817" from-port="0" to-layer="819" to-port="2" />
		<edge from-layer="818" from-port="0" to-layer="819" to-port="3" />
		<edge from-layer="819" from-port="4" to-layer="820" to-port="0" />
		<edge from-layer="820" from-port="2" to-layer="822" to-port="0" />
		<edge from-layer="821" from-port="0" to-layer="822" to-port="1" />
		<edge from-layer="822" from-port="2" to-layer="823" to-port="0" />
		<edge from-layer="823" from-port="2" to-layer="825" to-port="0" />
		<edge from-layer="824" from-port="0" to-layer="825" to-port="1" />
		<edge from-layer="825" from-port="2" to-layer="827" to-port="0" />
		<edge from-layer="826" from-port="0" to-layer="827" to-port="1" />
		<edge from-layer="827" from-port="2" to-layer="829" to-port="0" />
		<edge from-layer="828" from-port="0" to-layer="829" to-port="1" />
		<edge from-layer="829" from-port="2" to-layer="831" to-port="0" />
		<edge from-layer="830" from-port="0" to-layer="831" to-port="1" />
		<edge from-layer="831" from-port="2" to-layer="832" to-port="1" />
		<edge from-layer="832" from-port="2" to-layer="833" to-port="0" />
		<edge from-layer="833" from-port="2" to-layer="835" to-port="0" />
		<edge from-layer="834" from-port="0" to-layer="835" to-port="1" />
		<edge from-layer="835" from-port="3" to-layer="837" to-port="0" />
		<edge from-layer="835" from-port="4" to-layer="839" to-port="0" />
		<edge from-layer="835" from-port="5" to-layer="847" to-port="0" />
		<edge from-layer="836" from-port="0" to-layer="837" to-port="1" />
		<edge from-layer="837" from-port="2" to-layer="840" to-port="0" />
		<edge from-layer="838" from-port="0" to-layer="839" to-port="1" />
		<edge from-layer="839" from-port="2" to-layer="840" to-port="1" />
		<edge from-layer="840" from-port="2" to-layer="842" to-port="0" />
		<edge from-layer="841" from-port="0" to-layer="842" to-port="1" />
		<edge from-layer="842" from-port="2" to-layer="844" to-port="0" />
		<edge from-layer="843" from-port="0" to-layer="844" to-port="1" />
		<edge from-layer="844" from-port="2" to-layer="845" to-port="0" />
		<edge from-layer="845" from-port="1" to-layer="848" to-port="0" />
		<edge from-layer="846" from-port="0" to-layer="847" to-port="1" />
		<edge from-layer="847" from-port="2" to-layer="848" to-port="1" />
		<edge from-layer="848" from-port="2" to-layer="850" to-port="0" />
		<edge from-layer="849" from-port="0" to-layer="850" to-port="1" />
		<edge from-layer="850" from-port="2" to-layer="851" to-port="0" />
		<edge from-layer="851" from-port="2" to-layer="853" to-port="0" />
		<edge from-layer="852" from-port="0" to-layer="853" to-port="1" />
		<edge from-layer="853" from-port="2" to-layer="854" to-port="1" />
		<edge from-layer="854" from-port="2" to-layer="855" to-port="0" />
		<edge from-layer="855" from-port="2" to-layer="857" to-port="0" />
		<edge from-layer="856" from-port="0" to-layer="857" to-port="1" />
		<edge from-layer="857" from-port="2" to-layer="858" to-port="0" />
		<edge from-layer="858" from-port="2" to-layer="859" to-port="0" />
		<edge from-layer="859" from-port="5" to-layer="860" to-port="0" />
		<edge from-layer="860" from-port="2" to-layer="861" to-port="1" />
		<edge from-layer="861" from-port="2" to-layer="863" to-port="0" />
		<edge from-layer="862" from-port="0" to-layer="863" to-port="1" />
		<edge from-layer="863" from-port="2" to-layer="864" to-port="0" />
		<edge from-layer="864" from-port="2" to-layer="866" to-port="0" />
		<edge from-layer="865" from-port="0" to-layer="866" to-port="1" />
		<edge from-layer="866" from-port="2" to-layer="868" to-port="0" />
		<edge from-layer="867" from-port="0" to-layer="868" to-port="1" />
		<edge from-layer="868" from-port="2" to-layer="869" to-port="0" />
		<edge from-layer="869" from-port="2" to-layer="871" to-port="0" />
		<edge from-layer="870" from-port="0" to-layer="871" to-port="1" />
		<edge from-layer="871" from-port="2" to-layer="887" to-port="0" />
		<edge from-layer="871" from-port="2" to-layer="875" to-port="0" />
		<edge from-layer="872" from-port="0" to-layer="886" to-port="0" />
		<edge from-layer="873" from-port="0" to-layer="882" to-port="0" />
		<edge from-layer="874" from-port="0" to-layer="875" to-port="1" />
		<edge from-layer="875" from-port="2" to-layer="877" to-port="0" />
		<edge from-layer="876" from-port="0" to-layer="877" to-port="1" />
		<edge from-layer="877" from-port="2" to-layer="879" to-port="0" />
		<edge from-layer="878" from-port="0" to-layer="879" to-port="1" />
		<edge from-layer="879" from-port="2" to-layer="881" to-port="0" />
		<edge from-layer="880" from-port="0" to-layer="881" to-port="1" />
		<edge from-layer="881" from-port="2" to-layer="882" to-port="1" />
		<edge from-layer="882" from-port="2" to-layer="883" to-port="0" />
		<edge from-layer="883" from-port="1" to-layer="885" to-port="0" />
		<edge from-layer="884" from-port="0" to-layer="885" to-port="1" />
		<edge from-layer="885" from-port="2" to-layer="886" to-port="1" />
		<edge from-layer="886" from-port="2" to-layer="887" to-port="1" />
		<edge from-layer="887" from-port="2" to-layer="888" to-port="0" />
		<edge from-layer="888" from-port="2" to-layer="890" to-port="0" />
		<edge from-layer="889" from-port="0" to-layer="890" to-port="1" />
		<edge from-layer="890" from-port="2" to-layer="892" to-port="0" />
		<edge from-layer="891" from-port="0" to-layer="892" to-port="1" />
		<edge from-layer="892" from-port="2" to-layer="894" to-port="0" />
		<edge from-layer="893" from-port="0" to-layer="894" to-port="1" />
		<edge from-layer="894" from-port="2" to-layer="895" to-port="1" />
		<edge from-layer="895" from-port="2" to-layer="897" to-port="0" />
		<edge from-layer="896" from-port="0" to-layer="897" to-port="1" />
		<edge from-layer="897" from-port="2" to-layer="899" to-port="0" />
		<edge from-layer="898" from-port="0" to-layer="899" to-port="1" />
		<edge from-layer="899" from-port="2" to-layer="901" to-port="0" />
		<edge from-layer="900" from-port="0" to-layer="901" to-port="1" />
		<edge from-layer="901" from-port="2" to-layer="902" to-port="1" />
		<edge from-layer="902" from-port="2" to-layer="904" to-port="0" />
		<edge from-layer="903" from-port="0" to-layer="904" to-port="1" />
		<edge from-layer="904" from-port="2" to-layer="905" to-port="0" />
	</edges>
	<rt_info>
		<Runtime_version value="2025.2.0-19140-c01cd93e24d-releases/2025/2" />
		<conversion_parameters>
			<is_python_object value="False" />
		</conversion_parameters>
	</rt_info>
</net>
