<?xml version="1.0"?>
<net name="main_graph" version="11">
	<layers>
		<layer id="0" name="image" type="Parameter" version="opset1">
			<data shape="1,3,256,256" element_type="f32" />
			<output>
				<port id="0" precision="FP32" names="image">
					<dim>1</dim>
					<dim>3</dim>
					<dim>256</dim>
					<dim>256</dim>
				</port>
			</output>
		</layer>
		<layer id="1" name="Constant_31381" type="Const" version="opset1">
			<data element_type="f32" shape="1, 256, 1, 1" offset="0" size="1024" />
			<output>
				<port id="0" precision="FP32">
					<dim>1</dim>
					<dim>256</dim>
					<dim>1</dim>
					<dim>1</dim>
				</port>
			</output>
		</layer>
		<layer id="2" name="Constant_31378" type="Const" version="opset1">
			<data element_type="f32" shape="1, 256, 1, 1" offset="1024" size="1024" />
			<output>
				<port id="0" precision="FP32">
					<dim>1</dim>
					<dim>256</dim>
					<dim>1</dim>
					<dim>1</dim>
				</port>
			</output>
		</layer>
		<layer id="3" name="Constant_31210" type="Const" version="opset1">
			<data element_type="f32" shape="1, 1, 1, 1" offset="2048" size="4" />
			<output>
				<port id="0" precision="FP32">
					<dim>1</dim>
					<dim>1</dim>
					<dim>1</dim>
					<dim>1</dim>
				</port>
			</output>
		</layer>
		<layer id="4" name="Multiply_10124" type="Multiply" version="opset1">
			<data auto_broadcast="numpy" />
			<input>
				<port id="0" precision="FP32">
					<dim>1</dim>
					<dim>3</dim>
					<dim>256</dim>
					<dim>256</dim>
				</port>
				<port id="1" precision="FP32">
					<dim>1</dim>
					<dim>1</dim>
					<dim>1</dim>
					<dim>1</dim>
				</port>
			</input>
			<output>
				<port id="2" precision="FP32">
					<dim>1</dim>
					<dim>3</dim>
					<dim>256</dim>
					<dim>256</dim>
				</port>
			</output>
		</layer>
		<layer id="5" name="Constant_10104" type="Const" version="opset1">
			<data element_type="f32" shape="" offset="2052" size="4" />
			<output>
				<port id="0" precision="FP32" />
			</output>
		</layer>
		<layer id="6" name="Range_10100" type="Const" version="opset1">
			<data element_type="i64" shape="4" offset="2056" size="32" />
			<output>
				<port id="0" precision="I64">
					<dim>4</dim>
				</port>
			</output>
		</layer>
		<layer id="7" name="ReduceMax_10102" type="ReduceMax" version="opset1">
			<data keep_dims="false" />
			<input>
				<port id="0" precision="FP32">
					<dim>1</dim>
					<dim>3</dim>
					<dim>256</dim>
					<dim>256</dim>
				</port>
				<port id="1" precision="I64">
					<dim>4</dim>
				</port>
			</input>
			<output>
				<port id="2" precision="FP32" />
			</output>
		</layer>
		<layer id="8" name="Maximum_10105" type="Maximum" version="opset1">
			<data auto_broadcast="numpy" />
			<input>
				<port id="0" precision="FP32" />
				<port id="1" precision="FP32" />
			</input>
			<output>
				<port id="2" precision="FP32" />
			</output>
		</layer>
		<layer id="9" name="Constant_10115" type="Const" version="opset1">
			<data element_type="f32" shape="" offset="2052" size="4" />
			<output>
				<port id="0" precision="FP32" />
			</output>
		</layer>
		<layer id="10" name="ReduceMin_10113" type="ReduceMin" version="opset1">
			<data keep_dims="false" />
			<input>
				<port id="0" precision="FP32">
					<dim>1</dim>
					<dim>3</dim>
					<dim>256</dim>
					<dim>256</dim>
				</port>
				<port id="1" precision="I64">
					<dim>4</dim>
				</port>
			</input>
			<output>
				<port id="2" precision="FP32" />
			</output>
		</layer>
		<layer id="11" name="Minimum_10116" type="Minimum" version="opset1">
			<data auto_broadcast="numpy" />
			<input>
				<port id="0" precision="FP32" />
				<port id="1" precision="FP32" />
			</input>
			<output>
				<port id="2" precision="FP32" />
			</output>
		</layer>
		<layer id="12" name="Subtract_10117" type="Subtract" version="opset1">
			<data auto_broadcast="numpy" />
			<input>
				<port id="0" precision="FP32" />
				<port id="1" precision="FP32" />
			</input>
			<output>
				<port id="2" precision="FP32" />
			</output>
		</layer>
		<layer id="13" name="Divide_10125" type="Divide" version="opset1">
			<data auto_broadcast="numpy" m_pythondiv="true" />
			<input>
				<port id="0" precision="FP32">
					<dim>1</dim>
					<dim>3</dim>
					<dim>256</dim>
					<dim>256</dim>
				</port>
				<port id="1" precision="FP32" />
			</input>
			<output>
				<port id="2" precision="FP32">
					<dim>1</dim>
					<dim>3</dim>
					<dim>256</dim>
					<dim>256</dim>
				</port>
			</output>
		</layer>
		<layer id="14" name="Round_10126" type="Round" version="opset5">
			<data mode="half_to_even" />
			<input>
				<port id="0" precision="FP32">
					<dim>1</dim>
					<dim>3</dim>
					<dim>256</dim>
					<dim>256</dim>
				</port>
			</input>
			<output>
				<port id="1" precision="FP32">
					<dim>1</dim>
					<dim>3</dim>
					<dim>256</dim>
					<dim>256</dim>
				</port>
			</output>
		</layer>
		<layer id="15" name="Constant_10092" type="Const" version="opset1">
			<data element_type="f32" shape="" offset="2052" size="4" />
			<output>
				<port id="0" precision="FP32" />
			</output>
		</layer>
		<layer id="16" name="Subtract_10119" type="Subtract" version="opset1">
			<data auto_broadcast="numpy" />
			<input>
				<port id="0" precision="FP32" />
				<port id="1" precision="FP32" />
			</input>
			<output>
				<port id="2" precision="FP32" />
			</output>
		</layer>
		<layer id="17" name="Constant_17267" type="Const" version="opset1">
			<data element_type="f32" shape="" offset="2088" size="4" />
			<output>
				<port id="0" precision="FP32" />
			</output>
		</layer>
		<layer id="18" name="image_QuantizeLinear_image_scale" type="Multiply" version="opset1">
			<data auto_broadcast="numpy" />
			<input>
				<port id="0" precision="FP32" />
				<port id="1" precision="FP32" />
			</input>
			<output>
				<port id="2" precision="FP32" names="image_scale" />
			</output>
		</layer>
		<layer id="19" name="Divide_10120" type="Divide" version="opset1">
			<data auto_broadcast="numpy" m_pythondiv="true" />
			<input>
				<port id="0" precision="FP32" />
				<port id="1" precision="FP32" />
			</input>
			<output>
				<port id="2" precision="FP32" />
			</output>
		</layer>
		<layer id="20" name="Round_10121" type="Round" version="opset5">
			<data mode="half_to_even" />
			<input>
				<port id="0" precision="FP32" />
			</input>
			<output>
				<port id="1" precision="FP32" />
			</output>
		</layer>
		<layer id="21" name="Clamp_10122" type="Clamp" version="opset1">
			<data min="0" max="255" />
			<input>
				<port id="0" precision="FP32" />
			</input>
			<output>
				<port id="1" precision="FP32" />
			</output>
		</layer>
		<layer id="22" name="image_QuantizeLinear_image_zero_point" type="Convert" version="opset1">
			<data destination_type="u8" />
			<input>
				<port id="0" precision="FP32" />
			</input>
			<output>
				<port id="1" precision="U8" names="image_zero_point" />
			</output>
		</layer>
		<layer id="23" name="Convert_10127" type="Convert" version="opset1">
			<data destination_type="f32" />
			<input>
				<port id="0" precision="U8" />
			</input>
			<output>
				<port id="1" precision="FP32" />
			</output>
		</layer>
		<layer id="24" name="Add_10128" type="Add" version="opset1">
			<data auto_broadcast="numpy" />
			<input>
				<port id="0" precision="FP32">
					<dim>1</dim>
					<dim>3</dim>
					<dim>256</dim>
					<dim>256</dim>
				</port>
				<port id="1" precision="FP32" />
			</input>
			<output>
				<port id="2" precision="FP32">
					<dim>1</dim>
					<dim>3</dim>
					<dim>256</dim>
					<dim>256</dim>
				</port>
			</output>
		</layer>
		<layer id="25" name="Clamp_10129" type="Clamp" version="opset1">
			<data min="0" max="255" />
			<input>
				<port id="0" precision="FP32">
					<dim>1</dim>
					<dim>3</dim>
					<dim>256</dim>
					<dim>256</dim>
				</port>
			</input>
			<output>
				<port id="1" precision="FP32">
					<dim>1</dim>
					<dim>3</dim>
					<dim>256</dim>
					<dim>256</dim>
				</port>
			</output>
		</layer>
		<layer id="26" name="image_QuantizeLinear_image_quantized" type="Convert" version="opset1">
			<data destination_type="u8" />
			<input>
				<port id="0" precision="FP32">
					<dim>1</dim>
					<dim>3</dim>
					<dim>256</dim>
					<dim>256</dim>
				</port>
			</input>
			<output>
				<port id="1" precision="U8" names="image_quantized">
					<dim>1</dim>
					<dim>3</dim>
					<dim>256</dim>
					<dim>256</dim>
				</port>
			</output>
		</layer>
		<layer id="27" name="Convert_10159" type="Convert" version="opset1">
			<data destination_type="i32" />
			<input>
				<port id="0" precision="U8">
					<dim>1</dim>
					<dim>3</dim>
					<dim>256</dim>
					<dim>256</dim>
				</port>
			</input>
			<output>
				<port id="1" precision="I32">
					<dim>1</dim>
					<dim>3</dim>
					<dim>256</dim>
					<dim>256</dim>
				</port>
			</output>
		</layer>
		<layer id="28" name="Convert_10161" type="Convert" version="opset1">
			<data destination_type="i32" />
			<input>
				<port id="0" precision="U8" />
			</input>
			<output>
				<port id="1" precision="I32" />
			</output>
		</layer>
		<layer id="29" name="Subtract_10163" type="Subtract" version="opset1">
			<data auto_broadcast="numpy" />
			<input>
				<port id="0" precision="I32">
					<dim>1</dim>
					<dim>3</dim>
					<dim>256</dim>
					<dim>256</dim>
				</port>
				<port id="1" precision="I32" />
			</input>
			<output>
				<port id="2" precision="I32">
					<dim>1</dim>
					<dim>3</dim>
					<dim>256</dim>
					<dim>256</dim>
				</port>
			</output>
		</layer>
		<layer id="30" name="Subtract_10164" type="Const" version="opset1">
			<data element_type="i32" shape="32, 3, 1, 1" offset="2092" size="384" />
			<output>
				<port id="0" precision="I32">
					<dim>32</dim>
					<dim>3</dim>
					<dim>1</dim>
					<dim>1</dim>
				</port>
			</output>
		</layer>
		<layer id="31" name="/patch_embed/seq/seq.0/c/Conv_quant" type="Convolution" version="opset1">
			<data strides="1, 1" dilations="1, 1" pads_begin="0, 0" pads_end="0, 0" auto_pad="explicit" />
			<input>
				<port id="0" precision="I32">
					<dim>1</dim>
					<dim>3</dim>
					<dim>256</dim>
					<dim>256</dim>
				</port>
				<port id="1" precision="I32">
					<dim>32</dim>
					<dim>3</dim>
					<dim>1</dim>
					<dim>1</dim>
				</port>
			</input>
			<output>
				<port id="2" precision="I32" names="/patch_embed/seq/seq.0/c/Conv_output_0_output_quantized">
					<dim>1</dim>
					<dim>32</dim>
					<dim>256</dim>
					<dim>256</dim>
				</port>
			</output>
		</layer>
		<layer id="32" name="/patch_embed/seq/seq.0/c/Conv_output_0_output_quantized_cast" type="Convert" version="opset1">
			<data destination_type="f32" />
			<input>
				<port id="0" precision="I32">
					<dim>1</dim>
					<dim>32</dim>
					<dim>256</dim>
					<dim>256</dim>
				</port>
			</input>
			<output>
				<port id="1" precision="FP32" names="/patch_embed/seq/seq.0/c/Conv_output_0_output_quantized_cast_output">
					<dim>1</dim>
					<dim>32</dim>
					<dim>256</dim>
					<dim>256</dim>
				</port>
			</output>
		</layer>
		<layer id="33" name="onnx::Conv_2448_scale" type="Const" version="opset1">
			<data element_type="f32" shape="" offset="2476" size="4" />
			<output>
				<port id="0" precision="FP32" names="onnx::Conv_2448_scale" />
			</output>
		</layer>
		<layer id="34" name="/patch_embed/seq/seq.0/c/Conv_quant_scales_mul" type="Multiply" version="opset1">
			<data auto_broadcast="numpy" />
			<input>
				<port id="0" precision="FP32" />
				<port id="1" precision="FP32" />
			</input>
			<output>
				<port id="2" precision="FP32" names="/patch_embed/seq/seq.0/c/Conv_quant_scales_mul:0" />
			</output>
		</layer>
		<layer id="35" name="/patch_embed/seq/seq.0/c/Conv_quant_output_scale_mul" type="Multiply" version="opset1">
			<data auto_broadcast="numpy" />
			<input>
				<port id="0" precision="FP32">
					<dim>1</dim>
					<dim>32</dim>
					<dim>256</dim>
					<dim>256</dim>
				</port>
				<port id="1" precision="FP32" />
			</input>
			<output>
				<port id="2" precision="FP32" names="/patch_embed/seq/seq.0/c/Conv_output_0quant_scaled_output">
					<dim>1</dim>
					<dim>32</dim>
					<dim>256</dim>
					<dim>256</dim>
				</port>
			</output>
		</layer>
		<layer id="36" name="/patch_embed/seq/seq.0/c/Conv_output_0_bias_reshape_output" type="Const" version="opset1">
			<data element_type="f32" shape="1, 32, 1, 1" offset="2480" size="128" />
			<output>
				<port id="0" precision="FP32" names="/patch_embed/seq/seq.0/c/Conv_output_0_bias_reshape_output">
					<dim>1</dim>
					<dim>32</dim>
					<dim>1</dim>
					<dim>1</dim>
				</port>
			</output>
		</layer>
		<layer id="37" name="/patch_embed/seq/seq.0/c/Conv_output_0_bias_add" type="Add" version="opset1">
			<data auto_broadcast="numpy" />
			<input>
				<port id="0" precision="FP32">
					<dim>1</dim>
					<dim>32</dim>
					<dim>256</dim>
					<dim>256</dim>
				</port>
				<port id="1" precision="FP32">
					<dim>1</dim>
					<dim>32</dim>
					<dim>1</dim>
					<dim>1</dim>
				</port>
			</input>
			<output>
				<port id="2" precision="FP32" names="/patch_embed/seq/seq.0/c/Conv_output_0">
					<dim>1</dim>
					<dim>32</dim>
					<dim>256</dim>
					<dim>256</dim>
				</port>
			</output>
		</layer>
		<layer id="38" name="/patch_embed/seq/seq.1/Mul_1" type="Gelu" version="opset7">
			<data approximation_mode="ERF" />
			<input>
				<port id="0" precision="FP32">
					<dim>1</dim>
					<dim>32</dim>
					<dim>256</dim>
					<dim>256</dim>
				</port>
			</input>
			<output>
				<port id="1" precision="FP32" names="/patch_embed/seq/seq.1/Mul_1_output_0">
					<dim>1</dim>
					<dim>32</dim>
					<dim>256</dim>
					<dim>256</dim>
				</port>
			</output>
		</layer>
		<layer id="39" name="Constant_31211" type="Const" version="opset1">
			<data element_type="f32" shape="1, 1, 1, 1" offset="2048" size="4" />
			<output>
				<port id="0" precision="FP32">
					<dim>1</dim>
					<dim>1</dim>
					<dim>1</dim>
					<dim>1</dim>
				</port>
			</output>
		</layer>
		<layer id="40" name="Multiply_10206" type="Multiply" version="opset1">
			<data auto_broadcast="numpy" />
			<input>
				<port id="0" precision="FP32">
					<dim>1</dim>
					<dim>32</dim>
					<dim>256</dim>
					<dim>256</dim>
				</port>
				<port id="1" precision="FP32">
					<dim>1</dim>
					<dim>1</dim>
					<dim>1</dim>
					<dim>1</dim>
				</port>
			</input>
			<output>
				<port id="2" precision="FP32">
					<dim>1</dim>
					<dim>32</dim>
					<dim>256</dim>
					<dim>256</dim>
				</port>
			</output>
		</layer>
		<layer id="41" name="Constant_10186" type="Const" version="opset1">
			<data element_type="f32" shape="" offset="2052" size="4" />
			<output>
				<port id="0" precision="FP32" />
			</output>
		</layer>
		<layer id="42" name="Range_10182" type="Const" version="opset1">
			<data element_type="i64" shape="4" offset="2056" size="32" />
			<output>
				<port id="0" precision="I64">
					<dim>4</dim>
				</port>
			</output>
		</layer>
		<layer id="43" name="ReduceMax_10184" type="ReduceMax" version="opset1">
			<data keep_dims="false" />
			<input>
				<port id="0" precision="FP32">
					<dim>1</dim>
					<dim>32</dim>
					<dim>256</dim>
					<dim>256</dim>
				</port>
				<port id="1" precision="I64">
					<dim>4</dim>
				</port>
			</input>
			<output>
				<port id="2" precision="FP32" />
			</output>
		</layer>
		<layer id="44" name="Maximum_10187" type="Maximum" version="opset1">
			<data auto_broadcast="numpy" />
			<input>
				<port id="0" precision="FP32" />
				<port id="1" precision="FP32" />
			</input>
			<output>
				<port id="2" precision="FP32" />
			</output>
		</layer>
		<layer id="45" name="Constant_10197" type="Const" version="opset1">
			<data element_type="f32" shape="" offset="2052" size="4" />
			<output>
				<port id="0" precision="FP32" />
			</output>
		</layer>
		<layer id="46" name="ReduceMin_10195" type="ReduceMin" version="opset1">
			<data keep_dims="false" />
			<input>
				<port id="0" precision="FP32">
					<dim>1</dim>
					<dim>32</dim>
					<dim>256</dim>
					<dim>256</dim>
				</port>
				<port id="1" precision="I64">
					<dim>4</dim>
				</port>
			</input>
			<output>
				<port id="2" precision="FP32" />
			</output>
		</layer>
		<layer id="47" name="Minimum_10198" type="Minimum" version="opset1">
			<data auto_broadcast="numpy" />
			<input>
				<port id="0" precision="FP32" />
				<port id="1" precision="FP32" />
			</input>
			<output>
				<port id="2" precision="FP32" />
			</output>
		</layer>
		<layer id="48" name="Subtract_10199" type="Subtract" version="opset1">
			<data auto_broadcast="numpy" />
			<input>
				<port id="0" precision="FP32" />
				<port id="1" precision="FP32" />
			</input>
			<output>
				<port id="2" precision="FP32" />
			</output>
		</layer>
		<layer id="49" name="Divide_10207" type="Divide" version="opset1">
			<data auto_broadcast="numpy" m_pythondiv="true" />
			<input>
				<port id="0" precision="FP32">
					<dim>1</dim>
					<dim>32</dim>
					<dim>256</dim>
					<dim>256</dim>
				</port>
				<port id="1" precision="FP32" />
			</input>
			<output>
				<port id="2" precision="FP32">
					<dim>1</dim>
					<dim>32</dim>
					<dim>256</dim>
					<dim>256</dim>
				</port>
			</output>
		</layer>
		<layer id="50" name="Round_10208" type="Round" version="opset5">
			<data mode="half_to_even" />
			<input>
				<port id="0" precision="FP32">
					<dim>1</dim>
					<dim>32</dim>
					<dim>256</dim>
					<dim>256</dim>
				</port>
			</input>
			<output>
				<port id="1" precision="FP32">
					<dim>1</dim>
					<dim>32</dim>
					<dim>256</dim>
					<dim>256</dim>
				</port>
			</output>
		</layer>
		<layer id="51" name="Constant_10174" type="Const" version="opset1">
			<data element_type="f32" shape="" offset="2052" size="4" />
			<output>
				<port id="0" precision="FP32" />
			</output>
		</layer>
		<layer id="52" name="Subtract_10201" type="Subtract" version="opset1">
			<data auto_broadcast="numpy" />
			<input>
				<port id="0" precision="FP32" />
				<port id="1" precision="FP32" />
			</input>
			<output>
				<port id="2" precision="FP32" />
			</output>
		</layer>
		<layer id="53" name="Constant_17275" type="Const" version="opset1">
			<data element_type="f32" shape="" offset="2088" size="4" />
			<output>
				<port id="0" precision="FP32" />
			</output>
		</layer>
		<layer id="54" name="/patch_embed/seq/seq.1/Mul_1_output_0_QuantizeLinear_/patch_embed/seq/seq.1/Mul_1_output_0_scale" type="Multiply" version="opset1">
			<data auto_broadcast="numpy" />
			<input>
				<port id="0" precision="FP32" />
				<port id="1" precision="FP32" />
			</input>
			<output>
				<port id="2" precision="FP32" names="/patch_embed/seq/seq.1/Mul_1_output_0_scale" />
			</output>
		</layer>
		<layer id="55" name="Divide_10202" type="Divide" version="opset1">
			<data auto_broadcast="numpy" m_pythondiv="true" />
			<input>
				<port id="0" precision="FP32" />
				<port id="1" precision="FP32" />
			</input>
			<output>
				<port id="2" precision="FP32" />
			</output>
		</layer>
		<layer id="56" name="Round_10203" type="Round" version="opset5">
			<data mode="half_to_even" />
			<input>
				<port id="0" precision="FP32" />
			</input>
			<output>
				<port id="1" precision="FP32" />
			</output>
		</layer>
		<layer id="57" name="Clamp_10204" type="Clamp" version="opset1">
			<data min="0" max="255" />
			<input>
				<port id="0" precision="FP32" />
			</input>
			<output>
				<port id="1" precision="FP32" />
			</output>
		</layer>
		<layer id="58" name="/patch_embed/seq/seq.1/Mul_1_output_0_QuantizeLinear_/patch_embed/seq/seq.1/Mul_1_output_0_zero_point" type="Convert" version="opset1">
			<data destination_type="u8" />
			<input>
				<port id="0" precision="FP32" />
			</input>
			<output>
				<port id="1" precision="U8" names="/patch_embed/seq/seq.1/Mul_1_output_0_zero_point" />
			</output>
		</layer>
		<layer id="59" name="Convert_10209" type="Convert" version="opset1">
			<data destination_type="f32" />
			<input>
				<port id="0" precision="U8" />
			</input>
			<output>
				<port id="1" precision="FP32" />
			</output>
		</layer>
		<layer id="60" name="Add_10210" type="Add" version="opset1">
			<data auto_broadcast="numpy" />
			<input>
				<port id="0" precision="FP32">
					<dim>1</dim>
					<dim>32</dim>
					<dim>256</dim>
					<dim>256</dim>
				</port>
				<port id="1" precision="FP32" />
			</input>
			<output>
				<port id="2" precision="FP32">
					<dim>1</dim>
					<dim>32</dim>
					<dim>256</dim>
					<dim>256</dim>
				</port>
			</output>
		</layer>
		<layer id="61" name="Clamp_10211" type="Clamp" version="opset1">
			<data min="0" max="255" />
			<input>
				<port id="0" precision="FP32">
					<dim>1</dim>
					<dim>32</dim>
					<dim>256</dim>
					<dim>256</dim>
				</port>
			</input>
			<output>
				<port id="1" precision="FP32">
					<dim>1</dim>
					<dim>32</dim>
					<dim>256</dim>
					<dim>256</dim>
				</port>
			</output>
		</layer>
		<layer id="62" name="/patch_embed/seq/seq.1/Mul_1_output_0_QuantizeLinear_/patch_embed/seq/seq.1/Mul_1_output_0_quantized" type="Convert" version="opset1">
			<data destination_type="u8" />
			<input>
				<port id="0" precision="FP32">
					<dim>1</dim>
					<dim>32</dim>
					<dim>256</dim>
					<dim>256</dim>
				</port>
			</input>
			<output>
				<port id="1" precision="U8" names="/patch_embed/seq/seq.1/Mul_1_output_0_quantized">
					<dim>1</dim>
					<dim>32</dim>
					<dim>256</dim>
					<dim>256</dim>
				</port>
			</output>
		</layer>
		<layer id="63" name="Convert_10214" type="Convert" version="opset1">
			<data destination_type="i32" />
			<input>
				<port id="0" precision="U8">
					<dim>1</dim>
					<dim>32</dim>
					<dim>256</dim>
					<dim>256</dim>
				</port>
			</input>
			<output>
				<port id="1" precision="I32">
					<dim>1</dim>
					<dim>32</dim>
					<dim>256</dim>
					<dim>256</dim>
				</port>
			</output>
		</layer>
		<layer id="64" name="Convert_10216" type="Convert" version="opset1">
			<data destination_type="i32" />
			<input>
				<port id="0" precision="U8" />
			</input>
			<output>
				<port id="1" precision="I32" />
			</output>
		</layer>
		<layer id="65" name="Subtract_10218" type="Subtract" version="opset1">
			<data auto_broadcast="numpy" />
			<input>
				<port id="0" precision="I32">
					<dim>1</dim>
					<dim>32</dim>
					<dim>256</dim>
					<dim>256</dim>
				</port>
				<port id="1" precision="I32" />
			</input>
			<output>
				<port id="2" precision="I32">
					<dim>1</dim>
					<dim>32</dim>
					<dim>256</dim>
					<dim>256</dim>
				</port>
			</output>
		</layer>
		<layer id="66" name="Subtract_10219" type="Const" version="opset1">
			<data element_type="i32" shape="64, 32, 1, 1" offset="2608" size="8192" />
			<output>
				<port id="0" precision="I32">
					<dim>64</dim>
					<dim>32</dim>
					<dim>1</dim>
					<dim>1</dim>
				</port>
			</output>
		</layer>
		<layer id="67" name="/patch_embed/seq/seq.2/c/Conv_quant" type="Convolution" version="opset1">
			<data strides="1, 1" dilations="1, 1" pads_begin="0, 0" pads_end="0, 0" auto_pad="explicit" />
			<input>
				<port id="0" precision="I32">
					<dim>1</dim>
					<dim>32</dim>
					<dim>256</dim>
					<dim>256</dim>
				</port>
				<port id="1" precision="I32">
					<dim>64</dim>
					<dim>32</dim>
					<dim>1</dim>
					<dim>1</dim>
				</port>
			</input>
			<output>
				<port id="2" precision="I32" names="/patch_embed/seq/seq.2/c/Conv_output_0_output_quantized">
					<dim>1</dim>
					<dim>64</dim>
					<dim>256</dim>
					<dim>256</dim>
				</port>
			</output>
		</layer>
		<layer id="68" name="/patch_embed/seq/seq.2/c/Conv_output_0_output_quantized_cast" type="Convert" version="opset1">
			<data destination_type="f32" />
			<input>
				<port id="0" precision="I32">
					<dim>1</dim>
					<dim>64</dim>
					<dim>256</dim>
					<dim>256</dim>
				</port>
			</input>
			<output>
				<port id="1" precision="FP32" names="/patch_embed/seq/seq.2/c/Conv_output_0_output_quantized_cast_output">
					<dim>1</dim>
					<dim>64</dim>
					<dim>256</dim>
					<dim>256</dim>
				</port>
			</output>
		</layer>
		<layer id="69" name="onnx::Conv_2451_scale" type="Const" version="opset1">
			<data element_type="f32" shape="" offset="10800" size="4" />
			<output>
				<port id="0" precision="FP32" names="onnx::Conv_2451_scale" />
			</output>
		</layer>
		<layer id="70" name="/patch_embed/seq/seq.2/c/Conv_quant_scales_mul" type="Multiply" version="opset1">
			<data auto_broadcast="numpy" />
			<input>
				<port id="0" precision="FP32" />
				<port id="1" precision="FP32" />
			</input>
			<output>
				<port id="2" precision="FP32" names="/patch_embed/seq/seq.2/c/Conv_quant_scales_mul:0" />
			</output>
		</layer>
		<layer id="71" name="/patch_embed/seq/seq.2/c/Conv_quant_output_scale_mul" type="Multiply" version="opset1">
			<data auto_broadcast="numpy" />
			<input>
				<port id="0" precision="FP32">
					<dim>1</dim>
					<dim>64</dim>
					<dim>256</dim>
					<dim>256</dim>
				</port>
				<port id="1" precision="FP32" />
			</input>
			<output>
				<port id="2" precision="FP32" names="/patch_embed/seq/seq.2/c/Conv_output_0quant_scaled_output">
					<dim>1</dim>
					<dim>64</dim>
					<dim>256</dim>
					<dim>256</dim>
				</port>
			</output>
		</layer>
		<layer id="72" name="/patch_embed/seq/seq.2/c/Conv_output_0_bias_reshape_output" type="Const" version="opset1">
			<data element_type="f32" shape="1, 64, 1, 1" offset="10804" size="256" />
			<output>
				<port id="0" precision="FP32" names="/patch_embed/seq/seq.2/c/Conv_output_0_bias_reshape_output">
					<dim>1</dim>
					<dim>64</dim>
					<dim>1</dim>
					<dim>1</dim>
				</port>
			</output>
		</layer>
		<layer id="73" name="/patch_embed/seq/seq.2/c/Conv_output_0_bias_add" type="Add" version="opset1">
			<data auto_broadcast="numpy" />
			<input>
				<port id="0" precision="FP32">
					<dim>1</dim>
					<dim>64</dim>
					<dim>256</dim>
					<dim>256</dim>
				</port>
				<port id="1" precision="FP32">
					<dim>1</dim>
					<dim>64</dim>
					<dim>1</dim>
					<dim>1</dim>
				</port>
			</input>
			<output>
				<port id="2" precision="FP32" names="/patch_embed/seq/seq.2/c/Conv_output_0">
					<dim>1</dim>
					<dim>64</dim>
					<dim>256</dim>
					<dim>256</dim>
				</port>
			</output>
		</layer>
		<layer id="74" name="Constant_31212" type="Const" version="opset1">
			<data element_type="f32" shape="1, 1, 1, 1" offset="2048" size="4" />
			<output>
				<port id="0" precision="FP32">
					<dim>1</dim>
					<dim>1</dim>
					<dim>1</dim>
					<dim>1</dim>
				</port>
			</output>
		</layer>
		<layer id="75" name="Multiply_10256" type="Multiply" version="opset1">
			<data auto_broadcast="numpy" />
			<input>
				<port id="0" precision="FP32">
					<dim>1</dim>
					<dim>64</dim>
					<dim>256</dim>
					<dim>256</dim>
				</port>
				<port id="1" precision="FP32">
					<dim>1</dim>
					<dim>1</dim>
					<dim>1</dim>
					<dim>1</dim>
				</port>
			</input>
			<output>
				<port id="2" precision="FP32">
					<dim>1</dim>
					<dim>64</dim>
					<dim>256</dim>
					<dim>256</dim>
				</port>
			</output>
		</layer>
		<layer id="76" name="Constant_10236" type="Const" version="opset1">
			<data element_type="f32" shape="" offset="2052" size="4" />
			<output>
				<port id="0" precision="FP32" />
			</output>
		</layer>
		<layer id="77" name="Range_10232" type="Const" version="opset1">
			<data element_type="i64" shape="4" offset="2056" size="32" />
			<output>
				<port id="0" precision="I64">
					<dim>4</dim>
				</port>
			</output>
		</layer>
		<layer id="78" name="ReduceMax_10234" type="ReduceMax" version="opset1">
			<data keep_dims="false" />
			<input>
				<port id="0" precision="FP32">
					<dim>1</dim>
					<dim>64</dim>
					<dim>256</dim>
					<dim>256</dim>
				</port>
				<port id="1" precision="I64">
					<dim>4</dim>
				</port>
			</input>
			<output>
				<port id="2" precision="FP32" />
			</output>
		</layer>
		<layer id="79" name="Maximum_10237" type="Maximum" version="opset1">
			<data auto_broadcast="numpy" />
			<input>
				<port id="0" precision="FP32" />
				<port id="1" precision="FP32" />
			</input>
			<output>
				<port id="2" precision="FP32" />
			</output>
		</layer>
		<layer id="80" name="Constant_10247" type="Const" version="opset1">
			<data element_type="f32" shape="" offset="2052" size="4" />
			<output>
				<port id="0" precision="FP32" />
			</output>
		</layer>
		<layer id="81" name="ReduceMin_10245" type="ReduceMin" version="opset1">
			<data keep_dims="false" />
			<input>
				<port id="0" precision="FP32">
					<dim>1</dim>
					<dim>64</dim>
					<dim>256</dim>
					<dim>256</dim>
				</port>
				<port id="1" precision="I64">
					<dim>4</dim>
				</port>
			</input>
			<output>
				<port id="2" precision="FP32" />
			</output>
		</layer>
		<layer id="82" name="Minimum_10248" type="Minimum" version="opset1">
			<data auto_broadcast="numpy" />
			<input>
				<port id="0" precision="FP32" />
				<port id="1" precision="FP32" />
			</input>
			<output>
				<port id="2" precision="FP32" />
			</output>
		</layer>
		<layer id="83" name="Subtract_10249" type="Subtract" version="opset1">
			<data auto_broadcast="numpy" />
			<input>
				<port id="0" precision="FP32" />
				<port id="1" precision="FP32" />
			</input>
			<output>
				<port id="2" precision="FP32" />
			</output>
		</layer>
		<layer id="84" name="Divide_10257" type="Divide" version="opset1">
			<data auto_broadcast="numpy" m_pythondiv="true" />
			<input>
				<port id="0" precision="FP32">
					<dim>1</dim>
					<dim>64</dim>
					<dim>256</dim>
					<dim>256</dim>
				</port>
				<port id="1" precision="FP32" />
			</input>
			<output>
				<port id="2" precision="FP32">
					<dim>1</dim>
					<dim>64</dim>
					<dim>256</dim>
					<dim>256</dim>
				</port>
			</output>
		</layer>
		<layer id="85" name="Round_10258" type="Round" version="opset5">
			<data mode="half_to_even" />
			<input>
				<port id="0" precision="FP32">
					<dim>1</dim>
					<dim>64</dim>
					<dim>256</dim>
					<dim>256</dim>
				</port>
			</input>
			<output>
				<port id="1" precision="FP32">
					<dim>1</dim>
					<dim>64</dim>
					<dim>256</dim>
					<dim>256</dim>
				</port>
			</output>
		</layer>
		<layer id="86" name="Constant_10224" type="Const" version="opset1">
			<data element_type="f32" shape="" offset="2052" size="4" />
			<output>
				<port id="0" precision="FP32" />
			</output>
		</layer>
		<layer id="87" name="Subtract_10251" type="Subtract" version="opset1">
			<data auto_broadcast="numpy" />
			<input>
				<port id="0" precision="FP32" />
				<port id="1" precision="FP32" />
			</input>
			<output>
				<port id="2" precision="FP32" />
			</output>
		</layer>
		<layer id="88" name="Constant_17279" type="Const" version="opset1">
			<data element_type="f32" shape="" offset="2088" size="4" />
			<output>
				<port id="0" precision="FP32" />
			</output>
		</layer>
		<layer id="89" name="/patch_embed/seq/seq.2/c/Conv_output_0_QuantizeLinear_/patch_embed/seq/seq.2/c/Conv_output_0_scale" type="Multiply" version="opset1">
			<data auto_broadcast="numpy" />
			<input>
				<port id="0" precision="FP32" />
				<port id="1" precision="FP32" />
			</input>
			<output>
				<port id="2" precision="FP32" names="/patch_embed/seq/seq.2/c/Conv_output_0_scale" />
			</output>
		</layer>
		<layer id="90" name="Divide_10252" type="Divide" version="opset1">
			<data auto_broadcast="numpy" m_pythondiv="true" />
			<input>
				<port id="0" precision="FP32" />
				<port id="1" precision="FP32" />
			</input>
			<output>
				<port id="2" precision="FP32" />
			</output>
		</layer>
		<layer id="91" name="Round_10253" type="Round" version="opset5">
			<data mode="half_to_even" />
			<input>
				<port id="0" precision="FP32" />
			</input>
			<output>
				<port id="1" precision="FP32" />
			</output>
		</layer>
		<layer id="92" name="Clamp_10254" type="Clamp" version="opset1">
			<data min="0" max="255" />
			<input>
				<port id="0" precision="FP32" />
			</input>
			<output>
				<port id="1" precision="FP32" />
			</output>
		</layer>
		<layer id="93" name="/patch_embed/seq/seq.2/c/Conv_output_0_QuantizeLinear_/patch_embed/seq/seq.2/c/Conv_output_0_zero_point" type="Convert" version="opset1">
			<data destination_type="u8" />
			<input>
				<port id="0" precision="FP32" />
			</input>
			<output>
				<port id="1" precision="U8" names="/patch_embed/seq/seq.2/c/Conv_output_0_zero_point" />
			</output>
		</layer>
		<layer id="94" name="Convert_10259" type="Convert" version="opset1">
			<data destination_type="f32" />
			<input>
				<port id="0" precision="U8" />
			</input>
			<output>
				<port id="1" precision="FP32" />
			</output>
		</layer>
		<layer id="95" name="Add_10260" type="Add" version="opset1">
			<data auto_broadcast="numpy" />
			<input>
				<port id="0" precision="FP32">
					<dim>1</dim>
					<dim>64</dim>
					<dim>256</dim>
					<dim>256</dim>
				</port>
				<port id="1" precision="FP32" />
			</input>
			<output>
				<port id="2" precision="FP32">
					<dim>1</dim>
					<dim>64</dim>
					<dim>256</dim>
					<dim>256</dim>
				</port>
			</output>
		</layer>
		<layer id="96" name="Clamp_10261" type="Clamp" version="opset1">
			<data min="0" max="255" />
			<input>
				<port id="0" precision="FP32">
					<dim>1</dim>
					<dim>64</dim>
					<dim>256</dim>
					<dim>256</dim>
				</port>
			</input>
			<output>
				<port id="1" precision="FP32">
					<dim>1</dim>
					<dim>64</dim>
					<dim>256</dim>
					<dim>256</dim>
				</port>
			</output>
		</layer>
		<layer id="97" name="/patch_embed/seq/seq.2/c/Conv_output_0_QuantizeLinear_/patch_embed/seq/seq.2/c/Conv_output_0_quantized" type="Convert" version="opset1">
			<data destination_type="u8" />
			<input>
				<port id="0" precision="FP32">
					<dim>1</dim>
					<dim>64</dim>
					<dim>256</dim>
					<dim>256</dim>
				</port>
			</input>
			<output>
				<port id="1" precision="U8" names="/patch_embed/seq/seq.2/c/Conv_output_0_quantized">
					<dim>1</dim>
					<dim>64</dim>
					<dim>256</dim>
					<dim>256</dim>
				</port>
			</output>
		</layer>
		<layer id="98" name="Convert_10264" type="Convert" version="opset1">
			<data destination_type="i32" />
			<input>
				<port id="0" precision="U8">
					<dim>1</dim>
					<dim>64</dim>
					<dim>256</dim>
					<dim>256</dim>
				</port>
			</input>
			<output>
				<port id="1" precision="I32">
					<dim>1</dim>
					<dim>64</dim>
					<dim>256</dim>
					<dim>256</dim>
				</port>
			</output>
		</layer>
		<layer id="99" name="Convert_10266" type="Convert" version="opset1">
			<data destination_type="i32" />
			<input>
				<port id="0" precision="U8" />
			</input>
			<output>
				<port id="1" precision="I32" />
			</output>
		</layer>
		<layer id="100" name="Subtract_10268" type="Subtract" version="opset1">
			<data auto_broadcast="numpy" />
			<input>
				<port id="0" precision="I32">
					<dim>1</dim>
					<dim>64</dim>
					<dim>256</dim>
					<dim>256</dim>
				</port>
				<port id="1" precision="I32" />
			</input>
			<output>
				<port id="2" precision="I32">
					<dim>1</dim>
					<dim>64</dim>
					<dim>256</dim>
					<dim>256</dim>
				</port>
			</output>
		</layer>
		<layer id="101" name="Subtract_10269" type="Const" version="opset1">
			<data element_type="i32" shape="256, 64, 1, 1" offset="11060" size="65536" />
			<output>
				<port id="0" precision="I32">
					<dim>256</dim>
					<dim>64</dim>
					<dim>1</dim>
					<dim>1</dim>
				</port>
			</output>
		</layer>
		<layer id="102" name="/layers.0/blocks.0/conv1/c/Conv_quant" type="Convolution" version="opset1">
			<data strides="1, 1" dilations="1, 1" pads_begin="0, 0" pads_end="0, 0" auto_pad="explicit" />
			<input>
				<port id="0" precision="I32">
					<dim>1</dim>
					<dim>64</dim>
					<dim>256</dim>
					<dim>256</dim>
				</port>
				<port id="1" precision="I32">
					<dim>256</dim>
					<dim>64</dim>
					<dim>1</dim>
					<dim>1</dim>
				</port>
			</input>
			<output>
				<port id="2" precision="I32" names="/layers.0/blocks.0/conv1/c/Conv_output_0_output_quantized">
					<dim>1</dim>
					<dim>256</dim>
					<dim>256</dim>
					<dim>256</dim>
				</port>
			</output>
		</layer>
		<layer id="103" name="/layers.0/blocks.0/conv1/c/Conv_output_0_output_quantized_cast" type="Convert" version="opset1">
			<data destination_type="f32" />
			<input>
				<port id="0" precision="I32">
					<dim>1</dim>
					<dim>256</dim>
					<dim>256</dim>
					<dim>256</dim>
				</port>
			</input>
			<output>
				<port id="1" precision="FP32" names="/layers.0/blocks.0/conv1/c/Conv_output_0_output_quantized_cast_output">
					<dim>1</dim>
					<dim>256</dim>
					<dim>256</dim>
					<dim>256</dim>
				</port>
			</output>
		</layer>
		<layer id="104" name="onnx::Conv_2454_scale" type="Const" version="opset1">
			<data element_type="f32" shape="" offset="76596" size="4" />
			<output>
				<port id="0" precision="FP32" names="onnx::Conv_2454_scale" />
			</output>
		</layer>
		<layer id="105" name="/layers.0/blocks.0/conv1/c/Conv_quant_scales_mul" type="Multiply" version="opset1">
			<data auto_broadcast="numpy" />
			<input>
				<port id="0" precision="FP32" />
				<port id="1" precision="FP32" />
			</input>
			<output>
				<port id="2" precision="FP32" names="/layers.0/blocks.0/conv1/c/Conv_quant_scales_mul:0" />
			</output>
		</layer>
		<layer id="106" name="/layers.0/blocks.0/conv1/c/Conv_quant_output_scale_mul" type="Multiply" version="opset1">
			<data auto_broadcast="numpy" />
			<input>
				<port id="0" precision="FP32">
					<dim>1</dim>
					<dim>256</dim>
					<dim>256</dim>
					<dim>256</dim>
				</port>
				<port id="1" precision="FP32" />
			</input>
			<output>
				<port id="2" precision="FP32" names="/layers.0/blocks.0/conv1/c/Conv_output_0quant_scaled_output">
					<dim>1</dim>
					<dim>256</dim>
					<dim>256</dim>
					<dim>256</dim>
				</port>
			</output>
		</layer>
		<layer id="107" name="/layers.0/blocks.0/conv1/c/Conv_output_0_bias_reshape_output" type="Const" version="opset1">
			<data element_type="f32" shape="1, 256, 1, 1" offset="76600" size="1024" />
			<output>
				<port id="0" precision="FP32" names="/layers.0/blocks.0/conv1/c/Conv_output_0_bias_reshape_output">
					<dim>1</dim>
					<dim>256</dim>
					<dim>1</dim>
					<dim>1</dim>
				</port>
			</output>
		</layer>
		<layer id="108" name="/layers.0/blocks.0/conv1/c/Conv_output_0_bias_add" type="Add" version="opset1">
			<data auto_broadcast="numpy" />
			<input>
				<port id="0" precision="FP32">
					<dim>1</dim>
					<dim>256</dim>
					<dim>256</dim>
					<dim>256</dim>
				</port>
				<port id="1" precision="FP32">
					<dim>1</dim>
					<dim>256</dim>
					<dim>1</dim>
					<dim>1</dim>
				</port>
			</input>
			<output>
				<port id="2" precision="FP32" names="/layers.0/blocks.0/conv1/c/Conv_output_0">
					<dim>1</dim>
					<dim>256</dim>
					<dim>256</dim>
					<dim>256</dim>
				</port>
			</output>
		</layer>
		<layer id="109" name="/layers.0/blocks.0/act1/Mul_1" type="Gelu" version="opset7">
			<data approximation_mode="ERF" />
			<input>
				<port id="0" precision="FP32">
					<dim>1</dim>
					<dim>256</dim>
					<dim>256</dim>
					<dim>256</dim>
				</port>
			</input>
			<output>
				<port id="1" precision="FP32" names="/layers.0/blocks.0/act1/Mul_1_output_0">
					<dim>1</dim>
					<dim>256</dim>
					<dim>256</dim>
					<dim>256</dim>
				</port>
			</output>
		</layer>
		<layer id="110" name="Constant_31213" type="Const" version="opset1">
			<data element_type="f32" shape="1, 1, 1, 1" offset="2048" size="4" />
			<output>
				<port id="0" precision="FP32">
					<dim>1</dim>
					<dim>1</dim>
					<dim>1</dim>
					<dim>1</dim>
				</port>
			</output>
		</layer>
		<layer id="111" name="Multiply_10311" type="Multiply" version="opset1">
			<data auto_broadcast="numpy" />
			<input>
				<port id="0" precision="FP32">
					<dim>1</dim>
					<dim>256</dim>
					<dim>256</dim>
					<dim>256</dim>
				</port>
				<port id="1" precision="FP32">
					<dim>1</dim>
					<dim>1</dim>
					<dim>1</dim>
					<dim>1</dim>
				</port>
			</input>
			<output>
				<port id="2" precision="FP32">
					<dim>1</dim>
					<dim>256</dim>
					<dim>256</dim>
					<dim>256</dim>
				</port>
			</output>
		</layer>
		<layer id="112" name="Constant_10291" type="Const" version="opset1">
			<data element_type="f32" shape="" offset="2052" size="4" />
			<output>
				<port id="0" precision="FP32" />
			</output>
		</layer>
		<layer id="113" name="Range_10287" type="Const" version="opset1">
			<data element_type="i64" shape="4" offset="2056" size="32" />
			<output>
				<port id="0" precision="I64">
					<dim>4</dim>
				</port>
			</output>
		</layer>
		<layer id="114" name="ReduceMax_10289" type="ReduceMax" version="opset1">
			<data keep_dims="false" />
			<input>
				<port id="0" precision="FP32">
					<dim>1</dim>
					<dim>256</dim>
					<dim>256</dim>
					<dim>256</dim>
				</port>
				<port id="1" precision="I64">
					<dim>4</dim>
				</port>
			</input>
			<output>
				<port id="2" precision="FP32" />
			</output>
		</layer>
		<layer id="115" name="Maximum_10292" type="Maximum" version="opset1">
			<data auto_broadcast="numpy" />
			<input>
				<port id="0" precision="FP32" />
				<port id="1" precision="FP32" />
			</input>
			<output>
				<port id="2" precision="FP32" />
			</output>
		</layer>
		<layer id="116" name="Constant_10302" type="Const" version="opset1">
			<data element_type="f32" shape="" offset="2052" size="4" />
			<output>
				<port id="0" precision="FP32" />
			</output>
		</layer>
		<layer id="117" name="ReduceMin_10300" type="ReduceMin" version="opset1">
			<data keep_dims="false" />
			<input>
				<port id="0" precision="FP32">
					<dim>1</dim>
					<dim>256</dim>
					<dim>256</dim>
					<dim>256</dim>
				</port>
				<port id="1" precision="I64">
					<dim>4</dim>
				</port>
			</input>
			<output>
				<port id="2" precision="FP32" />
			</output>
		</layer>
		<layer id="118" name="Minimum_10303" type="Minimum" version="opset1">
			<data auto_broadcast="numpy" />
			<input>
				<port id="0" precision="FP32" />
				<port id="1" precision="FP32" />
			</input>
			<output>
				<port id="2" precision="FP32" />
			</output>
		</layer>
		<layer id="119" name="Subtract_10304" type="Subtract" version="opset1">
			<data auto_broadcast="numpy" />
			<input>
				<port id="0" precision="FP32" />
				<port id="1" precision="FP32" />
			</input>
			<output>
				<port id="2" precision="FP32" />
			</output>
		</layer>
		<layer id="120" name="Divide_10312" type="Divide" version="opset1">
			<data auto_broadcast="numpy" m_pythondiv="true" />
			<input>
				<port id="0" precision="FP32">
					<dim>1</dim>
					<dim>256</dim>
					<dim>256</dim>
					<dim>256</dim>
				</port>
				<port id="1" precision="FP32" />
			</input>
			<output>
				<port id="2" precision="FP32">
					<dim>1</dim>
					<dim>256</dim>
					<dim>256</dim>
					<dim>256</dim>
				</port>
			</output>
		</layer>
		<layer id="121" name="Round_10313" type="Round" version="opset5">
			<data mode="half_to_even" />
			<input>
				<port id="0" precision="FP32">
					<dim>1</dim>
					<dim>256</dim>
					<dim>256</dim>
					<dim>256</dim>
				</port>
			</input>
			<output>
				<port id="1" precision="FP32">
					<dim>1</dim>
					<dim>256</dim>
					<dim>256</dim>
					<dim>256</dim>
				</port>
			</output>
		</layer>
		<layer id="122" name="Constant_10279" type="Const" version="opset1">
			<data element_type="f32" shape="" offset="2052" size="4" />
			<output>
				<port id="0" precision="FP32" />
			</output>
		</layer>
		<layer id="123" name="Subtract_10306" type="Subtract" version="opset1">
			<data auto_broadcast="numpy" />
			<input>
				<port id="0" precision="FP32" />
				<port id="1" precision="FP32" />
			</input>
			<output>
				<port id="2" precision="FP32" />
			</output>
		</layer>
		<layer id="124" name="Constant_17287" type="Const" version="opset1">
			<data element_type="f32" shape="" offset="2088" size="4" />
			<output>
				<port id="0" precision="FP32" />
			</output>
		</layer>
		<layer id="125" name="/layers.0/blocks.0/act1/Mul_1_output_0_QuantizeLinear_/layers.0/blocks.0/act1/Mul_1_output_0_scale" type="Multiply" version="opset1">
			<data auto_broadcast="numpy" />
			<input>
				<port id="0" precision="FP32" />
				<port id="1" precision="FP32" />
			</input>
			<output>
				<port id="2" precision="FP32" names="/layers.0/blocks.0/act1/Mul_1_output_0_scale" />
			</output>
		</layer>
		<layer id="126" name="Divide_10307" type="Divide" version="opset1">
			<data auto_broadcast="numpy" m_pythondiv="true" />
			<input>
				<port id="0" precision="FP32" />
				<port id="1" precision="FP32" />
			</input>
			<output>
				<port id="2" precision="FP32" />
			</output>
		</layer>
		<layer id="127" name="Round_10308" type="Round" version="opset5">
			<data mode="half_to_even" />
			<input>
				<port id="0" precision="FP32" />
			</input>
			<output>
				<port id="1" precision="FP32" />
			</output>
		</layer>
		<layer id="128" name="Clamp_10309" type="Clamp" version="opset1">
			<data min="0" max="255" />
			<input>
				<port id="0" precision="FP32" />
			</input>
			<output>
				<port id="1" precision="FP32" />
			</output>
		</layer>
		<layer id="129" name="/layers.0/blocks.0/act1/Mul_1_output_0_QuantizeLinear_/layers.0/blocks.0/act1/Mul_1_output_0_zero_point" type="Convert" version="opset1">
			<data destination_type="u8" />
			<input>
				<port id="0" precision="FP32" />
			</input>
			<output>
				<port id="1" precision="U8" names="/layers.0/blocks.0/act1/Mul_1_output_0_zero_point" />
			</output>
		</layer>
		<layer id="130" name="Convert_10314" type="Convert" version="opset1">
			<data destination_type="f32" />
			<input>
				<port id="0" precision="U8" />
			</input>
			<output>
				<port id="1" precision="FP32" />
			</output>
		</layer>
		<layer id="131" name="Add_10315" type="Add" version="opset1">
			<data auto_broadcast="numpy" />
			<input>
				<port id="0" precision="FP32">
					<dim>1</dim>
					<dim>256</dim>
					<dim>256</dim>
					<dim>256</dim>
				</port>
				<port id="1" precision="FP32" />
			</input>
			<output>
				<port id="2" precision="FP32">
					<dim>1</dim>
					<dim>256</dim>
					<dim>256</dim>
					<dim>256</dim>
				</port>
			</output>
		</layer>
		<layer id="132" name="Clamp_10316" type="Clamp" version="opset1">
			<data min="0" max="255" />
			<input>
				<port id="0" precision="FP32">
					<dim>1</dim>
					<dim>256</dim>
					<dim>256</dim>
					<dim>256</dim>
				</port>
			</input>
			<output>
				<port id="1" precision="FP32">
					<dim>1</dim>
					<dim>256</dim>
					<dim>256</dim>
					<dim>256</dim>
				</port>
			</output>
		</layer>
		<layer id="133" name="/layers.0/blocks.0/act1/Mul_1_output_0_QuantizeLinear_/layers.0/blocks.0/act1/Mul_1_output_0_quantized" type="Convert" version="opset1">
			<data destination_type="u8" />
			<input>
				<port id="0" precision="FP32">
					<dim>1</dim>
					<dim>256</dim>
					<dim>256</dim>
					<dim>256</dim>
				</port>
			</input>
			<output>
				<port id="1" precision="U8" names="/layers.0/blocks.0/act1/Mul_1_output_0_quantized">
					<dim>1</dim>
					<dim>256</dim>
					<dim>256</dim>
					<dim>256</dim>
				</port>
			</output>
		</layer>
		<layer id="134" name="Convert_10319" type="Convert" version="opset1">
			<data destination_type="i32" />
			<input>
				<port id="0" precision="U8">
					<dim>1</dim>
					<dim>256</dim>
					<dim>256</dim>
					<dim>256</dim>
				</port>
			</input>
			<output>
				<port id="1" precision="I32">
					<dim>1</dim>
					<dim>256</dim>
					<dim>256</dim>
					<dim>256</dim>
				</port>
			</output>
		</layer>
		<layer id="135" name="Convert_10321" type="Convert" version="opset1">
			<data destination_type="i32" />
			<input>
				<port id="0" precision="U8" />
			</input>
			<output>
				<port id="1" precision="I32" />
			</output>
		</layer>
		<layer id="136" name="Subtract_10323" type="Subtract" version="opset1">
			<data auto_broadcast="numpy" />
			<input>
				<port id="0" precision="I32">
					<dim>1</dim>
					<dim>256</dim>
					<dim>256</dim>
					<dim>256</dim>
				</port>
				<port id="1" precision="I32" />
			</input>
			<output>
				<port id="2" precision="I32">
					<dim>1</dim>
					<dim>256</dim>
					<dim>256</dim>
					<dim>256</dim>
				</port>
			</output>
		</layer>
		<layer id="137" name="Reshape_10332" type="Const" version="opset1">
			<data element_type="i32" shape="256, 1, 1, 3, 3" offset="77624" size="9216" />
			<output>
				<port id="0" precision="I32">
					<dim>256</dim>
					<dim>1</dim>
					<dim>1</dim>
					<dim>3</dim>
					<dim>3</dim>
				</port>
			</output>
		</layer>
		<layer id="138" name="/layers.0/blocks.0/conv2/c/Conv_quant" type="GroupConvolution" version="opset1">
			<data strides="1, 1" pads_begin="1, 1" pads_end="1, 1" dilations="1, 1" auto_pad="explicit" />
			<input>
				<port id="0" precision="I32">
					<dim>1</dim>
					<dim>256</dim>
					<dim>256</dim>
					<dim>256</dim>
				</port>
				<port id="1" precision="I32">
					<dim>256</dim>
					<dim>1</dim>
					<dim>1</dim>
					<dim>3</dim>
					<dim>3</dim>
				</port>
			</input>
			<output>
				<port id="2" precision="I32" names="/layers.0/blocks.0/conv2/c/Conv_output_0_output_quantized">
					<dim>1</dim>
					<dim>256</dim>
					<dim>256</dim>
					<dim>256</dim>
				</port>
			</output>
		</layer>
		<layer id="139" name="/layers.0/blocks.0/conv2/c/Conv_output_0_output_quantized_cast" type="Convert" version="opset1">
			<data destination_type="f32" />
			<input>
				<port id="0" precision="I32">
					<dim>1</dim>
					<dim>256</dim>
					<dim>256</dim>
					<dim>256</dim>
				</port>
			</input>
			<output>
				<port id="1" precision="FP32" names="/layers.0/blocks.0/conv2/c/Conv_output_0_output_quantized_cast_output">
					<dim>1</dim>
					<dim>256</dim>
					<dim>256</dim>
					<dim>256</dim>
				</port>
			</output>
		</layer>
		<layer id="140" name="onnx::Conv_2457_scale" type="Const" version="opset1">
			<data element_type="f32" shape="" offset="86840" size="4" />
			<output>
				<port id="0" precision="FP32" names="onnx::Conv_2457_scale" />
			</output>
		</layer>
		<layer id="141" name="/layers.0/blocks.0/conv2/c/Conv_quant_scales_mul" type="Multiply" version="opset1">
			<data auto_broadcast="numpy" />
			<input>
				<port id="0" precision="FP32" />
				<port id="1" precision="FP32" />
			</input>
			<output>
				<port id="2" precision="FP32" names="/layers.0/blocks.0/conv2/c/Conv_quant_scales_mul:0" />
			</output>
		</layer>
		<layer id="142" name="/layers.0/blocks.0/conv2/c/Conv_quant_output_scale_mul" type="Multiply" version="opset1">
			<data auto_broadcast="numpy" />
			<input>
				<port id="0" precision="FP32">
					<dim>1</dim>
					<dim>256</dim>
					<dim>256</dim>
					<dim>256</dim>
				</port>
				<port id="1" precision="FP32" />
			</input>
			<output>
				<port id="2" precision="FP32" names="/layers.0/blocks.0/conv2/c/Conv_output_0quant_scaled_output">
					<dim>1</dim>
					<dim>256</dim>
					<dim>256</dim>
					<dim>256</dim>
				</port>
			</output>
		</layer>
		<layer id="143" name="/layers.0/blocks.0/conv2/c/Conv_output_0_bias_reshape_output" type="Const" version="opset1">
			<data element_type="f32" shape="1, 256, 1, 1" offset="86844" size="1024" />
			<output>
				<port id="0" precision="FP32" names="/layers.0/blocks.0/conv2/c/Conv_output_0_bias_reshape_output">
					<dim>1</dim>
					<dim>256</dim>
					<dim>1</dim>
					<dim>1</dim>
				</port>
			</output>
		</layer>
		<layer id="144" name="/layers.0/blocks.0/conv2/c/Conv_output_0_bias_add" type="Add" version="opset1">
			<data auto_broadcast="numpy" />
			<input>
				<port id="0" precision="FP32">
					<dim>1</dim>
					<dim>256</dim>
					<dim>256</dim>
					<dim>256</dim>
				</port>
				<port id="1" precision="FP32">
					<dim>1</dim>
					<dim>256</dim>
					<dim>1</dim>
					<dim>1</dim>
				</port>
			</input>
			<output>
				<port id="2" precision="FP32" names="/layers.0/blocks.0/conv2/c/Conv_output_0">
					<dim>1</dim>
					<dim>256</dim>
					<dim>256</dim>
					<dim>256</dim>
				</port>
			</output>
		</layer>
		<layer id="145" name="/layers.0/blocks.0/act2/Mul_1" type="Gelu" version="opset7">
			<data approximation_mode="ERF" />
			<input>
				<port id="0" precision="FP32">
					<dim>1</dim>
					<dim>256</dim>
					<dim>256</dim>
					<dim>256</dim>
				</port>
			</input>
			<output>
				<port id="1" precision="FP32" names="/layers.0/blocks.0/act2/Mul_1_output_0">
					<dim>1</dim>
					<dim>256</dim>
					<dim>256</dim>
					<dim>256</dim>
				</port>
			</output>
		</layer>
		<layer id="146" name="Constant_31214" type="Const" version="opset1">
			<data element_type="f32" shape="1, 1, 1, 1" offset="2048" size="4" />
			<output>
				<port id="0" precision="FP32">
					<dim>1</dim>
					<dim>1</dim>
					<dim>1</dim>
					<dim>1</dim>
				</port>
			</output>
		</layer>
		<layer id="147" name="Multiply_10412" type="Multiply" version="opset1">
			<data auto_broadcast="numpy" />
			<input>
				<port id="0" precision="FP32">
					<dim>1</dim>
					<dim>256</dim>
					<dim>256</dim>
					<dim>256</dim>
				</port>
				<port id="1" precision="FP32">
					<dim>1</dim>
					<dim>1</dim>
					<dim>1</dim>
					<dim>1</dim>
				</port>
			</input>
			<output>
				<port id="2" precision="FP32">
					<dim>1</dim>
					<dim>256</dim>
					<dim>256</dim>
					<dim>256</dim>
				</port>
			</output>
		</layer>
		<layer id="148" name="Constant_10392" type="Const" version="opset1">
			<data element_type="f32" shape="" offset="2052" size="4" />
			<output>
				<port id="0" precision="FP32" />
			</output>
		</layer>
		<layer id="149" name="Range_10388" type="Const" version="opset1">
			<data element_type="i64" shape="4" offset="2056" size="32" />
			<output>
				<port id="0" precision="I64">
					<dim>4</dim>
				</port>
			</output>
		</layer>
		<layer id="150" name="ReduceMax_10390" type="ReduceMax" version="opset1">
			<data keep_dims="false" />
			<input>
				<port id="0" precision="FP32">
					<dim>1</dim>
					<dim>256</dim>
					<dim>256</dim>
					<dim>256</dim>
				</port>
				<port id="1" precision="I64">
					<dim>4</dim>
				</port>
			</input>
			<output>
				<port id="2" precision="FP32" />
			</output>
		</layer>
		<layer id="151" name="Maximum_10393" type="Maximum" version="opset1">
			<data auto_broadcast="numpy" />
			<input>
				<port id="0" precision="FP32" />
				<port id="1" precision="FP32" />
			</input>
			<output>
				<port id="2" precision="FP32" />
			</output>
		</layer>
		<layer id="152" name="Constant_10403" type="Const" version="opset1">
			<data element_type="f32" shape="" offset="2052" size="4" />
			<output>
				<port id="0" precision="FP32" />
			</output>
		</layer>
		<layer id="153" name="ReduceMin_10401" type="ReduceMin" version="opset1">
			<data keep_dims="false" />
			<input>
				<port id="0" precision="FP32">
					<dim>1</dim>
					<dim>256</dim>
					<dim>256</dim>
					<dim>256</dim>
				</port>
				<port id="1" precision="I64">
					<dim>4</dim>
				</port>
			</input>
			<output>
				<port id="2" precision="FP32" />
			</output>
		</layer>
		<layer id="154" name="Minimum_10404" type="Minimum" version="opset1">
			<data auto_broadcast="numpy" />
			<input>
				<port id="0" precision="FP32" />
				<port id="1" precision="FP32" />
			</input>
			<output>
				<port id="2" precision="FP32" />
			</output>
		</layer>
		<layer id="155" name="Subtract_10405" type="Subtract" version="opset1">
			<data auto_broadcast="numpy" />
			<input>
				<port id="0" precision="FP32" />
				<port id="1" precision="FP32" />
			</input>
			<output>
				<port id="2" precision="FP32" />
			</output>
		</layer>
		<layer id="156" name="Divide_10413" type="Divide" version="opset1">
			<data auto_broadcast="numpy" m_pythondiv="true" />
			<input>
				<port id="0" precision="FP32">
					<dim>1</dim>
					<dim>256</dim>
					<dim>256</dim>
					<dim>256</dim>
				</port>
				<port id="1" precision="FP32" />
			</input>
			<output>
				<port id="2" precision="FP32">
					<dim>1</dim>
					<dim>256</dim>
					<dim>256</dim>
					<dim>256</dim>
				</port>
			</output>
		</layer>
		<layer id="157" name="Round_10414" type="Round" version="opset5">
			<data mode="half_to_even" />
			<input>
				<port id="0" precision="FP32">
					<dim>1</dim>
					<dim>256</dim>
					<dim>256</dim>
					<dim>256</dim>
				</port>
			</input>
			<output>
				<port id="1" precision="FP32">
					<dim>1</dim>
					<dim>256</dim>
					<dim>256</dim>
					<dim>256</dim>
				</port>
			</output>
		</layer>
		<layer id="158" name="Constant_10380" type="Const" version="opset1">
			<data element_type="f32" shape="" offset="2052" size="4" />
			<output>
				<port id="0" precision="FP32" />
			</output>
		</layer>
		<layer id="159" name="Subtract_10407" type="Subtract" version="opset1">
			<data auto_broadcast="numpy" />
			<input>
				<port id="0" precision="FP32" />
				<port id="1" precision="FP32" />
			</input>
			<output>
				<port id="2" precision="FP32" />
			</output>
		</layer>
		<layer id="160" name="Constant_17295" type="Const" version="opset1">
			<data element_type="f32" shape="" offset="2088" size="4" />
			<output>
				<port id="0" precision="FP32" />
			</output>
		</layer>
		<layer id="161" name="/layers.0/blocks.0/act2/Mul_1_output_0_QuantizeLinear_/layers.0/blocks.0/act2/Mul_1_output_0_scale" type="Multiply" version="opset1">
			<data auto_broadcast="numpy" />
			<input>
				<port id="0" precision="FP32" />
				<port id="1" precision="FP32" />
			</input>
			<output>
				<port id="2" precision="FP32" names="/layers.0/blocks.0/act2/Mul_1_output_0_scale" />
			</output>
		</layer>
		<layer id="162" name="Divide_10408" type="Divide" version="opset1">
			<data auto_broadcast="numpy" m_pythondiv="true" />
			<input>
				<port id="0" precision="FP32" />
				<port id="1" precision="FP32" />
			</input>
			<output>
				<port id="2" precision="FP32" />
			</output>
		</layer>
		<layer id="163" name="Round_10409" type="Round" version="opset5">
			<data mode="half_to_even" />
			<input>
				<port id="0" precision="FP32" />
			</input>
			<output>
				<port id="1" precision="FP32" />
			</output>
		</layer>
		<layer id="164" name="Clamp_10410" type="Clamp" version="opset1">
			<data min="0" max="255" />
			<input>
				<port id="0" precision="FP32" />
			</input>
			<output>
				<port id="1" precision="FP32" />
			</output>
		</layer>
		<layer id="165" name="/layers.0/blocks.0/act2/Mul_1_output_0_QuantizeLinear_/layers.0/blocks.0/act2/Mul_1_output_0_zero_point" type="Convert" version="opset1">
			<data destination_type="u8" />
			<input>
				<port id="0" precision="FP32" />
			</input>
			<output>
				<port id="1" precision="U8" names="/layers.0/blocks.0/act2/Mul_1_output_0_zero_point" />
			</output>
		</layer>
		<layer id="166" name="Convert_10415" type="Convert" version="opset1">
			<data destination_type="f32" />
			<input>
				<port id="0" precision="U8" />
			</input>
			<output>
				<port id="1" precision="FP32" />
			</output>
		</layer>
		<layer id="167" name="Add_10416" type="Add" version="opset1">
			<data auto_broadcast="numpy" />
			<input>
				<port id="0" precision="FP32">
					<dim>1</dim>
					<dim>256</dim>
					<dim>256</dim>
					<dim>256</dim>
				</port>
				<port id="1" precision="FP32" />
			</input>
			<output>
				<port id="2" precision="FP32">
					<dim>1</dim>
					<dim>256</dim>
					<dim>256</dim>
					<dim>256</dim>
				</port>
			</output>
		</layer>
		<layer id="168" name="Clamp_10417" type="Clamp" version="opset1">
			<data min="0" max="255" />
			<input>
				<port id="0" precision="FP32">
					<dim>1</dim>
					<dim>256</dim>
					<dim>256</dim>
					<dim>256</dim>
				</port>
			</input>
			<output>
				<port id="1" precision="FP32">
					<dim>1</dim>
					<dim>256</dim>
					<dim>256</dim>
					<dim>256</dim>
				</port>
			</output>
		</layer>
		<layer id="169" name="/layers.0/blocks.0/act2/Mul_1_output_0_QuantizeLinear_/layers.0/blocks.0/act2/Mul_1_output_0_quantized" type="Convert" version="opset1">
			<data destination_type="u8" />
			<input>
				<port id="0" precision="FP32">
					<dim>1</dim>
					<dim>256</dim>
					<dim>256</dim>
					<dim>256</dim>
				</port>
			</input>
			<output>
				<port id="1" precision="U8" names="/layers.0/blocks.0/act2/Mul_1_output_0_quantized">
					<dim>1</dim>
					<dim>256</dim>
					<dim>256</dim>
					<dim>256</dim>
				</port>
			</output>
		</layer>
		<layer id="170" name="Convert_10420" type="Convert" version="opset1">
			<data destination_type="i32" />
			<input>
				<port id="0" precision="U8">
					<dim>1</dim>
					<dim>256</dim>
					<dim>256</dim>
					<dim>256</dim>
				</port>
			</input>
			<output>
				<port id="1" precision="I32">
					<dim>1</dim>
					<dim>256</dim>
					<dim>256</dim>
					<dim>256</dim>
				</port>
			</output>
		</layer>
		<layer id="171" name="Convert_10422" type="Convert" version="opset1">
			<data destination_type="i32" />
			<input>
				<port id="0" precision="U8" />
			</input>
			<output>
				<port id="1" precision="I32" />
			</output>
		</layer>
		<layer id="172" name="Subtract_10424" type="Subtract" version="opset1">
			<data auto_broadcast="numpy" />
			<input>
				<port id="0" precision="I32">
					<dim>1</dim>
					<dim>256</dim>
					<dim>256</dim>
					<dim>256</dim>
				</port>
				<port id="1" precision="I32" />
			</input>
			<output>
				<port id="2" precision="I32">
					<dim>1</dim>
					<dim>256</dim>
					<dim>256</dim>
					<dim>256</dim>
				</port>
			</output>
		</layer>
		<layer id="173" name="Subtract_10425" type="Const" version="opset1">
			<data element_type="i32" shape="64, 256, 1, 1" offset="87868" size="65536" />
			<output>
				<port id="0" precision="I32">
					<dim>64</dim>
					<dim>256</dim>
					<dim>1</dim>
					<dim>1</dim>
				</port>
			</output>
		</layer>
		<layer id="174" name="/layers.0/blocks.0/conv3/c/Conv_quant" type="Convolution" version="opset1">
			<data strides="1, 1" dilations="1, 1" pads_begin="0, 0" pads_end="0, 0" auto_pad="explicit" />
			<input>
				<port id="0" precision="I32">
					<dim>1</dim>
					<dim>256</dim>
					<dim>256</dim>
					<dim>256</dim>
				</port>
				<port id="1" precision="I32">
					<dim>64</dim>
					<dim>256</dim>
					<dim>1</dim>
					<dim>1</dim>
				</port>
			</input>
			<output>
				<port id="2" precision="I32" names="/layers.0/blocks.0/conv3/c/Conv_output_0_output_quantized">
					<dim>1</dim>
					<dim>64</dim>
					<dim>256</dim>
					<dim>256</dim>
				</port>
			</output>
		</layer>
		<layer id="175" name="/layers.0/blocks.0/conv3/c/Conv_output_0_output_quantized_cast" type="Convert" version="opset1">
			<data destination_type="f32" />
			<input>
				<port id="0" precision="I32">
					<dim>1</dim>
					<dim>64</dim>
					<dim>256</dim>
					<dim>256</dim>
				</port>
			</input>
			<output>
				<port id="1" precision="FP32" names="/layers.0/blocks.0/conv3/c/Conv_output_0_output_quantized_cast_output">
					<dim>1</dim>
					<dim>64</dim>
					<dim>256</dim>
					<dim>256</dim>
				</port>
			</output>
		</layer>
		<layer id="176" name="onnx::Conv_2460_scale" type="Const" version="opset1">
			<data element_type="f32" shape="" offset="153404" size="4" />
			<output>
				<port id="0" precision="FP32" names="onnx::Conv_2460_scale" />
			</output>
		</layer>
		<layer id="177" name="/layers.0/blocks.0/conv3/c/Conv_quant_scales_mul" type="Multiply" version="opset1">
			<data auto_broadcast="numpy" />
			<input>
				<port id="0" precision="FP32" />
				<port id="1" precision="FP32" />
			</input>
			<output>
				<port id="2" precision="FP32" names="/layers.0/blocks.0/conv3/c/Conv_quant_scales_mul:0" />
			</output>
		</layer>
		<layer id="178" name="/layers.0/blocks.0/conv3/c/Conv_quant_output_scale_mul" type="Multiply" version="opset1">
			<data auto_broadcast="numpy" />
			<input>
				<port id="0" precision="FP32">
					<dim>1</dim>
					<dim>64</dim>
					<dim>256</dim>
					<dim>256</dim>
				</port>
				<port id="1" precision="FP32" />
			</input>
			<output>
				<port id="2" precision="FP32" names="/layers.0/blocks.0/conv3/c/Conv_output_0quant_scaled_output">
					<dim>1</dim>
					<dim>64</dim>
					<dim>256</dim>
					<dim>256</dim>
				</port>
			</output>
		</layer>
		<layer id="179" name="/layers.0/blocks.0/conv3/c/Conv_output_0_bias_reshape_output" type="Const" version="opset1">
			<data element_type="f32" shape="1, 64, 1, 1" offset="153408" size="256" />
			<output>
				<port id="0" precision="FP32" names="/layers.0/blocks.0/conv3/c/Conv_output_0_bias_reshape_output">
					<dim>1</dim>
					<dim>64</dim>
					<dim>1</dim>
					<dim>1</dim>
				</port>
			</output>
		</layer>
		<layer id="180" name="/layers.0/blocks.0/conv3/c/Conv_output_0_bias_add" type="Add" version="opset1">
			<data auto_broadcast="numpy" />
			<input>
				<port id="0" precision="FP32">
					<dim>1</dim>
					<dim>64</dim>
					<dim>256</dim>
					<dim>256</dim>
				</port>
				<port id="1" precision="FP32">
					<dim>1</dim>
					<dim>64</dim>
					<dim>1</dim>
					<dim>1</dim>
				</port>
			</input>
			<output>
				<port id="2" precision="FP32" names="/layers.0/blocks.0/conv3/c/Conv_output_0">
					<dim>1</dim>
					<dim>64</dim>
					<dim>256</dim>
					<dim>256</dim>
				</port>
			</output>
		</layer>
		<layer id="181" name="/layers.0/blocks.0/Add" type="Add" version="opset1">
			<data auto_broadcast="numpy" />
			<input>
				<port id="0" precision="FP32">
					<dim>1</dim>
					<dim>64</dim>
					<dim>256</dim>
					<dim>256</dim>
				</port>
				<port id="1" precision="FP32">
					<dim>1</dim>
					<dim>64</dim>
					<dim>256</dim>
					<dim>256</dim>
				</port>
			</input>
			<output>
				<port id="2" precision="FP32" names="/layers.0/blocks.0/Add_output_0">
					<dim>1</dim>
					<dim>64</dim>
					<dim>256</dim>
					<dim>256</dim>
				</port>
			</output>
		</layer>
		<layer id="182" name="/layers.0/blocks.0/act3/Mul_1" type="Gelu" version="opset7">
			<data approximation_mode="ERF" />
			<input>
				<port id="0" precision="FP32">
					<dim>1</dim>
					<dim>64</dim>
					<dim>256</dim>
					<dim>256</dim>
				</port>
			</input>
			<output>
				<port id="1" precision="FP32" names="/layers.0/blocks.0/act3/Mul_1_output_0">
					<dim>1</dim>
					<dim>64</dim>
					<dim>256</dim>
					<dim>256</dim>
				</port>
			</output>
		</layer>
		<layer id="183" name="Constant_31215" type="Const" version="opset1">
			<data element_type="f32" shape="1, 1, 1, 1" offset="2048" size="4" />
			<output>
				<port id="0" precision="FP32">
					<dim>1</dim>
					<dim>1</dim>
					<dim>1</dim>
					<dim>1</dim>
				</port>
			</output>
		</layer>
		<layer id="184" name="Multiply_10468" type="Multiply" version="opset1">
			<data auto_broadcast="numpy" />
			<input>
				<port id="0" precision="FP32">
					<dim>1</dim>
					<dim>64</dim>
					<dim>256</dim>
					<dim>256</dim>
				</port>
				<port id="1" precision="FP32">
					<dim>1</dim>
					<dim>1</dim>
					<dim>1</dim>
					<dim>1</dim>
				</port>
			</input>
			<output>
				<port id="2" precision="FP32">
					<dim>1</dim>
					<dim>64</dim>
					<dim>256</dim>
					<dim>256</dim>
				</port>
			</output>
		</layer>
		<layer id="185" name="Constant_10448" type="Const" version="opset1">
			<data element_type="f32" shape="" offset="2052" size="4" />
			<output>
				<port id="0" precision="FP32" />
			</output>
		</layer>
		<layer id="186" name="Range_10444" type="Const" version="opset1">
			<data element_type="i64" shape="4" offset="2056" size="32" />
			<output>
				<port id="0" precision="I64">
					<dim>4</dim>
				</port>
			</output>
		</layer>
		<layer id="187" name="ReduceMax_10446" type="ReduceMax" version="opset1">
			<data keep_dims="false" />
			<input>
				<port id="0" precision="FP32">
					<dim>1</dim>
					<dim>64</dim>
					<dim>256</dim>
					<dim>256</dim>
				</port>
				<port id="1" precision="I64">
					<dim>4</dim>
				</port>
			</input>
			<output>
				<port id="2" precision="FP32" />
			</output>
		</layer>
		<layer id="188" name="Maximum_10449" type="Maximum" version="opset1">
			<data auto_broadcast="numpy" />
			<input>
				<port id="0" precision="FP32" />
				<port id="1" precision="FP32" />
			</input>
			<output>
				<port id="2" precision="FP32" />
			</output>
		</layer>
		<layer id="189" name="Constant_10459" type="Const" version="opset1">
			<data element_type="f32" shape="" offset="2052" size="4" />
			<output>
				<port id="0" precision="FP32" />
			</output>
		</layer>
		<layer id="190" name="ReduceMin_10457" type="ReduceMin" version="opset1">
			<data keep_dims="false" />
			<input>
				<port id="0" precision="FP32">
					<dim>1</dim>
					<dim>64</dim>
					<dim>256</dim>
					<dim>256</dim>
				</port>
				<port id="1" precision="I64">
					<dim>4</dim>
				</port>
			</input>
			<output>
				<port id="2" precision="FP32" />
			</output>
		</layer>
		<layer id="191" name="Minimum_10460" type="Minimum" version="opset1">
			<data auto_broadcast="numpy" />
			<input>
				<port id="0" precision="FP32" />
				<port id="1" precision="FP32" />
			</input>
			<output>
				<port id="2" precision="FP32" />
			</output>
		</layer>
		<layer id="192" name="Subtract_10461" type="Subtract" version="opset1">
			<data auto_broadcast="numpy" />
			<input>
				<port id="0" precision="FP32" />
				<port id="1" precision="FP32" />
			</input>
			<output>
				<port id="2" precision="FP32" />
			</output>
		</layer>
		<layer id="193" name="Divide_10469" type="Divide" version="opset1">
			<data auto_broadcast="numpy" m_pythondiv="true" />
			<input>
				<port id="0" precision="FP32">
					<dim>1</dim>
					<dim>64</dim>
					<dim>256</dim>
					<dim>256</dim>
				</port>
				<port id="1" precision="FP32" />
			</input>
			<output>
				<port id="2" precision="FP32">
					<dim>1</dim>
					<dim>64</dim>
					<dim>256</dim>
					<dim>256</dim>
				</port>
			</output>
		</layer>
		<layer id="194" name="Round_10470" type="Round" version="opset5">
			<data mode="half_to_even" />
			<input>
				<port id="0" precision="FP32">
					<dim>1</dim>
					<dim>64</dim>
					<dim>256</dim>
					<dim>256</dim>
				</port>
			</input>
			<output>
				<port id="1" precision="FP32">
					<dim>1</dim>
					<dim>64</dim>
					<dim>256</dim>
					<dim>256</dim>
				</port>
			</output>
		</layer>
		<layer id="195" name="Constant_10436" type="Const" version="opset1">
			<data element_type="f32" shape="" offset="2052" size="4" />
			<output>
				<port id="0" precision="FP32" />
			</output>
		</layer>
		<layer id="196" name="Subtract_10463" type="Subtract" version="opset1">
			<data auto_broadcast="numpy" />
			<input>
				<port id="0" precision="FP32" />
				<port id="1" precision="FP32" />
			</input>
			<output>
				<port id="2" precision="FP32" />
			</output>
		</layer>
		<layer id="197" name="Constant_17303" type="Const" version="opset1">
			<data element_type="f32" shape="" offset="2088" size="4" />
			<output>
				<port id="0" precision="FP32" />
			</output>
		</layer>
		<layer id="198" name="/layers.0/blocks.0/act3/Mul_1_output_0_QuantizeLinear_/layers.0/blocks.0/act3/Mul_1_output_0_scale" type="Multiply" version="opset1">
			<data auto_broadcast="numpy" />
			<input>
				<port id="0" precision="FP32" />
				<port id="1" precision="FP32" />
			</input>
			<output>
				<port id="2" precision="FP32" names="/layers.0/blocks.0/act3/Mul_1_output_0_scale" />
			</output>
		</layer>
		<layer id="199" name="Divide_10464" type="Divide" version="opset1">
			<data auto_broadcast="numpy" m_pythondiv="true" />
			<input>
				<port id="0" precision="FP32" />
				<port id="1" precision="FP32" />
			</input>
			<output>
				<port id="2" precision="FP32" />
			</output>
		</layer>
		<layer id="200" name="Round_10465" type="Round" version="opset5">
			<data mode="half_to_even" />
			<input>
				<port id="0" precision="FP32" />
			</input>
			<output>
				<port id="1" precision="FP32" />
			</output>
		</layer>
		<layer id="201" name="Clamp_10466" type="Clamp" version="opset1">
			<data min="0" max="255" />
			<input>
				<port id="0" precision="FP32" />
			</input>
			<output>
				<port id="1" precision="FP32" />
			</output>
		</layer>
		<layer id="202" name="/layers.0/blocks.0/act3/Mul_1_output_0_QuantizeLinear_/layers.0/blocks.0/act3/Mul_1_output_0_zero_point" type="Convert" version="opset1">
			<data destination_type="u8" />
			<input>
				<port id="0" precision="FP32" />
			</input>
			<output>
				<port id="1" precision="U8" names="/layers.0/blocks.0/act3/Mul_1_output_0_zero_point" />
			</output>
		</layer>
		<layer id="203" name="Convert_10471" type="Convert" version="opset1">
			<data destination_type="f32" />
			<input>
				<port id="0" precision="U8" />
			</input>
			<output>
				<port id="1" precision="FP32" />
			</output>
		</layer>
		<layer id="204" name="Add_10472" type="Add" version="opset1">
			<data auto_broadcast="numpy" />
			<input>
				<port id="0" precision="FP32">
					<dim>1</dim>
					<dim>64</dim>
					<dim>256</dim>
					<dim>256</dim>
				</port>
				<port id="1" precision="FP32" />
			</input>
			<output>
				<port id="2" precision="FP32">
					<dim>1</dim>
					<dim>64</dim>
					<dim>256</dim>
					<dim>256</dim>
				</port>
			</output>
		</layer>
		<layer id="205" name="Clamp_10473" type="Clamp" version="opset1">
			<data min="0" max="255" />
			<input>
				<port id="0" precision="FP32">
					<dim>1</dim>
					<dim>64</dim>
					<dim>256</dim>
					<dim>256</dim>
				</port>
			</input>
			<output>
				<port id="1" precision="FP32">
					<dim>1</dim>
					<dim>64</dim>
					<dim>256</dim>
					<dim>256</dim>
				</port>
			</output>
		</layer>
		<layer id="206" name="/layers.0/blocks.0/act3/Mul_1_output_0_QuantizeLinear_/layers.0/blocks.0/act3/Mul_1_output_0_quantized" type="Convert" version="opset1">
			<data destination_type="u8" />
			<input>
				<port id="0" precision="FP32">
					<dim>1</dim>
					<dim>64</dim>
					<dim>256</dim>
					<dim>256</dim>
				</port>
			</input>
			<output>
				<port id="1" precision="U8" names="/layers.0/blocks.0/act3/Mul_1_output_0_quantized">
					<dim>1</dim>
					<dim>64</dim>
					<dim>256</dim>
					<dim>256</dim>
				</port>
			</output>
		</layer>
		<layer id="207" name="Convert_10476" type="Convert" version="opset1">
			<data destination_type="i32" />
			<input>
				<port id="0" precision="U8">
					<dim>1</dim>
					<dim>64</dim>
					<dim>256</dim>
					<dim>256</dim>
				</port>
			</input>
			<output>
				<port id="1" precision="I32">
					<dim>1</dim>
					<dim>64</dim>
					<dim>256</dim>
					<dim>256</dim>
				</port>
			</output>
		</layer>
		<layer id="208" name="Convert_10478" type="Convert" version="opset1">
			<data destination_type="i32" />
			<input>
				<port id="0" precision="U8" />
			</input>
			<output>
				<port id="1" precision="I32" />
			</output>
		</layer>
		<layer id="209" name="Subtract_10480" type="Subtract" version="opset1">
			<data auto_broadcast="numpy" />
			<input>
				<port id="0" precision="I32">
					<dim>1</dim>
					<dim>64</dim>
					<dim>256</dim>
					<dim>256</dim>
				</port>
				<port id="1" precision="I32" />
			</input>
			<output>
				<port id="2" precision="I32">
					<dim>1</dim>
					<dim>64</dim>
					<dim>256</dim>
					<dim>256</dim>
				</port>
			</output>
		</layer>
		<layer id="210" name="Subtract_10481" type="Const" version="opset1">
			<data element_type="i32" shape="256, 64, 1, 1" offset="153664" size="65536" />
			<output>
				<port id="0" precision="I32">
					<dim>256</dim>
					<dim>64</dim>
					<dim>1</dim>
					<dim>1</dim>
				</port>
			</output>
		</layer>
		<layer id="211" name="/layers.0/blocks.1/conv1/c/Conv_quant" type="Convolution" version="opset1">
			<data strides="1, 1" dilations="1, 1" pads_begin="0, 0" pads_end="0, 0" auto_pad="explicit" />
			<input>
				<port id="0" precision="I32">
					<dim>1</dim>
					<dim>64</dim>
					<dim>256</dim>
					<dim>256</dim>
				</port>
				<port id="1" precision="I32">
					<dim>256</dim>
					<dim>64</dim>
					<dim>1</dim>
					<dim>1</dim>
				</port>
			</input>
			<output>
				<port id="2" precision="I32" names="/layers.0/blocks.1/conv1/c/Conv_output_0_output_quantized">
					<dim>1</dim>
					<dim>256</dim>
					<dim>256</dim>
					<dim>256</dim>
				</port>
			</output>
		</layer>
		<layer id="212" name="/layers.0/blocks.1/conv1/c/Conv_output_0_output_quantized_cast" type="Convert" version="opset1">
			<data destination_type="f32" />
			<input>
				<port id="0" precision="I32">
					<dim>1</dim>
					<dim>256</dim>
					<dim>256</dim>
					<dim>256</dim>
				</port>
			</input>
			<output>
				<port id="1" precision="FP32" names="/layers.0/blocks.1/conv1/c/Conv_output_0_output_quantized_cast_output">
					<dim>1</dim>
					<dim>256</dim>
					<dim>256</dim>
					<dim>256</dim>
				</port>
			</output>
		</layer>
		<layer id="213" name="onnx::Conv_2463_scale" type="Const" version="opset1">
			<data element_type="f32" shape="" offset="219200" size="4" />
			<output>
				<port id="0" precision="FP32" names="onnx::Conv_2463_scale" />
			</output>
		</layer>
		<layer id="214" name="/layers.0/blocks.1/conv1/c/Conv_quant_scales_mul" type="Multiply" version="opset1">
			<data auto_broadcast="numpy" />
			<input>
				<port id="0" precision="FP32" />
				<port id="1" precision="FP32" />
			</input>
			<output>
				<port id="2" precision="FP32" names="/layers.0/blocks.1/conv1/c/Conv_quant_scales_mul:0" />
			</output>
		</layer>
		<layer id="215" name="/layers.0/blocks.1/conv1/c/Conv_quant_output_scale_mul" type="Multiply" version="opset1">
			<data auto_broadcast="numpy" />
			<input>
				<port id="0" precision="FP32">
					<dim>1</dim>
					<dim>256</dim>
					<dim>256</dim>
					<dim>256</dim>
				</port>
				<port id="1" precision="FP32" />
			</input>
			<output>
				<port id="2" precision="FP32" names="/layers.0/blocks.1/conv1/c/Conv_output_0quant_scaled_output">
					<dim>1</dim>
					<dim>256</dim>
					<dim>256</dim>
					<dim>256</dim>
				</port>
			</output>
		</layer>
		<layer id="216" name="/layers.0/blocks.1/conv1/c/Conv_output_0_bias_reshape_output" type="Const" version="opset1">
			<data element_type="f32" shape="1, 256, 1, 1" offset="219204" size="1024" />
			<output>
				<port id="0" precision="FP32" names="/layers.0/blocks.1/conv1/c/Conv_output_0_bias_reshape_output">
					<dim>1</dim>
					<dim>256</dim>
					<dim>1</dim>
					<dim>1</dim>
				</port>
			</output>
		</layer>
		<layer id="217" name="/layers.0/blocks.1/conv1/c/Conv_output_0_bias_add" type="Add" version="opset1">
			<data auto_broadcast="numpy" />
			<input>
				<port id="0" precision="FP32">
					<dim>1</dim>
					<dim>256</dim>
					<dim>256</dim>
					<dim>256</dim>
				</port>
				<port id="1" precision="FP32">
					<dim>1</dim>
					<dim>256</dim>
					<dim>1</dim>
					<dim>1</dim>
				</port>
			</input>
			<output>
				<port id="2" precision="FP32" names="/layers.0/blocks.1/conv1/c/Conv_output_0">
					<dim>1</dim>
					<dim>256</dim>
					<dim>256</dim>
					<dim>256</dim>
				</port>
			</output>
		</layer>
		<layer id="218" name="/layers.0/blocks.1/act1/Mul_1" type="Gelu" version="opset7">
			<data approximation_mode="ERF" />
			<input>
				<port id="0" precision="FP32">
					<dim>1</dim>
					<dim>256</dim>
					<dim>256</dim>
					<dim>256</dim>
				</port>
			</input>
			<output>
				<port id="1" precision="FP32" names="/layers.0/blocks.1/act1/Mul_1_output_0">
					<dim>1</dim>
					<dim>256</dim>
					<dim>256</dim>
					<dim>256</dim>
				</port>
			</output>
		</layer>
		<layer id="219" name="Constant_31216" type="Const" version="opset1">
			<data element_type="f32" shape="1, 1, 1, 1" offset="2048" size="4" />
			<output>
				<port id="0" precision="FP32">
					<dim>1</dim>
					<dim>1</dim>
					<dim>1</dim>
					<dim>1</dim>
				</port>
			</output>
		</layer>
		<layer id="220" name="Multiply_10523" type="Multiply" version="opset1">
			<data auto_broadcast="numpy" />
			<input>
				<port id="0" precision="FP32">
					<dim>1</dim>
					<dim>256</dim>
					<dim>256</dim>
					<dim>256</dim>
				</port>
				<port id="1" precision="FP32">
					<dim>1</dim>
					<dim>1</dim>
					<dim>1</dim>
					<dim>1</dim>
				</port>
			</input>
			<output>
				<port id="2" precision="FP32">
					<dim>1</dim>
					<dim>256</dim>
					<dim>256</dim>
					<dim>256</dim>
				</port>
			</output>
		</layer>
		<layer id="221" name="Constant_10503" type="Const" version="opset1">
			<data element_type="f32" shape="" offset="2052" size="4" />
			<output>
				<port id="0" precision="FP32" />
			</output>
		</layer>
		<layer id="222" name="Range_10499" type="Const" version="opset1">
			<data element_type="i64" shape="4" offset="2056" size="32" />
			<output>
				<port id="0" precision="I64">
					<dim>4</dim>
				</port>
			</output>
		</layer>
		<layer id="223" name="ReduceMax_10501" type="ReduceMax" version="opset1">
			<data keep_dims="false" />
			<input>
				<port id="0" precision="FP32">
					<dim>1</dim>
					<dim>256</dim>
					<dim>256</dim>
					<dim>256</dim>
				</port>
				<port id="1" precision="I64">
					<dim>4</dim>
				</port>
			</input>
			<output>
				<port id="2" precision="FP32" />
			</output>
		</layer>
		<layer id="224" name="Maximum_10504" type="Maximum" version="opset1">
			<data auto_broadcast="numpy" />
			<input>
				<port id="0" precision="FP32" />
				<port id="1" precision="FP32" />
			</input>
			<output>
				<port id="2" precision="FP32" />
			</output>
		</layer>
		<layer id="225" name="Constant_10514" type="Const" version="opset1">
			<data element_type="f32" shape="" offset="2052" size="4" />
			<output>
				<port id="0" precision="FP32" />
			</output>
		</layer>
		<layer id="226" name="ReduceMin_10512" type="ReduceMin" version="opset1">
			<data keep_dims="false" />
			<input>
				<port id="0" precision="FP32">
					<dim>1</dim>
					<dim>256</dim>
					<dim>256</dim>
					<dim>256</dim>
				</port>
				<port id="1" precision="I64">
					<dim>4</dim>
				</port>
			</input>
			<output>
				<port id="2" precision="FP32" />
			</output>
		</layer>
		<layer id="227" name="Minimum_10515" type="Minimum" version="opset1">
			<data auto_broadcast="numpy" />
			<input>
				<port id="0" precision="FP32" />
				<port id="1" precision="FP32" />
			</input>
			<output>
				<port id="2" precision="FP32" />
			</output>
		</layer>
		<layer id="228" name="Subtract_10516" type="Subtract" version="opset1">
			<data auto_broadcast="numpy" />
			<input>
				<port id="0" precision="FP32" />
				<port id="1" precision="FP32" />
			</input>
			<output>
				<port id="2" precision="FP32" />
			</output>
		</layer>
		<layer id="229" name="Divide_10524" type="Divide" version="opset1">
			<data auto_broadcast="numpy" m_pythondiv="true" />
			<input>
				<port id="0" precision="FP32">
					<dim>1</dim>
					<dim>256</dim>
					<dim>256</dim>
					<dim>256</dim>
				</port>
				<port id="1" precision="FP32" />
			</input>
			<output>
				<port id="2" precision="FP32">
					<dim>1</dim>
					<dim>256</dim>
					<dim>256</dim>
					<dim>256</dim>
				</port>
			</output>
		</layer>
		<layer id="230" name="Round_10525" type="Round" version="opset5">
			<data mode="half_to_even" />
			<input>
				<port id="0" precision="FP32">
					<dim>1</dim>
					<dim>256</dim>
					<dim>256</dim>
					<dim>256</dim>
				</port>
			</input>
			<output>
				<port id="1" precision="FP32">
					<dim>1</dim>
					<dim>256</dim>
					<dim>256</dim>
					<dim>256</dim>
				</port>
			</output>
		</layer>
		<layer id="231" name="Constant_10491" type="Const" version="opset1">
			<data element_type="f32" shape="" offset="2052" size="4" />
			<output>
				<port id="0" precision="FP32" />
			</output>
		</layer>
		<layer id="232" name="Subtract_10518" type="Subtract" version="opset1">
			<data auto_broadcast="numpy" />
			<input>
				<port id="0" precision="FP32" />
				<port id="1" precision="FP32" />
			</input>
			<output>
				<port id="2" precision="FP32" />
			</output>
		</layer>
		<layer id="233" name="Constant_17311" type="Const" version="opset1">
			<data element_type="f32" shape="" offset="2088" size="4" />
			<output>
				<port id="0" precision="FP32" />
			</output>
		</layer>
		<layer id="234" name="/layers.0/blocks.1/act1/Mul_1_output_0_QuantizeLinear_/layers.0/blocks.1/act1/Mul_1_output_0_scale" type="Multiply" version="opset1">
			<data auto_broadcast="numpy" />
			<input>
				<port id="0" precision="FP32" />
				<port id="1" precision="FP32" />
			</input>
			<output>
				<port id="2" precision="FP32" names="/layers.0/blocks.1/act1/Mul_1_output_0_scale" />
			</output>
		</layer>
		<layer id="235" name="Divide_10519" type="Divide" version="opset1">
			<data auto_broadcast="numpy" m_pythondiv="true" />
			<input>
				<port id="0" precision="FP32" />
				<port id="1" precision="FP32" />
			</input>
			<output>
				<port id="2" precision="FP32" />
			</output>
		</layer>
		<layer id="236" name="Round_10520" type="Round" version="opset5">
			<data mode="half_to_even" />
			<input>
				<port id="0" precision="FP32" />
			</input>
			<output>
				<port id="1" precision="FP32" />
			</output>
		</layer>
		<layer id="237" name="Clamp_10521" type="Clamp" version="opset1">
			<data min="0" max="255" />
			<input>
				<port id="0" precision="FP32" />
			</input>
			<output>
				<port id="1" precision="FP32" />
			</output>
		</layer>
		<layer id="238" name="/layers.0/blocks.1/act1/Mul_1_output_0_QuantizeLinear_/layers.0/blocks.1/act1/Mul_1_output_0_zero_point" type="Convert" version="opset1">
			<data destination_type="u8" />
			<input>
				<port id="0" precision="FP32" />
			</input>
			<output>
				<port id="1" precision="U8" names="/layers.0/blocks.1/act1/Mul_1_output_0_zero_point" />
			</output>
		</layer>
		<layer id="239" name="Convert_10526" type="Convert" version="opset1">
			<data destination_type="f32" />
			<input>
				<port id="0" precision="U8" />
			</input>
			<output>
				<port id="1" precision="FP32" />
			</output>
		</layer>
		<layer id="240" name="Add_10527" type="Add" version="opset1">
			<data auto_broadcast="numpy" />
			<input>
				<port id="0" precision="FP32">
					<dim>1</dim>
					<dim>256</dim>
					<dim>256</dim>
					<dim>256</dim>
				</port>
				<port id="1" precision="FP32" />
			</input>
			<output>
				<port id="2" precision="FP32">
					<dim>1</dim>
					<dim>256</dim>
					<dim>256</dim>
					<dim>256</dim>
				</port>
			</output>
		</layer>
		<layer id="241" name="Clamp_10528" type="Clamp" version="opset1">
			<data min="0" max="255" />
			<input>
				<port id="0" precision="FP32">
					<dim>1</dim>
					<dim>256</dim>
					<dim>256</dim>
					<dim>256</dim>
				</port>
			</input>
			<output>
				<port id="1" precision="FP32">
					<dim>1</dim>
					<dim>256</dim>
					<dim>256</dim>
					<dim>256</dim>
				</port>
			</output>
		</layer>
		<layer id="242" name="/layers.0/blocks.1/act1/Mul_1_output_0_QuantizeLinear_/layers.0/blocks.1/act1/Mul_1_output_0_quantized" type="Convert" version="opset1">
			<data destination_type="u8" />
			<input>
				<port id="0" precision="FP32">
					<dim>1</dim>
					<dim>256</dim>
					<dim>256</dim>
					<dim>256</dim>
				</port>
			</input>
			<output>
				<port id="1" precision="U8" names="/layers.0/blocks.1/act1/Mul_1_output_0_quantized">
					<dim>1</dim>
					<dim>256</dim>
					<dim>256</dim>
					<dim>256</dim>
				</port>
			</output>
		</layer>
		<layer id="243" name="Convert_10531" type="Convert" version="opset1">
			<data destination_type="i32" />
			<input>
				<port id="0" precision="U8">
					<dim>1</dim>
					<dim>256</dim>
					<dim>256</dim>
					<dim>256</dim>
				</port>
			</input>
			<output>
				<port id="1" precision="I32">
					<dim>1</dim>
					<dim>256</dim>
					<dim>256</dim>
					<dim>256</dim>
				</port>
			</output>
		</layer>
		<layer id="244" name="Convert_10533" type="Convert" version="opset1">
			<data destination_type="i32" />
			<input>
				<port id="0" precision="U8" />
			</input>
			<output>
				<port id="1" precision="I32" />
			</output>
		</layer>
		<layer id="245" name="Subtract_10535" type="Subtract" version="opset1">
			<data auto_broadcast="numpy" />
			<input>
				<port id="0" precision="I32">
					<dim>1</dim>
					<dim>256</dim>
					<dim>256</dim>
					<dim>256</dim>
				</port>
				<port id="1" precision="I32" />
			</input>
			<output>
				<port id="2" precision="I32">
					<dim>1</dim>
					<dim>256</dim>
					<dim>256</dim>
					<dim>256</dim>
				</port>
			</output>
		</layer>
		<layer id="246" name="Reshape_10544" type="Const" version="opset1">
			<data element_type="i32" shape="256, 1, 1, 3, 3" offset="220228" size="9216" />
			<output>
				<port id="0" precision="I32">
					<dim>256</dim>
					<dim>1</dim>
					<dim>1</dim>
					<dim>3</dim>
					<dim>3</dim>
				</port>
			</output>
		</layer>
		<layer id="247" name="/layers.0/blocks.1/conv2/c/Conv_quant" type="GroupConvolution" version="opset1">
			<data strides="1, 1" pads_begin="1, 1" pads_end="1, 1" dilations="1, 1" auto_pad="explicit" />
			<input>
				<port id="0" precision="I32">
					<dim>1</dim>
					<dim>256</dim>
					<dim>256</dim>
					<dim>256</dim>
				</port>
				<port id="1" precision="I32">
					<dim>256</dim>
					<dim>1</dim>
					<dim>1</dim>
					<dim>3</dim>
					<dim>3</dim>
				</port>
			</input>
			<output>
				<port id="2" precision="I32" names="/layers.0/blocks.1/conv2/c/Conv_output_0_output_quantized">
					<dim>1</dim>
					<dim>256</dim>
					<dim>256</dim>
					<dim>256</dim>
				</port>
			</output>
		</layer>
		<layer id="248" name="/layers.0/blocks.1/conv2/c/Conv_output_0_output_quantized_cast" type="Convert" version="opset1">
			<data destination_type="f32" />
			<input>
				<port id="0" precision="I32">
					<dim>1</dim>
					<dim>256</dim>
					<dim>256</dim>
					<dim>256</dim>
				</port>
			</input>
			<output>
				<port id="1" precision="FP32" names="/layers.0/blocks.1/conv2/c/Conv_output_0_output_quantized_cast_output">
					<dim>1</dim>
					<dim>256</dim>
					<dim>256</dim>
					<dim>256</dim>
				</port>
			</output>
		</layer>
		<layer id="249" name="onnx::Conv_2466_scale" type="Const" version="opset1">
			<data element_type="f32" shape="" offset="229444" size="4" />
			<output>
				<port id="0" precision="FP32" names="onnx::Conv_2466_scale" />
			</output>
		</layer>
		<layer id="250" name="/layers.0/blocks.1/conv2/c/Conv_quant_scales_mul" type="Multiply" version="opset1">
			<data auto_broadcast="numpy" />
			<input>
				<port id="0" precision="FP32" />
				<port id="1" precision="FP32" />
			</input>
			<output>
				<port id="2" precision="FP32" names="/layers.0/blocks.1/conv2/c/Conv_quant_scales_mul:0" />
			</output>
		</layer>
		<layer id="251" name="/layers.0/blocks.1/conv2/c/Conv_quant_output_scale_mul" type="Multiply" version="opset1">
			<data auto_broadcast="numpy" />
			<input>
				<port id="0" precision="FP32">
					<dim>1</dim>
					<dim>256</dim>
					<dim>256</dim>
					<dim>256</dim>
				</port>
				<port id="1" precision="FP32" />
			</input>
			<output>
				<port id="2" precision="FP32" names="/layers.0/blocks.1/conv2/c/Conv_output_0quant_scaled_output">
					<dim>1</dim>
					<dim>256</dim>
					<dim>256</dim>
					<dim>256</dim>
				</port>
			</output>
		</layer>
		<layer id="252" name="/layers.0/blocks.1/conv2/c/Conv_output_0_bias_reshape_output" type="Const" version="opset1">
			<data element_type="f32" shape="1, 256, 1, 1" offset="229448" size="1024" />
			<output>
				<port id="0" precision="FP32" names="/layers.0/blocks.1/conv2/c/Conv_output_0_bias_reshape_output">
					<dim>1</dim>
					<dim>256</dim>
					<dim>1</dim>
					<dim>1</dim>
				</port>
			</output>
		</layer>
		<layer id="253" name="/layers.0/blocks.1/conv2/c/Conv_output_0_bias_add" type="Add" version="opset1">
			<data auto_broadcast="numpy" />
			<input>
				<port id="0" precision="FP32">
					<dim>1</dim>
					<dim>256</dim>
					<dim>256</dim>
					<dim>256</dim>
				</port>
				<port id="1" precision="FP32">
					<dim>1</dim>
					<dim>256</dim>
					<dim>1</dim>
					<dim>1</dim>
				</port>
			</input>
			<output>
				<port id="2" precision="FP32" names="/layers.0/blocks.1/conv2/c/Conv_output_0">
					<dim>1</dim>
					<dim>256</dim>
					<dim>256</dim>
					<dim>256</dim>
				</port>
			</output>
		</layer>
		<layer id="254" name="/layers.0/blocks.1/act2/Mul_1" type="Gelu" version="opset7">
			<data approximation_mode="ERF" />
			<input>
				<port id="0" precision="FP32">
					<dim>1</dim>
					<dim>256</dim>
					<dim>256</dim>
					<dim>256</dim>
				</port>
			</input>
			<output>
				<port id="1" precision="FP32" names="/layers.0/blocks.1/act2/Mul_1_output_0">
					<dim>1</dim>
					<dim>256</dim>
					<dim>256</dim>
					<dim>256</dim>
				</port>
			</output>
		</layer>
		<layer id="255" name="Constant_31217" type="Const" version="opset1">
			<data element_type="f32" shape="1, 1, 1, 1" offset="2048" size="4" />
			<output>
				<port id="0" precision="FP32">
					<dim>1</dim>
					<dim>1</dim>
					<dim>1</dim>
					<dim>1</dim>
				</port>
			</output>
		</layer>
		<layer id="256" name="Multiply_10624" type="Multiply" version="opset1">
			<data auto_broadcast="numpy" />
			<input>
				<port id="0" precision="FP32">
					<dim>1</dim>
					<dim>256</dim>
					<dim>256</dim>
					<dim>256</dim>
				</port>
				<port id="1" precision="FP32">
					<dim>1</dim>
					<dim>1</dim>
					<dim>1</dim>
					<dim>1</dim>
				</port>
			</input>
			<output>
				<port id="2" precision="FP32">
					<dim>1</dim>
					<dim>256</dim>
					<dim>256</dim>
					<dim>256</dim>
				</port>
			</output>
		</layer>
		<layer id="257" name="Constant_10604" type="Const" version="opset1">
			<data element_type="f32" shape="" offset="2052" size="4" />
			<output>
				<port id="0" precision="FP32" />
			</output>
		</layer>
		<layer id="258" name="Range_10600" type="Const" version="opset1">
			<data element_type="i64" shape="4" offset="2056" size="32" />
			<output>
				<port id="0" precision="I64">
					<dim>4</dim>
				</port>
			</output>
		</layer>
		<layer id="259" name="ReduceMax_10602" type="ReduceMax" version="opset1">
			<data keep_dims="false" />
			<input>
				<port id="0" precision="FP32">
					<dim>1</dim>
					<dim>256</dim>
					<dim>256</dim>
					<dim>256</dim>
				</port>
				<port id="1" precision="I64">
					<dim>4</dim>
				</port>
			</input>
			<output>
				<port id="2" precision="FP32" />
			</output>
		</layer>
		<layer id="260" name="Maximum_10605" type="Maximum" version="opset1">
			<data auto_broadcast="numpy" />
			<input>
				<port id="0" precision="FP32" />
				<port id="1" precision="FP32" />
			</input>
			<output>
				<port id="2" precision="FP32" />
			</output>
		</layer>
		<layer id="261" name="Constant_10615" type="Const" version="opset1">
			<data element_type="f32" shape="" offset="2052" size="4" />
			<output>
				<port id="0" precision="FP32" />
			</output>
		</layer>
		<layer id="262" name="ReduceMin_10613" type="ReduceMin" version="opset1">
			<data keep_dims="false" />
			<input>
				<port id="0" precision="FP32">
					<dim>1</dim>
					<dim>256</dim>
					<dim>256</dim>
					<dim>256</dim>
				</port>
				<port id="1" precision="I64">
					<dim>4</dim>
				</port>
			</input>
			<output>
				<port id="2" precision="FP32" />
			</output>
		</layer>
		<layer id="263" name="Minimum_10616" type="Minimum" version="opset1">
			<data auto_broadcast="numpy" />
			<input>
				<port id="0" precision="FP32" />
				<port id="1" precision="FP32" />
			</input>
			<output>
				<port id="2" precision="FP32" />
			</output>
		</layer>
		<layer id="264" name="Subtract_10617" type="Subtract" version="opset1">
			<data auto_broadcast="numpy" />
			<input>
				<port id="0" precision="FP32" />
				<port id="1" precision="FP32" />
			</input>
			<output>
				<port id="2" precision="FP32" />
			</output>
		</layer>
		<layer id="265" name="Divide_10625" type="Divide" version="opset1">
			<data auto_broadcast="numpy" m_pythondiv="true" />
			<input>
				<port id="0" precision="FP32">
					<dim>1</dim>
					<dim>256</dim>
					<dim>256</dim>
					<dim>256</dim>
				</port>
				<port id="1" precision="FP32" />
			</input>
			<output>
				<port id="2" precision="FP32">
					<dim>1</dim>
					<dim>256</dim>
					<dim>256</dim>
					<dim>256</dim>
				</port>
			</output>
		</layer>
		<layer id="266" name="Round_10626" type="Round" version="opset5">
			<data mode="half_to_even" />
			<input>
				<port id="0" precision="FP32">
					<dim>1</dim>
					<dim>256</dim>
					<dim>256</dim>
					<dim>256</dim>
				</port>
			</input>
			<output>
				<port id="1" precision="FP32">
					<dim>1</dim>
					<dim>256</dim>
					<dim>256</dim>
					<dim>256</dim>
				</port>
			</output>
		</layer>
		<layer id="267" name="Constant_10592" type="Const" version="opset1">
			<data element_type="f32" shape="" offset="2052" size="4" />
			<output>
				<port id="0" precision="FP32" />
			</output>
		</layer>
		<layer id="268" name="Subtract_10619" type="Subtract" version="opset1">
			<data auto_broadcast="numpy" />
			<input>
				<port id="0" precision="FP32" />
				<port id="1" precision="FP32" />
			</input>
			<output>
				<port id="2" precision="FP32" />
			</output>
		</layer>
		<layer id="269" name="Constant_17319" type="Const" version="opset1">
			<data element_type="f32" shape="" offset="2088" size="4" />
			<output>
				<port id="0" precision="FP32" />
			</output>
		</layer>
		<layer id="270" name="/layers.0/blocks.1/act2/Mul_1_output_0_QuantizeLinear_/layers.0/blocks.1/act2/Mul_1_output_0_scale" type="Multiply" version="opset1">
			<data auto_broadcast="numpy" />
			<input>
				<port id="0" precision="FP32" />
				<port id="1" precision="FP32" />
			</input>
			<output>
				<port id="2" precision="FP32" names="/layers.0/blocks.1/act2/Mul_1_output_0_scale" />
			</output>
		</layer>
		<layer id="271" name="Divide_10620" type="Divide" version="opset1">
			<data auto_broadcast="numpy" m_pythondiv="true" />
			<input>
				<port id="0" precision="FP32" />
				<port id="1" precision="FP32" />
			</input>
			<output>
				<port id="2" precision="FP32" />
			</output>
		</layer>
		<layer id="272" name="Round_10621" type="Round" version="opset5">
			<data mode="half_to_even" />
			<input>
				<port id="0" precision="FP32" />
			</input>
			<output>
				<port id="1" precision="FP32" />
			</output>
		</layer>
		<layer id="273" name="Clamp_10622" type="Clamp" version="opset1">
			<data min="0" max="255" />
			<input>
				<port id="0" precision="FP32" />
			</input>
			<output>
				<port id="1" precision="FP32" />
			</output>
		</layer>
		<layer id="274" name="/layers.0/blocks.1/act2/Mul_1_output_0_QuantizeLinear_/layers.0/blocks.1/act2/Mul_1_output_0_zero_point" type="Convert" version="opset1">
			<data destination_type="u8" />
			<input>
				<port id="0" precision="FP32" />
			</input>
			<output>
				<port id="1" precision="U8" names="/layers.0/blocks.1/act2/Mul_1_output_0_zero_point" />
			</output>
		</layer>
		<layer id="275" name="Convert_10627" type="Convert" version="opset1">
			<data destination_type="f32" />
			<input>
				<port id="0" precision="U8" />
			</input>
			<output>
				<port id="1" precision="FP32" />
			</output>
		</layer>
		<layer id="276" name="Add_10628" type="Add" version="opset1">
			<data auto_broadcast="numpy" />
			<input>
				<port id="0" precision="FP32">
					<dim>1</dim>
					<dim>256</dim>
					<dim>256</dim>
					<dim>256</dim>
				</port>
				<port id="1" precision="FP32" />
			</input>
			<output>
				<port id="2" precision="FP32">
					<dim>1</dim>
					<dim>256</dim>
					<dim>256</dim>
					<dim>256</dim>
				</port>
			</output>
		</layer>
		<layer id="277" name="Clamp_10629" type="Clamp" version="opset1">
			<data min="0" max="255" />
			<input>
				<port id="0" precision="FP32">
					<dim>1</dim>
					<dim>256</dim>
					<dim>256</dim>
					<dim>256</dim>
				</port>
			</input>
			<output>
				<port id="1" precision="FP32">
					<dim>1</dim>
					<dim>256</dim>
					<dim>256</dim>
					<dim>256</dim>
				</port>
			</output>
		</layer>
		<layer id="278" name="/layers.0/blocks.1/act2/Mul_1_output_0_QuantizeLinear_/layers.0/blocks.1/act2/Mul_1_output_0_quantized" type="Convert" version="opset1">
			<data destination_type="u8" />
			<input>
				<port id="0" precision="FP32">
					<dim>1</dim>
					<dim>256</dim>
					<dim>256</dim>
					<dim>256</dim>
				</port>
			</input>
			<output>
				<port id="1" precision="U8" names="/layers.0/blocks.1/act2/Mul_1_output_0_quantized">
					<dim>1</dim>
					<dim>256</dim>
					<dim>256</dim>
					<dim>256</dim>
				</port>
			</output>
		</layer>
		<layer id="279" name="Convert_10632" type="Convert" version="opset1">
			<data destination_type="i32" />
			<input>
				<port id="0" precision="U8">
					<dim>1</dim>
					<dim>256</dim>
					<dim>256</dim>
					<dim>256</dim>
				</port>
			</input>
			<output>
				<port id="1" precision="I32">
					<dim>1</dim>
					<dim>256</dim>
					<dim>256</dim>
					<dim>256</dim>
				</port>
			</output>
		</layer>
		<layer id="280" name="Convert_10634" type="Convert" version="opset1">
			<data destination_type="i32" />
			<input>
				<port id="0" precision="U8" />
			</input>
			<output>
				<port id="1" precision="I32" />
			</output>
		</layer>
		<layer id="281" name="Subtract_10636" type="Subtract" version="opset1">
			<data auto_broadcast="numpy" />
			<input>
				<port id="0" precision="I32">
					<dim>1</dim>
					<dim>256</dim>
					<dim>256</dim>
					<dim>256</dim>
				</port>
				<port id="1" precision="I32" />
			</input>
			<output>
				<port id="2" precision="I32">
					<dim>1</dim>
					<dim>256</dim>
					<dim>256</dim>
					<dim>256</dim>
				</port>
			</output>
		</layer>
		<layer id="282" name="Subtract_10637" type="Const" version="opset1">
			<data element_type="i32" shape="64, 256, 1, 1" offset="230472" size="65536" />
			<output>
				<port id="0" precision="I32">
					<dim>64</dim>
					<dim>256</dim>
					<dim>1</dim>
					<dim>1</dim>
				</port>
			</output>
		</layer>
		<layer id="283" name="/layers.0/blocks.1/conv3/c/Conv_quant" type="Convolution" version="opset1">
			<data strides="1, 1" dilations="1, 1" pads_begin="0, 0" pads_end="0, 0" auto_pad="explicit" />
			<input>
				<port id="0" precision="I32">
					<dim>1</dim>
					<dim>256</dim>
					<dim>256</dim>
					<dim>256</dim>
				</port>
				<port id="1" precision="I32">
					<dim>64</dim>
					<dim>256</dim>
					<dim>1</dim>
					<dim>1</dim>
				</port>
			</input>
			<output>
				<port id="2" precision="I32" names="/layers.0/blocks.1/conv3/c/Conv_output_0_output_quantized">
					<dim>1</dim>
					<dim>64</dim>
					<dim>256</dim>
					<dim>256</dim>
				</port>
			</output>
		</layer>
		<layer id="284" name="/layers.0/blocks.1/conv3/c/Conv_output_0_output_quantized_cast" type="Convert" version="opset1">
			<data destination_type="f32" />
			<input>
				<port id="0" precision="I32">
					<dim>1</dim>
					<dim>64</dim>
					<dim>256</dim>
					<dim>256</dim>
				</port>
			</input>
			<output>
				<port id="1" precision="FP32" names="/layers.0/blocks.1/conv3/c/Conv_output_0_output_quantized_cast_output">
					<dim>1</dim>
					<dim>64</dim>
					<dim>256</dim>
					<dim>256</dim>
				</port>
			</output>
		</layer>
		<layer id="285" name="onnx::Conv_2469_scale" type="Const" version="opset1">
			<data element_type="f32" shape="" offset="296008" size="4" />
			<output>
				<port id="0" precision="FP32" names="onnx::Conv_2469_scale" />
			</output>
		</layer>
		<layer id="286" name="/layers.0/blocks.1/conv3/c/Conv_quant_scales_mul" type="Multiply" version="opset1">
			<data auto_broadcast="numpy" />
			<input>
				<port id="0" precision="FP32" />
				<port id="1" precision="FP32" />
			</input>
			<output>
				<port id="2" precision="FP32" names="/layers.0/blocks.1/conv3/c/Conv_quant_scales_mul:0" />
			</output>
		</layer>
		<layer id="287" name="/layers.0/blocks.1/conv3/c/Conv_quant_output_scale_mul" type="Multiply" version="opset1">
			<data auto_broadcast="numpy" />
			<input>
				<port id="0" precision="FP32">
					<dim>1</dim>
					<dim>64</dim>
					<dim>256</dim>
					<dim>256</dim>
				</port>
				<port id="1" precision="FP32" />
			</input>
			<output>
				<port id="2" precision="FP32" names="/layers.0/blocks.1/conv3/c/Conv_output_0quant_scaled_output">
					<dim>1</dim>
					<dim>64</dim>
					<dim>256</dim>
					<dim>256</dim>
				</port>
			</output>
		</layer>
		<layer id="288" name="/layers.0/blocks.1/conv3/c/Conv_output_0_bias_reshape_output" type="Const" version="opset1">
			<data element_type="f32" shape="1, 64, 1, 1" offset="296012" size="256" />
			<output>
				<port id="0" precision="FP32" names="/layers.0/blocks.1/conv3/c/Conv_output_0_bias_reshape_output">
					<dim>1</dim>
					<dim>64</dim>
					<dim>1</dim>
					<dim>1</dim>
				</port>
			</output>
		</layer>
		<layer id="289" name="/layers.0/blocks.1/conv3/c/Conv_output_0_bias_add" type="Add" version="opset1">
			<data auto_broadcast="numpy" />
			<input>
				<port id="0" precision="FP32">
					<dim>1</dim>
					<dim>64</dim>
					<dim>256</dim>
					<dim>256</dim>
				</port>
				<port id="1" precision="FP32">
					<dim>1</dim>
					<dim>64</dim>
					<dim>1</dim>
					<dim>1</dim>
				</port>
			</input>
			<output>
				<port id="2" precision="FP32" names="/layers.0/blocks.1/conv3/c/Conv_output_0">
					<dim>1</dim>
					<dim>64</dim>
					<dim>256</dim>
					<dim>256</dim>
				</port>
			</output>
		</layer>
		<layer id="290" name="/layers.0/blocks.1/Add" type="Add" version="opset1">
			<data auto_broadcast="numpy" />
			<input>
				<port id="0" precision="FP32">
					<dim>1</dim>
					<dim>64</dim>
					<dim>256</dim>
					<dim>256</dim>
				</port>
				<port id="1" precision="FP32">
					<dim>1</dim>
					<dim>64</dim>
					<dim>256</dim>
					<dim>256</dim>
				</port>
			</input>
			<output>
				<port id="2" precision="FP32" names="/layers.0/blocks.1/Add_output_0">
					<dim>1</dim>
					<dim>64</dim>
					<dim>256</dim>
					<dim>256</dim>
				</port>
			</output>
		</layer>
		<layer id="291" name="/layers.0/blocks.1/act3/Mul_1" type="Gelu" version="opset7">
			<data approximation_mode="ERF" />
			<input>
				<port id="0" precision="FP32">
					<dim>1</dim>
					<dim>64</dim>
					<dim>256</dim>
					<dim>256</dim>
				</port>
			</input>
			<output>
				<port id="1" precision="FP32" names="/layers.0/blocks.1/act3/Mul_1_output_0">
					<dim>1</dim>
					<dim>64</dim>
					<dim>256</dim>
					<dim>256</dim>
				</port>
			</output>
		</layer>
		<layer id="292" name="Constant_31218" type="Const" version="opset1">
			<data element_type="f32" shape="1, 1, 1, 1" offset="2048" size="4" />
			<output>
				<port id="0" precision="FP32">
					<dim>1</dim>
					<dim>1</dim>
					<dim>1</dim>
					<dim>1</dim>
				</port>
			</output>
		</layer>
		<layer id="293" name="Multiply_10680" type="Multiply" version="opset1">
			<data auto_broadcast="numpy" />
			<input>
				<port id="0" precision="FP32">
					<dim>1</dim>
					<dim>64</dim>
					<dim>256</dim>
					<dim>256</dim>
				</port>
				<port id="1" precision="FP32">
					<dim>1</dim>
					<dim>1</dim>
					<dim>1</dim>
					<dim>1</dim>
				</port>
			</input>
			<output>
				<port id="2" precision="FP32">
					<dim>1</dim>
					<dim>64</dim>
					<dim>256</dim>
					<dim>256</dim>
				</port>
			</output>
		</layer>
		<layer id="294" name="Constant_10660" type="Const" version="opset1">
			<data element_type="f32" shape="" offset="2052" size="4" />
			<output>
				<port id="0" precision="FP32" />
			</output>
		</layer>
		<layer id="295" name="Range_10656" type="Const" version="opset1">
			<data element_type="i64" shape="4" offset="2056" size="32" />
			<output>
				<port id="0" precision="I64">
					<dim>4</dim>
				</port>
			</output>
		</layer>
		<layer id="296" name="ReduceMax_10658" type="ReduceMax" version="opset1">
			<data keep_dims="false" />
			<input>
				<port id="0" precision="FP32">
					<dim>1</dim>
					<dim>64</dim>
					<dim>256</dim>
					<dim>256</dim>
				</port>
				<port id="1" precision="I64">
					<dim>4</dim>
				</port>
			</input>
			<output>
				<port id="2" precision="FP32" />
			</output>
		</layer>
		<layer id="297" name="Maximum_10661" type="Maximum" version="opset1">
			<data auto_broadcast="numpy" />
			<input>
				<port id="0" precision="FP32" />
				<port id="1" precision="FP32" />
			</input>
			<output>
				<port id="2" precision="FP32" />
			</output>
		</layer>
		<layer id="298" name="Constant_10671" type="Const" version="opset1">
			<data element_type="f32" shape="" offset="2052" size="4" />
			<output>
				<port id="0" precision="FP32" />
			</output>
		</layer>
		<layer id="299" name="ReduceMin_10669" type="ReduceMin" version="opset1">
			<data keep_dims="false" />
			<input>
				<port id="0" precision="FP32">
					<dim>1</dim>
					<dim>64</dim>
					<dim>256</dim>
					<dim>256</dim>
				</port>
				<port id="1" precision="I64">
					<dim>4</dim>
				</port>
			</input>
			<output>
				<port id="2" precision="FP32" />
			</output>
		</layer>
		<layer id="300" name="Minimum_10672" type="Minimum" version="opset1">
			<data auto_broadcast="numpy" />
			<input>
				<port id="0" precision="FP32" />
				<port id="1" precision="FP32" />
			</input>
			<output>
				<port id="2" precision="FP32" />
			</output>
		</layer>
		<layer id="301" name="Subtract_10673" type="Subtract" version="opset1">
			<data auto_broadcast="numpy" />
			<input>
				<port id="0" precision="FP32" />
				<port id="1" precision="FP32" />
			</input>
			<output>
				<port id="2" precision="FP32" />
			</output>
		</layer>
		<layer id="302" name="Divide_10681" type="Divide" version="opset1">
			<data auto_broadcast="numpy" m_pythondiv="true" />
			<input>
				<port id="0" precision="FP32">
					<dim>1</dim>
					<dim>64</dim>
					<dim>256</dim>
					<dim>256</dim>
				</port>
				<port id="1" precision="FP32" />
			</input>
			<output>
				<port id="2" precision="FP32">
					<dim>1</dim>
					<dim>64</dim>
					<dim>256</dim>
					<dim>256</dim>
				</port>
			</output>
		</layer>
		<layer id="303" name="Round_10682" type="Round" version="opset5">
			<data mode="half_to_even" />
			<input>
				<port id="0" precision="FP32">
					<dim>1</dim>
					<dim>64</dim>
					<dim>256</dim>
					<dim>256</dim>
				</port>
			</input>
			<output>
				<port id="1" precision="FP32">
					<dim>1</dim>
					<dim>64</dim>
					<dim>256</dim>
					<dim>256</dim>
				</port>
			</output>
		</layer>
		<layer id="304" name="Constant_10648" type="Const" version="opset1">
			<data element_type="f32" shape="" offset="2052" size="4" />
			<output>
				<port id="0" precision="FP32" />
			</output>
		</layer>
		<layer id="305" name="Subtract_10675" type="Subtract" version="opset1">
			<data auto_broadcast="numpy" />
			<input>
				<port id="0" precision="FP32" />
				<port id="1" precision="FP32" />
			</input>
			<output>
				<port id="2" precision="FP32" />
			</output>
		</layer>
		<layer id="306" name="Constant_17327" type="Const" version="opset1">
			<data element_type="f32" shape="" offset="2088" size="4" />
			<output>
				<port id="0" precision="FP32" />
			</output>
		</layer>
		<layer id="307" name="/layers.0/blocks.1/act3/Mul_1_output_0_QuantizeLinear_/layers.0/blocks.1/act3/Mul_1_output_0_scale" type="Multiply" version="opset1">
			<data auto_broadcast="numpy" />
			<input>
				<port id="0" precision="FP32" />
				<port id="1" precision="FP32" />
			</input>
			<output>
				<port id="2" precision="FP32" names="/layers.0/blocks.1/act3/Mul_1_output_0_scale" />
			</output>
		</layer>
		<layer id="308" name="Divide_10676" type="Divide" version="opset1">
			<data auto_broadcast="numpy" m_pythondiv="true" />
			<input>
				<port id="0" precision="FP32" />
				<port id="1" precision="FP32" />
			</input>
			<output>
				<port id="2" precision="FP32" />
			</output>
		</layer>
		<layer id="309" name="Round_10677" type="Round" version="opset5">
			<data mode="half_to_even" />
			<input>
				<port id="0" precision="FP32" />
			</input>
			<output>
				<port id="1" precision="FP32" />
			</output>
		</layer>
		<layer id="310" name="Clamp_10678" type="Clamp" version="opset1">
			<data min="0" max="255" />
			<input>
				<port id="0" precision="FP32" />
			</input>
			<output>
				<port id="1" precision="FP32" />
			</output>
		</layer>
		<layer id="311" name="/layers.0/blocks.1/act3/Mul_1_output_0_QuantizeLinear_/layers.0/blocks.1/act3/Mul_1_output_0_zero_point" type="Convert" version="opset1">
			<data destination_type="u8" />
			<input>
				<port id="0" precision="FP32" />
			</input>
			<output>
				<port id="1" precision="U8" names="/layers.0/blocks.1/act3/Mul_1_output_0_zero_point" />
			</output>
		</layer>
		<layer id="312" name="Convert_10683" type="Convert" version="opset1">
			<data destination_type="f32" />
			<input>
				<port id="0" precision="U8" />
			</input>
			<output>
				<port id="1" precision="FP32" />
			</output>
		</layer>
		<layer id="313" name="Add_10684" type="Add" version="opset1">
			<data auto_broadcast="numpy" />
			<input>
				<port id="0" precision="FP32">
					<dim>1</dim>
					<dim>64</dim>
					<dim>256</dim>
					<dim>256</dim>
				</port>
				<port id="1" precision="FP32" />
			</input>
			<output>
				<port id="2" precision="FP32">
					<dim>1</dim>
					<dim>64</dim>
					<dim>256</dim>
					<dim>256</dim>
				</port>
			</output>
		</layer>
		<layer id="314" name="Clamp_10685" type="Clamp" version="opset1">
			<data min="0" max="255" />
			<input>
				<port id="0" precision="FP32">
					<dim>1</dim>
					<dim>64</dim>
					<dim>256</dim>
					<dim>256</dim>
				</port>
			</input>
			<output>
				<port id="1" precision="FP32">
					<dim>1</dim>
					<dim>64</dim>
					<dim>256</dim>
					<dim>256</dim>
				</port>
			</output>
		</layer>
		<layer id="315" name="/layers.0/blocks.1/act3/Mul_1_output_0_QuantizeLinear_/layers.0/blocks.1/act3/Mul_1_output_0_quantized" type="Convert" version="opset1">
			<data destination_type="u8" />
			<input>
				<port id="0" precision="FP32">
					<dim>1</dim>
					<dim>64</dim>
					<dim>256</dim>
					<dim>256</dim>
				</port>
			</input>
			<output>
				<port id="1" precision="U8" names="/layers.0/blocks.1/act3/Mul_1_output_0_quantized">
					<dim>1</dim>
					<dim>64</dim>
					<dim>256</dim>
					<dim>256</dim>
				</port>
			</output>
		</layer>
		<layer id="316" name="Convert_10688" type="Convert" version="opset1">
			<data destination_type="i32" />
			<input>
				<port id="0" precision="U8">
					<dim>1</dim>
					<dim>64</dim>
					<dim>256</dim>
					<dim>256</dim>
				</port>
			</input>
			<output>
				<port id="1" precision="I32">
					<dim>1</dim>
					<dim>64</dim>
					<dim>256</dim>
					<dim>256</dim>
				</port>
			</output>
		</layer>
		<layer id="317" name="Convert_10690" type="Convert" version="opset1">
			<data destination_type="i32" />
			<input>
				<port id="0" precision="U8" />
			</input>
			<output>
				<port id="1" precision="I32" />
			</output>
		</layer>
		<layer id="318" name="Subtract_10692" type="Subtract" version="opset1">
			<data auto_broadcast="numpy" />
			<input>
				<port id="0" precision="I32">
					<dim>1</dim>
					<dim>64</dim>
					<dim>256</dim>
					<dim>256</dim>
				</port>
				<port id="1" precision="I32" />
			</input>
			<output>
				<port id="2" precision="I32">
					<dim>1</dim>
					<dim>64</dim>
					<dim>256</dim>
					<dim>256</dim>
				</port>
			</output>
		</layer>
		<layer id="319" name="Subtract_10693" type="Const" version="opset1">
			<data element_type="i32" shape="128, 64, 1, 1" offset="296268" size="32768" />
			<output>
				<port id="0" precision="I32">
					<dim>128</dim>
					<dim>64</dim>
					<dim>1</dim>
					<dim>1</dim>
				</port>
			</output>
		</layer>
		<layer id="320" name="/layers.0/downsample/conv1/c/Conv_quant" type="Convolution" version="opset1">
			<data strides="1, 1" dilations="1, 1" pads_begin="0, 0" pads_end="0, 0" auto_pad="explicit" />
			<input>
				<port id="0" precision="I32">
					<dim>1</dim>
					<dim>64</dim>
					<dim>256</dim>
					<dim>256</dim>
				</port>
				<port id="1" precision="I32">
					<dim>128</dim>
					<dim>64</dim>
					<dim>1</dim>
					<dim>1</dim>
				</port>
			</input>
			<output>
				<port id="2" precision="I32" names="/layers.0/downsample/conv1/c/Conv_output_0_output_quantized">
					<dim>1</dim>
					<dim>128</dim>
					<dim>256</dim>
					<dim>256</dim>
				</port>
			</output>
		</layer>
		<layer id="321" name="/layers.0/downsample/conv1/c/Conv_output_0_output_quantized_cast" type="Convert" version="opset1">
			<data destination_type="f32" />
			<input>
				<port id="0" precision="I32">
					<dim>1</dim>
					<dim>128</dim>
					<dim>256</dim>
					<dim>256</dim>
				</port>
			</input>
			<output>
				<port id="1" precision="FP32" names="/layers.0/downsample/conv1/c/Conv_output_0_output_quantized_cast_output">
					<dim>1</dim>
					<dim>128</dim>
					<dim>256</dim>
					<dim>256</dim>
				</port>
			</output>
		</layer>
		<layer id="322" name="onnx::Conv_2472_scale" type="Const" version="opset1">
			<data element_type="f32" shape="" offset="329036" size="4" />
			<output>
				<port id="0" precision="FP32" names="onnx::Conv_2472_scale" />
			</output>
		</layer>
		<layer id="323" name="/layers.0/downsample/conv1/c/Conv_quant_scales_mul" type="Multiply" version="opset1">
			<data auto_broadcast="numpy" />
			<input>
				<port id="0" precision="FP32" />
				<port id="1" precision="FP32" />
			</input>
			<output>
				<port id="2" precision="FP32" names="/layers.0/downsample/conv1/c/Conv_quant_scales_mul:0" />
			</output>
		</layer>
		<layer id="324" name="/layers.0/downsample/conv1/c/Conv_quant_output_scale_mul" type="Multiply" version="opset1">
			<data auto_broadcast="numpy" />
			<input>
				<port id="0" precision="FP32">
					<dim>1</dim>
					<dim>128</dim>
					<dim>256</dim>
					<dim>256</dim>
				</port>
				<port id="1" precision="FP32" />
			</input>
			<output>
				<port id="2" precision="FP32" names="/layers.0/downsample/conv1/c/Conv_output_0quant_scaled_output">
					<dim>1</dim>
					<dim>128</dim>
					<dim>256</dim>
					<dim>256</dim>
				</port>
			</output>
		</layer>
		<layer id="325" name="/layers.0/downsample/conv1/c/Conv_output_0_bias_reshape_output" type="Const" version="opset1">
			<data element_type="f32" shape="1, 128, 1, 1" offset="329040" size="512" />
			<output>
				<port id="0" precision="FP32" names="/layers.0/downsample/conv1/c/Conv_output_0_bias_reshape_output">
					<dim>1</dim>
					<dim>128</dim>
					<dim>1</dim>
					<dim>1</dim>
				</port>
			</output>
		</layer>
		<layer id="326" name="/layers.0/downsample/conv1/c/Conv_output_0_bias_add" type="Add" version="opset1">
			<data auto_broadcast="numpy" />
			<input>
				<port id="0" precision="FP32">
					<dim>1</dim>
					<dim>128</dim>
					<dim>256</dim>
					<dim>256</dim>
				</port>
				<port id="1" precision="FP32">
					<dim>1</dim>
					<dim>128</dim>
					<dim>1</dim>
					<dim>1</dim>
				</port>
			</input>
			<output>
				<port id="2" precision="FP32" names="/layers.0/downsample/conv1/c/Conv_output_0">
					<dim>1</dim>
					<dim>128</dim>
					<dim>256</dim>
					<dim>256</dim>
				</port>
			</output>
		</layer>
		<layer id="327" name="/layers.0/downsample/act/Mul_1" type="Gelu" version="opset7">
			<data approximation_mode="ERF" />
			<input>
				<port id="0" precision="FP32">
					<dim>1</dim>
					<dim>128</dim>
					<dim>256</dim>
					<dim>256</dim>
				</port>
			</input>
			<output>
				<port id="1" precision="FP32" names="/layers.0/downsample/act/Mul_1_output_0">
					<dim>1</dim>
					<dim>128</dim>
					<dim>256</dim>
					<dim>256</dim>
				</port>
			</output>
		</layer>
		<layer id="328" name="Constant_31219" type="Const" version="opset1">
			<data element_type="f32" shape="1, 1, 1, 1" offset="2048" size="4" />
			<output>
				<port id="0" precision="FP32">
					<dim>1</dim>
					<dim>1</dim>
					<dim>1</dim>
					<dim>1</dim>
				</port>
			</output>
		</layer>
		<layer id="329" name="Multiply_10735" type="Multiply" version="opset1">
			<data auto_broadcast="numpy" />
			<input>
				<port id="0" precision="FP32">
					<dim>1</dim>
					<dim>128</dim>
					<dim>256</dim>
					<dim>256</dim>
				</port>
				<port id="1" precision="FP32">
					<dim>1</dim>
					<dim>1</dim>
					<dim>1</dim>
					<dim>1</dim>
				</port>
			</input>
			<output>
				<port id="2" precision="FP32">
					<dim>1</dim>
					<dim>128</dim>
					<dim>256</dim>
					<dim>256</dim>
				</port>
			</output>
		</layer>
		<layer id="330" name="Constant_10715" type="Const" version="opset1">
			<data element_type="f32" shape="" offset="2052" size="4" />
			<output>
				<port id="0" precision="FP32" />
			</output>
		</layer>
		<layer id="331" name="Range_10711" type="Const" version="opset1">
			<data element_type="i64" shape="4" offset="2056" size="32" />
			<output>
				<port id="0" precision="I64">
					<dim>4</dim>
				</port>
			</output>
		</layer>
		<layer id="332" name="ReduceMax_10713" type="ReduceMax" version="opset1">
			<data keep_dims="false" />
			<input>
				<port id="0" precision="FP32">
					<dim>1</dim>
					<dim>128</dim>
					<dim>256</dim>
					<dim>256</dim>
				</port>
				<port id="1" precision="I64">
					<dim>4</dim>
				</port>
			</input>
			<output>
				<port id="2" precision="FP32" />
			</output>
		</layer>
		<layer id="333" name="Maximum_10716" type="Maximum" version="opset1">
			<data auto_broadcast="numpy" />
			<input>
				<port id="0" precision="FP32" />
				<port id="1" precision="FP32" />
			</input>
			<output>
				<port id="2" precision="FP32" />
			</output>
		</layer>
		<layer id="334" name="Constant_10726" type="Const" version="opset1">
			<data element_type="f32" shape="" offset="2052" size="4" />
			<output>
				<port id="0" precision="FP32" />
			</output>
		</layer>
		<layer id="335" name="ReduceMin_10724" type="ReduceMin" version="opset1">
			<data keep_dims="false" />
			<input>
				<port id="0" precision="FP32">
					<dim>1</dim>
					<dim>128</dim>
					<dim>256</dim>
					<dim>256</dim>
				</port>
				<port id="1" precision="I64">
					<dim>4</dim>
				</port>
			</input>
			<output>
				<port id="2" precision="FP32" />
			</output>
		</layer>
		<layer id="336" name="Minimum_10727" type="Minimum" version="opset1">
			<data auto_broadcast="numpy" />
			<input>
				<port id="0" precision="FP32" />
				<port id="1" precision="FP32" />
			</input>
			<output>
				<port id="2" precision="FP32" />
			</output>
		</layer>
		<layer id="337" name="Subtract_10728" type="Subtract" version="opset1">
			<data auto_broadcast="numpy" />
			<input>
				<port id="0" precision="FP32" />
				<port id="1" precision="FP32" />
			</input>
			<output>
				<port id="2" precision="FP32" />
			</output>
		</layer>
		<layer id="338" name="Divide_10736" type="Divide" version="opset1">
			<data auto_broadcast="numpy" m_pythondiv="true" />
			<input>
				<port id="0" precision="FP32">
					<dim>1</dim>
					<dim>128</dim>
					<dim>256</dim>
					<dim>256</dim>
				</port>
				<port id="1" precision="FP32" />
			</input>
			<output>
				<port id="2" precision="FP32">
					<dim>1</dim>
					<dim>128</dim>
					<dim>256</dim>
					<dim>256</dim>
				</port>
			</output>
		</layer>
		<layer id="339" name="Round_10737" type="Round" version="opset5">
			<data mode="half_to_even" />
			<input>
				<port id="0" precision="FP32">
					<dim>1</dim>
					<dim>128</dim>
					<dim>256</dim>
					<dim>256</dim>
				</port>
			</input>
			<output>
				<port id="1" precision="FP32">
					<dim>1</dim>
					<dim>128</dim>
					<dim>256</dim>
					<dim>256</dim>
				</port>
			</output>
		</layer>
		<layer id="340" name="Constant_10703" type="Const" version="opset1">
			<data element_type="f32" shape="" offset="2052" size="4" />
			<output>
				<port id="0" precision="FP32" />
			</output>
		</layer>
		<layer id="341" name="Subtract_10730" type="Subtract" version="opset1">
			<data auto_broadcast="numpy" />
			<input>
				<port id="0" precision="FP32" />
				<port id="1" precision="FP32" />
			</input>
			<output>
				<port id="2" precision="FP32" />
			</output>
		</layer>
		<layer id="342" name="Constant_17335" type="Const" version="opset1">
			<data element_type="f32" shape="" offset="2088" size="4" />
			<output>
				<port id="0" precision="FP32" />
			</output>
		</layer>
		<layer id="343" name="/layers.0/downsample/act/Mul_1_output_0_QuantizeLinear_/layers.0/downsample/act/Mul_1_output_0_scale" type="Multiply" version="opset1">
			<data auto_broadcast="numpy" />
			<input>
				<port id="0" precision="FP32" />
				<port id="1" precision="FP32" />
			</input>
			<output>
				<port id="2" precision="FP32" names="/layers.0/downsample/act/Mul_1_output_0_scale" />
			</output>
		</layer>
		<layer id="344" name="Divide_10731" type="Divide" version="opset1">
			<data auto_broadcast="numpy" m_pythondiv="true" />
			<input>
				<port id="0" precision="FP32" />
				<port id="1" precision="FP32" />
			</input>
			<output>
				<port id="2" precision="FP32" />
			</output>
		</layer>
		<layer id="345" name="Round_10732" type="Round" version="opset5">
			<data mode="half_to_even" />
			<input>
				<port id="0" precision="FP32" />
			</input>
			<output>
				<port id="1" precision="FP32" />
			</output>
		</layer>
		<layer id="346" name="Clamp_10733" type="Clamp" version="opset1">
			<data min="0" max="255" />
			<input>
				<port id="0" precision="FP32" />
			</input>
			<output>
				<port id="1" precision="FP32" />
			</output>
		</layer>
		<layer id="347" name="/layers.0/downsample/act/Mul_1_output_0_QuantizeLinear_/layers.0/downsample/act/Mul_1_output_0_zero_point" type="Convert" version="opset1">
			<data destination_type="u8" />
			<input>
				<port id="0" precision="FP32" />
			</input>
			<output>
				<port id="1" precision="U8" names="/layers.0/downsample/act/Mul_1_output_0_zero_point" />
			</output>
		</layer>
		<layer id="348" name="Convert_10738" type="Convert" version="opset1">
			<data destination_type="f32" />
			<input>
				<port id="0" precision="U8" />
			</input>
			<output>
				<port id="1" precision="FP32" />
			</output>
		</layer>
		<layer id="349" name="Add_10739" type="Add" version="opset1">
			<data auto_broadcast="numpy" />
			<input>
				<port id="0" precision="FP32">
					<dim>1</dim>
					<dim>128</dim>
					<dim>256</dim>
					<dim>256</dim>
				</port>
				<port id="1" precision="FP32" />
			</input>
			<output>
				<port id="2" precision="FP32">
					<dim>1</dim>
					<dim>128</dim>
					<dim>256</dim>
					<dim>256</dim>
				</port>
			</output>
		</layer>
		<layer id="350" name="Clamp_10740" type="Clamp" version="opset1">
			<data min="0" max="255" />
			<input>
				<port id="0" precision="FP32">
					<dim>1</dim>
					<dim>128</dim>
					<dim>256</dim>
					<dim>256</dim>
				</port>
			</input>
			<output>
				<port id="1" precision="FP32">
					<dim>1</dim>
					<dim>128</dim>
					<dim>256</dim>
					<dim>256</dim>
				</port>
			</output>
		</layer>
		<layer id="351" name="/layers.0/downsample/act/Mul_1_output_0_QuantizeLinear_/layers.0/downsample/act/Mul_1_output_0_quantized" type="Convert" version="opset1">
			<data destination_type="u8" />
			<input>
				<port id="0" precision="FP32">
					<dim>1</dim>
					<dim>128</dim>
					<dim>256</dim>
					<dim>256</dim>
				</port>
			</input>
			<output>
				<port id="1" precision="U8" names="/layers.0/downsample/act/Mul_1_output_0_quantized">
					<dim>1</dim>
					<dim>128</dim>
					<dim>256</dim>
					<dim>256</dim>
				</port>
			</output>
		</layer>
		<layer id="352" name="Convert_10743" type="Convert" version="opset1">
			<data destination_type="i32" />
			<input>
				<port id="0" precision="U8">
					<dim>1</dim>
					<dim>128</dim>
					<dim>256</dim>
					<dim>256</dim>
				</port>
			</input>
			<output>
				<port id="1" precision="I32">
					<dim>1</dim>
					<dim>128</dim>
					<dim>256</dim>
					<dim>256</dim>
				</port>
			</output>
		</layer>
		<layer id="353" name="Convert_10745" type="Convert" version="opset1">
			<data destination_type="i32" />
			<input>
				<port id="0" precision="U8" />
			</input>
			<output>
				<port id="1" precision="I32" />
			</output>
		</layer>
		<layer id="354" name="Subtract_10747" type="Subtract" version="opset1">
			<data auto_broadcast="numpy" />
			<input>
				<port id="0" precision="I32">
					<dim>1</dim>
					<dim>128</dim>
					<dim>256</dim>
					<dim>256</dim>
				</port>
				<port id="1" precision="I32" />
			</input>
			<output>
				<port id="2" precision="I32">
					<dim>1</dim>
					<dim>128</dim>
					<dim>256</dim>
					<dim>256</dim>
				</port>
			</output>
		</layer>
		<layer id="355" name="Reshape_10756" type="Const" version="opset1">
			<data element_type="i32" shape="128, 1, 1, 3, 3" offset="329552" size="4608" />
			<output>
				<port id="0" precision="I32">
					<dim>128</dim>
					<dim>1</dim>
					<dim>1</dim>
					<dim>3</dim>
					<dim>3</dim>
				</port>
			</output>
		</layer>
		<layer id="356" name="/layers.0/downsample/conv2/c/Conv_quant" type="GroupConvolution" version="opset1">
			<data strides="2, 2" pads_begin="1, 1" pads_end="1, 1" dilations="1, 1" auto_pad="explicit" />
			<input>
				<port id="0" precision="I32">
					<dim>1</dim>
					<dim>128</dim>
					<dim>256</dim>
					<dim>256</dim>
				</port>
				<port id="1" precision="I32">
					<dim>128</dim>
					<dim>1</dim>
					<dim>1</dim>
					<dim>3</dim>
					<dim>3</dim>
				</port>
			</input>
			<output>
				<port id="2" precision="I32" names="/layers.0/downsample/conv2/c/Conv_output_0_output_quantized">
					<dim>1</dim>
					<dim>128</dim>
					<dim>128</dim>
					<dim>128</dim>
				</port>
			</output>
		</layer>
		<layer id="357" name="/layers.0/downsample/conv2/c/Conv_output_0_output_quantized_cast" type="Convert" version="opset1">
			<data destination_type="f32" />
			<input>
				<port id="0" precision="I32">
					<dim>1</dim>
					<dim>128</dim>
					<dim>128</dim>
					<dim>128</dim>
				</port>
			</input>
			<output>
				<port id="1" precision="FP32" names="/layers.0/downsample/conv2/c/Conv_output_0_output_quantized_cast_output">
					<dim>1</dim>
					<dim>128</dim>
					<dim>128</dim>
					<dim>128</dim>
				</port>
			</output>
		</layer>
		<layer id="358" name="onnx::Conv_2475_scale" type="Const" version="opset1">
			<data element_type="f32" shape="" offset="334160" size="4" />
			<output>
				<port id="0" precision="FP32" names="onnx::Conv_2475_scale" />
			</output>
		</layer>
		<layer id="359" name="/layers.0/downsample/conv2/c/Conv_quant_scales_mul" type="Multiply" version="opset1">
			<data auto_broadcast="numpy" />
			<input>
				<port id="0" precision="FP32" />
				<port id="1" precision="FP32" />
			</input>
			<output>
				<port id="2" precision="FP32" names="/layers.0/downsample/conv2/c/Conv_quant_scales_mul:0" />
			</output>
		</layer>
		<layer id="360" name="/layers.0/downsample/conv2/c/Conv_quant_output_scale_mul" type="Multiply" version="opset1">
			<data auto_broadcast="numpy" />
			<input>
				<port id="0" precision="FP32">
					<dim>1</dim>
					<dim>128</dim>
					<dim>128</dim>
					<dim>128</dim>
				</port>
				<port id="1" precision="FP32" />
			</input>
			<output>
				<port id="2" precision="FP32" names="/layers.0/downsample/conv2/c/Conv_output_0quant_scaled_output">
					<dim>1</dim>
					<dim>128</dim>
					<dim>128</dim>
					<dim>128</dim>
				</port>
			</output>
		</layer>
		<layer id="361" name="/layers.0/downsample/conv2/c/Conv_output_0_bias_reshape_output" type="Const" version="opset1">
			<data element_type="f32" shape="1, 128, 1, 1" offset="334164" size="512" />
			<output>
				<port id="0" precision="FP32" names="/layers.0/downsample/conv2/c/Conv_output_0_bias_reshape_output">
					<dim>1</dim>
					<dim>128</dim>
					<dim>1</dim>
					<dim>1</dim>
				</port>
			</output>
		</layer>
		<layer id="362" name="/layers.0/downsample/conv2/c/Conv_output_0_bias_add" type="Add" version="opset1">
			<data auto_broadcast="numpy" />
			<input>
				<port id="0" precision="FP32">
					<dim>1</dim>
					<dim>128</dim>
					<dim>128</dim>
					<dim>128</dim>
				</port>
				<port id="1" precision="FP32">
					<dim>1</dim>
					<dim>128</dim>
					<dim>1</dim>
					<dim>1</dim>
				</port>
			</input>
			<output>
				<port id="2" precision="FP32" names="/layers.0/downsample/conv2/c/Conv_output_0">
					<dim>1</dim>
					<dim>128</dim>
					<dim>128</dim>
					<dim>128</dim>
				</port>
			</output>
		</layer>
		<layer id="363" name="/layers.0/downsample/act_1/Mul_1" type="Gelu" version="opset7">
			<data approximation_mode="ERF" />
			<input>
				<port id="0" precision="FP32">
					<dim>1</dim>
					<dim>128</dim>
					<dim>128</dim>
					<dim>128</dim>
				</port>
			</input>
			<output>
				<port id="1" precision="FP32" names="/layers.0/downsample/act_1/Mul_1_output_0">
					<dim>1</dim>
					<dim>128</dim>
					<dim>128</dim>
					<dim>128</dim>
				</port>
			</output>
		</layer>
		<layer id="364" name="Constant_31220" type="Const" version="opset1">
			<data element_type="f32" shape="1, 1, 1, 1" offset="2048" size="4" />
			<output>
				<port id="0" precision="FP32">
					<dim>1</dim>
					<dim>1</dim>
					<dim>1</dim>
					<dim>1</dim>
				</port>
			</output>
		</layer>
		<layer id="365" name="Multiply_10836" type="Multiply" version="opset1">
			<data auto_broadcast="numpy" />
			<input>
				<port id="0" precision="FP32">
					<dim>1</dim>
					<dim>128</dim>
					<dim>128</dim>
					<dim>128</dim>
				</port>
				<port id="1" precision="FP32">
					<dim>1</dim>
					<dim>1</dim>
					<dim>1</dim>
					<dim>1</dim>
				</port>
			</input>
			<output>
				<port id="2" precision="FP32">
					<dim>1</dim>
					<dim>128</dim>
					<dim>128</dim>
					<dim>128</dim>
				</port>
			</output>
		</layer>
		<layer id="366" name="Constant_10816" type="Const" version="opset1">
			<data element_type="f32" shape="" offset="2052" size="4" />
			<output>
				<port id="0" precision="FP32" />
			</output>
		</layer>
		<layer id="367" name="Range_10812" type="Const" version="opset1">
			<data element_type="i64" shape="4" offset="2056" size="32" />
			<output>
				<port id="0" precision="I64">
					<dim>4</dim>
				</port>
			</output>
		</layer>
		<layer id="368" name="ReduceMax_10814" type="ReduceMax" version="opset1">
			<data keep_dims="false" />
			<input>
				<port id="0" precision="FP32">
					<dim>1</dim>
					<dim>128</dim>
					<dim>128</dim>
					<dim>128</dim>
				</port>
				<port id="1" precision="I64">
					<dim>4</dim>
				</port>
			</input>
			<output>
				<port id="2" precision="FP32" />
			</output>
		</layer>
		<layer id="369" name="Maximum_10817" type="Maximum" version="opset1">
			<data auto_broadcast="numpy" />
			<input>
				<port id="0" precision="FP32" />
				<port id="1" precision="FP32" />
			</input>
			<output>
				<port id="2" precision="FP32" />
			</output>
		</layer>
		<layer id="370" name="Constant_10827" type="Const" version="opset1">
			<data element_type="f32" shape="" offset="2052" size="4" />
			<output>
				<port id="0" precision="FP32" />
			</output>
		</layer>
		<layer id="371" name="ReduceMin_10825" type="ReduceMin" version="opset1">
			<data keep_dims="false" />
			<input>
				<port id="0" precision="FP32">
					<dim>1</dim>
					<dim>128</dim>
					<dim>128</dim>
					<dim>128</dim>
				</port>
				<port id="1" precision="I64">
					<dim>4</dim>
				</port>
			</input>
			<output>
				<port id="2" precision="FP32" />
			</output>
		</layer>
		<layer id="372" name="Minimum_10828" type="Minimum" version="opset1">
			<data auto_broadcast="numpy" />
			<input>
				<port id="0" precision="FP32" />
				<port id="1" precision="FP32" />
			</input>
			<output>
				<port id="2" precision="FP32" />
			</output>
		</layer>
		<layer id="373" name="Subtract_10829" type="Subtract" version="opset1">
			<data auto_broadcast="numpy" />
			<input>
				<port id="0" precision="FP32" />
				<port id="1" precision="FP32" />
			</input>
			<output>
				<port id="2" precision="FP32" />
			</output>
		</layer>
		<layer id="374" name="Divide_10837" type="Divide" version="opset1">
			<data auto_broadcast="numpy" m_pythondiv="true" />
			<input>
				<port id="0" precision="FP32">
					<dim>1</dim>
					<dim>128</dim>
					<dim>128</dim>
					<dim>128</dim>
				</port>
				<port id="1" precision="FP32" />
			</input>
			<output>
				<port id="2" precision="FP32">
					<dim>1</dim>
					<dim>128</dim>
					<dim>128</dim>
					<dim>128</dim>
				</port>
			</output>
		</layer>
		<layer id="375" name="Round_10838" type="Round" version="opset5">
			<data mode="half_to_even" />
			<input>
				<port id="0" precision="FP32">
					<dim>1</dim>
					<dim>128</dim>
					<dim>128</dim>
					<dim>128</dim>
				</port>
			</input>
			<output>
				<port id="1" precision="FP32">
					<dim>1</dim>
					<dim>128</dim>
					<dim>128</dim>
					<dim>128</dim>
				</port>
			</output>
		</layer>
		<layer id="376" name="Constant_10804" type="Const" version="opset1">
			<data element_type="f32" shape="" offset="2052" size="4" />
			<output>
				<port id="0" precision="FP32" />
			</output>
		</layer>
		<layer id="377" name="Subtract_10831" type="Subtract" version="opset1">
			<data auto_broadcast="numpy" />
			<input>
				<port id="0" precision="FP32" />
				<port id="1" precision="FP32" />
			</input>
			<output>
				<port id="2" precision="FP32" />
			</output>
		</layer>
		<layer id="378" name="Constant_17343" type="Const" version="opset1">
			<data element_type="f32" shape="" offset="2088" size="4" />
			<output>
				<port id="0" precision="FP32" />
			</output>
		</layer>
		<layer id="379" name="/layers.0/downsample/act_1/Mul_1_output_0_QuantizeLinear_/layers.0/downsample/act_1/Mul_1_output_0_scale" type="Multiply" version="opset1">
			<data auto_broadcast="numpy" />
			<input>
				<port id="0" precision="FP32" />
				<port id="1" precision="FP32" />
			</input>
			<output>
				<port id="2" precision="FP32" names="/layers.0/downsample/act_1/Mul_1_output_0_scale" />
			</output>
		</layer>
		<layer id="380" name="Divide_10832" type="Divide" version="opset1">
			<data auto_broadcast="numpy" m_pythondiv="true" />
			<input>
				<port id="0" precision="FP32" />
				<port id="1" precision="FP32" />
			</input>
			<output>
				<port id="2" precision="FP32" />
			</output>
		</layer>
		<layer id="381" name="Round_10833" type="Round" version="opset5">
			<data mode="half_to_even" />
			<input>
				<port id="0" precision="FP32" />
			</input>
			<output>
				<port id="1" precision="FP32" />
			</output>
		</layer>
		<layer id="382" name="Clamp_10834" type="Clamp" version="opset1">
			<data min="0" max="255" />
			<input>
				<port id="0" precision="FP32" />
			</input>
			<output>
				<port id="1" precision="FP32" />
			</output>
		</layer>
		<layer id="383" name="/layers.0/downsample/act_1/Mul_1_output_0_QuantizeLinear_/layers.0/downsample/act_1/Mul_1_output_0_zero_point" type="Convert" version="opset1">
			<data destination_type="u8" />
			<input>
				<port id="0" precision="FP32" />
			</input>
			<output>
				<port id="1" precision="U8" names="/layers.0/downsample/act_1/Mul_1_output_0_zero_point" />
			</output>
		</layer>
		<layer id="384" name="Convert_10839" type="Convert" version="opset1">
			<data destination_type="f32" />
			<input>
				<port id="0" precision="U8" />
			</input>
			<output>
				<port id="1" precision="FP32" />
			</output>
		</layer>
		<layer id="385" name="Add_10840" type="Add" version="opset1">
			<data auto_broadcast="numpy" />
			<input>
				<port id="0" precision="FP32">
					<dim>1</dim>
					<dim>128</dim>
					<dim>128</dim>
					<dim>128</dim>
				</port>
				<port id="1" precision="FP32" />
			</input>
			<output>
				<port id="2" precision="FP32">
					<dim>1</dim>
					<dim>128</dim>
					<dim>128</dim>
					<dim>128</dim>
				</port>
			</output>
		</layer>
		<layer id="386" name="Clamp_10841" type="Clamp" version="opset1">
			<data min="0" max="255" />
			<input>
				<port id="0" precision="FP32">
					<dim>1</dim>
					<dim>128</dim>
					<dim>128</dim>
					<dim>128</dim>
				</port>
			</input>
			<output>
				<port id="1" precision="FP32">
					<dim>1</dim>
					<dim>128</dim>
					<dim>128</dim>
					<dim>128</dim>
				</port>
			</output>
		</layer>
		<layer id="387" name="/layers.0/downsample/act_1/Mul_1_output_0_QuantizeLinear_/layers.0/downsample/act_1/Mul_1_output_0_quantized" type="Convert" version="opset1">
			<data destination_type="u8" />
			<input>
				<port id="0" precision="FP32">
					<dim>1</dim>
					<dim>128</dim>
					<dim>128</dim>
					<dim>128</dim>
				</port>
			</input>
			<output>
				<port id="1" precision="U8" names="/layers.0/downsample/act_1/Mul_1_output_0_quantized">
					<dim>1</dim>
					<dim>128</dim>
					<dim>128</dim>
					<dim>128</dim>
				</port>
			</output>
		</layer>
		<layer id="388" name="Convert_10844" type="Convert" version="opset1">
			<data destination_type="i32" />
			<input>
				<port id="0" precision="U8">
					<dim>1</dim>
					<dim>128</dim>
					<dim>128</dim>
					<dim>128</dim>
				</port>
			</input>
			<output>
				<port id="1" precision="I32">
					<dim>1</dim>
					<dim>128</dim>
					<dim>128</dim>
					<dim>128</dim>
				</port>
			</output>
		</layer>
		<layer id="389" name="Convert_10846" type="Convert" version="opset1">
			<data destination_type="i32" />
			<input>
				<port id="0" precision="U8" />
			</input>
			<output>
				<port id="1" precision="I32" />
			</output>
		</layer>
		<layer id="390" name="Subtract_10848" type="Subtract" version="opset1">
			<data auto_broadcast="numpy" />
			<input>
				<port id="0" precision="I32">
					<dim>1</dim>
					<dim>128</dim>
					<dim>128</dim>
					<dim>128</dim>
				</port>
				<port id="1" precision="I32" />
			</input>
			<output>
				<port id="2" precision="I32">
					<dim>1</dim>
					<dim>128</dim>
					<dim>128</dim>
					<dim>128</dim>
				</port>
			</output>
		</layer>
		<layer id="391" name="Subtract_10849" type="Const" version="opset1">
			<data element_type="i32" shape="128, 128, 1, 1" offset="334676" size="65536" />
			<output>
				<port id="0" precision="I32">
					<dim>128</dim>
					<dim>128</dim>
					<dim>1</dim>
					<dim>1</dim>
				</port>
			</output>
		</layer>
		<layer id="392" name="/layers.0/downsample/conv3/c/Conv_quant" type="Convolution" version="opset1">
			<data strides="1, 1" dilations="1, 1" pads_begin="0, 0" pads_end="0, 0" auto_pad="explicit" />
			<input>
				<port id="0" precision="I32">
					<dim>1</dim>
					<dim>128</dim>
					<dim>128</dim>
					<dim>128</dim>
				</port>
				<port id="1" precision="I32">
					<dim>128</dim>
					<dim>128</dim>
					<dim>1</dim>
					<dim>1</dim>
				</port>
			</input>
			<output>
				<port id="2" precision="I32" names="/layers.0/downsample/conv3/c/Conv_output_0_output_quantized">
					<dim>1</dim>
					<dim>128</dim>
					<dim>128</dim>
					<dim>128</dim>
				</port>
			</output>
		</layer>
		<layer id="393" name="/layers.0/downsample/conv3/c/Conv_output_0_output_quantized_cast" type="Convert" version="opset1">
			<data destination_type="f32" />
			<input>
				<port id="0" precision="I32">
					<dim>1</dim>
					<dim>128</dim>
					<dim>128</dim>
					<dim>128</dim>
				</port>
			</input>
			<output>
				<port id="1" precision="FP32" names="/layers.0/downsample/conv3/c/Conv_output_0_output_quantized_cast_output">
					<dim>1</dim>
					<dim>128</dim>
					<dim>128</dim>
					<dim>128</dim>
				</port>
			</output>
		</layer>
		<layer id="394" name="onnx::Conv_2478_scale" type="Const" version="opset1">
			<data element_type="f32" shape="" offset="400212" size="4" />
			<output>
				<port id="0" precision="FP32" names="onnx::Conv_2478_scale" />
			</output>
		</layer>
		<layer id="395" name="/layers.0/downsample/conv3/c/Conv_quant_scales_mul" type="Multiply" version="opset1">
			<data auto_broadcast="numpy" />
			<input>
				<port id="0" precision="FP32" />
				<port id="1" precision="FP32" />
			</input>
			<output>
				<port id="2" precision="FP32" names="/layers.0/downsample/conv3/c/Conv_quant_scales_mul:0" />
			</output>
		</layer>
		<layer id="396" name="/layers.0/downsample/conv3/c/Conv_quant_output_scale_mul" type="Multiply" version="opset1">
			<data auto_broadcast="numpy" />
			<input>
				<port id="0" precision="FP32">
					<dim>1</dim>
					<dim>128</dim>
					<dim>128</dim>
					<dim>128</dim>
				</port>
				<port id="1" precision="FP32" />
			</input>
			<output>
				<port id="2" precision="FP32" names="/layers.0/downsample/conv3/c/Conv_output_0quant_scaled_output">
					<dim>1</dim>
					<dim>128</dim>
					<dim>128</dim>
					<dim>128</dim>
				</port>
			</output>
		</layer>
		<layer id="397" name="/layers.0/downsample/conv3/c/Conv_output_0_bias_reshape_output" type="Const" version="opset1">
			<data element_type="f32" shape="1, 128, 1, 1" offset="400216" size="512" />
			<output>
				<port id="0" precision="FP32" names="/layers.0/downsample/conv3/c/Conv_output_0_bias_reshape_output">
					<dim>1</dim>
					<dim>128</dim>
					<dim>1</dim>
					<dim>1</dim>
				</port>
			</output>
		</layer>
		<layer id="398" name="/layers.0/downsample/conv3/c/Conv_output_0_bias_add" type="Add" version="opset1">
			<data auto_broadcast="numpy" />
			<input>
				<port id="0" precision="FP32">
					<dim>1</dim>
					<dim>128</dim>
					<dim>128</dim>
					<dim>128</dim>
				</port>
				<port id="1" precision="FP32">
					<dim>1</dim>
					<dim>128</dim>
					<dim>1</dim>
					<dim>1</dim>
				</port>
			</input>
			<output>
				<port id="2" precision="FP32" names="/layers.0/downsample/conv3/c/Conv_output_0">
					<dim>1</dim>
					<dim>128</dim>
					<dim>128</dim>
					<dim>128</dim>
				</port>
			</output>
		</layer>
		<layer id="399" name="_v_1961" type="Const" version="opset1">
			<data element_type="i64" shape="3" offset="400728" size="24" />
			<output>
				<port id="0" precision="I64" names="_v_1961">
					<dim>3</dim>
				</port>
			</output>
		</layer>
		<layer id="400" name="/layers.0/downsample/Reshape" type="Reshape" version="opset1">
			<data special_zero="true" />
			<input>
				<port id="0" precision="FP32">
					<dim>1</dim>
					<dim>128</dim>
					<dim>128</dim>
					<dim>128</dim>
				</port>
				<port id="1" precision="I64">
					<dim>3</dim>
				</port>
			</input>
			<output>
				<port id="2" precision="FP32" names="/layers.0/downsample/Reshape_output_0">
					<dim>1</dim>
					<dim>128</dim>
					<dim>16384</dim>
				</port>
			</output>
		</layer>
		<layer id="401" name="Constant_10855" type="Const" version="opset1">
			<data element_type="i64" shape="3" offset="400752" size="24" />
			<output>
				<port id="0" precision="I64">
					<dim>3</dim>
				</port>
			</output>
		</layer>
		<layer id="402" name="/layers.0/downsample/Transpose" type="Transpose" version="opset1">
			<input>
				<port id="0" precision="FP32">
					<dim>1</dim>
					<dim>128</dim>
					<dim>16384</dim>
				</port>
				<port id="1" precision="I64">
					<dim>3</dim>
				</port>
			</input>
			<output>
				<port id="2" precision="FP32" names="/layers.0/downsample/Transpose_output_0">
					<dim>1</dim>
					<dim>16384</dim>
					<dim>128</dim>
				</port>
			</output>
		</layer>
		<layer id="403" name="Constant_31228" type="Const" version="opset1">
			<data element_type="f32" shape="1, 1, 128" offset="400776" size="512" />
			<output>
				<port id="0" precision="FP32">
					<dim>1</dim>
					<dim>1</dim>
					<dim>128</dim>
				</port>
			</output>
		</layer>
		<layer id="404" name="Constant_31224" type="Const" version="opset1">
			<data element_type="f32" shape="1, 1, 384" offset="401288" size="1536" />
			<output>
				<port id="0" precision="FP32">
					<dim>1</dim>
					<dim>1</dim>
					<dim>384</dim>
				</port>
			</output>
		</layer>
		<layer id="405" name="/layers.1/blocks.0/Constant_output_0" type="Const" version="opset1">
			<data element_type="i64" shape="4" offset="402824" size="32" />
			<output>
				<port id="0" precision="I64" names="/layers.1/blocks.0/Constant_output_0">
					<dim>4</dim>
				</port>
			</output>
		</layer>
		<layer id="406" name="/layers.1/blocks.0/Reshape" type="Reshape" version="opset1">
			<data special_zero="true" />
			<input>
				<port id="0" precision="FP32">
					<dim>1</dim>
					<dim>16384</dim>
					<dim>128</dim>
				</port>
				<port id="1" precision="I64">
					<dim>4</dim>
				</port>
			</input>
			<output>
				<port id="2" precision="FP32" names="/layers.1/blocks.0/Reshape_output_0">
					<dim>1</dim>
					<dim>128</dim>
					<dim>128</dim>
					<dim>128</dim>
				</port>
			</output>
		</layer>
		<layer id="407" name="Constant_10860" type="Const" version="opset1">
			<data element_type="i64" shape="4" offset="402856" size="32" />
			<output>
				<port id="0" precision="I64">
					<dim>4</dim>
				</port>
			</output>
		</layer>
		<layer id="408" name="Constant_10861" type="Const" version="opset1">
			<data element_type="i64" shape="4" offset="402888" size="32" />
			<output>
				<port id="0" precision="I64">
					<dim>4</dim>
				</port>
			</output>
		</layer>
		<layer id="409" name="Constant_10859" type="Const" version="opset1">
			<data element_type="f32" shape="" offset="2052" size="4" />
			<output>
				<port id="0" precision="FP32" />
			</output>
		</layer>
		<layer id="410" name="/layers.1/blocks.0/Pad" type="Pad" version="opset12">
			<data pad_mode="constant" />
			<input>
				<port id="0" precision="FP32">
					<dim>1</dim>
					<dim>128</dim>
					<dim>128</dim>
…
		<edge from-layer="2454" from-port="0" to-layer="2455" to-port="1" />
		<edge from-layer="2455" from-port="2" to-layer="2456" to-port="0" />
		<edge from-layer="2456" from-port="1" to-layer="2464" to-port="0" />
		<edge from-layer="2456" from-port="1" to-layer="2461" to-port="0" />
		<edge from-layer="2456" from-port="1" to-layer="2458" to-port="0" />
		<edge from-layer="2457" from-port="0" to-layer="2458" to-port="1" />
		<edge from-layer="2458" from-port="2" to-layer="2467" to-port="0" />
		<edge from-layer="2459" from-port="0" to-layer="2462" to-port="0" />
		<edge from-layer="2460" from-port="0" to-layer="2461" to-port="1" />
		<edge from-layer="2460" from-port="0" to-layer="2464" to-port="1" />
		<edge from-layer="2461" from-port="2" to-layer="2462" to-port="1" />
		<edge from-layer="2462" from-port="2" to-layer="2466" to-port="0" />
		<edge from-layer="2463" from-port="0" to-layer="2465" to-port="0" />
		<edge from-layer="2464" from-port="2" to-layer="2465" to-port="1" />
		<edge from-layer="2465" from-port="2" to-layer="2470" to-port="1" />
		<edge from-layer="2465" from-port="2" to-layer="2466" to-port="1" />
		<edge from-layer="2466" from-port="2" to-layer="2472" to-port="0" />
		<edge from-layer="2466" from-port="2" to-layer="2467" to-port="1" />
		<edge from-layer="2467" from-port="2" to-layer="2468" to-port="0" />
		<edge from-layer="2468" from-port="1" to-layer="2478" to-port="0" />
		<edge from-layer="2469" from-port="0" to-layer="2470" to-port="0" />
		<edge from-layer="2470" from-port="2" to-layer="2473" to-port="0" />
		<edge from-layer="2471" from-port="0" to-layer="2472" to-port="1" />
		<edge from-layer="2472" from-port="2" to-layer="2473" to-port="1" />
		<edge from-layer="2472" from-port="2" to-layer="2488" to-port="0" />
		<edge from-layer="2473" from-port="2" to-layer="2474" to-port="0" />
		<edge from-layer="2474" from-port="1" to-layer="2475" to-port="0" />
		<edge from-layer="2475" from-port="1" to-layer="2476" to-port="0" />
		<edge from-layer="2476" from-port="1" to-layer="2482" to-port="0" />
		<edge from-layer="2476" from-port="1" to-layer="2477" to-port="0" />
		<edge from-layer="2477" from-port="1" to-layer="2478" to-port="1" />
		<edge from-layer="2478" from-port="2" to-layer="2479" to-port="0" />
		<edge from-layer="2479" from-port="1" to-layer="2480" to-port="0" />
		<edge from-layer="2480" from-port="1" to-layer="2481" to-port="0" />
		<edge from-layer="2481" from-port="1" to-layer="2483" to-port="0" />
		<edge from-layer="2482" from-port="1" to-layer="2483" to-port="1" />
		<edge from-layer="2483" from-port="2" to-layer="2485" to-port="0" />
		<edge from-layer="2484" from-port="0" to-layer="2485" to-port="1" />
		<edge from-layer="2485" from-port="2" to-layer="2486" to-port="0" />
		<edge from-layer="2486" from-port="1" to-layer="2489" to-port="0" />
		<edge from-layer="2487" from-port="0" to-layer="2488" to-port="1" />
		<edge from-layer="2488" from-port="2" to-layer="2489" to-port="1" />
		<edge from-layer="2489" from-port="2" to-layer="2491" to-port="0" />
		<edge from-layer="2490" from-port="0" to-layer="2491" to-port="1" />
		<edge from-layer="2491" from-port="2" to-layer="2493" to-port="0" />
		<edge from-layer="2492" from-port="0" to-layer="2493" to-port="1" />
		<edge from-layer="2493" from-port="2" to-layer="2495" to-port="0" />
		<edge from-layer="2494" from-port="0" to-layer="2495" to-port="1" />
		<edge from-layer="2495" from-port="2" to-layer="2499" to-port="0" />
		<edge from-layer="2495" from-port="2" to-layer="2613" to-port="0" />
		<edge from-layer="2496" from-port="0" to-layer="2603" to-port="0" />
		<edge from-layer="2497" from-port="0" to-layer="2549" to-port="0" />
		<edge from-layer="2498" from-port="0" to-layer="2499" to-port="1" />
		<edge from-layer="2498" from-port="0" to-layer="2965" to-port="1" />
		<edge from-layer="2498" from-port="0" to-layer="2737" to-port="1" />
		<edge from-layer="2499" from-port="2" to-layer="2503" to-port="0" />
		<edge from-layer="2500" from-port="0" to-layer="2503" to-port="1" />
		<edge from-layer="2501" from-port="0" to-layer="2503" to-port="2" />
		<edge from-layer="2502" from-port="0" to-layer="2503" to-port="3" />
		<edge from-layer="2503" from-port="4" to-layer="2505" to-port="0" />
		<edge from-layer="2504" from-port="0" to-layer="2742" to-port="1" />
		<edge from-layer="2504" from-port="0" to-layer="2505" to-port="1" />
		<edge from-layer="2505" from-port="2" to-layer="2507" to-port="0" />
		<edge from-layer="2506" from-port="0" to-layer="2507" to-port="1" />
		<edge from-layer="2507" from-port="2" to-layer="2509" to-port="0" />
		<edge from-layer="2508" from-port="0" to-layer="2569" to-port="1" />
		<edge from-layer="2508" from-port="0" to-layer="2509" to-port="1" />
		<edge from-layer="2508" from-port="0" to-layer="2745" to-port="1" />
		<edge from-layer="2508" from-port="0" to-layer="2804" to-port="1" />
		<edge from-layer="2509" from-port="2" to-layer="2511" to-port="0" />
		<edge from-layer="2510" from-port="0" to-layer="2511" to-port="1" />
		<edge from-layer="2511" from-port="2" to-layer="2513" to-port="0" />
		<edge from-layer="2512" from-port="0" to-layer="2513" to-port="1" />
		<edge from-layer="2513" from-port="2" to-layer="2515" to-port="0" />
		<edge from-layer="2514" from-port="0" to-layer="2515" to-port="1" />
		<edge from-layer="2515" from-port="2" to-layer="2523" to-port="0" />
		<edge from-layer="2515" from-port="2" to-layer="2517" to-port="0" />
		<edge from-layer="2515" from-port="2" to-layer="2520" to-port="0" />
		<edge from-layer="2516" from-port="0" to-layer="2517" to-port="1" />
		<edge from-layer="2517" from-port="2" to-layer="2526" to-port="0" />
		<edge from-layer="2518" from-port="0" to-layer="2521" to-port="0" />
		<edge from-layer="2519" from-port="0" to-layer="2520" to-port="1" />
		<edge from-layer="2519" from-port="0" to-layer="2523" to-port="1" />
		<edge from-layer="2520" from-port="2" to-layer="2521" to-port="1" />
		<edge from-layer="2521" from-port="2" to-layer="2525" to-port="0" />
		<edge from-layer="2522" from-port="0" to-layer="2524" to-port="0" />
		<edge from-layer="2523" from-port="2" to-layer="2524" to-port="1" />
		<edge from-layer="2524" from-port="2" to-layer="2529" to-port="1" />
		<edge from-layer="2524" from-port="2" to-layer="2525" to-port="1" />
		<edge from-layer="2525" from-port="2" to-layer="2526" to-port="1" />
		<edge from-layer="2525" from-port="2" to-layer="2531" to-port="0" />
		<edge from-layer="2526" from-port="2" to-layer="2527" to-port="0" />
		<edge from-layer="2527" from-port="1" to-layer="2537" to-port="0" />
		<edge from-layer="2528" from-port="0" to-layer="2529" to-port="0" />
		<edge from-layer="2529" from-port="2" to-layer="2532" to-port="0" />
		<edge from-layer="2530" from-port="0" to-layer="2531" to-port="1" />
		<edge from-layer="2531" from-port="2" to-layer="2547" to-port="0" />
		<edge from-layer="2531" from-port="2" to-layer="2532" to-port="1" />
		<edge from-layer="2532" from-port="2" to-layer="2533" to-port="0" />
		<edge from-layer="2533" from-port="1" to-layer="2534" to-port="0" />
		<edge from-layer="2534" from-port="1" to-layer="2535" to-port="0" />
		<edge from-layer="2535" from-port="1" to-layer="2541" to-port="0" />
		<edge from-layer="2535" from-port="1" to-layer="2536" to-port="0" />
		<edge from-layer="2536" from-port="1" to-layer="2537" to-port="1" />
		<edge from-layer="2537" from-port="2" to-layer="2538" to-port="0" />
		<edge from-layer="2538" from-port="1" to-layer="2539" to-port="0" />
		<edge from-layer="2539" from-port="1" to-layer="2540" to-port="0" />
		<edge from-layer="2540" from-port="1" to-layer="2542" to-port="0" />
		<edge from-layer="2541" from-port="1" to-layer="2542" to-port="1" />
		<edge from-layer="2542" from-port="2" to-layer="2544" to-port="0" />
		<edge from-layer="2543" from-port="0" to-layer="2544" to-port="1" />
		<edge from-layer="2544" from-port="2" to-layer="2545" to-port="0" />
		<edge from-layer="2545" from-port="1" to-layer="2548" to-port="0" />
		<edge from-layer="2546" from-port="0" to-layer="2547" to-port="1" />
		<edge from-layer="2547" from-port="2" to-layer="2548" to-port="1" />
		<edge from-layer="2548" from-port="2" to-layer="2549" to-port="1" />
		<edge from-layer="2549" from-port="2" to-layer="2551" to-port="0" />
		<edge from-layer="2550" from-port="0" to-layer="2551" to-port="1" />
		<edge from-layer="2550" from-port="0" to-layer="2786" to-port="1" />
		<edge from-layer="2551" from-port="2" to-layer="2553" to-port="0" />
		<edge from-layer="2552" from-port="0" to-layer="2553" to-port="1" />
		<edge from-layer="2553" from-port="3" to-layer="2555" to-port="0" />
		<edge from-layer="2553" from-port="4" to-layer="2557" to-port="0" />
		<edge from-layer="2553" from-port="5" to-layer="2565" to-port="0" />
		<edge from-layer="2554" from-port="0" to-layer="2555" to-port="1" />
		<edge from-layer="2555" from-port="2" to-layer="2558" to-port="0" />
		<edge from-layer="2556" from-port="0" to-layer="2557" to-port="1" />
		<edge from-layer="2557" from-port="2" to-layer="2558" to-port="1" />
		<edge from-layer="2558" from-port="2" to-layer="2560" to-port="0" />
		<edge from-layer="2559" from-port="0" to-layer="2560" to-port="1" />
		<edge from-layer="2560" from-port="2" to-layer="2562" to-port="0" />
		<edge from-layer="2561" from-port="0" to-layer="2562" to-port="1" />
		<edge from-layer="2562" from-port="2" to-layer="2563" to-port="0" />
		<edge from-layer="2563" from-port="1" to-layer="2566" to-port="0" />
		<edge from-layer="2564" from-port="0" to-layer="2565" to-port="1" />
		<edge from-layer="2565" from-port="2" to-layer="2566" to-port="1" />
		<edge from-layer="2566" from-port="2" to-layer="2568" to-port="0" />
		<edge from-layer="2567" from-port="0" to-layer="2568" to-port="1" />
		<edge from-layer="2568" from-port="2" to-layer="2569" to-port="0" />
		<edge from-layer="2569" from-port="2" to-layer="2571" to-port="0" />
		<edge from-layer="2569" from-port="2" to-layer="2577" to-port="0" />
		<edge from-layer="2569" from-port="2" to-layer="2574" to-port="0" />
		<edge from-layer="2570" from-port="0" to-layer="2571" to-port="1" />
		<edge from-layer="2571" from-port="2" to-layer="2580" to-port="0" />
		<edge from-layer="2572" from-port="0" to-layer="2575" to-port="0" />
		<edge from-layer="2573" from-port="0" to-layer="2577" to-port="1" />
		<edge from-layer="2573" from-port="0" to-layer="2574" to-port="1" />
		<edge from-layer="2574" from-port="2" to-layer="2575" to-port="1" />
		<edge from-layer="2575" from-port="2" to-layer="2579" to-port="0" />
		<edge from-layer="2576" from-port="0" to-layer="2578" to-port="0" />
		<edge from-layer="2577" from-port="2" to-layer="2578" to-port="1" />
		<edge from-layer="2578" from-port="2" to-layer="2579" to-port="1" />
		<edge from-layer="2578" from-port="2" to-layer="2583" to-port="1" />
		<edge from-layer="2579" from-port="2" to-layer="2580" to-port="1" />
		<edge from-layer="2579" from-port="2" to-layer="2585" to-port="0" />
		<edge from-layer="2580" from-port="2" to-layer="2581" to-port="0" />
		<edge from-layer="2581" from-port="1" to-layer="2591" to-port="0" />
		<edge from-layer="2582" from-port="0" to-layer="2583" to-port="0" />
		<edge from-layer="2583" from-port="2" to-layer="2586" to-port="0" />
		<edge from-layer="2584" from-port="0" to-layer="2585" to-port="1" />
		<edge from-layer="2585" from-port="2" to-layer="2601" to-port="0" />
		<edge from-layer="2585" from-port="2" to-layer="2586" to-port="1" />
		<edge from-layer="2586" from-port="2" to-layer="2587" to-port="0" />
		<edge from-layer="2587" from-port="1" to-layer="2588" to-port="0" />
		<edge from-layer="2588" from-port="1" to-layer="2589" to-port="0" />
		<edge from-layer="2589" from-port="1" to-layer="2590" to-port="0" />
		<edge from-layer="2589" from-port="1" to-layer="2595" to-port="0" />
		<edge from-layer="2590" from-port="1" to-layer="2591" to-port="1" />
		<edge from-layer="2591" from-port="2" to-layer="2592" to-port="0" />
		<edge from-layer="2592" from-port="1" to-layer="2593" to-port="0" />
		<edge from-layer="2593" from-port="1" to-layer="2594" to-port="0" />
		<edge from-layer="2594" from-port="1" to-layer="2596" to-port="0" />
		<edge from-layer="2595" from-port="1" to-layer="2596" to-port="1" />
		<edge from-layer="2596" from-port="2" to-layer="2598" to-port="0" />
		<edge from-layer="2597" from-port="0" to-layer="2598" to-port="1" />
		<edge from-layer="2598" from-port="2" to-layer="2599" to-port="0" />
		<edge from-layer="2599" from-port="1" to-layer="2602" to-port="0" />
		<edge from-layer="2600" from-port="0" to-layer="2601" to-port="1" />
		<edge from-layer="2601" from-port="2" to-layer="2602" to-port="1" />
		<edge from-layer="2602" from-port="2" to-layer="2603" to-port="1" />
		<edge from-layer="2603" from-port="2" to-layer="2605" to-port="0" />
		<edge from-layer="2604" from-port="0" to-layer="2839" to-port="1" />
		<edge from-layer="2604" from-port="0" to-layer="2605" to-port="1" />
		<edge from-layer="2605" from-port="2" to-layer="2607" to-port="0" />
		<edge from-layer="2606" from-port="0" to-layer="2607" to-port="1" />
		<edge from-layer="2607" from-port="2" to-layer="2609" to-port="0" />
		<edge from-layer="2608" from-port="0" to-layer="2609" to-port="1" />
		<edge from-layer="2608" from-port="0" to-layer="2842" to-port="1" />
		<edge from-layer="2609" from-port="2" to-layer="2610" to-port="0" />
		<edge from-layer="2610" from-port="5" to-layer="2612" to-port="0" />
		<edge from-layer="2611" from-port="0" to-layer="2612" to-port="1" />
		<edge from-layer="2611" from-port="0" to-layer="2844" to-port="1" />
		<edge from-layer="2612" from-port="2" to-layer="2613" to-port="1" />
		<edge from-layer="2613" from-port="2" to-layer="2615" to-port="0" />
		<edge from-layer="2614" from-port="0" to-layer="2615" to-port="1" />
		<edge from-layer="2615" from-port="2" to-layer="2617" to-port="0" />
		<edge from-layer="2616" from-port="0" to-layer="2617" to-port="1" />
		<edge from-layer="2616" from-port="0" to-layer="2848" to-port="1" />
		<edge from-layer="2617" from-port="2" to-layer="2622" to-port="0" />
		<edge from-layer="2617" from-port="2" to-layer="2625" to-port="0" />
		<edge from-layer="2617" from-port="2" to-layer="2619" to-port="0" />
		<edge from-layer="2618" from-port="0" to-layer="2619" to-port="1" />
		<edge from-layer="2619" from-port="2" to-layer="2628" to-port="0" />
		<edge from-layer="2620" from-port="0" to-layer="2623" to-port="0" />
		<edge from-layer="2621" from-port="0" to-layer="2622" to-port="1" />
		<edge from-layer="2621" from-port="0" to-layer="2625" to-port="1" />
		<edge from-layer="2622" from-port="2" to-layer="2623" to-port="1" />
		<edge from-layer="2623" from-port="2" to-layer="2627" to-port="0" />
		<edge from-layer="2624" from-port="0" to-layer="2626" to-port="0" />
		<edge from-layer="2625" from-port="2" to-layer="2626" to-port="1" />
		<edge from-layer="2626" from-port="2" to-layer="2627" to-port="1" />
		<edge from-layer="2626" from-port="2" to-layer="2631" to-port="1" />
		<edge from-layer="2627" from-port="2" to-layer="2628" to-port="1" />
		<edge from-layer="2627" from-port="2" to-layer="2633" to-port="0" />
		<edge from-layer="2628" from-port="2" to-layer="2629" to-port="0" />
		<edge from-layer="2629" from-port="1" to-layer="2639" to-port="0" />
		<edge from-layer="2630" from-port="0" to-layer="2631" to-port="0" />
		<edge from-layer="2631" from-port="2" to-layer="2634" to-port="0" />
		<edge from-layer="2632" from-port="0" to-layer="2633" to-port="1" />
		<edge from-layer="2633" from-port="2" to-layer="2649" to-port="0" />
		<edge from-layer="2633" from-port="2" to-layer="2634" to-port="1" />
		<edge from-layer="2634" from-port="2" to-layer="2635" to-port="0" />
		<edge from-layer="2635" from-port="1" to-layer="2636" to-port="0" />
		<edge from-layer="2636" from-port="1" to-layer="2637" to-port="0" />
		<edge from-layer="2637" from-port="1" to-layer="2638" to-port="0" />
		<edge from-layer="2637" from-port="1" to-layer="2643" to-port="0" />
		<edge from-layer="2638" from-port="1" to-layer="2639" to-port="1" />
		<edge from-layer="2639" from-port="2" to-layer="2640" to-port="0" />
		<edge from-layer="2640" from-port="1" to-layer="2641" to-port="0" />
		<edge from-layer="2641" from-port="1" to-layer="2642" to-port="0" />
		<edge from-layer="2642" from-port="1" to-layer="2644" to-port="0" />
		<edge from-layer="2643" from-port="1" to-layer="2644" to-port="1" />
		<edge from-layer="2644" from-port="2" to-layer="2646" to-port="0" />
		<edge from-layer="2645" from-port="0" to-layer="2646" to-port="1" />
		<edge from-layer="2646" from-port="2" to-layer="2647" to-port="0" />
		<edge from-layer="2647" from-port="1" to-layer="2650" to-port="0" />
		<edge from-layer="2648" from-port="0" to-layer="2649" to-port="1" />
		<edge from-layer="2649" from-port="2" to-layer="2650" to-port="1" />
		<edge from-layer="2650" from-port="2" to-layer="2652" to-port="0" />
		<edge from-layer="2651" from-port="0" to-layer="2652" to-port="1" />
		<edge from-layer="2652" from-port="2" to-layer="2654" to-port="0" />
		<edge from-layer="2653" from-port="0" to-layer="2654" to-port="1" />
		<edge from-layer="2653" from-port="0" to-layer="2884" to-port="1" />
		<edge from-layer="2654" from-port="2" to-layer="2656" to-port="0" />
		<edge from-layer="2655" from-port="0" to-layer="2656" to-port="1" />
		<edge from-layer="2656" from-port="2" to-layer="2660" to-port="0" />
		<edge from-layer="2656" from-port="2" to-layer="2734" to-port="0" />
		<edge from-layer="2657" from-port="0" to-layer="2733" to-port="0" />
		<edge from-layer="2658" from-port="0" to-layer="2698" to-port="0" />
		<edge from-layer="2659" from-port="0" to-layer="2660" to-port="1" />
		<edge from-layer="2660" from-port="2" to-layer="2662" to-port="0" />
		<edge from-layer="2661" from-port="0" to-layer="2662" to-port="1" />
		<edge from-layer="2662" from-port="2" to-layer="2664" to-port="0" />
		<edge from-layer="2663" from-port="0" to-layer="2664" to-port="1" />
		<edge from-layer="2664" from-port="2" to-layer="2666" to-port="0" />
		<edge from-layer="2664" from-port="2" to-layer="2669" to-port="0" />
		<edge from-layer="2664" from-port="2" to-layer="2672" to-port="0" />
		<edge from-layer="2665" from-port="0" to-layer="2666" to-port="1" />
		<edge from-layer="2666" from-port="2" to-layer="2675" to-port="0" />
		<edge from-layer="2667" from-port="0" to-layer="2670" to-port="0" />
		<edge from-layer="2668" from-port="0" to-layer="2669" to-port="1" />
		<edge from-layer="2668" from-port="0" to-layer="2672" to-port="1" />
		<edge from-layer="2669" from-port="2" to-layer="2670" to-port="1" />
		<edge from-layer="2670" from-port="2" to-layer="2674" to-port="0" />
		<edge from-layer="2671" from-port="0" to-layer="2673" to-port="0" />
		<edge from-layer="2672" from-port="2" to-layer="2673" to-port="1" />
		<edge from-layer="2673" from-port="2" to-layer="2678" to-port="1" />
		<edge from-layer="2673" from-port="2" to-layer="2674" to-port="1" />
		<edge from-layer="2674" from-port="2" to-layer="2680" to-port="0" />
		<edge from-layer="2674" from-port="2" to-layer="2675" to-port="1" />
		<edge from-layer="2675" from-port="2" to-layer="2676" to-port="0" />
		<edge from-layer="2676" from-port="1" to-layer="2686" to-port="0" />
		<edge from-layer="2677" from-port="0" to-layer="2678" to-port="0" />
		<edge from-layer="2678" from-port="2" to-layer="2681" to-port="0" />
		<edge from-layer="2679" from-port="0" to-layer="2680" to-port="1" />
		<edge from-layer="2680" from-port="2" to-layer="2696" to-port="0" />
		<edge from-layer="2680" from-port="2" to-layer="2681" to-port="1" />
		<edge from-layer="2681" from-port="2" to-layer="2682" to-port="0" />
		<edge from-layer="2682" from-port="1" to-layer="2683" to-port="0" />
		<edge from-layer="2683" from-port="1" to-layer="2684" to-port="0" />
		<edge from-layer="2684" from-port="1" to-layer="2690" to-port="0" />
		<edge from-layer="2684" from-port="1" to-layer="2685" to-port="0" />
		<edge from-layer="2685" from-port="1" to-layer="2686" to-port="1" />
		<edge from-layer="2686" from-port="2" to-layer="2687" to-port="0" />
		<edge from-layer="2687" from-port="1" to-layer="2688" to-port="0" />
		<edge from-layer="2688" from-port="1" to-layer="2689" to-port="0" />
		<edge from-layer="2689" from-port="1" to-layer="2691" to-port="0" />
		<edge from-layer="2690" from-port="1" to-layer="2691" to-port="1" />
		<edge from-layer="2691" from-port="2" to-layer="2693" to-port="0" />
		<edge from-layer="2692" from-port="0" to-layer="2693" to-port="1" />
		<edge from-layer="2693" from-port="2" to-layer="2694" to-port="0" />
		<edge from-layer="2694" from-port="1" to-layer="2697" to-port="0" />
		<edge from-layer="2695" from-port="0" to-layer="2696" to-port="1" />
		<edge from-layer="2696" from-port="2" to-layer="2697" to-port="1" />
		<edge from-layer="2697" from-port="2" to-layer="2698" to-port="1" />
		<edge from-layer="2698" from-port="2" to-layer="2699" to-port="0" />
		<edge from-layer="2699" from-port="1" to-layer="2707" to-port="0" />
		<edge from-layer="2699" from-port="1" to-layer="2701" to-port="0" />
		<edge from-layer="2699" from-port="1" to-layer="2704" to-port="0" />
		<edge from-layer="2700" from-port="0" to-layer="2701" to-port="1" />
		<edge from-layer="2701" from-port="2" to-layer="2710" to-port="0" />
		<edge from-layer="2702" from-port="0" to-layer="2705" to-port="0" />
		<edge from-layer="2703" from-port="0" to-layer="2704" to-port="1" />
		<edge from-layer="2703" from-port="0" to-layer="2707" to-port="1" />
		<edge from-layer="2704" from-port="2" to-layer="2705" to-port="1" />
		<edge from-layer="2705" from-port="2" to-layer="2709" to-port="0" />
		<edge from-layer="2706" from-port="0" to-layer="2708" to-port="0" />
		<edge from-layer="2707" from-port="2" to-layer="2708" to-port="1" />
		<edge from-layer="2708" from-port="2" to-layer="2713" to-port="1" />
		<edge from-layer="2708" from-port="2" to-layer="2709" to-port="1" />
		<edge from-layer="2709" from-port="2" to-layer="2710" to-port="1" />
		<edge from-layer="2709" from-port="2" to-layer="2715" to-port="0" />
		<edge from-layer="2710" from-port="2" to-layer="2711" to-port="0" />
		<edge from-layer="2711" from-port="1" to-layer="2721" to-port="0" />
		<edge from-layer="2712" from-port="0" to-layer="2713" to-port="0" />
		<edge from-layer="2713" from-port="2" to-layer="2716" to-port="0" />
		<edge from-layer="2714" from-port="0" to-layer="2715" to-port="1" />
		<edge from-layer="2715" from-port="2" to-layer="2731" to-port="0" />
		<edge from-layer="2715" from-port="2" to-layer="2716" to-port="1" />
		<edge from-layer="2716" from-port="2" to-layer="2717" to-port="0" />
		<edge from-layer="2717" from-port="1" to-layer="2718" to-port="0" />
		<edge from-layer="2718" from-port="1" to-layer="2719" to-port="0" />
		<edge from-layer="2719" from-port="1" to-layer="2725" to-port="0" />
		<edge from-layer="2719" from-port="1" to-layer="2720" to-port="0" />
		<edge from-layer="2720" from-port="1" to-layer="2721" to-port="1" />
		<edge from-layer="2721" from-port="2" to-layer="2722" to-port="0" />
		<edge from-layer="2722" from-port="1" to-layer="2723" to-port="0" />
		<edge from-layer="2723" from-port="1" to-layer="2724" to-port="0" />
		<edge from-layer="2724" from-port="1" to-layer="2726" to-port="0" />
		<edge from-layer="2725" from-port="1" to-layer="2726" to-port="1" />
		<edge from-layer="2726" from-port="2" to-layer="2728" to-port="0" />
		<edge from-layer="2727" from-port="0" to-layer="2728" to-port="1" />
		<edge from-layer="2728" from-port="2" to-layer="2729" to-port="0" />
		<edge from-layer="2729" from-port="1" to-layer="2732" to-port="0" />
		<edge from-layer="2730" from-port="0" to-layer="2731" to-port="1" />
		<edge from-layer="2731" from-port="2" to-layer="2732" to-port="1" />
		<edge from-layer="2732" from-port="2" to-layer="2733" to-port="1" />
		<edge from-layer="2733" from-port="2" to-layer="2734" to-port="1" />
		<edge from-layer="2734" from-port="2" to-layer="2737" to-port="0" />
		<edge from-layer="2734" from-port="2" to-layer="2845" to-port="0" />
		<edge from-layer="2735" from-port="0" to-layer="2838" to-port="0" />
		<edge from-layer="2736" from-port="0" to-layer="2785" to-port="0" />
		<edge from-layer="2737" from-port="2" to-layer="2741" to-port="0" />
		<edge from-layer="2738" from-port="0" to-layer="2741" to-port="1" />
		<edge from-layer="2739" from-port="0" to-layer="2741" to-port="2" />
		<edge from-layer="2740" from-port="0" to-layer="2741" to-port="3" />
		<edge from-layer="2741" from-port="4" to-layer="2742" to-port="0" />
		<edge from-layer="2742" from-port="2" to-layer="2744" to-port="0" />
		<edge from-layer="2743" from-port="0" to-layer="2744" to-port="1" />
		<edge from-layer="2744" from-port="2" to-layer="2745" to-port="0" />
		<edge from-layer="2745" from-port="2" to-layer="2747" to-port="0" />
		<edge from-layer="2746" from-port="0" to-layer="2747" to-port="1" />
		<edge from-layer="2747" from-port="2" to-layer="2749" to-port="0" />
		<edge from-layer="2748" from-port="0" to-layer="2749" to-port="1" />
		<edge from-layer="2749" from-port="2" to-layer="2751" to-port="0" />
		<edge from-layer="2750" from-port="0" to-layer="2751" to-port="1" />
		<edge from-layer="2751" from-port="2" to-layer="2753" to-port="0" />
		<edge from-layer="2751" from-port="2" to-layer="2756" to-port="0" />
		<edge from-layer="2751" from-port="2" to-layer="2759" to-port="0" />
		<edge from-layer="2752" from-port="0" to-layer="2753" to-port="1" />
		<edge from-layer="2753" from-port="2" to-layer="2762" to-port="0" />
		<edge from-layer="2754" from-port="0" to-layer="2757" to-port="0" />
		<edge from-layer="2755" from-port="0" to-layer="2756" to-port="1" />
		<edge from-layer="2755" from-port="0" to-layer="2759" to-port="1" />
		<edge from-layer="2756" from-port="2" to-layer="2757" to-port="1" />
		<edge from-layer="2757" from-port="2" to-layer="2761" to-port="0" />
		<edge from-layer="2758" from-port="0" to-layer="2760" to-port="0" />
		<edge from-layer="2759" from-port="2" to-layer="2760" to-port="1" />
		<edge from-layer="2760" from-port="2" to-layer="2761" to-port="1" />
		<edge from-layer="2760" from-port="2" to-layer="2765" to-port="1" />
		<edge from-layer="2761" from-port="2" to-layer="2762" to-port="1" />
		<edge from-layer="2761" from-port="2" to-layer="2767" to-port="0" />
		<edge from-layer="2762" from-port="2" to-layer="2763" to-port="0" />
		<edge from-layer="2763" from-port="1" to-layer="2773" to-port="0" />
		<edge from-layer="2764" from-port="0" to-layer="2765" to-port="0" />
		<edge from-layer="2765" from-port="2" to-layer="2768" to-port="0" />
		<edge from-layer="2766" from-port="0" to-layer="2767" to-port="1" />
		<edge from-layer="2767" from-port="2" to-layer="2768" to-port="1" />
		<edge from-layer="2767" from-port="2" to-layer="2783" to-port="0" />
		<edge from-layer="2768" from-port="2" to-layer="2769" to-port="0" />
		<edge from-layer="2769" from-port="1" to-layer="2770" to-port="0" />
		<edge from-layer="2770" from-port="1" to-layer="2771" to-port="0" />
		<edge from-layer="2771" from-port="1" to-layer="2772" to-port="0" />
		<edge from-layer="2771" from-port="1" to-layer="2777" to-port="0" />
		<edge from-layer="2772" from-port="1" to-layer="2773" to-port="1" />
		<edge from-layer="2773" from-port="2" to-layer="2774" to-port="0" />
		<edge from-layer="2774" from-port="1" to-layer="2775" to-port="0" />
		<edge from-layer="2775" from-port="1" to-layer="2776" to-port="0" />
		<edge from-layer="2776" from-port="1" to-layer="2778" to-port="0" />
		<edge from-layer="2777" from-port="1" to-layer="2778" to-port="1" />
		<edge from-layer="2778" from-port="2" to-layer="2780" to-port="0" />
		<edge from-layer="2779" from-port="0" to-layer="2780" to-port="1" />
		<edge from-layer="2780" from-port="2" to-layer="2781" to-port="0" />
		<edge from-layer="2781" from-port="1" to-layer="2784" to-port="0" />
		<edge from-layer="2782" from-port="0" to-layer="2783" to-port="1" />
		<edge from-layer="2783" from-port="2" to-layer="2784" to-port="1" />
		<edge from-layer="2784" from-port="2" to-layer="2785" to-port="1" />
		<edge from-layer="2785" from-port="2" to-layer="2786" to-port="0" />
		<edge from-layer="2786" from-port="2" to-layer="2788" to-port="0" />
		<edge from-layer="2787" from-port="0" to-layer="2788" to-port="1" />
		<edge from-layer="2788" from-port="4" to-layer="2792" to-port="0" />
		<edge from-layer="2788" from-port="5" to-layer="2800" to-port="0" />
		<edge from-layer="2788" from-port="3" to-layer="2790" to-port="0" />
		<edge from-layer="2789" from-port="0" to-layer="2790" to-port="1" />
		<edge from-layer="2790" from-port="2" to-layer="2793" to-port="0" />
		<edge from-layer="2791" from-port="0" to-layer="2792" to-port="1" />
		<edge from-layer="2792" from-port="2" to-layer="2793" to-port="1" />
		<edge from-layer="2793" from-port="2" to-layer="2795" to-port="0" />
		<edge from-layer="2794" from-port="0" to-layer="2795" to-port="1" />
		<edge from-layer="2795" from-port="2" to-layer="2797" to-port="0" />
		<edge from-layer="2796" from-port="0" to-layer="2797" to-port="1" />
		<edge from-layer="2797" from-port="2" to-layer="2798" to-port="0" />
		<edge from-layer="2798" from-port="1" to-layer="2801" to-port="0" />
		<edge from-layer="2799" from-port="0" to-layer="2800" to-port="1" />
		<edge from-layer="2800" from-port="2" to-layer="2801" to-port="1" />
		<edge from-layer="2801" from-port="2" to-layer="2803" to-port="0" />
		<edge from-layer="2802" from-port="0" to-layer="2803" to-port="1" />
		<edge from-layer="2803" from-port="2" to-layer="2804" to-port="0" />
		<edge from-layer="2804" from-port="2" to-layer="2812" to-port="0" />
		<edge from-layer="2804" from-port="2" to-layer="2809" to-port="0" />
		<edge from-layer="2804" from-port="2" to-layer="2806" to-port="0" />
		<edge from-layer="2805" from-port="0" to-layer="2806" to-port="1" />
		<edge from-layer="2806" from-port="2" to-layer="2815" to-port="0" />
		<edge from-layer="2807" from-port="0" to-layer="2810" to-port="0" />
		<edge from-layer="2808" from-port="0" to-layer="2809" to-port="1" />
		<edge from-layer="2808" from-port="0" to-layer="2812" to-port="1" />
		<edge from-layer="2809" from-port="2" to-layer="2810" to-port="1" />
		<edge from-layer="2810" from-port="2" to-layer="2814" to-port="0" />
		<edge from-layer="2811" from-port="0" to-layer="2813" to-port="0" />
		<edge from-layer="2812" from-port="2" to-layer="2813" to-port="1" />
		<edge from-layer="2813" from-port="2" to-layer="2814" to-port="1" />
		<edge from-layer="2813" from-port="2" to-layer="2818" to-port="1" />
		<edge from-layer="2814" from-port="2" to-layer="2815" to-port="1" />
		<edge from-layer="2814" from-port="2" to-layer="2820" to-port="0" />
		<edge from-layer="2815" from-port="2" to-layer="2816" to-port="0" />
		<edge from-layer="2816" from-port="1" to-layer="2826" to-port="0" />
		<edge from-layer="2817" from-port="0" to-layer="2818" to-port="0" />
		<edge from-layer="2818" from-port="2" to-layer="2821" to-port="0" />
		<edge from-layer="2819" from-port="0" to-layer="2820" to-port="1" />
		<edge from-layer="2820" from-port="2" to-layer="2821" to-port="1" />
		<edge from-layer="2820" from-port="2" to-layer="2836" to-port="0" />
		<edge from-layer="2821" from-port="2" to-layer="2822" to-port="0" />
		<edge from-layer="2822" from-port="1" to-layer="2823" to-port="0" />
		<edge from-layer="2823" from-port="1" to-layer="2824" to-port="0" />
		<edge from-layer="2824" from-port="1" to-layer="2830" to-port="0" />
		<edge from-layer="2824" from-port="1" to-layer="2825" to-port="0" />
		<edge from-layer="2825" from-port="1" to-layer="2826" to-port="1" />
		<edge from-layer="2826" from-port="2" to-layer="2827" to-port="0" />
		<edge from-layer="2827" from-port="1" to-layer="2828" to-port="0" />
		<edge from-layer="2828" from-port="1" to-layer="2829" to-port="0" />
		<edge from-layer="2829" from-port="1" to-layer="2831" to-port="0" />
		<edge from-layer="2830" from-port="1" to-layer="2831" to-port="1" />
		<edge from-layer="2831" from-port="2" to-layer="2833" to-port="0" />
		<edge from-layer="2832" from-port="0" to-layer="2833" to-port="1" />
		<edge from-layer="2833" from-port="2" to-layer="2834" to-port="0" />
		<edge from-layer="2834" from-port="1" to-layer="2837" to-port="0" />
		<edge from-layer="2835" from-port="0" to-layer="2836" to-port="1" />
		<edge from-layer="2836" from-port="2" to-layer="2837" to-port="1" />
		<edge from-layer="2837" from-port="2" to-layer="2838" to-port="1" />
		<edge from-layer="2838" from-port="2" to-layer="2839" to-port="0" />
		<edge from-layer="2839" from-port="2" to-layer="2841" to-port="0" />
		<edge from-layer="2840" from-port="0" to-layer="2841" to-port="1" />
		<edge from-layer="2841" from-port="2" to-layer="2842" to-port="0" />
		<edge from-layer="2842" from-port="2" to-layer="2843" to-port="0" />
		<edge from-layer="2843" from-port="5" to-layer="2844" to-port="0" />
		<edge from-layer="2844" from-port="2" to-layer="2845" to-port="1" />
		<edge from-layer="2845" from-port="2" to-layer="2847" to-port="0" />
		<edge from-layer="2846" from-port="0" to-layer="2847" to-port="1" />
		<edge from-layer="2847" from-port="2" to-layer="2848" to-port="0" />
		<edge from-layer="2848" from-port="2" to-layer="2853" to-port="0" />
		<edge from-layer="2848" from-port="2" to-layer="2850" to-port="0" />
		<edge from-layer="2848" from-port="2" to-layer="2856" to-port="0" />
		<edge from-layer="2849" from-port="0" to-layer="2850" to-port="1" />
		<edge from-layer="2850" from-port="2" to-layer="2859" to-port="0" />
		<edge from-layer="2851" from-port="0" to-layer="2854" to-port="0" />
		<edge from-layer="2852" from-port="0" to-layer="2856" to-port="1" />
		<edge from-layer="2852" from-port="0" to-layer="2853" to-port="1" />
		<edge from-layer="2853" from-port="2" to-layer="2854" to-port="1" />
		<edge from-layer="2854" from-port="2" to-layer="2858" to-port="0" />
		<edge from-layer="2855" from-port="0" to-layer="2857" to-port="0" />
		<edge from-layer="2856" from-port="2" to-layer="2857" to-port="1" />
		<edge from-layer="2857" from-port="2" to-layer="2858" to-port="1" />
		<edge from-layer="2857" from-port="2" to-layer="2862" to-port="1" />
		<edge from-layer="2858" from-port="2" to-layer="2859" to-port="1" />
		<edge from-layer="2858" from-port="2" to-layer="2864" to-port="0" />
		<edge from-layer="2859" from-port="2" to-layer="2860" to-port="0" />
		<edge from-layer="2860" from-port="1" to-layer="2870" to-port="0" />
		<edge from-layer="2861" from-port="0" to-layer="2862" to-port="0" />
		<edge from-layer="2862" from-port="2" to-layer="2865" to-port="0" />
		<edge from-layer="2863" from-port="0" to-layer="2864" to-port="1" />
		<edge from-layer="2864" from-port="2" to-layer="2865" to-port="1" />
		<edge from-layer="2864" from-port="2" to-layer="2880" to-port="0" />
		<edge from-layer="2865" from-port="2" to-layer="2866" to-port="0" />
		<edge from-layer="2866" from-port="1" to-layer="2867" to-port="0" />
		<edge from-layer="2867" from-port="1" to-layer="2868" to-port="0" />
		<edge from-layer="2868" from-port="1" to-layer="2874" to-port="0" />
		<edge from-layer="2868" from-port="1" to-layer="2869" to-port="0" />
		<edge from-layer="2869" from-port="1" to-layer="2870" to-port="1" />
		<edge from-layer="2870" from-port="2" to-layer="2871" to-port="0" />
		<edge from-layer="2871" from-port="1" to-layer="2872" to-port="0" />
		<edge from-layer="2872" from-port="1" to-layer="2873" to-port="0" />
		<edge from-layer="2873" from-port="1" to-layer="2875" to-port="0" />
		<edge from-layer="2874" from-port="1" to-layer="2875" to-port="1" />
		<edge from-layer="2875" from-port="2" to-layer="2877" to-port="0" />
		<edge from-layer="2876" from-port="0" to-layer="2877" to-port="1" />
		<edge from-layer="2877" from-port="2" to-layer="2878" to-port="0" />
		<edge from-layer="2878" from-port="1" to-layer="2881" to-port="0" />
		<edge from-layer="2879" from-port="0" to-layer="2880" to-port="1" />
		<edge from-layer="2880" from-port="2" to-layer="2881" to-port="1" />
		<edge from-layer="2881" from-port="2" to-layer="2883" to-port="0" />
		<edge from-layer="2882" from-port="0" to-layer="2883" to-port="1" />
		<edge from-layer="2883" from-port="2" to-layer="2884" to-port="0" />
		<edge from-layer="2884" from-port="2" to-layer="2886" to-port="0" />
		<edge from-layer="2885" from-port="0" to-layer="2886" to-port="1" />
		<edge from-layer="2886" from-port="2" to-layer="2890" to-port="0" />
		<edge from-layer="2886" from-port="2" to-layer="2964" to-port="0" />
		<edge from-layer="2887" from-port="0" to-layer="2963" to-port="0" />
		<edge from-layer="2888" from-port="0" to-layer="2928" to-port="0" />
		<edge from-layer="2889" from-port="0" to-layer="2890" to-port="1" />
		<edge from-layer="2890" from-port="2" to-layer="2892" to-port="0" />
		<edge from-layer="2891" from-port="0" to-layer="2892" to-port="1" />
		<edge from-layer="2892" from-port="2" to-layer="2894" to-port="0" />
		<edge from-layer="2893" from-port="0" to-layer="2894" to-port="1" />
		<edge from-layer="2894" from-port="2" to-layer="2896" to-port="0" />
		<edge from-layer="2894" from-port="2" to-layer="2899" to-port="0" />
		<edge from-layer="2894" from-port="2" to-layer="2902" to-port="0" />
		<edge from-layer="2895" from-port="0" to-layer="2896" to-port="1" />
		<edge from-layer="2896" from-port="2" to-layer="2905" to-port="0" />
		<edge from-layer="2897" from-port="0" to-layer="2900" to-port="0" />
		<edge from-layer="2898" from-port="0" to-layer="2899" to-port="1" />
		<edge from-layer="2898" from-port="0" to-layer="2902" to-port="1" />
		<edge from-layer="2899" from-port="2" to-layer="2900" to-port="1" />
		<edge from-layer="2900" from-port="2" to-layer="2904" to-port="0" />
		<edge from-layer="2901" from-port="0" to-layer="2903" to-port="0" />
		<edge from-layer="2902" from-port="2" to-layer="2903" to-port="1" />
		<edge from-layer="2903" from-port="2" to-layer="2908" to-port="1" />
		<edge from-layer="2903" from-port="2" to-layer="2904" to-port="1" />
		<edge from-layer="2904" from-port="2" to-layer="2910" to-port="0" />
		<edge from-layer="2904" from-port="2" to-layer="2905" to-port="1" />
		<edge from-layer="2905" from-port="2" to-layer="2906" to-port="0" />
		<edge from-layer="2906" from-port="1" to-layer="2916" to-port="0" />
		<edge from-layer="2907" from-port="0" to-layer="2908" to-port="0" />
		<edge from-layer="2908" from-port="2" to-layer="2911" to-port="0" />
		<edge from-layer="2909" from-port="0" to-layer="2910" to-port="1" />
		<edge from-layer="2910" from-port="2" to-layer="2911" to-port="1" />
		<edge from-layer="2910" from-port="2" to-layer="2926" to-port="0" />
		<edge from-layer="2911" from-port="2" to-layer="2912" to-port="0" />
		<edge from-layer="2912" from-port="1" to-layer="2913" to-port="0" />
		<edge from-layer="2913" from-port="1" to-layer="2914" to-port="0" />
		<edge from-layer="2914" from-port="1" to-layer="2915" to-port="0" />
		<edge from-layer="2914" from-port="1" to-layer="2920" to-port="0" />
		<edge from-layer="2915" from-port="1" to-layer="2916" to-port="1" />
		<edge from-layer="2916" from-port="2" to-layer="2917" to-port="0" />
		<edge from-layer="2917" from-port="1" to-layer="2918" to-port="0" />
		<edge from-layer="2918" from-port="1" to-layer="2919" to-port="0" />
		<edge from-layer="2919" from-port="1" to-layer="2921" to-port="0" />
		<edge from-layer="2920" from-port="1" to-layer="2921" to-port="1" />
		<edge from-layer="2921" from-port="2" to-layer="2923" to-port="0" />
		<edge from-layer="2922" from-port="0" to-layer="2923" to-port="1" />
		<edge from-layer="2923" from-port="2" to-layer="2924" to-port="0" />
		<edge from-layer="2924" from-port="1" to-layer="2927" to-port="0" />
		<edge from-layer="2925" from-port="0" to-layer="2926" to-port="1" />
		<edge from-layer="2926" from-port="2" to-layer="2927" to-port="1" />
		<edge from-layer="2927" from-port="2" to-layer="2928" to-port="1" />
		<edge from-layer="2928" from-port="2" to-layer="2929" to-port="0" />
		<edge from-layer="2929" from-port="1" to-layer="2931" to-port="0" />
		<edge from-layer="2929" from-port="1" to-layer="2934" to-port="0" />
		<edge from-layer="2929" from-port="1" to-layer="2937" to-port="0" />
		<edge from-layer="2930" from-port="0" to-layer="2931" to-port="1" />
		<edge from-layer="2931" from-port="2" to-layer="2940" to-port="0" />
		<edge from-layer="2932" from-port="0" to-layer="2935" to-port="0" />
		<edge from-layer="2933" from-port="0" to-layer="2934" to-port="1" />
		<edge from-layer="2933" from-port="0" to-layer="2937" to-port="1" />
		<edge from-layer="2934" from-port="2" to-layer="2935" to-port="1" />
		<edge from-layer="2935" from-port="2" to-layer="2939" to-port="0" />
		<edge from-layer="2936" from-port="0" to-layer="2938" to-port="0" />
		<edge from-layer="2937" from-port="2" to-layer="2938" to-port="1" />
		<edge from-layer="2938" from-port="2" to-layer="2939" to-port="1" />
		<edge from-layer="2938" from-port="2" to-layer="2943" to-port="1" />
		<edge from-layer="2939" from-port="2" to-layer="2940" to-port="1" />
		<edge from-layer="2939" from-port="2" to-layer="2945" to-port="0" />
		<edge from-layer="2940" from-port="2" to-layer="2941" to-port="0" />
		<edge from-layer="2941" from-port="1" to-layer="2951" to-port="0" />
		<edge from-layer="2942" from-port="0" to-layer="2943" to-port="0" />
		<edge from-layer="2943" from-port="2" to-layer="2946" to-port="0" />
		<edge from-layer="2944" from-port="0" to-layer="2945" to-port="1" />
		<edge from-layer="2945" from-port="2" to-layer="2946" to-port="1" />
		<edge from-layer="2945" from-port="2" to-layer="2961" to-port="0" />
		<edge from-layer="2946" from-port="2" to-layer="2947" to-port="0" />
		<edge from-layer="2947" from-port="1" to-layer="2948" to-port="0" />
		<edge from-layer="2948" from-port="1" to-layer="2949" to-port="0" />
		<edge from-layer="2949" from-port="1" to-layer="2955" to-port="0" />
		<edge from-layer="2949" from-port="1" to-layer="2950" to-port="0" />
		<edge from-layer="2950" from-port="1" to-layer="2951" to-port="1" />
		<edge from-layer="2951" from-port="2" to-layer="2952" to-port="0" />
		<edge from-layer="2952" from-port="1" to-layer="2953" to-port="0" />
		<edge from-layer="2953" from-port="1" to-layer="2954" to-port="0" />
		<edge from-layer="2954" from-port="1" to-layer="2956" to-port="0" />
		<edge from-layer="2955" from-port="1" to-layer="2956" to-port="1" />
		<edge from-layer="2956" from-port="2" to-layer="2958" to-port="0" />
		<edge from-layer="2957" from-port="0" to-layer="2958" to-port="1" />
		<edge from-layer="2958" from-port="2" to-layer="2959" to-port="0" />
		<edge from-layer="2959" from-port="1" to-layer="2962" to-port="0" />
		<edge from-layer="2960" from-port="0" to-layer="2961" to-port="1" />
		<edge from-layer="2961" from-port="2" to-layer="2962" to-port="1" />
		<edge from-layer="2962" from-port="2" to-layer="2963" to-port="1" />
		<edge from-layer="2963" from-port="2" to-layer="2964" to-port="1" />
		<edge from-layer="2964" from-port="2" to-layer="2965" to-port="0" />
		<edge from-layer="2965" from-port="2" to-layer="2967" to-port="0" />
		<edge from-layer="2966" from-port="0" to-layer="2967" to-port="1" />
		<edge from-layer="2967" from-port="2" to-layer="2969" to-port="0" />
		<edge from-layer="2967" from-port="2" to-layer="2972" to-port="0" />
		<edge from-layer="2967" from-port="2" to-layer="2975" to-port="0" />
		<edge from-layer="2968" from-port="0" to-layer="2969" to-port="1" />
		<edge from-layer="2969" from-port="2" to-layer="2978" to-port="0" />
		<edge from-layer="2970" from-port="0" to-layer="2973" to-port="0" />
		<edge from-layer="2971" from-port="0" to-layer="2972" to-port="1" />
		<edge from-layer="2971" from-port="0" to-layer="2975" to-port="1" />
		<edge from-layer="2972" from-port="2" to-layer="2973" to-port="1" />
		<edge from-layer="2973" from-port="2" to-layer="2977" to-port="0" />
		<edge from-layer="2974" from-port="0" to-layer="2976" to-port="0" />
		<edge from-layer="2975" from-port="2" to-layer="2976" to-port="1" />
		<edge from-layer="2976" from-port="2" to-layer="2977" to-port="1" />
		<edge from-layer="2976" from-port="2" to-layer="2981" to-port="1" />
		<edge from-layer="2977" from-port="2" to-layer="2978" to-port="1" />
		<edge from-layer="2977" from-port="2" to-layer="2983" to-port="0" />
		<edge from-layer="2978" from-port="2" to-layer="2979" to-port="0" />
		<edge from-layer="2979" from-port="1" to-layer="2989" to-port="0" />
		<edge from-layer="2980" from-port="0" to-layer="2981" to-port="0" />
		<edge from-layer="2981" from-port="2" to-layer="2984" to-port="0" />
		<edge from-layer="2982" from-port="0" to-layer="2983" to-port="1" />
		<edge from-layer="2983" from-port="2" to-layer="2984" to-port="1" />
		<edge from-layer="2983" from-port="2" to-layer="2999" to-port="0" />
		<edge from-layer="2984" from-port="2" to-layer="2985" to-port="0" />
		<edge from-layer="2985" from-port="1" to-layer="2986" to-port="0" />
		<edge from-layer="2986" from-port="1" to-layer="2987" to-port="0" />
		<edge from-layer="2987" from-port="1" to-layer="2993" to-port="0" />
		<edge from-layer="2987" from-port="1" to-layer="2988" to-port="0" />
		<edge from-layer="2988" from-port="1" to-layer="2989" to-port="1" />
		<edge from-layer="2989" from-port="2" to-layer="2990" to-port="0" />
		<edge from-layer="2990" from-port="1" to-layer="2991" to-port="0" />
		<edge from-layer="2991" from-port="1" to-layer="2992" to-port="0" />
		<edge from-layer="2992" from-port="1" to-layer="2994" to-port="0" />
		<edge from-layer="2993" from-port="1" to-layer="2994" to-port="1" />
		<edge from-layer="2994" from-port="2" to-layer="2996" to-port="0" />
		<edge from-layer="2995" from-port="0" to-layer="2996" to-port="1" />
		<edge from-layer="2996" from-port="2" to-layer="2997" to-port="0" />
		<edge from-layer="2997" from-port="1" to-layer="3000" to-port="0" />
		<edge from-layer="2998" from-port="0" to-layer="2999" to-port="1" />
		<edge from-layer="2999" from-port="2" to-layer="3000" to-port="1" />
		<edge from-layer="3000" from-port="2" to-layer="3002" to-port="0" />
		<edge from-layer="3001" from-port="0" to-layer="3002" to-port="1" />
		<edge from-layer="3002" from-port="2" to-layer="3003" to-port="1" />
		<edge from-layer="3003" from-port="2" to-layer="3005" to-port="0" />
		<edge from-layer="3004" from-port="0" to-layer="3005" to-port="1" />
		<edge from-layer="3005" from-port="2" to-layer="3013" to-port="0" />
		<edge from-layer="3005" from-port="2" to-layer="3010" to-port="0" />
		<edge from-layer="3005" from-port="2" to-layer="3007" to-port="0" />
		<edge from-layer="3006" from-port="0" to-layer="3007" to-port="1" />
		<edge from-layer="3007" from-port="2" to-layer="3016" to-port="0" />
		<edge from-layer="3008" from-port="0" to-layer="3011" to-port="0" />
		<edge from-layer="3009" from-port="0" to-layer="3010" to-port="1" />
		<edge from-layer="3009" from-port="0" to-layer="3013" to-port="1" />
		<edge from-layer="3010" from-port="2" to-layer="3011" to-port="1" />
		<edge from-layer="3011" from-port="2" to-layer="3015" to-port="0" />
		<edge from-layer="3012" from-port="0" to-layer="3014" to-port="0" />
		<edge from-layer="3013" from-port="2" to-layer="3014" to-port="1" />
		<edge from-layer="3014" from-port="2" to-layer="3015" to-port="1" />
		<edge from-layer="3014" from-port="2" to-layer="3019" to-port="1" />
		<edge from-layer="3015" from-port="2" to-layer="3016" to-port="1" />
		<edge from-layer="3015" from-port="2" to-layer="3021" to-port="0" />
		<edge from-layer="3016" from-port="2" to-layer="3017" to-port="0" />
		<edge from-layer="3017" from-port="1" to-layer="3027" to-port="0" />
		<edge from-layer="3018" from-port="0" to-layer="3019" to-port="0" />
		<edge from-layer="3019" from-port="2" to-layer="3022" to-port="0" />
		<edge from-layer="3020" from-port="0" to-layer="3021" to-port="1" />
		<edge from-layer="3021" from-port="2" to-layer="3022" to-port="1" />
		<edge from-layer="3021" from-port="2" to-layer="3037" to-port="0" />
		<edge from-layer="3022" from-port="2" to-layer="3023" to-port="0" />
		<edge from-layer="3023" from-port="1" to-layer="3024" to-port="0" />
		<edge from-layer="3024" from-port="1" to-layer="3025" to-port="0" />
		<edge from-layer="3025" from-port="1" to-layer="3026" to-port="0" />
		<edge from-layer="3025" from-port="1" to-layer="3031" to-port="0" />
		<edge from-layer="3026" from-port="1" to-layer="3027" to-port="1" />
		<edge from-layer="3027" from-port="2" to-layer="3028" to-port="0" />
		<edge from-layer="3028" from-port="1" to-layer="3029" to-port="0" />
		<edge from-layer="3029" from-port="1" to-layer="3030" to-port="0" />
		<edge from-layer="3030" from-port="1" to-layer="3032" to-port="0" />
		<edge from-layer="3031" from-port="1" to-layer="3032" to-port="1" />
		<edge from-layer="3032" from-port="2" to-layer="3034" to-port="0" />
		<edge from-layer="3033" from-port="0" to-layer="3034" to-port="1" />
		<edge from-layer="3034" from-port="2" to-layer="3035" to-port="0" />
		<edge from-layer="3035" from-port="1" to-layer="3038" to-port="0" />
		<edge from-layer="3036" from-port="0" to-layer="3037" to-port="1" />
		<edge from-layer="3037" from-port="2" to-layer="3038" to-port="1" />
		<edge from-layer="3038" from-port="2" to-layer="3040" to-port="0" />
		<edge from-layer="3039" from-port="0" to-layer="3040" to-port="1" />
		<edge from-layer="3040" from-port="2" to-layer="3041" to-port="1" />
		<edge from-layer="3041" from-port="2" to-layer="3043" to-port="0" />
		<edge from-layer="3042" from-port="0" to-layer="3043" to-port="1" />
		<edge from-layer="3043" from-port="2" to-layer="3044" to-port="0" />
	</edges>
	<rt_info>
		<Runtime_version value="2025.2.0-19140-c01cd93e24d-releases/2025/2" />
		<conversion_parameters>
			<is_python_object value="False" />
		</conversion_parameters>
		<framework>
			<onnx.infer value="onnxruntime.quant" />
		</framework>
	</rt_info>
</net>
